FederatedLLM/FT_lite/my_fl_model_dp/checkpoint-1/adapter_model.safetensors (safetensors, 788168 bytes, 12 tensors)

base_model.model.gpt_neox.layers.0.attention.query_key_value.lora_A.weight f4 [16, 512]
0	0xbc6925a9	-0.01423017
1	0xbcf41ca5	-0.029798815
2	0x3ce36e89	0.027762668
3	0x3bd025ee	0.006352178
4	0x3d3c4089	0.045959983
5	0x3b82e554	0.003994623
6	0xbc4cd529	-0.012501993
7	0x3c8e2e3e	0.017356034
8	0x3d3ec18a	0.046571292
9	0xbd0c71ef	-0.034288343
10	0x3d0a37bc	0.03374456
11	0x3d296c91	0.041363303
12	0xbcc1307f	-0.023582695
13	0xbd790d9c	-0.060803995
14	0x3c42f2d7	0.011898718
15	0xbd1f1a70	-0.038843572
16	0xbb848e8b	-0.0040453128
17	0x3d0c58f8	0.034264535
18	0xbd2e50cb	-0.04255752
19	0xbc8c4cc9	-0.017126458
20	0x3c9b6c60	0.018972576
21	0xbcc34a75	-0.023839215
22	0xbcc876bc	-0.02447068
23	0x3be38e22	0.006944434
24	0x3d204d5a	0.03913627
25	0x3ca493f3	0.020090079
26	0x3c94c233	0.018159008
27	0xbc2136ee	-0.009839756
28	0x3c7bdc89	0.015372404
29	0x3cc1106b	0.023567399
30	0x3c84aec6	0.01619662
31	0x3d1aa27f	0.037752625
32	0xbcb4add7	-0.02205555
33	0xbc92ffd0	-0.017944247
34	0x3c07da3b	0.008291776
35	0x3c9dd345	0.01926578
36	0x3cfcf761	0.030879678
37	0x3c8f2004	0.01747132
38	0x3ccb6a60	0.024830997
39	0xbd28fea5	-0.041258473
40	0x3c5fc7cc	0.013658475
41	0xbd0e9a4e	-0.034815125
42	0x3c72a511	0.014809863
43	0xbcd843cc	-0.026399516
44	0xbc8b48fd	-0.017002577
45	0x3d0ca5ab	0.03433768
46	0x3ca5f2c2	0.020257358
47	0xbc91784f	-0.017757563
48	0xbd67cbe0	-0.056590915
49	0x3b8996d9	0.0041988906
50	0x3c44f901	0.012022258
51	0x3c66caf3	0.014086473
52	0xbce05c4e	-0.027387764
53	0x3c9b076a	0.018924434
54	0x3cfc81d6	0.03082363
55	0xbc64c0dc	-0.013961997
56	0x3d0e3382	0.03471709
57	0xbc0f4825	-0.008745228
58	0x3cf898de	0.03034633
59	0x3d78382f	0.060600456
60	0x3d1511b1	0.036393825
61	0xbb0fe4ee	-0.002195652
62	0xbbdac5b4	-0.0066764
63	0xbd1c4782	-0.038154133
64	0xbd1d23a5	-0.03836407
65	0xbad97bc3	-0.001659267
66	0x3d232ed3	0.039839577
67	0x3d04a078	0.032379597
68	0xbaf5e841	-0.0018761234
69	0x3c5f35fe	0.013623713
70	0xbd260583	-0.0405326
71	0xbc5a7917	-0.013334534
72	0x3ca4b798	0.020107076
73	0x3aaa43fc	0.0012990232
74	0xbd07e0a7	-0.03317323
75	0xbb92a2c5	-0.00447497
76	0x3cbcee45	0.023062835
77	0xbc860f70	-0.016364783
78	0xbbca079b	-0.0061654574
79	0xbbd3af9b	-0.006460143
80	0xbcf5cae8	-0.03000398
81	0xbcaf0f5b	-0.021369627
82	0x3ccf1b3c	0.025281541
83	0x3cec76b3	0.028865194
84	0x3c8f115c	0.017464332
85	0xbbccef99	-0.006254148
86	0xbd0e37bb	-0.034721117
87	0x3b22095c	0.0024724817
88	0x3cf84946	0.030308377
89	0xba792b90	-0.00095050875
90	0x3d4afe14	0.049558714
91	0xbce65176	-0.028115015
92	0x3bddbe99	0.006767106
93	0xbcdd7a64	-0.0270359
94	0xbaa903cc	-0.0012894808
95	0xbd34c5cc	-0.044133946
96	0x3d214e0c	0.039381072
97	0xbc2dadd9	-0.010600531
98	0xba50c3bc	-0.0007963737
99	0xbd193d52	-0.037411995
100	0x3be2f265	0.0069258683
101	0x3d18ba65	0.037287135
102	0xbd070b0a	-0.032969512
103	0x3ce14f41	0.027503612
104	0xbcd80973	-0.026371693
105	0xbd2e9cc2	-0.042629965
106	0xbc8bd061	-0.017067136
107	0x3d17c10e	0.037049346
108	0x3d13d6a1	0.036093358
109	0xbc96a5af	-0.018389551
110	0xbd33884e	-0.043831162
111	0xbd018a6e	-0.031626157
112	0xbc3b6c09	-0.011439332
113	0xbbd0a545	-0.006367358
114	0x3baa6179	0.005199608
115	0xbc3ffe5e	-0.011718361
116	0xbb9067ad	-0.0044068904
117	0xbb90df76	-0.00442117
118	0xbc16bafa	-0.009199852
119	0xbc5d7871	-0.013517485
120	0xbac5b522	-0.0015083889
121	0xbb29ae6f	-0.0025891324
122	0x3cf92e50	0.030417591
123	0xbc42dcf2	-0.011893498
124	0xbc9d0a9a	-0.019170094
125	0x3c4c3210	0.012463108
126	0x3c4aad4a	0.012370417
127	0xbcd9d98c	-0.026592992
128	0xbcae3c51	-0.021268995
129	0x3cfbe7ce	0.030750182
130	0x3ce5b06c	0.028038226
131	0x3c5ff692	0.013669627
132	0xbb28a85f	-0.0025735123
133	0x3d15fce0	0.036618114
134	0xbd068c6e	-0.032848768
135	0xbd165f9f	-0.036712285
136	0xbc7d4472	-0.015458213
137	0xbcbd15d2	-0.023081694
138	0x3d17b69f	0.037039395
139	0x3ce464eb	0.027880153
140	0x3be965b9	0.007122722
141	0x3c03ee7b	0.008052464
142	0xbcbc1eea	-0.02296396
143	0x3d393fbc	0.045226797
144	0xbd341802	-0.043968208
145	0xbc4f248a	-0.012642989
146	0xbd089424	-0.033344403
147	0x3c308d9c	0.01077595
148	0xbc2d651d	-0.010583189
149	0x3caecb51	0.021337183
150	0x3d11148b	0.035419982
151	0x3d0efb75	0.034907777
152	0xbacf85bf	-0.0015832706
153	0xbcdbed1f	-0.026846467
154	0xbd2b9140	-0.041886568
155	0xbcf034df	-0.029322086
156	0x3d00ee5d	0.03147732
157	0x3c831e48	0.01600565
158	0x3ccda4ae	0.02510294
159	0xbcc0a2c6	-0.023515116
160	0x3c2f564d	0.010701728
161	0x3bc53bfb	0.006019113
162	0xbcdf54e6	-0.027262162
163	0x3c4cecec	0.012507658
164	0x3c81d978	0.015850767
165	0xbd06c1f3	-0.03289981
166	0x3d2baee4	0.041914836
167	0xbd207962	-0.03917826
168	0x3ce0231c	0.027360491
169	0xbcfee03e	-0.031112786
170	0x3d158a49	0.036508832
171	0xbcc8be64	-0.024504848
172	0xbd03cbd5	-0.03217681
173	0x3cd7352d	0.026270473
174	0x3d1ecde8	0.038770586
175	0x3d0daa1e	0.034586065
176	0x3d25769c	0.040396318
177	0xbd0fac09	-0.035076175
178	0x3d127035	0.03575154
179	0x3cc226bf	0.023700116
180	0x3c1053f2	0.008809077
181	0xbd2475ac	-0.040151283
182	0x3c889a47	0.016675128
183	0xbc25f090	-0.010128155
184	0xbd2b58b7	-0.041832652
185	0xbbfcf6c9	-0.007719849
186	0x3c7aeb78	0.015314929
187	0xbc850543	-0.01623786
188	0x3c414f87	0.011798746
189	0xbd3bce6b	-0.045851152
190	0x3c635855	0.0138760405
191	0xbd1e460e	-0.038641028
192	0x3c085233	0.008320379
193	0xbbde269c	-0.006779505
194	0x3cb6683b	0.022266498
195	0x3d676f0e	0.056502394
196	0xbd2f0c98	-0.04273662
197	0xbafd637c	-0.0019332017
198	0x3cbfc07c	0.023407213
199	0xbcb4aab0	-0.022054046
200	0x3c3c8e6c	0.011508565
201	0x3cf4ae70	0.029868335
202	0x3a8ddd90	0.0010823477
203	0xbc5a35c4	-0.013318483
204	0xbc6a3f40	-0.014297307
205	0x3c67456c	0.014115673
206	0xbc656bc1	-0.014002741
207	0x3cef8ba7	0.029241396
208	0xbd30f4ab	-0.043202084
209	0x3d0ac66a	0.03388063
210	0xbbd68bdf	-0.0065474357
211	0x3bcd915d	0.006273432
212	0xbc63c303	-0.013901475
213	0xbcf5a8a4	-0.02998764
214	0xbce000ba	-0.027344096
215	0xbd14ca7d	-0.03632592
216	0xbd41122a	-0.047136463
217	0x3c979dd4	0.018507876
218	0x3d0bf562	0.034169562
219	0xbc191eed	-0.009345752
220	0x3bea540c	0.0071511324
221	0xbd153cea	-0.036435045
222	0xbd524d0a	-0.051343
223	0xbd545dc9	-0.051847253
224	0xbc9e8097	-0.019348426
225	0xbd22effe	-0.039779656
226	0xbbe5055b	-0.006989164
227	0x3b7a58b3	0.0038199842
228	0x3c5afff2	0.013366686
229	0xbc67693c	-0.014124211
230	0x3cbddcff	0.023176668
231	0x3d26eb78	0.040751904
232	0xbce7b209	-0.028283136
233	0x3d114371	0.035464708
234	0x3b8ee569	0.004360844
235	0xbd05d6d7	-0.03267559
236	0x3c960806	0.018314373
237	0x3d59a0d2	0.053131886
238	0xb9870d3d	-0.0002575907
239	0x3d145829	0.03621689
240	0xbaa96b13	-0.0012925587
241	0xbcb13bd9	-0.021634983
242	0xbcfb75dc	-0.030695848
243	0x3ccef64f	0.025263933
244	0x3d254819	0.04035196
245	0x3d65e965	0.056130785
246	0x3c912a73	0.017720437
247	0x3d1268fa	0.035744645
248	0x3bfae0c4	0.0076561887
249	0xbccb94ff	-0.02485132
250	0x3c307465	0.010769938
251	0x3d10bff2	0.035339303
252	0x3bfc7eea	0.007705559
253	0x3c8ab23a	0.016930688
254	0xbcacdf25	-0.021102497
255	0xbc1de345	-0.009636705

base_model.model.gpt_neox.layers.0.attention.query_key_value.lora_B.weight f4 [1536, 16]
0	0xba9fda36	-0.0012195769
1	0xba2e962b	-0.000665995
2	0xbba6071a	-0.0050667645
3	0xbb18e3ac	-0.0023329062
4	0x3baa3301	0.0051940684
5	0xba5afea7	-0.0008353986
6	0xba159d6f	-0.00057073584
7	0x3c13ff13	0.009032982
8	0xbc080bd7	-0.008303604
9	0x3ba92430	0.0051617846
10	0xbb5ca871	-0.0033669735
11	0xbb8f2202	-0.0043680677
12	0xb9b07c95	-0.00033662157
13	0x39f1fcd4	0.00046155474
14	0x3bea09d8	0.0071422867
15	0x3b62def6	0.0034617758
16	0x3ba92154	0.0051614437
17	0xbb8f5ecb	-0.004375314
18	0x39671dfd	0.00022041048
19	0xbc96aaa6	-0.018391918
20	0xbb963f4b	-0.004585182
21	0xbbdc4ee5	-0.006723272
22	0xbbfa83da	-0.0076451125
23	0xba8e84a3	-0.0010873269
24	0x3a9186c4	0.0011102785
25	0xbb520891	-0.0032048563
26	0x3ba9ac75	0.005178029
27	0xbc812486	-0.015764486
28	0x3a422dae	0.00074073195
29	0x3c1cb540	0.009564698
30	0xbc44fe76	-0.012023559
31	0x3b9a8355	0.004715363
32	0x3b549f8f	0.0032443737
33	0xbc68b37d	-0.01420295
34	0xbb5531f2	-0.003253099
35	0x3bb05f65	0.0053824657
36	0xbc16ca7d	-0.00920355
37	0x3c990f51	0.018684061
38	0xbbed26f3	-0.007237309
39	0xbc4f95a4	-0.012669954
40	0x3c04b877	0.0081006205
41	0xbc574b10	-0.013140455
42	0x3b01c917	0.0019803697
43	0x3b516d06	0.0031955852
44	0x3bddfe12	0.0067746723
45	0xbbfb6133	-0.007671499
46	0xbbe5873a	-0.0070046457
47	0xba2c595c	-0.0006574595
48	0xb955ea13	-0.00020400462
49	0x3b6f7cb6	0.003654284
50	0xba8ad828	-0.0010592984
51	0xbc3de0c2	-0.011589231
52	0x3b6bdf49	0.0035991243
53	0x3c2f50bc	0.010700401
54	0x3b7e35fe	0.0038789506
55	0x3bbd5dd1	0.005779006
56	0x3c08a3b6	0.008339813
57	0xb846b466	-4.7374888e-05
58	0x3bcab635	0.0061862716
59	0xbb5a441a	-0.0033304752
60	0x3c840c9a	0.01611929
61	0xbb43de57	-0.0029887164
62	0xbc16360f	-0.009168162
63	0x3c25282d	0.010080379
64	0x3adf31b3	0.0017028361
65	0x3b034e8f	0.0020035838
66	0x3c174bf3	0.009234416
67	0xbb41b994	-0.0029560076
68	0x3bf2a7c7	0.0074052545
69	0xbb1774b8	-0.0023110341
70	0xbb6c229e	-0.0036031376
71	0xbb1a1583	-0.0023511357
72	0x3bde00a5	0.006774979
73	0x3b493ad7	0.0030705237
74	0xbc8059e9	-0.015667873
75	0x3a95ee9d	0.001143891
76	0x3adefc28	0.0017012404
77	0x3c9cf584	0.01916004
78	0x3b41aad9	0.0029551296
79	0xbb8f796d	-0.0043784888
80	0x397fff6f	0.00024413851
81	0xbb6c1205	-0.0036021483
82	0x3c21e4bf	0.0098811975
83	0xbc0ff2f8	-0.008785956
84	0xbb37f048	-0.0028066803
85	0x3c5d4941	0.013506235
86	0xbb6c1f6c	-0.003602947
87	0x3b90506c	0.0044041183
88	0xbb0f9554	-0.0021909075
89	0x3b7d0279	0.003860621
90	0x3bb6d621	0.0055797254
91	0x3b4c586b	0.003118063
92	0xbb75680a	-0.0037446045
93	0xbc0c2855	-0.008554538
94	0xbabfe601	-0.001464069
95	0x3c608460	0.013703436
96	0xbb2bb752	-0.0026201797
97	0xbbcab44b	-0.0061860434
98	0x38f7a959	0.00011809421
99	0xbc842857	-0.016132517
100	0xbbd737b3	-0.006567919
101	0x3b62adb0	0.003458839
102	0x3baf7bf6	0.0053553535
103	0xbbb1d547	-0.005427036
104	0xbb06e7ea	-0.002058501
105	0xbbb537b7	-0.0055303234
106	0x3b832b91	0.0040029963
107	0xba6f0e93	-0.0009119298
108	0xbb13cd9b	-0.002255297
109	0x3c813028	0.015770033
110	0xbab1d1e2	-0.0013566578
111	0x3b94503f	0.0045261676
112	0x3a723393	0.00092392525
113	0xbb7cb987	-0.0038562731
114	0xbb15bd83	-0.0022848553
115	0xbc513b55	-0.0127704935
116	0xba70e525	-0.00091894186
117	0xbad1ba16	-0.0016000893
118	0xbafdccfa	-0.0019363456
119	0xbc2ab1fe	-0.010418413
120	0x3c18b6bd	0.009320912
121	0x3b90ff00	0.0044249296
122	0x3c7fb5ed	0.015607339
123	0xb99e7f02	-0.00030230737
124	0xbc027b6c	-0.007963996
125	0xba590224	-0.0008278212
126	0xbb2fe9fc	-0.0026842346
127	0x3b4efd23	0.0031583987
128	0x3bdd24b4	0.00674876
129	0xbc1d0551	-0.009583787
130	0x3a9dab40	0.0012029186
131	0x3b2c568d	0.0026296705
132	0x3c70f0d1	0.014705853
133	0xbcba2b39	-0.022725688
134	0x3b1835d2	0.0023225439
135	0x38907300	6.8878755e-05
136	0xba71188f	-0.000919708
137	0x3c937075	0.01799796
138	0x399b0a38	0.00029571517
139	0xbc56eb3a	-0.013117606
140	0x3b39e8d1	0.002836753
141	0xbbf54f06	-0.007486227
142	0x3c693d87	0.014235861
143	0x3c2c7f20	0.010528356
144	0xbbb3e24c	-0.005489623
145	0xbc3184b5	-0.0108348625
146	0xbbce63a1	-0.006298498
147	0xbab408ce	-0.0013735534
148	0x3c2ab94a	0.010420153
149	0xbbdec95c	-0.0067989063
150	0x3aa682d3	0.0012703784
151	0x3a9a4f8c	0.0011772974
152	0xbafc86e2	-0.0019266272
153	0x3b9f26c0	0.0048569143
154	0xbc0055de	-0.007832972
155	0xbc5fa448	-0.013650008
156	0xbc080869	-0.008302786
157	0x3c2f6043	0.010704103
158	0xbbb6720c	-0.0055677947
159	0xba4abc17	-0.0007733716
160	0xbb364b81	-0.0027816
161	0xbbca5aae	-0.0061753606
162	0xbb5e9b6e	-0.0033967155
163	0x3b6f1c06	0.003648521
164	0x3af91809	0.0019004355
165	0xb9b09bab	-0.00033685318
166	0xbbcda1b7	-0.0062753814
167	0xbba65648	-0.0050762035
168	0xbbdb4deb	-0.006692638
169	0x3b68fa1f	0.0035549474
170	0xbc07abd5	-0.008280714
171	0x3c0db210	0.00864841
172	0x3bbe1bd4	0.005801657
173	0x3c80f2fd	0.015740866
174	0x39c78e0f	0.0003806208
175	0xbbaf6b29	-0.0053533507
176	0xbbc30029	-0.005950947
177	0xbaa12759	-0.0012295052
178	0x3c03b0a2	0.008037718
179	0x39a031b5	0.00030554613
180	0x3c0e2d26	0.008677756
181	0xbbfd2b93	-0.0077261417
182	0x3baeaf29	0.0053309393
183	0xbc42828d	-0.011871946
184	0x3c2789b4	0.010225702
185	0x3c02fa17	0.007994196
186	0x3bcc9154	0.0062429104
187	0xb9c20651	-0.0003700727
188	0xbb963586	-0.004584017
189	0x3bbafc4e	0.0057063466
190	0xba71fbaa	-0.0009230921
191	0x3a903791	0.0011002888
192	0xbb97f5b7	-0.004637446
193	0xbb880d4e	-0.0041519767
194	0xba1cf63c	-0.00059876195
195	0x3bedbf1b	0.0072554476
196	0xbb9cc9b7	-0.0047847885
197	0x3b7adc5f	0.0038278324
198	0xbb888c97	-0.0041671502
199	0xbb1f4db9	-0.00243078
200	0xbaedfc08	-0.0018156776
201	0x3bffa8aa	0.0078020887
202	0x3b7e5e34	0.0038813474
203	0x3bbbcdea	0.005731334
204	0xb881047e	-6.152036e-05
205	0xbbaa21f5	-0.0051920363
206	0x3aa4086e	0.0012514719
207	0xbb3c654e	-0.0028746906
208	0xbb098be5	-0.0020987925
209	0xbb91aac1	-0.0044454043
210	0x3b8a6918	0.004223954
211	0x3c045602	0.0080771465
212	0xbbdd6948	-0.0067569353
213	0xbb2bd2c7	-0.0026218162
214	0xbb72fd06	-0.0037077083
215	0x3b6c7930	0.0036082976
216	0xba34732a	-0.0006883616
217	0xbab2b497	-0.0013634142
218	0x3bdcff92	0.0067443335
219	0xbc02643c	-0.007958468
220	0x3c01a23d	0.007912216
221	0xbc5de7f2	-0.01354407
222	0xbb41445b	-0.0029490206
223	0x3b6b8480	0.003593713
224	0x3bc5a49e	0.006031587
225	0x3b72bcf0	0.0037038885
226	0x3c884867	0.016636087
227	0xb946d108	-0.00018960622
228	0x3b9be94c	0.0047580358
229	0xbb2033c1	-0.002444491
230	0xbc11cdf7	-0.0088992035
231	0x3c349e1a	0.0110240225
232	0xbac68497	-0.0015145716
233	0x3c5510a3	0.013004455
234	0xbb2560c3	-0.0025234676
235	0xbc251a71	-0.010077105
236	0x3b338a22	0.0027395566
237	0x3c0459e6	0.008078074
238	0xbb8b3378	-0.004248079
239	0xbc11780a	-0.008878717
240	0x3bb00543	0.005371721
241	0x3b8629af	0.0040943245
242	0xbbbeff0e	-0.0058287447
243	0x3b90d67a	0.004420099
244	0xbba96bb3	-0.0051703095
245	0x3b146e60	0.0022648796
246	0x3bab224e	0.0052225953
247	0x3a51f2da	0.0008008905
248	0x3bcea33b	0.0063060797
249	0xb9a666f2	-0.00031738688
250	0xbab2a38b	-0.0013629062
251	0x3c0d6ac7	0.008631415
252	0xbb95c465	-0.004570531
253	0xbb7417ac	-0.0037245555
254	0x3b9f392e	0.0048591113
255	0x3b0d3023	0.0021543584

base_model.model.gpt_neox.layers.1.attention.query_key_value.lora_A.weight f4 [16, 512]
0	0x3c3a2830	0.0113621205
1	0x3d20f2c8	0.039294034
2	0x3cdf04ac	0.027223907
3	0x3ca5bdb4	0.020232059
4	0x3d0597bf	0.03261542
5	0xbb78f451	-0.003798742
6	0xbbed88f8	-0.007248994
7	0xbcc4cfcb	-0.024024865
8	0x3d07f6d8	0.033194393
9	0xbbc4e1a8	-0.0060083456
10	0xbd573f92	-0.05255086
11	0x3c026316	0.007958194
12	0xbc8e9584	-0.017405279
13	0xbd0e8214	-0.03479202
14	0x3d275796	0.040855013
15	0xbcb62a84	-0.02223707
16	0xbbb0327d	-0.0053771124
17	0xbd206fca	-0.03916911
18	0x3af5b5d0	0.0018746201
19	0xbb55324d	-0.0032531202
20	0xbc9f6ce1	-0.019461097
21	0x3c412c72	0.011790382
22	0xbd44ea38	-0.04807493
23	0x3c7743fb	0.015091891
24	0x3d26f058	0.040756553
25	0xbd3c7d19	-0.04601774
26	0xbc75e3de	-0.015007941
27	0xbc294d77	-0.01033341
28	0xbcc72de1	-0.024313869
29	0x3ccd4432	0.025056932
30	0x3d1168bc	0.035500273
31	0xbceadbdd	-0.028669292
32	0xbcc176bf	-0.023616193
33	0x3d0e56d3	0.03475077
34	0x3ce456e0	0.027873456
35	0x3b26fc91	0.002548013
36	0xbd356a93	-0.04429109
37	0x3d49967a	0.04921577
38	0x3b3162db	0.002706698
39	0x3c8ddc12	0.017316852
40	0xbc97b0b5	-0.018516878
41	0x3d0b498f	0.034005698
42	0x3d321ab2	0.04348249
43	0xbbcb66f5	-0.006207342
44	0xbc95c484	-0.018282183
45	0xbcf57bc3	-0.02996624
46	0x3ab5b476	0.0013862986
47	0x3af57a25	0.0018728419
48	0x3b8d5e55	0.004314224
49	0xbc915c9c	-0.017744355
50	0xbcf4ece0	-0.029898107
51	0x3ce6fbcb	0.028196236
52	0x3c369126	0.0111430045
53	0x3c7e0525	0.015504156
54	0xbc80beec	-0.015716039
55	0xbcc91d4d	-0.024550105
56	0x3cac398c	0.021023534
57	0x3cc3aaf7	0.023885233
58	0xbd2851a2	-0.041093476
59	0xbc0332b1	-0.008007691
60	0xbb8e1735	-0.0043362626
61	0x3d47cbbb	0.048778277
62	0xbbb29e67	-0.005451012
63	0xbcf1f326	-0.029534888
64	0x3b9c2ba8	0.0047659464
65	0xbcaf826d	-0.021424497
66	0xbc07e126	-0.008293426
67	0xbd29b965	-0.04143657
68	0xbd1acd19	-0.037793253
69	0x3d814773	0.06312456
70	0xbd446c82	-0.047955044
71	0xbd17ec71	-0.037090722
72	0x3bc22b97	0.0059256065
73	0x3b634a10	0.0034681596
74	0xbd24607e	-0.040131085
75	0x3c888ca4	0.016668625
76	0x3ce450da	0.027870584
77	0xbcb994fe	-0.022654053
78	0x3cba4222	0.022736613
79	0x3c9ef436	0.019403558
80	0xbcf6b6d2	-0.030116472
81	0xbc04d079	-0.008106344
82	0x3cb8c120	0.022553027
83	0xbcdf181e	-0.02723318
84	0x3d06be25	0.03289618
85	0xbb11f671	-0.0022272135
86	0x3ac1e7d6	0.0014793824
87	0xbd112600	-0.03543663
88	0x3b8347fd	0.0040063844
89	0x3d0bb7cd	0.034110833
90	0x3d07402b	0.03302018
91	0xbc3abc78	-0.0113974735
92	0xbd124cce	-0.035717778
93	0xbc4ffcb1	-0.012694524
94	0xbd092dbd	-0.033490885
95	0x3d132dee	0.035932474
96	0x3c31c989	0.010851272
97	0x3b97625c	0.0046198796
98	0x3ce3bc85	0.027799854
99	0x3bc02d23	0.0058647557
100	0xbd479fab	-0.048736256
101	0xbc8b7103	-0.017021662
102	0xbc30fd61	-0.010802598
103	0x3a85a337	0.0010195737
104	0xbc625622	-0.013814481
105	0xbc08e4fa	-0.0083553735
106	0x3d1dacc5	0.038494844
107	0xbbcabc07	-0.0061869654
108	0xbc097a41	-0.008390964
109	0x3babd9d0	0.005244471
110	0xbc9e13e9	-0.019296603
111	0x3cb77624	0.022395201
112	0xbc54a0d2	-0.012977796
113	0x3cb1df6e	0.021712985
114	0xbc965466	-0.018350791
115	0x3c50441c	0.012711551
116	0x3af40be6	0.0018619269
117	0x3c5d95f5	0.013524522
118	0x3c81c1db	0.015839508
119	0x3d651768	0.055930525
120	0xbc8ea448	-0.01741232
121	0xbcd2efc1	-0.02574909
122	0xbca9cab1	-0.020726534
123	0x3a7fb20d	0.00097540097
124	0x3d4bde66	0.049772643
125	0x3a00afac	0.00049089896
126	0xbcf7bfd1	-0.030242832
127	0x3cbc3153	0.022972738
128	0xbb856697	-0.0040710676
129	0xbd478bfa	-0.048717476
130	0xbcfc449a	-0.03079443
131	0x3cb81b3d	0.022473926
132	0xbd042222	-0.032259114
133	0x3d24a1c2	0.040193327
134	0x3b866a14	0.004102001
135	0xb95df8ee	-0.00021168936
136	0x3ccf15df	0.025278984
137	0x3c2ecd4d	0.010669065
138	0xbbc0cfe4	-0.0058841575
139	0x3d214d91	0.039380614
140	0x3d042988	0.03226617
141	0xbd176636	-0.03696271
142	0x3c82578e	0.01591089
143	0xbc993650	-0.018702656
144	0x3c546bbb	0.012965138
145	0xbd055845	-0.032554884
146	0x3c5a07df	0.013307541
147	0x3d29dfe5	0.041473288
148	0xbd07dc90	-0.03316933
149	0xbce558d5	-0.02799646
150	0xbd168967	-0.03675213
151	0x3cd703c7	0.026246918
152	0x3d0775b2	0.033071227
153	0xbc26f2ad	-0.010189694
154	0x3d33eb8e	0.043925814
155	0x3c679fdd	0.0141372355
156	0x3c91c217	0.017792745
157	0x3bba0f9f	0.0056781317
158	0xbd245824	-0.04012312
159	0x3d243dac	0.040097877
160	0xbd431e54	-0.047636345
161	0xbd1ced80	-0.038312435
162	0xbb7e1120	-0.0038767532
163	0xbd3b6dab	-0.045758884
164	0xbc376561	-0.011193604
165	0xbd32bea5	-0.043638844
166	0xbd45c602	-0.048284538
167	0xbc5206e5	-0.012819027
168	0x3d31d729	0.043418083
169	0x3cfdd33e	0.030984517
170	0x3c71543c	0.014729556
171	0x3d1fda9d	0.039026845
172	0xbb14be37	-0.0022696385
173	0x3c8d1290	0.017220765
174	0xbbf289d9	-0.0074016866
175	0xbc50de62	-0.012748333
176	0x3cc62a77	0.02419017
177	0x3d03a26b	0.032137316
178	0xbc9b9662	-0.018992607
179	0xbcd01e0d	-0.025404954
180	0x3cd1097e	0.025517222
181	0xbd216d4f	-0.039410885
182	0xbcb7ec27	-0.022451473
183	0xbcb91bc7	-0.022596253
184	0x3d0dc30d	0.034609843
185	0x3cc09de7	0.023512794
186	0x3b17c8b0	0.002316039
187	0x3ad79d7f	0.0016450136
188	0x3d2d34e1	0.042286757
189	0x3c04494d	0.008074117
190	0xbcec0f19	-0.028815793
191	0xbc40a07e	-0.011757014
192	0xbc8a2d0b	-0.016867181
193	0xbce89c04	-0.028394707
194	0x3d4e226d	0.0503258
195	0x3d04fc23	0.03246702
196	0x3c2ffe35	0.01074176
197	0xbcf70083	-0.030151611
198	0xbd337fac	-0.04382293
199	0xbcaf3481	-0.02138734
200	0xbd122aa3	-0.035685193
201	0x3d159c4a	0.036526002
202	0x3cec88cb	0.028873822
203	0x3cfe5c0f	0.031049756
204	0x3d49ce97	0.049269285
205	0xbd11c7c1	-0.03559089
206	0xbc70d499	-0.014699125
207	0xbb5561a3	-0.0032559417
208	0xbd12ee46	-0.035871767
209	0xbc9a39c2	-0.01882637
210	0xbcfb9c56	-0.030714195
211	0x3d05e1c1	0.032686
212	0xbb830379	-0.0039982167
213	0x3cd3053e	0.025759336
214	0x3ca2850d	0.019838834
215	0xbca9934d	-0.020700121
216	0xbc5f4889	-0.013628134
217	0x3c8814c4	0.016611464
218	0xbd30c0db	-0.04315267
219	0xbb8026f0	-0.0039108917
220	0xbc082df6	-0.008311739
221	0xbc948ea9	-0.018134432
222	0x3a90a6fd	0.0011036095
223	0x3d2484aa	0.04016558
224	0xbd2f2ca9	-0.0427672
225	0x3c6dcc84	0.014514092
226	0x3c7d618f	0.015465154
227	0xbc3f595f	-0.011679023
228	0xbcbe2b07	-0.023213876
229	0xbc3813c2	-0.011235179
230	0xbc60c0f5	-0.01371788
231	0x3c8e1bc2	0.01734722
232	0xbccf9a73	-0.025342202
233	0xbd07de7b	-0.03317116
234	0xbbb316a9	-0.005465348
235	0xbcfc646f	-0.03080961
236	0xba18e1a7	-0.00058319647
237	0x3d0585ef	0.032598432
238	0xbd2c2659	-0.04202876
239	0x3c0a2269	0.008431056
240	0x3d1a3006	0.037643455
241	0xbd30d30f	-0.04317003
242	0x3d1803b8	0.03711292
243	0xbca64706	-0.020297538
244	0xbcc5b256	-0.024132889
245	0x3cd61a5e	0.02613562
246	0x3c4f132e	0.01263885
247	0xbcd47f59	-0.02593963
248	0x3bad4fcc	0.0052890535
249	0xbc84921c	-0.016182952
250	0xbcf00a57	-0.029301805
251	0xbd02cf4d	-0.03193598
252	0xbc932842	-0.017963532
253	0x3d0ca5c7	0.034337785
254	0x3bd1fec6	0.006408545
255	0xbca88d16	-0.020575088

base_model.model.gpt_neox.layers.1.attention.query_key_value.lora_B.weight f4 [1536, 16]
0	0xba7db994	-0.00096788374
1	0xbb6060c3	-0.0034237362
2	0x3c040d24	0.008059774
3	0x3b83cc45	0.0040221536
4	0x3a85841e	0.0010186469
5	0xbb5134b1	-0.0031922276
6	0xbbd53ddd	-0.006507619
7	0x3b74b996	0.0037342063
8	0x3a8ff1ab	0.0010982057
9	0x39a39fc7	0.00031208826
10	0x3b012c36	0.001971019
11	0xbbd3ae17	-0.006459962
12	0x3c0b1463	0.008488747
13	0xbc44e046	-0.012016362
14	0xbb2c0296	-0.0026246659
15	0x3c360d2c	0.011111539
16	0xbc82fe34	-0.015990354
17	0xbba64016	-0.0050735576
18	0xbb8b68a9	-0.00425442
19	0xbb7dda3b	-0.0038734812
20	0x3ada89d7	0.001667316
21	0x3c324d7d	0.010882732
22	0xbb4b870e	-0.003105584
23	0x3c47e9b3	0.012201714
24	0xbb3a4d48	-0.002842741
25	0x3a8fc648	0.0010969127
26	0xbba208f9	-0.0049449173
27	0xbbe5123c	-0.006990699
28	0xbbc746d9	-0.0060814437
29	0xba32e037	-0.0006823572
30	0x3c0b0b26	0.008486545
31	0xbb548a51	-0.0032431076
32	0xbb741b83	-0.0037247844
33	0x3bde347f	0.0067811604
34	0x3bf723d9	0.007542115
35	0xbb22b1d2	-0.0024825227
36	0xb9e13bfd	-0.0004296004
37	0xbc151f35	-0.009101679
38	0x3b668c50	0.0035178848
39	0x3c7b3aea	0.01533387
40	0x3bad3d0d	0.005286819
41	0xbc06100f	-0.00818254
42	0x37ea1237	2.7903456e-05
43	0x3bab9682	0.005236448
44	0xbb19b632	-0.0023454544
45	0xbc4ae3ad	-0.012383384
46	0xbac7f745	-0.0015256187
47	0xbb47ae24	-0.0030468786
48	0x3c2071fa	0.009792799
49	0x3aef49ef	0.0018256287
50	0x3c2e2960	0.010629982
51	0xbbc656b1	-0.006052815
52	0x3ad826ac	0.0016491017
53	0x3bb97944	0.005660208
54	0xbb6810e8	-0.0035410468
55	0xba20654e	-0.0006118611
56	0x3a97b169	0.0011573258
57	0xbadd17c9	-0.001686805
58	0xbc7b07fe	-0.01532173
59	0xbbcdf725	-0.0062855654
60	0x39abebd8	0.0003279138
61	0x3c311a24	0.010809455
62	0xbbc53e9f	-0.006019428
63	0xbb96ec0f	-0.004605777
64	0x3be63447	0.007025275
65	0x3b9d6be7	0.0048041227
66	0xbaa96aa5	-0.0012925459
67	0xba3f7ebc	-0.00073049567
68	0xbbc8ae74	-0.006124312
69	0xbc065f3f	-0.008201419
70	0xbaf0300c	-0.0018324866
71	0x3c1623ce	0.00916381
72	0x3a4a1229	0.00077083946
73	0xbbf5de60	-0.007503316
74	0x3c074631	0.008256481
75	0xbc1ef00c	-0.009700786
76	0xbb91dcbc	-0.0044513624
77	0x3abeaa4a	0.00145466
78	0x3c2095c7	0.009801335
79	0x3c889a13	0.01667503
80	0x3be3f61f	0.00695683
81	0x3c533899	0.012891912
82	0x39984427	0.00029042477
83	0x3bcd755f	0.0062700952
84	0x3b978d64	0.0046250094
85	0xbc6fbd0b	-0.014632474
86	0xbc08eeff	-0.008357762
87	0x3c93d78a	0.018047113
88	0x3c3e757c	0.01162469
89	0x3abbb183	0.001431987
90	0xbb9b6a9e	-0.0047429344
91	0x3c2d8321	0.010590346
92	0x3be42f55	0.00696365
93	0x3b0c8041	0.002143875
94	0x3bf4fb82	0.007476271
95	0xbc0183fc	-0.007905003
96	0x3b851623	0.004061477
97	0x3bd38934	0.006455565
98	0xbb0a0907	-0.002106251
99	0xbc4a360f	-0.01234199
100	0x3bad22e6	0.0052837012
101	0x3b94b8f6	0.0045386506
102	0x3b398ee3	0.0028313927
103	0xba021b67	-0.000496319
104	0xbcaa552d	-0.020792568
105	0xb95fe37f	-0.00021351686
106	0x3c0d7ceb	0.00863574
107	0x3c379d4c	0.011206936
108	0xbc800acc	-0.015630148
109	0xbcb503cb	-0.022096535
110	0xbb985f2f	-0.0046500186
111	0x3c6696cd	0.01407404
112	0x39ec46b1	0.00045066097
113	0xba86aae2	-0.0010274316
114	0x3bb4687e	0.0055056205
115	0xbc5d9da9	-0.013526359
116	0x3c5e8fc2	0.013584079
117	0x3b9a0a7f	0.0047009583
118	0x3c5963ac	0.0132683925
119	0x3b8fd9ae	0.004389963
120	0xbb79eb98	-0.003813481
121	0xbc07e4b4	-0.008294273
122	0x3b9baa12	0.0047504986
123	0xbbc88330	-0.0061191544
124	0x3bf286df	0.007401332
125	0xba4b046d	-0.0007744495
126	0x3b9951a9	0.004678924
127	0xbb0a5320	-0.0021106675
128	0xbac8c166	-0.0015316426
129	0x3ae5cc49	0.0017532195
130	0xbb241f4b	-0.0025043066
131	0xbc2acdc9	-0.01042504
132	0xbc935423	-0.017984455
133	0xbaddd263	-0.0016923662
134	0x3c8356ce	0.016032603
135	0x3c95a239	0.01826583
136	0x3b85dc66	0.0040851114
137	0x3928bdb1	0.00016092394
138	0x3ba94f16	0.0051668985
139	0x3a1a1953	0.00058784074
140	0xbbed7993	-0.007247159
141	0x3ae95591	0.001780199
142	0x3bfb79cf	0.007674433
143	0x3ca29ada	0.01984923
144	0xbac748b4	-0.0015204162
145	0x3a12de3e	0.00056025747
146	0x3ba882d6	0.00514255
147	0xbb6eab92	-0.0036418182
148	0xbb255df3	-0.0025233
149	0x3c9b38a6	0.01894791
150	0x3b252389	0.0025198183
151	0xbc01e1ff	-0.007927417
152	0x3bd59269	0.0065176976
153	0xbc045a42	-0.00807816
154	0x3c775d38	0.015097909
155	0x3be6bd4e	0.00704161
156	0x3b06560d	0.0020498068
157	0xbb58c23c	-0.0033074757
158	0xbc18c77c	-0.0093249045
159	0x3b0f3639	0.0021852388
160	0x3c929478	0.017893061
161	0x3ac386d9	0.0014917507
162	0xbbdf9b92	-0.0068239653
163	0xbaffd013	-0.0019516967
164	0xbbbcc3f9	-0.0057606664
165	0xbc0f5559	-0.008748376
166	0xbbdcc26a	-0.006737043
167	0xbb34ecfe	-0.0027607079
168	0xbb21a7dd	-0.0024666705
169	0x3bab1e04	0.005222084
170	0x3bf8d7eb	0.007594099
171	0xbac79251	-0.0015226101
172	0x3bdea28b	0.006794279
173	0xbb90a7fb	-0.004414556
174	0xbbb1413a	-0.005409387
175	0x3b84e0ba	0.00405511
176	0xbc252dea	-0.010081748
177	0x3c02d7a3	0.007985982
178	0xbc67e707	-0.014154202
179	0xbbdc2bab	-0.006719073
180	0xbba02da5	-0.0048882538
181	0x3c6ee601	0.014581204
182	0xbbe43096	-0.0069637997
183	0xba49af5c	-0.0007693672
184	0xbc0a9cad	-0.008460206
185	0xbb92c223	-0.0044787093
186	0xbc2289af	-0.009920522
187	0x3b764e79	0.0037583394
188	0xbad23085	-0.0016036188
189	0x3c1d97be	0.009618698
190	0xbc34fafd	-0.011046168
191	0xbb44cbc2	-0.0030028676
192	0xbb24491a	-0.0025067986
193	0xbb7aa05d	-0.0038242557
194	0xbb8bea12	-0.0042698467
195	0x3cc8fd7b	0.024534931
196	0x3a81bd4d	0.0009898335
197	0xbc8d808b	-0.017273208
198	0xbc163b63	-0.009169432
199	0x3c03244b	0.008004258
200	0x3b9da419	0.0048108217
201	0xbc2cd857	-0.010549626
202	0x3c023f46	0.007949656
203	0x3b38b7ea	0.0028185793
204	0x3ba67824	0.00508024
205	0x3c038393	0.008026975
206	0x3b9e2645	0.0048263394
207	0xbc144377	-0.009049288
208	0x3bd041dc	0.0063555073
209	0x3c806d06	0.015676986
210	0xbb6997de	-0.0035643498
211	0x3b121427	0.0022289844
212	0xbba017cb	-0.004885649
213	0x3b6541a8	0.003498176
214	0xbba7fd6e	-0.0051266467
215	0xbba15b9a	-0.00492425
216	0x3beb7abb	0.0071862615
217	0xb9d0a6fe	-0.0003979727
218	0x3c35a95e	0.011087744
219	0xbb972223	-0.0046122237
220	0xbb902818	-0.004399311
221	0xbbf03ef8	-0.007331725
222	0xb97039e3	-0.00022909748
223	0x3c8433ea	0.016138036
224	0x3ba33f23	0.0049818917
225	0x3b017db3	0.001975876
226	0xbc11b844	-0.00889403
227	0x3b969260	0.004595086
228	0x3bc0cba5	0.0058836513
229	0xb7dc9a0b	-2.6297776e-05
230	0xbc505766	-0.01271615
231	0x3a63b344	0.00086860755
232	0xbcb09db3	-0.021559572
233	0xb9a2645a	-0.00030973816
234	0x39a05a3a	0.00030584802
235	0x3b3d5c3c	0.0028894087
236	0x3a0b671e	0.0005317795
237	0x3b14c8b8	0.0022702646
238	0x39ec12f2	0.00045027543
239	0x3b02fec0	0.0019988269
240	0xbc8b1983	-0.016979938
241	0xba0f6ec1	-0.00054715207
242	0x3c601514	0.0136769
243	0xb9e7bc1a	-0.000441999
244	0xbbf9f769	-0.0076283705
245	0x3c162689	0.009164461
246	0x3c21ac2b	0.009867708
247	0xbb32047b	-0.0027163315
248	0xbc0027ae	-0.00782196
249	0xbc03b3f1	-0.008038507
250	0xbc4c32eb	-0.012463312
251	0xbbc49e6a	-0.0060003297
252	0xbb6ad382	-0.0035831635
253	0x3c237af6	0.009978047
254	0x3c1cf0d4	0.009578902
255	0x3a9e757d	0.0012089458

base_model.model.gpt_neox.layers.2.attention.query_key_value.lora_A.weight f4 [16, 512]
0	0xbd338bf6	-0.04383465
1	0x3b8dae55	0.0043237605
2	0xbcc3b082	-0.023887876
3	0xbcdba5cf	-0.026812462
4	0x3b82d2f5	0.003992433
5	0xbd02bd5c	-0.03191887
6	0x3ccab4cf	0.02474442
7	0xbc1d3270	-0.009594545
8	0x3d162960	0.036660552
9	0xbcfb3980	-0.030667067
10	0xbbd7ec90	-0.0065894797
11	0x3d1f1847	0.038841512
12	0xbcdd4ac3	-0.027013188
13	0x3c8dd093	0.01731137
14	0xbcfb2dce	-0.03066149
15	0x3c8cf948	0.01720871
16	0xbc39fd14	-0.011351842
17	0x3c9f57ed	0.019451106
18	0x3d34da07	0.04415324
19	0xbbf3f1cc	-0.007444596
20	0x3c88c628	0.01669605
21	0xbc618514	-0.013764638
22	0xbc995bbc	-0.0187205
23	0x3d44534f	0.04793101
24	0x3ad9cb19	0.0016616314
25	0xbcc1f30e	-0.023675468
26	0xbcf9cba7	-0.030492617
27	0x3c5c520d	0.013447297
28	0x3cc19d11	0.023634465
29	0x3d1040fb	0.03521822
30	0xbd01966d	-0.031637598
31	0xbccee951	-0.025257738
32	0x3b9a351e	0.004706039
33	0x3bc11188	0.0058919825
34	0x3c7e6a37	0.015528253
35	0xbb4270df	-0.0029669327
36	0xbbdf643e	-0.0068173697
37	0xbd2a1750	-0.04152614
38	0xbd14e158	-0.036347717
39	0xbb9e0872	-0.004822784
40	0x3d33e381	0.043918137
41	0xbcafeb25	-0.02147443
42	0xbd1a382f	-0.037651237
43	0xbd2560ca	-0.04037551
44	0xbbbfd22b	-0.0058539114
45	0xbc771265	-0.015080069
46	0x3cb12b6a	0.021627147
47	0xbc872d12	-0.016500983
48	0xbd4494da	-0.04799352
49	0xbd38b6c9	-0.045096193
50	0xbd0ee15d	-0.034882892
51	0xbc573b6a	-0.013136724
52	0xbc80e3f9	-0.015733706
53	0x3d1c7365	0.038195986
54	0x3bec9bd5	0.007220725
55	0xbbc3a697	-0.005970787
56	0x3cbf368a	0.023341436
57	0xbcf262af	-0.029588072
58	0xbc58898b	-0.013216387
59	0x3c567964	0.013090465
60	0x3c578255	0.013153632
61	0x3cb62415	0.022234002
62	0x3d5aa93c	0.05338405
63	0x3c40d008	0.0117683485
64	0xbc8658e4	-0.016399808
65	0x3c911f4d	0.01771512
66	0xbc761570	-0.01501976
67	0xbc011d16	-0.00788047
68	0xbcc3ba6d	-0.023892606
69	0x3cf07240	0.029351354
70	0x3d25aa2e	0.0404455
71	0x3d2e359f	0.042531606
72	0x3d25966c	0.040426657
73	0xbd3123ee	-0.043247156
74	0x3c902c69	0.017599301
75	0xbc9862b3	-0.018601751
76	0xbcb419aa	-0.021984894
77	0xbcaf9520	-0.021433413
78	0xbc96001f	-0.018310605
79	0xbc563035	-0.013073017
80	0xbc8e37a0	-0.017360508
81	0x3b93b0e7	0.0045071724
82	0xba766100	-0.00093986094
83	0x3d08cf57	0.03340086
84	0x3d1e9405	0.03871538
85	0xbcbead8a	-0.02327611
86	0x3d4a1d7d	0.04934453
87	0xbd06a49d	-0.03287183
88	0xbb1f7b04	-0.0024334798
89	0x3d2416ae	0.04006069
90	0xbc8589e0	-0.016301095
91	0x3be4931a	0.0069755437
92	0xbc5d50da	-0.013508046
93	0xbd211ef5	-0.039336164
94	0x3c8e9ec5	0.017409692
95	0x3d1f2b37	0.038859572
96	0xbd0052ed	-0.031329084
97	0xbc75d58a	-0.015004525
98	0xbd10c16c	-0.03534071
99	0xbc50180b	-0.012701045
100	0x3d1b7be7	0.03795996
101	0xbd083965	-0.03325786
102	0x3ca499e1	0.020092906
103	0xbcbc41f0	-0.02298066
104	0xbc42bdfa	-0.011886114
105	0x3d2bf936	0.041985713
106	0x3d199994	0.03749998
107	0xbc822966	-0.015888881
108	0x3cfc50a5	0.030800173
109	0x3ccc85dd	0.024966175
110	0x3d323b77	0.04351374
111	0xbd36814c	-0.0445569
112	0xbc8ee2f6	-0.017442208
113	0xbbdf85f6	-0.0068213893
114	0xbd3327f8	-0.04373929
115	0x3ae7676d	0.0017654725
116	0x3c07f248	0.00829751
117	0xbd30c353	-0.043155026
118	0xbc954add	-0.018224174
119	0xbd09a01f	-0.03359997
120	0xbd0d32ec	-0.03447239
121	0x3c7832d5	0.015148838
122	0xbcd04005	-0.025421152
123	0x3d3fe0cf	0.046845254
124	0xbc035411	-0.008015648
125	0xbcd22649	-0.025653021
126	0xbd35fcf2	-0.04443068
127	0x3ccf7214	0.025322951
128	0x3c683196	0.014171978
129	0x3c88c933	0.016697502
130	0xbc864825	-0.016391823
131	0xbd3410c6	-0.04396131
132	0x3c3e2a9e	0.01160684
133	0xbc38a806	-0.011270529
134	0x3d579672	0.05263371
135	0x3cd0d799	0.02549343
136	0xbcb64d27	-0.022253586
137	0xbce0017c	-0.027344458
138	0x3cf010fd	0.029304976
139	0x3c2ba140	0.010475457
140	0xbd0b1e77	-0.0339646
141	0xbcef1ac7	-0.029187573
142	0x3be86117	0.007091652
143	0x3c93c09b	0.018036177
144	0x3bf4aada	0.007466656
145	0x3be21c96	0.0069003804
146	0xbb4f0981	-0.0031591358
147	0xbbdca4a3	-0.0067334934
148	0x3c45fc5f	0.012084096
149	0x3ce41d54	0.027846016
150	0x3c5f55c2	0.013631286
151	0xbcf8a32d	-0.030351246
152	0x3ba64cf8	0.0050750934
153	0xbd0fe3a0	-0.03512919
154	0xbc009e9d	-0.007850316
155	0xbab37212	-0.0013690612
156	0x3c5ae645	0.013360565
157	0x3c65a61e	0.014016656
158	0x3d084d9f	0.03327715
159	0x3b9ec505	0.004845264
160	0xbcc3f2f3	-0.023919558
161	0xbca71e16	-0.020400088
162	0xbd5c22d8	-0.053744167
163	0xbd3f9ee2	-0.04678238
164	0xbb215d40	-0.0024622232
165	0xbc077fa8	-0.008270182
166	0xbd45eb74	-0.04832025
167	0xbd02d479	-0.03194091
168	0xbd080d82	-0.033216007
169	0xbcb5e0c0	-0.022201896
170	0xbac2f9f0	-0.0014875513
171	0x3cb50644	0.022097714
172	0xbcd8a14d	-0.026444102
173	0x3d1fe5b7	0.039037433
174	0xbc5e5066	-0.013568973
175	0xbcf55b50	-0.029950768
176	0x3d2d5181	0.042314056
177	0x3d346538	0.044041842
178	0x3d0aa529	0.033848915
179	0x3d4d9ab2	0.050196357
180	0xbbf24730	-0.00739374
181	0xbc2d10e8	-0.010563113
182	0x3cc475d9	0.023981975
183	0x3cc4d8f0	0.024029225
184	0x3cceed91	0.025259765
185	0xbd019274	-0.03163381
186	0x3cd93cff	0.026518343
187	0x3bd0f4de	0.0063768467
188	0x3b9ce9e4	0.004788624
189	0x3c8bd7fe	0.017070767
190	0x3c9f0af8	0.01941441
191	0xbc55b59d	-0.013043788
192	0xbd235d2f	-0.03988379
193	0x3d047a59	0.032343242
194	0xbd1ef049	-0.038803373
195	0xbd19ff8b	-0.03759722
196	0xbd3eadb5	-0.04655238
197	0x3cfc9966	0.030834865
198	0x3c8299d0	0.015942484
199	0x3d0e6d74	0.03477235
200	0x3cc06f5d	0.023490602
201	0x3b4dd6ac	0.0031408472
202	0x3d4f3637	0.050588813
203	0xbcff4530	-0.03116092
204	0x3d4158bb	0.04720376
205	0xbce9b7d6	-0.028530043
206	0xbd038ad2	-0.03211481
207	0x3d2083d6	0.03918823
208	0x3b60be10	0.0034292974
209	0xbd2aaf57	-0.041671123
210	0xbc6ffb94	-0.014647383
211	0x3c7f49b6	0.015581539
212	0xbce91fad	-0.028457487
213	0xbbbd00ff	-0.005767941
214	0x3b0612a1	0.002045788
215	0xbd01f04e	-0.031723313
216	0xbc26d150	-0.01018174
217	0xbd1672d0	-0.036730587
218	0xbc9e992d	-0.01936015
219	0x3ca818f8	0.020519719
220	0x3d01184a	0.031517304
221	0xbc72420d	-0.014786256
222	0xbd20597b	-0.039147835
223	0x3bb38b45	0.0054792487
224	0x3d15bad0	0.03655511
225	0x3ce3775e	0.02776688
226	0x3c48378d	0.012220276
227	0xbcad8193	-0.02117995
228	0xbd35c4f7	-0.044377293
229	0xbb84254b	-0.004032766
230	0x3d36a72a	0.044593014
231	0x3cd7f2ee	0.026360955
232	0xbb983111	-0.004644521
233	0xbc467877	-0.012113682
234	0x3d3b8bae	0.045787506
235	0xbd0e2e2d	-0.034712005
236	0xbcfb0047	-0.03063978
237	0x3d374dbb	0.044751864
238	0xbb064a31	-0.0020491
239	0xbce941d1	-0.028473767
240	0x3cc552ab	0.02408727
241	0xbce35470	-0.027750224
242	0xbc3336f2	-0.010938393
243	0xbb5313b1	-0.0032207782
244	0x38b10b3d	8.442111e-05
245	0x3ca6d131	0.020363422
246	0xbd1b4f43	-0.037917387
247	0x3d2dbe26	0.042417668
248	0xbc9ec73e	-0.019382115
249	0xbce5ff05	-0.028075704
250	0xbb4ab77e	-0.0030932124
251	0x3ca018b5	0.019543031
252	0xbca78f05	-0.02045394
253	0x3c0e561a	0.00868752
254	0xbbc8d973	-0.0061294376
255	0xb9a48c59	-0.00031385085

base_model.model.gpt_neox.layers.2.attention.query_key_value.lora_B.weight f4 [1536, 16]
0	0xbbb0febf	-0.005401462
1	0xbb4cabb1	-0.0031230266
2	0xbbfc1ec5	-0.0076940977
3	0xbbc1843b	-0.0059056557
4	0xbbb14e62	-0.0054109553
5	0xbb90f537	-0.004423763
6	0x3b6370ef	0.0034704765
7	0xbc5a4ae7	-0.013323522
8	0xbaed7f3c	-0.0018119584
9	0xbb56da11	-0.0032783786
10	0xba0bd972	-0.0005334831
11	0x3b3a75ad	0.0028451488
12	0xbbbcac59	-0.00575785
13	0x3aa63faa	0.0012683768
14	0x3c1b6881	0.009485365
15	0x3c3a7233	0.011379766
16	0x3bdbb4ca	0.0067049013
17	0xbb90d6ac	-0.004420122
18	0xbc8a093b	-0.016850105
19	0x3acdcf8b	0.0015702111
20	0x3bc82a54	0.0061085615
21	0xbc3561e7	-0.011070705
22	0x3c2a484e	0.010393215
23	0xbaa8eeb8	-0.0012888527
24	0xbc65c05b	-0.014022912
25	0x3c669de9	0.014075735
26	0xba41070d	-0.00073634164
27	0xbb57e375	-0.0032941971
28	0x3bcad48c	0.0061898883
29	0x3a5485eb	0.00081071135
30	0xba96956c	-0.0011488623
31	0x3c3013de	0.010746924
32	0xbba88e28	-0.0051438995
33	0xbbc1676b	-0.005902221
34	0xbb7bf63c	-0.0038446328
35	0xbc22ee34	-0.009944487
36	0xbb83369d	-0.004004313
37	0x390672ff	0.00012822075
38	0xbab36b1f	-0.0013688541
39	0x3c84740f	0.016168622
40	0xbc0efc1d	-0.008727101
41	0xbb29d776	-0.0025915778
42	0x3bc93e43	0.0061414554
43	0x3b669b41	0.0035187753
44	0x3c0e1937	0.008673004
45	0xbc2f9792	-0.0107172895
46	0x3c0875b3	0.008328843
47	0xbb7dd71c	-0.0038732952
48	0xbbe78185	-0.0070650005
49	0xba938800	-0.0011255741
50	0xbb20289e	-0.0024438272
51	0xba2d8798	-0.00066196313
52	0x3ad50394	0.0016251677
53	0xbb9525b0	-0.004551612
54	0x3b94d95d	0.0045425133
55	0x3b78a25a	0.0037938566
56	0x3c459a38	0.012060694
57	0xbc1dc11b	-0.009628559
58	0xbb8f4619	-0.00437237
59	0x3b5da7a3	0.0033821843
60	0x3b3badd4	0.0028637545
61	0x3befc258	0.0073168688
62	0xbb116f04	-0.0022191415
63	0x3c30c92e	0.0107901525
64	0x3b2c45fb	0.0026286829
65	0x3c7c3df7	0.015395633
66	0x3bc61a5f	0.006045624
67	0x3b06d758	0.0020575132
68	0x3c64d4ed	0.013966781
69	0x3b646b15	0.0034853865
70	0x3bb0cd64	0.005395578
71	0x3bd0caf8	0.006371852
72	0xb89d3ac0	-7.4972864e-05
73	0xbbecf542	-0.0072313854
74	0x3ac514e4	0.0015036133
75	0x3b9522b9	0.0045512584
76	0x3c222310	0.009896055
77	0x3bef7691	0.0073078354
78	0xbb0aa07a	-0.002115278
79	0x3a66c951	0.0008803802
80	0xbc1c8382	-0.009552838
81	0xba6829a1	-0.0008856301
82	0x3b7b5c37	0.0038354525
83	0x3bbba0c2	0.005725951
84	0x39242f86	0.00015657963
85	0xb9939ea2	-0.00028156216
86	0xbc25ef5d	-0.010127869
87	0xbbbd3502	-0.0057741413
88	0xbbf1bb5c	-0.0073770713
89	0x3c5fdcff	0.013663529
90	0x3b877ee2	0.0041349987
91	0xbbaee0f7	-0.0053368765
92	0x3c652e15	0.013988038
93	0x3bb4b172	0.005514317
94	0x3baf3313	0.0053466647
95	0xbbbc920a	-0.005754714
96	0xbc00a59e	-0.007851986
97	0x3ba056d2	0.0048931623
98	0x3c0f5a25	0.0087495195
99	0xbaec0127	-0.0018005715
100	0x39e7717a	0.000441443
101	0xbb237a9c	-0.0024944907
102	0xb89d92fc	-7.513721e-05
103	0xbc586c9c	-0.013209488
104	0xbb854e17	-0.004068147
105	0xbb7339c1	-0.0037113281
106	0x3b9a3cbd	0.0047069476
107	0x3b84fac2	0.004058213
108	0x3a6d388e	0.000904926
109	0xbb845a3f	-0.0040390785
110	0xbac150ab	-0.0014748772
111	0xbbe279ae	-0.006911478
112	0xbbff27c5	-0.0077867233
113	0xbc39aad8	-0.011332236
114	0x3bf92e1c	0.0076043736
115	0xbc90cb74	-0.017675139
116	0xbc898f61	-0.016792001
117	0x3bed8b71	0.0072492887
118	0x3be4c6ff	0.00698173
119	0xbc7b74f5	-0.015347709
120	0xbbfe7807	-0.007765773
121	0x3bb9d6ee	0.0056713736
122	0x39e49f59	0.00043606272
123	0x3c252eeb	0.010081987
124	0xbaff45a3	-0.0019475709
125	0x3bbfc078	0.0058518015
126	0x3a2886ad	0.00064287597
127	0xb9b428a2	-0.0003436255
128	0x3a66ab54	0.00087993336
129	0xbac1dd7f	-0.0014790742
130	0xba7bcdbc	-0.0009605547
131	0x3a8f1797	0.0010917065
132	0xbaed742c	-0.0018116287
133	0xbc41028d	-0.011780393
134	0xbc6c2d3b	-0.014415081
135	0x3ae89157	0.001774351
136	0x3ae9a4a0	0.0017825551
137	0xbba6edd9	-0.0050942716
138	0x3bd63709	0.0065373224
139	0xbcb42399	-0.02198963
140	0x3c049eec	0.008094531
141	0xbbefc31d	-0.0073169605
142	0xba3d0c91	-0.00072116504
143	0x3c79e1cd	0.015251589
144	0x3a83b78f	0.0010049212
145	0xbc624b1f	-0.013811856
146	0x3c3e17ce	0.011602355
147	0x3add48fd	0.0016882714
148	0x3c145746	0.009054011
149	0xbbc25572	-0.005930596
150	0x3bffa57e	0.0078017106
151	0xbb2fab74	-0.0026805075
152	0xbb42a151	-0.0029698203
153	0x3bec0eff	0.007203936
154	0xbb94ae9c	-0.0045374166
155	0xbaad63ac	-0.0013228557
156	0xbc189ad5	-0.009314259
157	0x3c5476be	0.0129677635
158	0xbc5fdcab	-0.013663451
159	0x3c40d49c	0.01176944
160	0xbb0f137a	-0.0021831677
161	0x3c0b2585	0.008492832
162	0xbc1122d2	-0.0088583995
163	0x3c3df9f5	0.011595239
164	0x3b60fd20	0.0034330562
165	0xbb2f8a76	-0.002678541
166	0x3ba8ccc6	0.005151364
167	0x3c3ff7f1	0.011716829
168	0xbab0ccff	-0.0013488828
169	0x3c10d542	0.008839907
170	0xbb78d9b4	-0.0037971558
171	0x3a90dff5	0.0011053073
172	0x3a4f8c6e	0.0007917349
173	0xbb7d7687	-0.0038675384
174	0xbc416886	-0.0118047055
175	0x3afe77cd	0.0019414366
176	0xbc338f70	-0.010959491
177	0xbb17998a	-0.0023132288
178	0x3bd220a8	0.0064125843
179	0x3b91e475	0.004452283
180	0xbb846302	-0.004040123
181	0xbbbd5d4e	-0.005778945
182	0xbbb8bce9	-0.005637754
183	0xbbc3b09c	-0.005971981
184	0xbb3bdfc3	-0.0028667308
185	0xbc7cb218	-0.01542332
186	0xbc2a37fe	-0.010389326
187	0xbbd56437	-0.0065121907
188	0xba5642fa	-0.00081734324
189	0xbac72358	-0.0015193028
190	0x3b8d0b83	0.004304351
191	0xbc6397b7	-0.013891152
192	0x3af512aa	0.0018697579
193	0x3b9c5333	0.0047706603
194	0x3bf5d6fa	0.007502434
195	0x3b895525	0.004191058
196	0x3c58928e	0.013218535
197	0xbb5ff12e	-0.0034170854
198	0xbbbc8d7b	-0.0057541705
199	0xbbde1316	-0.0067771776
200	0x3c44f3a8	0.012020983
201	0xbc9ddab6	-0.019269329
202	0x3ba38e3f	0.0049913223
203	0xbba71c16	-0.0050997837
204	0x3acfbf7e	0.0015849916
205	0xbc47f781	-0.012205006
206	0xbae85094	-0.001772421
207	0xbbeb2b79	-0.007176813
208	0xbb3e8b1d	-0.0029074617
209	0x3c004288	0.007828362
210	0xbac38fe2	-0.00149202
211	0x3c4dad45	0.012553518
212	0xbaa253eb	-0.0012384629
213	0xbb7eeef3	-0.003889975
214	0xbbb78faf	-0.005601845
215	0x3a3382cd	0.0006847799
216	0x3c35e9b9	0.011103087
217	0xbbd02f55	-0.0063532987
218	0xbc5509b0	-0.013002798
219	0x3c5a6044	0.013328616
220	0x3ac1f23b	0.0014796922
221	0xba8f52f3	-0.0010934755
222	0xbba9c115	-0.005180488
223	0xbc0d3c45	-0.008620326
224	0x3b8b4861	0.0042505716
225	0x3c0e5118	0.008686326
226	0xbbe035e7	-0.006842363
227	0xba082ba6	-0.00051944924
228	0xbbc65433	-0.006052518
229	0x3bedf2e7	0.007261622
230	0x3c6f8501	0.014619113
231	0x3c74cebe	0.014941869
232	0x3c143c8c	0.009047639
233	0x3c877c23	0.016538685
234	0xbb159f03	-0.0022830374
235	0x3c740d69	0.014895775
236	0xbbae234e	-0.0053142672
237	0xbb0c17e2	-0.002137654
238	0x3a166be3	0.0005738122
239	0x3afb64c3	0.001917981
240	0xbbef92a4	-0.007311182
241	0x3bb004b1	0.005371653
242	0x3b43753f	0.0029824523
243	0x3b316ff8	0.0027074795
244	0xb907f936	-0.00012967442
245	0xbb5b27d9	-0.00334405
246	0x3b27e093	0.0025616034
247	0xbbcc173e	-0.0062283566
248	0xbc24d758	-0.010061108
249	0xbbf946e4	-0.007607328
250	0xbb71ad48	-0.0036876965
251	0xba92319a	-0.0011153698
252	0xbba3df55	-0.0050009885
253	0xbc0ee557	-0.008721671
254	0x3b84f8b0	0.004057966
255	0xbb60c403	-0.003429652

base_model.model.gpt_neox.layers.3.attention.query_key_value.lora_A.weight f4 [16, 512]
0	0xbcbe63d1	-0.023240956
1	0xbabc2ae9	-0.001435605
2	0x3cf12139	0.029434787
3	0x3b7be6d8	0.0038437154
4	0xbd279857	-0.040916767
5	0xbca6e339	-0.02037202
6	0xb6bfe8a6	-5.7193274e-06
7	0x3c9b8a18	0.018986747
8	0x3ca405bb	0.020022264
9	0xbc9abf1d	-0.018889958
10	0xbd213122	-0.039353497
11	0x3bbfb17d	0.0058500157
12	0xbc3ceee4	-0.011531565
13	0xbcf1000b	-0.029418966
14	0x3b86ddc7	0.0041157934
15	0xbd42a7ef	-0.047523435
16	0x3d348798	0.044074625
17	0x3d1faaa9	0.038981114
18	0x3cb9e674	0.022692896
19	0xbc40430b	-0.011734734
20	0xbd0e7f1a	-0.034789182
21	0x3af44c85	0.0018638527
22	0xba614c5e	-0.00085944484
23	0xbb3bd1b9	-0.002865894
24	0xbb8aa619	-0.004231226
25	0xbd2472f2	-0.040148683
26	0x3c01eef0	0.007930502
27	0x3c777d5d	0.0151055725
28	0x3d20bd96	0.039243303
29	0x3cc04fea	0.023475606
30	0xbc716e14	-0.014735717
31	0x3d04f4ba	0.032459952
32	0xbbd2a208	-0.006428007
33	0xbc42c186	-0.01188696
34	0x3d1ccec5	0.03828313
35	0xbc00b6fe	-0.007856129
36	0x3c3f37e5	0.011671041
37	0x3cc56780	0.024097204
38	0x3be2171b	0.006899727
39	0xbb91f326	-0.0044540344
40	0x3c133f84	0.008987311
41	0x3c9b6207	0.018967642
42	0xbc66d33f	-0.014088451
43	0x3d08f492	0.033436365
44	0xbd3486dd	-0.04407393
45	0x3d20b15a	0.039231636
46	0x3d469e51	0.048490826
47	0x396cb3b3	0.00022573657
48	0xb9670188	-0.00022030447
49	0x3c94048a	0.01806857
50	0xbca0bf2e	-0.019622412
51	0x3c2755b8	0.010213308
52	0x3c3bb51a	0.011456752
53	0x3ca1a7a0	0.01973325
54	0x3a8424c4	0.0010081758
55	0x3bd89e85	0.006610694
56	0x3d0f56ce	0.034994893
57	0x3c8a42dc	0.016877584
58	0x3b647de0	0.0034865066
59	0xbd169e73	-0.036772203
60	0xbd345451	-0.044025723
61	0x3badcd56	0.005304019
62	0x3cc2f06e	0.023796286
63	0x3c25fa04	0.010130409
64	0xbcf30ce7	-0.029669238
65	0x3d062a9d	0.032755483
66	0xbd074a72	-0.03302998
67	0x3c88ecd7	0.016714497
68	0xbc985d50	-0.018599182
69	0x3cf0d2c9	0.029397385
70	0x3c63c05c	0.0139008425
71	0xbd235fba	-0.039886214
72	0x3c28ecab	0.010310332
73	0x3b22ce0e	0.0024842056
74	0x3d2720c0	0.040802717
75	0x3d262b25	0.04056849
76	0xbcca882e	-0.024723139
77	0xbc1d8e80	-0.009616494
78	0x3d2c92ca	0.042132176
79	0x3b0d224b	0.0021535333
80	0x3ce723a9	0.028215246
81	0x3d0b1836	0.033958636
82	0xbd059f2a	-0.032622494
83	0xbcf9d2c1	-0.030496003
84	0x3cf65b2a	0.030072767
85	0x3c0e6204	0.008690361
86	0xbc6fdfab	-0.014640729
87	0x3cf564ac	0.02995523
88	0x3c405db2	0.011741089
89	0x3b3794d5	0.0028012295
90	0x3c4df757	0.012571177
91	0xbd477fde	-0.048705928
92	0x3d153abe	0.036432974
93	0xbd17e931	-0.037087623
94	0x3cdd2190	0.026993543
95	0x3be5a2ef	0.0070079486
96	0x3a69d52b	0.0008920009
97	0x3cfa6217	0.030564351
98	0xbb64aa8f	-0.00348917
99	0x3c90c5cf	0.017672447
100	0x3d3f4408	0.04669574
101	0xbc09b290	-0.008404389
102	0x3caf59bd	0.021405095
103	0x3ca1e804	0.019763954
104	0xbd492d33	-0.04911537
105	0x3d125ffe	0.035736077
106	0x3c38260c	0.01123954
107	0x3c888985	0.016667137
108	0xbaf0118b	-0.0018315775
109	0x3c0fcaf5	0.008776416
110	0xbc9e25be	-0.019305106
111	0x3d178c36	0.03699895
112	0xbaae8d8d	-0.0013317332
113	0x38223e71	3.8681963e-05
114	0xbcd97a00	-0.026547432
115	0xbbeb5a21	-0.007182375
116	0x3d3c3b9f	0.045955297
117	0x3b845429	0.004038353
118	0xbc923568	-0.017847732
119	0xbc758748	-0.014985867
120	0x3bb1b5de	0.0054232916
121	0x3ba11d6a	0.0049168365
122	0x3caff276	0.02147792
123	0xbcb4f75c	-0.022090606
124	0xbd1d51b0	-0.03840798
125	0x3ac955fa	0.0015360706
126	0x3cde1ba5	0.027112791
127	0xbd178bd8	-0.0369986
128	0x3d20012c	0.039063618
129	0xbd4343e5	-0.04767217
130	0x3caa2027	0.020767285
131	0xbc35a7b0	-0.011087343
132	0x3c75c99e	0.015001683
133	0xbc244ce5	-0.010028099
134	0x3d1720e0	0.036896586
135	0xbce5c44b	-0.028047701
136	0x3ca3a861	0.01997775
137	0x3b7e436c	0.003879751
138	0x3c154f9c	0.009113219
139	0xbc364cfc	-0.011126753
140	0xbcf602f5	-0.030030707
141	0x3ae7e3af	0.0017691756
142	0xbd0a9972	-0.033837743
143	0x3af044b5	0.0018331023
144	0xbd3eb2a8	-0.0465571
145	0x3d3eea4a	0.046610154
146	0xbc43dc87	-0.011954433
147	0xbb702953	-0.0036645725
148	0x3caa88f0	0.02081725
149	0x3d0556d2	0.0325535
150	0x3cc4a1ce	0.024002936
151	0x3c1fe159	0.009758317
152	0xbd0f0a61	-0.034922007
153	0x3cec7083	0.028862244
154	0xbcdbed1b	-0.02684646
155	0x3c54c3b4	0.012986112
156	0x3c3a5b50	0.01137431
157	0x3c995083	0.018715149
158	0x3d14dc39	0.036342833
159	0x3d0081dc	0.031373844
160	0xbb8275bb	-0.0039813197
161	0x3d216202	0.03940011
162	0xbcb7c12d	-0.02243098
163	0xbcf7286d	-0.030170644
164	0xbcc37630	-0.023860067
165	0xbd2cee1e	-0.042219274
166	0x3bb218ad	0.0054350705
167	0xbbf6654d	-0.0075194
168	0xbc951841	-0.018200042
169	0x3cd967ca	0.026538748
170	0x3ccba7e4	0.02486033
171	0x3cd72143	0.026260978
172	0x3b32eaaf	0.0027300527
173	0xbab32d14	-0.001367005
174	0xbc38dd11	-0.011283175
175	0x3d165345	0.036700506
176	0x3c045d27	0.00807885
177	0x3c94e025	0.018173287
178	0x3c8bab21	0.017049374
179	0xbd1c8b42	-0.038218744
180	0xbc465fe8	-0.012107827
181	0xbd1b361e	-0.037893407
182	0xbd083bfd	-0.033260334
183	0x3d25165d	0.04030453
184	0xbd2fd660	-0.042929053
185	0xb88178f7	-6.173731e-05
186	0xbcbb725b	-0.022881677
187	0xbcbfc6bc	-0.023410194
188	0x3bf3aa57	0.0074360776
189	0xbd0ba548	-0.03409317
190	0xbb04fe92	-0.0020293337
191	0x3cc54419	0.024080323
192	0x3c9e13e7	0.0192966
193	0x3acbeb4c	0.0015557795
194	0xbd027c89	-0.031857047
195	0xbbe19c0d	-0.006885058
196	0x3d0ce951	0.034402195
197	0x3cf7f710	0.030269176
198	0xbd14cd11	-0.03632838
199	0xbd050980	-0.032479763
200	0x3c269688	0.010167725
201	0x3cd9d9c5	0.026593098
202	0xbce563fc	-0.028001778
203	0xbc9f415b	-0.019440344
204	0xbd18b3c4	-0.037280813
205	0x3bd5958f	0.006518073
206	0x3c680a6c	0.014162641
207	0x3c8c2e76	0.017111998
208	0x3ca57496	0.020197194
209	0x3bf45e1b	0.0074575073
210	0xbce2cb5e	-0.027684864
211	0xbc929e06	-0.017897617
212	0x3c9a06a6	0.018801998
213	0x3caf3876	0.021389227
214	0x3cec8c63	0.028875535
215	0x3cabb805	0.02096177
216	0x3c7fed91	0.015620605
217	0xbd39ddcd	-0.04537754
218	0xbb2ea115	-0.0026646305
219	0xbc30c069	-0.010788062
220	0x3c99f892	0.018795285
221	0xbc1c204d	-0.0095291855
222	0xbc6a664c	-0.014306616
223	0x3c692d38	0.014231972
224	0xbc0ab689	-0.008466371
225	0xbbf78e2b	-0.0075547895
226	0xbc89c571	-0.01681778
227	0xbd077106	-0.033066772
228	0xbbadba9d	-0.005301787
229	0x3d3b5191	0.045732085
230	0xbd1d7b48	-0.03844765
231	0x3d1d5170	0.038407743
232	0x3cd44075	0.025909642
233	0x3cacbe34	0.02108679
234	0x3d2bce77	0.041944947
235	0x3cc8fe3d	0.024535293
236	0x392c4bc5	0.00016431425
237	0x3c796553	0.0152219115
238	0xbc9bfcf0	-0.019041508
239	0xbd0f7ce1	-0.035031203
240	0x3bcd975a	0.006274146
241	0x3c8638d2	0.016384516
242	0x3bf1a2f1	0.0073741605
243	0x3ca36931	0.01994762
244	0xbd45e4a8	-0.048313767
245	0x3c60f288	0.013729699
246	0x3d29b448	0.041431695
247	0x3c0aff13	0.008483666
248	0xbcc3123c	-0.023812406
249	0xbd42c29a	-0.047548868
250	0x3d09908c	0.033585116
251	0x3cd17a42	0.025570992
252	0x3d233577	0.03984591
253	0xbcd3fcb2	-0.02587733
254	0x3d0f4049	0.034973416
255	0xbbf7a994	-0.007558057
