FederatedLLM/FT_lite/my_fl_model/peft_5/adapter_model.bin (torch, 791378 bytes, 12 tensors)

base_model.model.gpt_neox.layers.0.attention.query_key_value.lora_A.weight f4 [16, 512]
00000000: 3c3f 28bd 2672 99bc 716f a1bc a3e4 133d
00000010: 3a47 023d 83e4 f73c 04a1 73bc 21ce 09bc
00000020: eaff 33bd 717b fb3c a114 9ebc f0fb 223d
00000030: e52a 433c 342b 4e3c 6450 263d bbc3 4ebc
00000040: 7ccd 40bc 8f6f 55bc d270 333d 28d9 d8bc
00000050: f8a1 cd3c 4060 233b 5342 0ebd b7de 6d3b
00000060: 58b6 00bd fb07 c8bb 2f9d 2d3d d9be 0abc
00000070: 6524 10bd 98e7 29bd 7e56 5cba 52bd 0bbc
00000080: 0bab 19bd 3e12 ef3c adb4 17bd 5bfd 54bc
00000090: 10fa 06bd b4fd d63b a66a e03c 40c7 87bc
000000a0: d7fb 19bd 40c3 d5bc ac12 123d a325 003d
000000b0: ac18 1a3d f97a 043d 4d3b 293b 9f9c d7bc
000000c0: 320c bcbc fefa 1b3d 55e5 ca3c e64f a13c
000000d0: 366d 09bc 2487 e33b d229 1d3d 414d 25ba
000000e0: 826f 99bc 5b9a 50bc 8ca5 9a3c 6cbe 593c
000000f0: 33f3 c73b 5727 f53c 6d86 d8bc eb5c f3bc
00000100: f481 2d3d 737d bf3c 01cb 80ba 4d87 b53c
00000110: a07f 8e3c bf1b 333c 3df9 fdba 7771 d03b
00000120: 6e44 633c f45b c93c 13d2 5cbc 9ed2 cb3c
00000130: 7f16 a4bc bfee 01bd 388c f0bc c071 2d3d
00000140: 6029 1f3d 9573 31bd 1614 133d 4fc4 1ebd
00000150: 849f d1ba 8801 043d cc50 8dbc 2bf0 0b3d
00000160: 04ed 98ba 7b6d 1fbc 3dfc 163d 4e76 adbc
00000170: 0031 73bc 67c7 05bd a9d6 033d e06d d43c
00000180: 34ee 18bd e5c2 6bba 5299 e53c 4b30 debc
00000190: 1919 8dbc 0be0 2bbc 046b 0e3d bb6a b9bc
000001a0: 2c9f 563c a64e 0d3d dc97 763c b2b8 32bc
000001b0: 8658 253d da73 783c 173c 513a 49af fbbc
000001c0: eb63 bebc a23a aa3c fed1 fcbc 41b1 27bd
000001d0: 4a8a 343c 6cde 213c c466 23bc ad67 b6bc
000001e0: b4ec 123d 5a9c 2fbd f360 32bd feb8 91bb
000001f0: 8e98 8b3c 4cad 0dbc 3df0 933c 8765 a13c
00000200: d5e0 c73b fc59 03bd 7037 1bbc e5aa 613a
00000210: 17d1 eebc 61f7 bfbc b14f f43c c7a4 b63b
00000220: fad1 47bc 25e4 8dbc 0e42 dbbc 4b16 053d
00000230: f7d2 2cbd d0b6 b63c f8cc 0f3d 17ca 33bd
00000240: f9c3 3a3c 3ee3 9b3c 2e0c 22bc 2098 6e3b
00000250: dac9 eebc bde9 59bc 1e6f 29bc c82f 143c
00000260: a092 313d 26ee b33c 6281 283d bf09 c2bc
00000270: ad18 243c 40ee 843c db60 0c3d cb72 98bc
00000280: 1a86 2ebd c2ce da3c 7a1e b73c 32af 27bc
00000290: 75e4 d93c f561 4fbc 52dd 943c 46f6 03bc
000002a0: 7d7c d83a 5bd7 b23c 3ac8 ab3c cfbe 30bd
000002b0: efc7 023d b2ab de3c bd7c 893c 9906 c9bc
000002c0: ebf8 3dbc 964e dc3a a4e5 1e3d d08c 61bc
000002d0: 7627 c73c 3914 8dbb e532 7f3c 4e17 4b39
000002e0: 3bef f7bc 6b27 2b3d 958f d93c 086a af3c
000002f0: d0a4 40bc 943a dcbc 048c 953c 85da 023d
00000300: 6607 9f3a 95cf 59bc 2df8 003d 8cb5 3dbc
00000310: ba4f ea3c 6275 01bd 4f1f 0fbd 2a0c fabb
00000320: 2a3d 08bd 17bd 6ebb e8a1 573c 2ae6 003b
00000330: 436c 8bb8 62c2 a3bc 9876 ed3c ceb0 f63c
00000340: 84ec b3bc e38f 19bd 04d4 ea3c 5fc2 b73c
00000350: 5114 e73c 5d33 0c3c b239 d33b fb15 783c
00000360: 2e40 a0bc a4f8 02bd d0e4 33bd 806c c2bb
00000370: 5e64 6dbc 0b1f 11bd e384 a4bb 8896 ffbc
00000380: 8fc8 9c3c 5a07 cd3c 5361 44bc cd9a 323d
00000390: fd06 aabc c9c2 8fbc da62 41bc 39fc 30bd
000003a0: 72a6 133c 04da d73b 92b8 51bb 4850 033c
000003b0: 50aa 2cbc 26e5 04bd 713c 5339 7855 443c
000003c0: 30b9 fbbb 1e72 293c 286d aabc eabc 2dbd
000003d0: 2142 babc 462d 37bc d77a 093d cef9 093d
000003e0: 75e2 2a3d bfef 99bc 60f9 823c 1e56 a13a
000003f0: faf1 143a 1bd6 2c3d 0b4e 3e3b 3271 28bc
-0.04107593 -0.018731188 -0.01970646 0.036106717 0.03180621 0.03026033 -0.014869932 -0.008410961
-0.04394523 0.03069851 -0.019296946 0.039791048 0.011912082 0.012583543 0.04060401 -0.012619908
-0.011767741 -0.013027086 0.043808766 -0.026470736 0.025101647 0.0024929196 -0.03473122 0.0036296078
-0.031423897 -0.006104467 0.04238623 -0.008468353 -0.03519096 -0.04148063 -0.00084052223 -0.008529024
-0.037516635 0.029183503 -0.03703754 -0.012999858 -0.032953322 0.0065610055 0.027394604 -0.016574502
-0.03759369 -0.026094079 0.03566234 0.031285893 0.037621185 0.03234384 0.00258227 -0.0263198
-0.022955034 0.03808116 0.024767557 0.019691419 -0.008387854 0.0069436003 0.03836996 -0.0006305762
-0.018729929 -0.012732114 0.018877767 0.013290029 0.0061019897 0.029925985 -0.026431287 -0.029707393
0.04236026 0.023375249 -0.0009826125 0.022159243 0.01739484 0.010931908 -0.0019376647 0.0063611823
0.013871295 0.02457998 -0.01347782 0.024880704 -0.020030258 -0.031721827 -0.029363737 0.04234481
0.038857818 -0.04332312 0.035907827 -0.038761433 -0.0015992974 0.032228023 -0.017250441 0.03416459
-0.0011667316 -0.009730692 0.036861647 -0.021174576 -0.0148432255 -0.032660868 0.032187138 0.025931299
-0.037336543 -0.000899358 0.02802721 -0.027122637 -0.017223882 -0.010490428 0.034770027 -0.0226339
0.013099473 0.034498833 0.0150508545 -0.010908293 0.040367626 0.01516434 0.00079816714 -0.03072323
-0.023241004 0.020779911 -0.03086185 -0.040940527 0.011019299 0.00987969 -0.009973232 -0.022266233
0.03587027 -0.042873718 -0.04354949 -0.0044471016 0.017040517 -0.008647274 0.01805889 0.019701732
0.0060998 -0.032068238 -0.009473667 0.0008608534 -0.029152436 -0.02343339 0.029823156 0.005573842
-0.012196058 -0.017320702 -0.026764896 0.032491963 -0.04219338 0.022303969 0.035107583 -0.0438939
0.011399263 0.019029256 -0.009890599 0.0036406592 -0.029148985 -0.013300356 -0.010341434 0.009044595
0.043352723 0.021964144 0.041139014 -0.023686288 0.010015649 0.016226888 0.034272056 -0.018609425
-0.042608358 0.026709918 0.0223534 -0.010234641 0.026598195 -0.012657632 0.01817194 -0.008054322
0.0016516593 0.021831205 0.020969499 -0.04315072 0.031928953 0.02718148 0.016783113 -0.024539279
-0.011594991 0.0016808088 0.03879322 -0.0137664825 0.024310809 -0.0043053892 0.015576099 0.0001936827
-0.030265441 0.04178564 0.026557723 0.021412864 -0.011758044 -0.026883401 0.018255241 0.031946678
0.0012132942 -0.01329412 0.03148668 -0.011578929 0.02860247 -0.031606086 -0.034941968 -0.0076308446
-0.033261456 -0.0036428624 0.01316116 0.0019668438 -6.648202e-05 -0.01999015 0.028987214 0.030113604
-0.021963365 -0.037490737 0.02866555 0.02243155 0.02820793 0.008557168 0.006446087 0.015141959
-0.019561853 -0.031975403 -0.043919384 -0.0059333444 -0.014489261 -0.035429996 -0.005020724 -0.031199709
0.019138603 0.02502792 -0.0119860945 0.04360466 -0.020755285 -0.017548935 -0.011803353 -0.04320929
0.009011852 0.006587269 -0.0032000882 0.008014746 -0.010538653 -0.032445095 0.00020145044 0.011983268
-0.007681988 0.010342149 -0.020804003 -0.04241649 -0.02273661 -0.011180228 0.033564415 0.033685498
0.041719873 -0.018791078 0.015988052 0.001230899 0.0005681809 0.042196374 0.0029038216 -0.010280894

base_model.model.gpt_neox.layers.0.attention.query_key_value.lora_B.weight f4 [1536, 16]
00000000: 5d09 38b8 eb4f 1eb8 8861 7137 0096 94b1
00000010: d68b 8536 f0f4 31b7 45f4 5537 15b7 06b8
00000020: 0324 1fb8 7102 d7b6 bd33 16b8 f677 1738
00000030: 6eb1 06b8 ca45 56b7 192b a237 7ab0 68b8
00000040: f1a0 04b8 ddbe 0638 2cbb 05b7 4fa8 e337
00000050: fb61 1538 5ee1 f937 5a9d 0438 0296 7d36
00000060: 1477 4db7 d71a 4cb8 effc 4038 0cce 0d37
00000070: 03d3 ee36 35d2 adb7 e68b 78b8 06f6 9fb6
00000080: 59fc eeb6 0670 9738 f7a5 04b8 e710 0f36
00000090: f6bc cd36 5f82 e937 f00e 8137 a8a7 0438
000000a0: 9a1c e1b7 e074 8fb6 c6e6 8536 3eea 0d37
000000b0: 3b90 1938 4108 b237 5785 e9b7 1bbc cdb6
000000c0: b6d3 41b8 799e 6638 02c7 c737 6ac3 7437
000000d0: 4c74 ce36 40b5 bf37 b20e 13b7 de8b 4db7
000000e0: f565 2938 c9b6 56b8 f697 5f38 d3a3 74b7
000000f0: 9078 fb37 f7f4 7db6 5cd5 0f36 abb1 06b8
00000100: d49a cd36 9f95 80b8 deac e337 db58 cdb6
00000110: 18d5 e7b7 dd99 29b7 ce55 15b8 e95e c6b7
00000120: 1e5d 3a37 406c 1738 1eca 31b7 840f 8e38
00000130: 50f9 4338 dc46 0237 fe59 8c37 fed4 e737
00000140: 8473 0e38 2017 0fb6 b91c de36 00b8 f831
00000150: 3442 71b7 c7c1 0a37 dea6 a637 403c 9636
00000160: 1ac6 56b8 4eed 3a38 005e 02b2 4168 c8b8
00000170: 72d5 1db6 48d3 8f36 f5b1 55b7 3684 1938
00000180: 744d 3a37 8af6 3738 4eec 5537 c215 0fb6
00000190: fe12 1036 4548 96b6 8949 9e37 3d6d 9eb7
000001a0: 1e32 b6b7 7f82 30b6 9f2a 3237 4eb9 d1b7
000001b0: 026f e5b7 235c de36 5184 a237 ada3 0438
000001c0: aa1d 81b8 226b 7938 a0fb 5037 9276 20b8
000001d0: 68fa dd36 009c 5d38 64a3 cd36 60d4 eeb6
000001e0: 2242 c237 6ac7 5cb8 27a6 2937 660b 26b8
000001f0: d9e4 3e36 d0dd ad37 ccbc 41b8 3063 20b8
00000200: 6623 de36 987b 1738 4166 9eb7 fb4a 96b6
00000210: b072 7ab7 d0df cd36 b076 a237 cf4d 9636
00000220: d86e 17b8 6cb1 0a37 9a4f 9636 ea73 a2b7
00000230: 6b55 7137 7464 9eb7 fad2 3137 c091 1938
00000240: 1696 4db7 e95f 17b7 9939 5937 a4dc bf37
00000250: ac48 f7b7 8a64 9e37 d0c7 9437 cce7 cdb6
00000260: 393f 9e37 0065 f731 f4b3 0638 8d1d 8636
00000270: 0289 a2b7 44e0 3137 3b7e 52b7 844f df36
00000280: 22d1 8eb7 9906 fe37 5cc4 cd36 3503 1337
00000290: 2bda d537 65e8 cdb6 f00e 7f38 90b9 0a37
000002a0: 5f9f dd38 fd63 f7b7 0b0b deb6 5b59 41b8
000002b0: 044b dfb5 2e19 0fb6 8e66 9638 2047 96b6
000002c0: 19e0 8536 83f4 4cb8 ed49 deb6 b9e1 5537
000002d0: 0e77 0e38 00e1 d537 007d 88b8 ec67 b4b7
000002e0: 860c 8eb8 2c4f deb6 e8cb 79b7 dff7 1237
000002f0: 5a75 2038 cddd cd36 f7e5 c3b7 bff8 85b6
00000300: f87d 6d38 8edd 8eb7 c20d 13b7 24eb 43b8
00000310: 4580 fb37 0000 84ad 68ac 21b7 c737 5eb7
00000320: 60e0 cbb8 986e 0538 94a4 0f36 f259 c2b7
00000330: a4d5 0db7 f742 5eb7 15dc 8eb7 bd9d 3036
00000340: bd1d 9ab7 5c41 1036 2660 15b8 2848 1e38
00000350: 1e4d f737 b51c ac37 9c7f 8838 4d61 8cb7
00000360: c0e3 c238 75e4 55b8 b601 1337 fea9 71b8
00000370: 4ebe 4db7 dcb4 05b7 ebe4 d537 88f4 4338
00000380: dc1d 9ab7 99cb 31b7 6526 31b8 9054 deb6
00000390: a440 b037 5aac ab37 7a08 2f38 a452 f7b7
000003a0: e2ce 5338 01e9 4cb8 4172 a237 9430 3cb8
000003b0: d2a5 71b7 e8b5 d1b7 3d5b 9eb7 86f5 4338
000003c0: c591 8536 7a65 b0b7 6042 2a38 3a78 4db7
000003d0: aab8 5fb8 12be d1b7 0010 e831 0e7f 6d38
000003e0: 2e7c 1637 7ed5 e737 34d3 31b7 8806 2f38
000003f0: 2e61 8c37 ebcf 4ab8 8253 f7b7 2a34 deb6
-4.387774e-05 -3.7744565e-05 1.4387428e-05 -4.32442e-09 3.979988e-06 -1.0607051e-05 1.2752663e-05 -3.2118598e-05
-3.7942093e-05 -6.4077835e-06 -3.5810972e-05 3.6112928e-05 -3.2113334e-05 -1.2771643e-05 1.9331974e-05 -5.5477467e-05
-3.162114e-05 3.2125845e-05 -7.970997e-06 2.7138884e-05 3.561562e-05 2.9788058e-05 3.1617798e-05 3.7787254e-06
-1.2246677e-05 -4.8662387e-05 4.601193e-05 8.452229e-06 7.1175177e-06 -2.0721092e-05 -5.92581e-05 -4.76721e-06
-7.12233e-06 7.221107e-05 -3.162582e-05 2.13185e-06 6.131474e-06 2.7836473e-05 1.5384954e-05 3.1627394e-05
-2.6835409e-05 -4.275338e-06 3.9905744e-06 8.458794e-06 3.6612368e-05 2.1223097e-05 -2.7837856e-05 -6.1313744e-06
-4.6211957e-05 5.4983862e-05 2.3815319e-05 1.4589032e-05 6.152817e-06 2.2853375e-05 -8.765304e-06 -1.2251518e-05
4.0387695e-05 -5.1191808e-05 5.3308868e-05 -1.4581677e-05 2.9977673e-05 -3.7842526e-06 2.1432852e-06 -3.2113556e-05
6.1275005e-06 -6.131385e-05 2.7141006e-05 -6.1198202e-06 -2.7636575e-05 -1.0109009e-05 -3.560428e-05 -2.3647635e-05
1.11081445e-05 3.610202e-05 -1.0597081e-05 6.773978e-05 4.6723813e-05 7.765102e-06 1.6731206e-05 2.7636528e-05
3.396302e-05 -2.132212e-06 6.6194593e-06 7.2386683e-09 -1.43801335e-05 8.270558e-06 1.9866446e-05 4.4773624e-06
-5.1206072e-05 4.4566863e-05 -7.588369e-09 -9.556162e-05 -2.3519065e-06 4.2863285e-06 -1.2737223e-05 3.6601174e-05
1.1104497e-05 4.3860207e-05 1.2750808e-05 -2.1321325e-06 2.1468727e-06 -4.4787616e-06 1.886931e-05 -1.8885936e-05
-2.1719428e-05 -2.6302002e-06 1.061955e-05 -2.500103e-05 -2.735062e-05 6.6268417e-06 1.937352e-05 3.1623687e-05
-6.156725e-05 5.9466e-05 1.2456352e-05 -3.82574e-05 6.6154644e-06 5.2835792e-05 6.1284973e-06 -7.1176764e-06
2.3157398e-05 -5.2637806e-05 1.011187e-05 -3.95881e-05 2.8445413e-06 2.0726497e-05 -4.6190617e-05 -3.823935e-05
6.6202365e-06 3.611631e-05 -1.8882683e-05 -4.4790772e-06 -1.4927864e-05 6.1355313e-06 1.9367173e-05 4.4794065e-06
-3.6104437e-05 8.26675e-06 4.479615e-06 -1.9365882e-05 1.4384607e-05 -1.8881845e-05 1.0599144e-05 3.6613783e-05
-1.2253897e-05 -9.022632e-06 1.2947618e-05 2.2871718e-05 -2.9478535e-05 1.8881885e-05 1.773602e-05 -6.136461e-06
1.8864508e-05 7.2001285e-09 3.2115684e-05 3.9969514e-06 -1.9375704e-05 1.0602238e-05 -1.2546366e-05 6.6551747e-06
-1.7025104e-05 3.0282232e-05 6.1323353e-06 8.7626295e-06 2.5493171e-05 -6.1365304e-06 6.081065e-05 8.268646e-06
0.000105677864 -2.9491255e-05 -6.617401e-06 -4.6098005e-05 -1.6636627e-06 -2.1323317e-06 7.17166e-05 -4.4786284e-06
3.9897973e-06 -4.886511e-05 -6.6247217e-06 1.27483445e-05 3.3966317e-05 2.5496352e-05 -6.5082684e-05 -2.1506065e-05
-6.77342e-05 -6.6253324e-06 -1.4889032e-05 8.75999e-06 3.8256265e-05 6.135297e-06 -2.3352897e-05 -3.9926667e-06
5.662252e-05 -1.7030889e-05 -8.765086e-06 -4.6710615e-05 2.9981262e-05 -1.5006663e-11 -9.636489e-06 -1.3245218e-05
-9.7215874e-05 3.181267e-05 2.1404458e-06 -2.3168486e-05 -8.453997e-06 -1.3247823e-05 -1.7030203e-05 2.631786e-06
-1.8372079e-05 2.1495716e-06 -3.5613913e-05 3.7737336e-05 2.9480605e-05 2.0517366e-05 6.5087544e-05 -1.673461e-05
9.2930626e-05 -5.0995925e-05 8.762281e-06 -5.7617195e-05 -1.2263261e-05 -7.969527e-06 2.5498177e-05 4.671936e-05
-1.8372135e-05 -1.0597426e-05 -4.2235846e-05 -6.62596e-06 2.1010936e-05 2.0465046e-05 4.1731146e-05 -2.9483177e-05
5.0498995e-05 -4.8854392e-05 1.9365109e-05 -4.4867935e-05 -1.4403327e-05 -2.4999448e-05 -1.8877554e-05 4.6720284e-05
3.9806787e-06 -2.1028089e-05 4.0592975e-05 -1.2246945e-05 -5.3339325e-05 -2.500325e-05 6.7539077e-09 5.6623532e-05
8.96961e-06 2.7636761e-05 -1.0599197e-05 4.1729334e-05 1.6734553e-05 -4.835419e-05 -2.948358e-05 -6.6221883e-06

base_model.model.gpt_neox.layers.1.attention.query_key_value.lora_A.weight f4 [16, 512]
00000000: 4825 a23c 24e0 12bd 48ca 093d 3a07 033d
00000010: 4172 e53c 6b61 283b 4ac8 083d b87d 083d
00000020: 39f8 22bd 67e1 adbc c181 893c 5661 47bc
00000030: d8c6 aa3c 4ccd 60bc 15c4 43bc 1c57 eabc
00000040: b321 323d 97e1 0a3d 2626 993b b076 1ebc
00000050: 67ef c3bc 425d 0a3c fa7d e63c ead1 1ebd
00000060: cfe0 00bd cea3 353c 7c87 eebc 2062 fd3c
00000070: 74da 83bc 4c41 ccbc e66a 06bd a96c f13c
00000080: 12a6 20bd fcca 1bba 0bae 0e3d 3e11 9ebc
00000090: 4193 03bd 491d 6d3c 7f42 a3bc e9fa dbbc
000000a0: 2d02 b3bc 4621 303d a622 a23c b699 eb3c
000000b0: 16b2 91bb c78a 9b3c d359 b33a 28b2 0abd
000000c0: f079 0d3d f8c7 123d 3a38 0cbd 96c1 343d
000000d0: fa56 d63c 50cd 41bc 7ddb c0bc 7613 f3bc
000000e0: 941c f9bc b686 dabc 11eb a93a d05e b6bc
000000f0: 0476 0fbd 8b72 333d 46e2 ddbc 7649 f6bc
00000100: 2801 0a3c e2ee b8bc 1f47 313d 14a7 c8bc
00000110: 9bce 723a 0ae3 a0bb fef6 6ebb 7a57 773b
00000120: 276f f33c 997a 233d e804 613c c621 1fbc
00000130: 0ebc 1e3d eb36 103d 7752 043c dde2 a4bc
00000140: fd50 a1bc 8dc2 25bd 3f56 13bd 5e21 45bc
00000150: ae88 823c 53ef fbbc f2db e0bc 4e91 303d
00000160: 52c6 9f3c 5e2a 26bc 4bbc dfbc d94b 133d
00000170: 10c3 853c 9e49 9abc 0ead c5bc 465f dc3c
00000180: 7e0f e43c fc1b fabc b13b bc3c 0dfd 8f3c
00000190: 420a 0b3d 8be1 06bc cfe1 c03b 174f 20bd
000001a0: 0aa8 153d 9848 f63b 717e 043d b0ae d73b
000001b0: 988c 77bb b7f1 503c 891d 123d 692b 2a3c
000001c0: c444 083d b8a5 c63c b72c 6d3c 96a3 04bb
000001d0: 77be 913b 3aed 223d 383a 813c 691b 463c
000001e0: 2a44 48bc a03d dcbb 9b1e 313c 633e 153c
000001f0: e602 0bbd 6c9c 333d ffea f63c 1654 973b
00000200: 8fcf 123c fae5 833b d845 f83c c688 1b3d
00000210: 10dd 2fbd 75dc c6bc a44c a4bb 201b 27bd
00000220: 88d9 ec3c 2cfb 41bc 2969 c63c 6c40 f3bc
00000230: e2ad eebc dc36 703c 0503 683a b4d5 81bb
00000240: 94eb aebc cdc7 333d 57d7 a73c 60e8 bc3c
00000250: bb64 2ebc e167 05bd de8c f13c f60b dbbb
00000260: 5aaf 423c a4df d33c ca60 4ebb e807 dfbb
00000270: ca73 18bd 05c6 d1bc 092f a63c baba c43c
00000280: 6d0d e2bc 7166 22bd 45ed 1bbc 38fa d63c
00000290: e921 343d fad9 333a 16f0 c5ba af79 023d
000002a0: b0d4 12bd 74b4 08bd afda e23b df50 7f3c
000002b0: 9047 04bd 7aca 0d3c ef9d 2e3d d842 1bbc
000002c0: ea5f d8bc 9053 ac3c 6788 04bc 5618 1abd
000002d0: 3482 1abb e228 15bd b0a0 323c 4c7d 253d
000002e0: 917d e1bb f3e7 93bc be16 a439 c29f d9bc
000002f0: 7635 1c3c 09cc 1e3d 0a5b 0c3d f013 573c
00000300: 0a28 183d 85c4 933c 208f c1bc 0acf 30bd
00000310: 558a a1bc 0ba6 a8bb 772a 26bd dcf6 e4bc
00000320: 72bd d4bc 1bef c13c f4fe 17bd 5ae8 053d
00000330: ea06 72bc f320 1d3d 9931 933c 12b0 f0bb
00000340: 2ef7 2b3c 9a42 293c fa74 c03b 3cbf da3c
00000350: f06c 9f3c 8507 f7bc 2267 fbbc ebe1 c1bb
00000360: 8110 ecbc 756f 1fbd cc4d 463c 6144 83bc
00000370: 9838 4a3c c2d7 163d 9a94 8dbb 4363 1cbb
00000380: b041 223d f92e ee3a c5c7 73bb 0b49 a03c
00000390: a86e 593c 0212 08bd 5501 ee3b f12d 963c
000003a0: 8325 44bb a5fa debc 59dd 253d 619a 753c
000003b0: 3381 c7bc acd0 8abc 189b 483c 9ba6 063d
000003c0: f244 acbc 5314 eebb 9845 e4bc ea0e 003d
000003d0: 4a00 f3bc d50f 2abd b035 093d 777b 11bd
000003e0: 3ed8 c93c fe98 edbc bcd0 11bd adf0 fabc
000003f0: 1662 963c 8097 80bc c114 a3ba adaa 47bc
0.019793168 -0.03585829 0.033640176 0.031989314 0.028008582 0.0025692831 0.033394136 0.03332302
-0.039787505 -0.021225644 0.016785504 -0.012169203 0.02084677 -0.013720822 -0.011948605 -0.02860599
0.04348917 0.033906545 0.004673737 -0.009671852 -0.023917867 0.008445086 0.028136242 -0.03877441
-0.031464394 0.011086417 -0.029117338 0.030930579 -0.016095378 -0.02493348 -0.03281679 0.029470759
-0.039220877 -0.0005943028 0.03483395 -0.019295331 -0.032122854 0.014472314 -0.019929169 -0.026853042
-0.021851623 0.043000482 0.019791912 0.028759819 -0.0044462783 0.018987073 0.0013683386 -0.03386131
0.034540117 0.035835236 -0.03423331 0.04412993 0.02616452 -0.0118287355 -0.02354216 -0.029672366
-0.030409135 -0.026675563 0.0012963732 -0.022262007 -0.035024658 0.04381041 -0.027085435 -0.030064326
0.008423127 -0.022574846 0.043280717 -0.024493732 0.0009262354 -0.0049098777 -0.0036463137 0.003774135
0.029716088 0.03991184 0.01373408 -0.009712642 0.03875356 0.035208624 0.008076302 -0.020127708
-0.019691939 -0.04046874 -0.035970923 -0.012031881 0.015934315 -0.030753767 -0.027448628 0.043107323
0.019503746 -0.010141937 -0.027311465 0.035961006 0.016328365 -0.018833932 -0.02413037 0.026900899
0.027839419 -0.030530922 0.022977682 0.017576719 0.03394533 -0.008232485 0.0058862935 -0.039137926
0.036537208 0.007515978 0.032347146 0.0065821037 -0.003777301 0.012752942 0.0356727 0.010386326
0.033268705 0.024248943 0.014475993 -0.0020239106 0.004447754 0.039777018 0.015774831 0.012091496
-0.012223283 -0.0067212135 0.01081052 0.009109112 -0.03393831 0.043850347 0.030141352 0.004618178
0.008960619 0.004025218 0.030306742 0.037972234 -0.04293543 -0.024275044 -0.005014019 -0.040797353
0.02891232 -0.011839669 0.024220066 -0.029693805 -0.029135648 0.014661517 0.00088505476 -0.003962243
-0.021352567 0.043891717 0.020488424 0.023060024 -0.010644133 -0.03256977 0.029486116 -0.0066847755
0.011882627 0.025863476 -0.0031490796 -0.0068063624 -0.0372198 -0.025607118 0.0202861 0.02401482
-0.027594293 -0.039648477 -0.009517019 0.02624236 0.04397765 0.0006860789 -0.0015101458 0.031854328
-0.035847366 -0.03337522 0.006923042 0.015583246 -0.03229481 0.008654231 0.042631086 -0.009476386
-0.026412923 0.02103594 -0.0080891615 -0.037620865 -0.0023576142 -0.036415942 0.010902569 0.040402696
-0.0068814238 -0.018054938 0.00031297462 -0.026565436 0.00953423 0.0387688 0.03426651 0.013127312
0.03714756 0.018038044 -0.023627818 -0.043166198 -0.019719282 -0.005146747 -0.04056784 -0.027949743
-0.02596924 0.023673585 -0.037108377 0.03269229 -0.014772156 0.0383615 0.017967986 -0.007345208
0.010495944 0.01033082 0.0058733197 0.026702516 0.019461125 -0.030154953 -0.030688826 -0.005916824
-0.028816463 -0.038924653 0.012103509 -0.016023817 0.012342595 0.036826856 -0.004320693 -0.0023862876
0.039613426 0.0018171958 -0.003719793 0.01956608 0.013271011 -0.0332203 0.0072633424 0.018332453
-0.0029929585 -0.027219126 0.040494297 0.01499042 -0.0243536 -0.016945206 0.0122440085 0.03287373
-0.02102897 -0.0072656064 -0.027865216 0.031264223 -0.029663224 -0.041519005 0.033498466 -0.035518136
0.024639245 -0.029003616 -0.035599455 -0.030632341 0.018357318 -0.01569724 -0.0012442098 -0.012186688

base_model.model.gpt_neox.layers.1.attention.query_key_value.lora_B.weight f4 [1536, 16]
00000000: 6c5a 8c37 4083 a237 2867 20b8 8d86 85b6
00000010: 4850 2738 42d6 e737 9f18 8638 3a36 4eb8
00000020: 43a8 04b8 7758 f737 0031 deb6 dc12 c8b7
00000030: 6118 3138 6699 0438 48a1 d4b7 e968 2038
00000040: c787 fbb7 4f30 dcb5 b8c6 8536 18ef 43b8
00000050: 075a 9e37 d63d 0f36 efc7 8e37 128c 9037
00000060: 5fbf bf37 fca6 0a37 a57c 05b8 2ab7 bfb7
00000070: bcf9 c337 8261 7ab7 9ca8 0a37 714f 1e38
00000080: 8150 9eb7 5ea3 04b8 62b7 0537 6145 cdb6
00000090: 651c ba38 1077 5e37 0054 5e37 6b01 b2b7
000000a0: c091 70b8 d8f0 9b38 c0c3 1638 2ee8 1237
000000b0: 56c6 d137 bc77 2038 b097 6638 6230 b238
000000c0: 69dc 41b8 a5e1 d5b7 38ab 0ab7 596e ddb5
000000d0: fb22 4338 3a78 1738 b8ff d537 c052 1eb8
000000e0: 0d43 72b7 9690 1938 9813 acb7 de78 0eb8
000000f0: f620 8038 5102 c437 8e30 b637 d834 b238
00000100: 2117 dab7 63d9 e737 acbf 8037 938f 90b7
00000110: dca4 04b8 3292 19b8 2a7b 17b8 4e34 1f38
00000120: 369a 9238 9541 b6b7 641f bab8 f1d3 79b7
00000130: 0685 b437 7eb4 71b8 2dae 2e37 b4ac 54b8
00000140: 4077 2038 804d 2fb2 3349 de36 bc43 3338
00000150: 8a43 3a37 e16d 9eb7 4cd1 b537 026a 1738
00000160: 3236 d437 abf4 4cb8 ea85 0db8 95d7 43b8
00000170: bdd5 8e37 dad0 8eb7 8d8c 0238 8270 3ab8
00000180: d0a1 5438 9f62 f7b7 30ad e3b7 89bc 6838
00000190: f8b6 0f38 ef6f 2938 b60a 9838 526a 8cb7
000001a0: a101 3237 2e70 2038 b4c6 5537 5493 0f36
000001b0: d8c9 f7b7 6f7c 0e38 3726 de36 937f fb37
000001c0: 6ba4 16b8 41d2 0ab7 8097 04b8 36b6 18b8
000001d0: 78bf 32b7 af6e 5eb7 bea3 8a37 09c7 1b37
000001e0: f82c b238 fb0a 4cb8 c286 6fb8 8c42 cdb6
000001f0: acae 8538 b405 97b8 54a5 8438 f435 7db7
00000200: d474 cdb6 a88e e937 5df2 0d37 97e9 31b7
00000210: f7b4 9636 5695 a237 cd3a 3338 2e6c 07b5
00000220: 8039 13b7 bc9a 9037 5ae9 31b7 bf8c d7b7
00000230: a8a4 5d38 d8c2 0638 7a7e 8838 4876 9738
00000240: c2df 4138 fc0d 46b8 29c7 0638 aca2 5d38
00000250: de97 6fb8 3bfb 55b7 2cb7 e3b7 10ab 2937
00000260: 637e 2b38 00df f435 c5e5 9138 7a0c 98b6
00000270: 3661 f7b7 7488 8fb6 cb24 0eb7 6a6b 0cb8
00000280: b7d3 53b8 b215 32b7 b65a f7b7 09d0 53b8
00000290: d26e 7938 f973 1738 c424 8137 a59c 0a37
000002a0: ac1a deb6 90ce 0635 93b4 bfb7 6731 7db7
000002b0: d358 5eb7 0c17 acb7 d3ef 3137 0845 2a38
000002c0: e008 4d38 8129 c8b7 1abc 0f38 5b7c 0538
000002d0: 2e0d c4b7 d28f a2b7 bca8 04b8 9056 05b5
000002e0: 40db 8e37 596b 8c37 1aa0 9cb7 c285 fbb7
000002f0: 147d 0eb8 335f e937 0afc 7937 88d3 4ab8
00000300: 3a94 5db8 aea8 0438 d119 b6b7 e801 10b6
00000310: 389a d1b7 f46f 7e36 2a8f c4b8 bbe9 d537
00000320: fa79 8c36 0810 3237 a262 0c38 2124 0e37
00000330: 7c6e b437 b3ae a2b7 6d6c 16b7 7a0c d4b6
00000340: 525a a538 316e 29b8 92df d537 c13e 3338
00000350: ca93 e937 41e5 1638 a001 5838 32c8 5537
00000360: 5074 9738 d693 0438 951e a437 0c43 2ab8
00000370: b977 7d36 4cc1 5638 fa04 3237 1a82 a237
00000380: a760 0cb8 0c93 a2b7 44eb 80b7 79f5 d537
00000390: e9b8 6838 d3bf de36 76bf 5f38 5673 e5b7
000003a0: 2eb3 85b8 a6ee 4c38 be05 9738 8466 2938
000003b0: b672 20b8 2cef 5538 db64 d337 d12f b238
000003c0: dcee c337 940a 32b7 8b39 3338 3153 1e38
000003d0: 0044 29b1 b6eb 9bb8 4063 2938 c8a8 8a38
000003e0: 66b5 8538 7093 10b8 1b76 17b8 8633 cd36
000003f0: 6e22 8137 586f deb6 85b3 8536 6bbc 5fb8
1.6731407e-05 1.9373023e-05 -3.8243044e-05 -3.9793727e-06 3.989067e-05 2.7637117e-05 6.394204e-05 -4.916473e-05
-3.162796e-05 2.948589e-05 -6.62182e-06 -2.385064e-05 4.2222793e-05 3.1614116e-05 -2.5347472e-05 3.8244678e-05
-2.9984758e-05 -1.6405337e-06 3.986843e-06 -4.6714296e-05 1.887699e-05 2.1344654e-06 1.702082e-05 1.7231363e-05
2.2858088e-05 8.26432e-06 -3.1825755e-05 -2.2854267e-05 2.3362103e-05 -1.4923864e-05 8.264698e-06 3.774412e-05
-1.8872555e-05 -3.16234e-05 7.970115e-06 -6.117553e-06 8.87446e-05 1.32599525e-05 1.3251789e-05 -2.1219914e-05
-5.73562e-05 7.4358366e-05 3.5945093e-05 8.756337e-06 2.5007099e-05 3.8258484e-05 5.4977543e-05 8.4967134e-05
-4.622006e-05 -2.5496653e-05 -8.265306e-06 -1.6497899e-06 4.65242e-05 3.6113175e-05 2.5510657e-05 -3.7747202e-05
-1.44399355e-05 3.66127e-05 -2.0513122e-05 -3.3968005e-05 6.109655e-05 2.33661e-05 2.17187e-05 8.497544e-05
-2.5998395e-05 2.7638574e-05 1.5348043e-05 -1.7232995e-05 -3.162479e-05 -3.6614198e-05 -3.611591e-05 3.7957267e-05
6.9905465e-05 -2.172663e-05 -8.875018e-05 -1.4890903e-05 2.1519616e-05 -5.7626974e-05 1.0411762e-05 -5.070558e-05
3.8258033e-05 -1.0203962e-08 6.624637e-06 4.274001e-05 1.1102189e-05 -1.8886234e-05 2.1674343e-05 3.6099933e-05
2.5297606e-05 -4.8865255e-05 -3.3741737e-05 -4.66924e-05 1.7027249e-05 -1.7024973e-05 3.1125313e-05 -4.4450637e-05
5.069544e-05 -2.9490619e-05 -2.7141155e-05 5.5488697e-05 3.426426e-05 4.0396986e-05 7.24992e-05 -1.673881e-05
1.0610006e-05 3.8251448e-05 1.27420535e-05 2.1394417e-06 -2.9538685e-05 3.3971326e-05 6.6205644e-06 2.9980938e-05
-3.5915913e-05 -8.2743945e-06 -3.1612348e-05 -3.640932e-05 -1.0654207e-05 -1.3258002e-05 1.652713e-05 9.285061e-06
8.4960775e-05 -4.8647616e-05 -5.7107543e-05 -6.117223e-06 6.3744694e-05 -7.2013034e-05 6.325045e-05 -1.5092537e-05
-6.1230767e-06 2.7842194e-05 8.4606845e-06 -1.0604409e-05 4.4914154e-06 1.9381445e-05 4.2731688e-05 -5.044884e-07
-8.7752705e-06 1.7238192e-05 -1.06043535e-05 -2.5695537e-05 5.2843854e-05 3.2129552e-05 6.5085434e-05 7.222273e-05
4.6223176e-05 -4.7219903e-05 3.2133572e-05 5.2842006e-05 -5.7123478e-05 -1.27542835e-05 -2.7145805e-05 1.0113014e-05
4.0887284e-05 1.8244318e-06 6.956937e-05 -4.5314055e-06 -2.9489962e-05 -4.2776173e-06 -8.472426e-06 -3.347864e-05
-5.0503495e-05 -1.0614678e-05 -2.9486935e-05 -5.0500068e-05 5.9469436e-05 3.6109213e-05 1.5395119e-05 8.261913e-06
-6.6192206e-06 5.021948e-07 -2.285306e-05 -1.50914775e-05 -1.3252912e-05 -2.051473e-05 1.0605861e-05 4.059545e-05
4.8884074e-05 -2.3861185e-05 3.426904e-05 3.1825486e-05 -2.3371158e-05 -1.9378876e-05 -3.16284e-05 -4.9672326e-07
1.7029815e-05 1.6739288e-05 -1.8671202e-05 -2.9983818e-05 -3.3971926e-05 2.7820095e-05 1.4900239e-05 -4.8357557e-05
-5.2828553e-05 3.1628348e-05 -2.1708112e-05 -2.1458782e-06 -2.4986555e-05 3.7914115e-06 -9.372675e-05 2.5500418e-05
4.186525e-06 1.0613359e-05 3.347046e-05 8.4722715e-06 2.150912e-05 -1.9393256e-05 -8.965942e-06 -6.319545e-06
7.8846366e-05 -4.0395364e-05 2.5495687e-05 4.273537e-05 2.7844584e-05 3.5976296e-05 5.1499926e-05 1.2742401e-05
7.221906e-05 3.1608935e-05 1.9564564e-05 -4.05936e-05 3.7769626e-06 5.1201598e-05 1.06107855e-05 1.9372488e-05
-3.3468616e-05 -1.9380379e-05 -1.5368343e-05 2.5505886e-05 5.548532e-05 6.638447e-06 5.3345655e-05 -2.7352635e-05
-6.375309e-05 4.885965e-05 7.201311e-05 4.0388215e-05 -3.8253806e-05 5.1005904e-05 2.5200125e-05 8.496608e-05
2.3357039e-05 -1.061209e-05 4.2730517e-05 3.7747614e-05 -2.463139e-09 -7.4348805e-05 4.0385174e-05 6.611791e-05
6.375722e-05 -3.4469587e-05 -3.61112e-05 6.115474e-06 1.5394031e-05 -6.6290777e-06 3.9846077e-06 -5.334282e-05

base_model.model.gpt_neox.layers.2.attention.query_key_value.lora_A.weight f4 [16, 512]
00000000: ca7b 6d3c b4ff 0ebd 0aca 87bc 5b9f c43c
00000010: fc5f 8c3c ce9f adbc 76b0 34bd 554c 2dbd
00000020: c362 88bc ef9d c1bc 8050 313d b395 323d
00000030: 0b3a 94bb 541d b7bb 17f9 7c3c 5c21 b23c
00000040: 58e4 a13c 54d0 763c e301 9bbc 780e 9639
00000050: d0fe 09bd f41d 08bd c880 e5bc 287b ab3c
00000060: 4ab0 43bc 3188 0e3d 3453 613c b0fc 94bc
00000070: 8e04 213b 50c3 a33b 89c0 0f3d 9e50 9c3c
00000080: 47b6 193d 6bf9 a83c 4954 82bc 72ec 023d
00000090: 1aca 9bbc 84d4 6bbc 2204 1d3d a4bc 4d3c
000000a0: 4a95 9b3c b8e5 aabc efe7 1b3d ee39 2f3d
000000b0: 3f8e d1bc 9af9 0d3d 621d 103d 601b afbc
000000c0: 161f 1f3d ab21 af3c 1e2a 71bc 9660 313d
000000d0: 8afe ebbc 5c71 e23b 7209 223d b0c2 63bc
000000e0: 6f78 fbbc ba17 1e3d 81c4 1abd 49a9 333d
000000f0: ea15 2cbc 9906 2f3d 1378 0e3c 9c49 fc3c
00000100: 8f9c 2ebd ffac 15bd b77c 643c 28ea a93b
00000110: fea9 09bd cabb 343d 97c5 853c 992c 983b
00000120: 53e1 283d 4467 263c d01b d73c 7d45 e1bc
00000130: 5cce 223d d285 89bc 60ae 0ebd bdbf 9a3b
00000140: 7af6 d73c 59f9 9b3c 90c5 133d 0ccf 17bd
00000150: 3542 11bd 242d 5b3a 2e77 16bd ec3e 1a3d
00000160: 7611 c7bb 1bf9 db3c ab70 cd3c ae52 0abd
00000170: a6f8 96bc 41d4 203d f6b9 11bd a368 29bc
00000180: 4069 6dbc f6cf bf3c 7a3a bd3c 4ad5 33bb
00000190: 5e55 2e3d 5cf9 10bd 55f1 2e3d 9e3e 2cbd
000001a0: 28c5 ebbc 301f 85bc f6bc d53c 806a 1f3d
000001b0: 442d 1b3d 06a8 1fbd bc95 f13c b0a4 1cbd
000001c0: 7f23 ee3c 7a06 ba3b d242 92bc adc7 aa3b
000001d0: ac23 123d 36a0 0ebd 6adf 103c eae1 03bc
000001e0: 2540 5dbc 3983 2cbd a8fd a33c 64db c93c
000001f0: 868b 203d 78ad 7bbb 2e0a 313d a2f8 d038
00000200: 808e 1abc e63c d1bc 7077 213d 47a9 1a3d
00000210: 1e3e 9c3b c456 d03c 669b 20bd 8fda 813c
00000220: 9ab4 4dbb 33e4 baba acea 82bb acaa 11bc
00000230: 98d4 9c3b bfc2 1e3d 0fae 17bc aa65 23bc
00000240: 1774 0dbd a75c 333d 2a3e 413c d74c 7dbc
00000250: fc72 fb3a a398 a9bc c3cf f2bc 4c1d 8dbb
00000260: 5caa 13bd 434f dbbc 8996 f23c 7c63 523c
00000270: 7b8d 70bc c3d4 c03c a28a f5bc adc9 02bd
00000280: 81bc 293d 8ae6 f0bc a88a 1e3d 2d97 12bd
00000290: 2cad b9bc 27d2 63bc 8c2b f9bc 5697 07bd
000002a0: bedf a63c 6946 63bc 48a2 e1b9 0e2c 293c
000002b0: 04dc 39bc 3afc 07bd 050d 38bc 62c9 1ebd
000002c0: 3d99 e6bb 8590 963c 44f1 05bd c4a0 dabc
000002d0: cb66 283d c6a1 c83c b809 27bd b995 18bd
000002e0: 8428 34bd bab4 81bc 4c7a 043c b8cc 12bd
000002f0: 5e24 103d d324 193d f4df 06bb 28a0 e7bc
00000300: 7b65 2e3d 1a71 8e3b 81bf 50bb 9d46 66bc
00000310: 1c13 613c 0b8b 243d b51f 273d 76cf a2bb
00000320: f7c1 24bc 2fc7 c83c db0d 983c 2cba 64bc
00000330: ea5d b0bb d7f6 11bd 2ccf ac3c ab5f 263d
00000340: 51a8 a43a e6dc d63c 3241 923c b4dd 213d
00000350: cdfe b93c 2cb8 d639 aeed f7bc 58b6 0fbc
00000360: 76bb 253d cf26 afbb 79b8 31bc 806e 2dbd
00000370: b448 0ebc 4c2e 12bd 417e 1a3b 9dd9 9e3c
00000380: 945d 073d 65df 97bb cefd 18bd e47c 8bbc
00000390: fe08 4ebc eb42 debc 64ae 0c3d eeae 2a3c
000003a0: 8d9e df3b d1bb a3bc 3a27 53bc 72ac a73c
000003b0: 04d7 d73c fc11 243d 44d6 10bc fe1a b13c
000003c0: b0cc 033d 900c 993c 51b7 83bb 8afe c53b
000003d0: c45e 1c3d 35dc 8bbc e08a be3a ffd6 f4bc
000003e0: 5fc6 47bc e33b 093d 4b43 dc3c 15b9 dabc
000003f0: 5150 01bd 4a30 f33c 390f 363c fe71 903c
0.014494846 -0.034911826 -0.016575832 0.024001768 0.017135613 -0.021194365 -0.0441136 -0.042309124
-0.016648656 -0.023634879 0.04328966 0.043599796 -0.004523521 -0.005588213 0.015440247 0.021744423
0.019762203 0.015064318 -0.018921798 0.0002862101 -0.033690274 -0.03323169 -0.02801551 0.020932749
-0.011943886 0.03479785 0.013752747 -0.018186897 0.0024569365 0.0049976483 0.035095725 0.01908141
0.03752735 0.020626744 -0.01590933 0.031963773 -0.019017268 -0.014393929 0.03833402 0.012557182
0.018992085 -0.020861492 0.038062986 0.042779855 -0.025580524 0.034661867 0.03518427 -0.021375358
0.038848005 0.021378359 -0.014719514 0.043305002 -0.028807897 0.006910486 0.03955979 -0.013901398
-0.030697076 0.038596846 -0.037785057 0.043862615 -0.010503272 0.0427309 0.00869562 0.030796818
-0.042629775 -0.036541935 0.01394575 0.0051853843 -0.033609383 0.044124402 0.01632957 0.0046439883
0.04123051 0.010156456 0.02625838 -0.027498955 0.03974758 -0.016787443 -0.034834266 0.004722564
0.026362646 0.019039797 0.036077082 -0.03706269 -0.03546353 0.00083609135 -0.036734752 0.037657663
-0.0060750796 0.026852181 0.025078138 -0.033770256 -0.018429112 0.03926492 -0.035577737 -0.010339889
-0.014490426 0.023414593 0.023099173 -0.0027440363 0.04256188 -0.035394058 0.04271062 -0.042051904
-0.028780535 -0.016250223 0.02609108 0.038919926 0.037884966 -0.0389786 0.029490344 -0.038242996
0.02906966 0.0056770416 -0.017854128 0.0052117915 0.03567855 -0.034820758 0.008842329 -0.008049468
-0.013504063 -0.04211733 0.020018414 0.024640746 0.03919556 -0.0038402956 0.0432226 9.964524e-05
-0.009433389 -0.025541734 0.039420545 0.03775909 0.004768147 0.025431998 -0.0392107 0.015851287
-0.0031388164 -0.0014258682 -0.00399526 -0.008890789 0.0047860853 0.038759943 -0.009257807 -0.009972969
-0.03453454 0.043789532 0.011794606 -0.015460215 0.0019184048 -0.020702666 -0.029640084 -0.004306471
-0.03605114 -0.026771193 0.029612796 0.012841102 -0.014682169 0.023538953 -0.029973332 -0.031930614
0.041439537 -0.029406805 0.03870645 -0.035788704 -0.022665583 -0.013905085 -0.030416273 -0.03310331
0.02037036 -0.013871768 -0.00043036253 0.010325445 -0.01134396 -0.033199526 -0.011233573 -0.038766272
-0.0070373104 0.01837946 -0.032700792 -0.026687987 0.041113656 0.024491202 -0.040780753 -0.03725216
-0.04398395 -0.015833247 0.0080857985 -0.035839766 0.035190932 0.037388634 -0.0020580264 -0.02827461
0.042577248 0.004346979 -0.0031852426 -0.014054921 0.013737466 0.040171664 0.040801723 -0.004968579
-0.01005601 0.02450904 0.018561294 -0.013960402 -0.005382289 -0.035635795 0.021094881 0.04061858
0.0012562369 0.02622838 0.017853353 0.039518073 0.022704506 0.0004095448 -0.030264702 -0.0087715015
0.04046198 -0.0053452025 -0.010847204 -0.04234171 -0.008684326 -0.035688683 0.0023573788 0.019390875
0.033048227 -0.004634785 -0.037351422 -0.017027326 -0.012575386 -0.027131518 0.034346 0.010417683
0.0068243206 -0.019987019 -0.01288777 0.02046797 0.026347645 0.040056214 -0.008840147 0.021619316
0.032177627 0.018682748 -0.0040196558 0.0060423063 0.038176313 -0.017072776 0.0014537238 -0.029887674
-0.012193291 0.033504378 0.026887557 -0.026699582 -0.031570736 0.029686112 0.011112028 0.01763248

base_model.model.gpt_neox.layers.2.attention.query_key_value.lora_B.weight f4 [1536, 16]
00000000: e18d 90b7 d017 3138 3811 13b7 2c50 e937
00000010: 1797 9636 5d4e 8cb7 acd0 0a37 74f3 b137
00000020: af0b 81b7 3890 0d38 4b15 cdb6 62f0 1237
00000030: 1ead bf37 a086 5e37 3c25 e137 645a 8cb7
00000040: d494 3237 5d47 deb6 6381 9636 885a 3ab7
00000050: 20da 3137 c250 77b8 c0c7 f7b5 04bf 3a37
00000060: 2e9c 0fb6 4642 3238 8666 20b8 b4dc 74b7
00000070: e659 7137 8aeb 0f36 c0f4 3137 ec4b 9eb7
00000080: 6cfc c337 a875 17b8 82eb 0fb6 07c1 e7b7
00000090: 70de 55b8 e48e 0d38 ad00 c4b7 e1cc d537
000000a0: 2870 1738 7687 e9b7 a75e 0cb8 bf9d 0438
000000b0: 5899 0db8 846f 7d36 3955 9eb7 5e63 d736
000000c0: f0b7 bfb7 71fa 3138 ecfe 8cb8 3c08 be37
000000d0: f787 71b7 d66e 1738 e986 90b7 d0dd e7b7
000000e0: 0231 26b7 4ec8 4138 44ed c3b7 6fef 5537
000000f0: b601 32b7 5b69 8c37 32f2 3137 cd60 7938
00000100: 341c c8b7 ba1a 77b8 beea d537 9205 8e38
00000110: 8b07 8538 2b9c 07b8 f8c2 c3b7 449b 96b6
00000120: b03f 9cb3 5b45 27b8 7229 b0b7 602e 81b8
00000130: a773 8e38 296c 7137 4680 9037 0fc2 56b8
00000140: c881 1537 291c 2638 ef6d 8cb7 e641 2ab8
00000150: 6fd6 95b6 5e53 e537 d2d8 7437 9149 f7b7
00000160: 4e00 4f38 0ec8 ad37 aeb7 0fb8 a477 71b7
00000170: 5c25 28b8 26c9 79b7 6b49 9e37 006f 0e38
00000180: ce2e 67b7 24f9 1c36 d66b 1738 1014 8f38
00000190: 4087 1938 ce90 d7b7 3943 2ab8 f8ee 4c37
000001a0: 9aed d5b7 6b4e 55b7 e463 35b7 b631 96b6
000001b0: 574a 5e37 286e 3ab7 e336 2a38 0e7a 7bb8
000001c0: e823 1fb8 0e9e 0438 c6e6 e7b7 d648 dc35
000001d0: 1bab bf37 f3dd 55b7 db94 bbb7 ae74 fbb7
000001e0: 0a16 e536 4697 9037 3a61 71b7 e290 6fb8
000001f0: 3f94 2937 9268 b837 9ac8 4338 7950 0cb8
00000200: 5097 d7b7 c3b9 d1b7 5286 6db8 1aa0 de36
00000210: 9243 7d37 036a 03b5 0461 1e38 b5fe 57b8
00000220: b09f 4db7 1e25 8038 48bc 4a38 d25f b037
00000230: 42a6 5537 121d 3a38 fa8b 1038 becd ddb6
00000240: 2e18 13b7 516e a2b7 fe5d 9eb7 c3e9 5538
00000250: f94f 87b6 fa01 1c36 088f cd36 1e0b 56b7
00000260: ee51 1738 4cf6 8f36 115d 15b8 af2e 3c38
00000270: 2374 8cb7 648b cd36 1204 de36 549c 0f36
00000280: 0032 48b1 4470 c637 81f3 5537 c63b ecb7
00000290: 648b 0238 cfb0 d1b7 5e5e 8cb7 5c7f 0438
000002a0: e51e c237 c7c5 55b7 ca36 2a38 7016 dab7
000002b0: 7555 f737 a469 71b7 4a90 d7b7 f3a8 90b7
000002c0: 4183 0ab7 e76a d337 2fa7 84b8 74d2 74b7
000002d0: 500a 2fb8 624c a438 acbd d137 96e4 d5b7
000002e0: bb0c a736 801c 3ab7 7f7e b437 db9b 6638
000002f0: 52d3 9fb8 d252 9e37 f0ce d537 1a3f 3a38
00000300: 4aa4 69b6 22c7 50b7 fab4 d137 7052 2738
00000310: ee97 6638 72a9 e3b7 7de3 26b7 5986 02b8
00000320: b2b8 c6b6 9ea8 c6b6 1eeb a4b8 089f 0db8
00000330: 9473 4d37 3ca0 04b8 3663 8c37 5fca 53b8
00000340: 79ae c3b7 a1ab 0f38 d5d6 5338 1a13 a037
00000350: 4068 1538 d665 8cb7 a3f7 b1b7 ab71 0e38
00000360: 943a 7e36 34d4 4ab8 657a deb6 6e23 80b8
00000370: 50c0 f635 fced 4cb8 fce8 4c38 495e e5b7
00000380: 6eff 1237 de83 7938 8ded c3b7 0945 21b8
00000390: 2066 2038 a99d 0ab7 a4c1 0ab7 cd19 f7b7
000003a0: 5422 7eb6 a427 10b6 c06d cd36 ec9a 9037
000003b0: 8592 0f36 568e a237 cc4a 1538 80ee 4338
000003c0: b1fa f937 fe4a f7b7 2858 d8b7 3a53 8c37
000003d0: 8079 c6b7 348a de36 ba19 8137 0364 8c37
000003e0: f372 0e38 f657 f7b7 effc 3137 a0fe d5b7
000003f0: e6de d5b7 5fae 1838 18fe fdb7 3a44 0fb6
-1.7232205e-05 4.2222266e-05 -8.765892e-06 2.7813097e-05 4.4879375e-06 -1.6725791e-05 8.274026e-06 2.1213411e-05
-1.5383439e-05 3.3751334e-05 -6.111955e-06 8.758247e-06 2.2849588e-05 1.3263576e-05 2.6839429e-05 -1.6731392e-05
1.06442785e-05 -6.6244233e-06 4.485411e-06 -1.1107542e-05 1.0600808e-05 -5.89646e-05 -1.8461069e-06 1.1130938e-05
-2.139957e-06 4.250023e-05 -3.8242455e-05 -1.459492e-05 1.43856505e-05 2.1445762e-06 1.0607007e-05 -1.8870422e-05
2.3363355e-05 -3.611078e-05 -2.1445744e-06 -2.7627231e-05 -5.099032e-05 3.3750097e-05 -2.3365335e-05 2.5486983e-05
3.610566e-05 -2.7838843e-05 -3.3466753e-05 3.1618165e-05 -3.3759832e-05 3.7764848e-06 -1.8874753e-05 6.419067e-06
-2.2854627e-05 4.243333e-05 -6.723203e-05 2.26536e-05 -1.4396376e-05 3.610443e-05 -1.722896e-05 -2.7640635e-05
-9.905782e-06 4.6201334e-05 -2.3356297e-05 1.2751537e-05 -1.0610025e-05 1.673836e-05 1.0606413e-05 5.945638e-05
-2.3854991e-05 -5.891428e-05 2.5500889e-05 6.772125e-05 6.343339e-05 -3.233195e-05 -2.33366e-05 -4.4884237e-06
-7.275901e-08 -3.9880495e-05 -2.1000134e-05 -6.159837e-05 6.7926296e-05 1.4389902e-05 1.722587e-05 -5.1202307e-05
8.911309e-06 3.960371e-05 -1.6740492e-05 -4.059253e-05 -4.4655094e-06 2.7337748e-05 1.4594016e-05 -2.9478952e-05
4.935293e-05 2.0716365e-05 -3.4264922e-05 -1.4392575e-05 -4.0089115e-05 -1.488839e-05 1.8869256e-05 3.3958815e-05
-1.37795705e-05 2.339083e-06 3.6101635e-05 6.822508e-05 3.6604004e-05 -2.5697427e-05 -4.0593764e-05 1.2214987e-05
-2.550222e-05 -1.2714047e-05 -1.0811698e-05 -4.4761355e-06 1.324954e-05 -1.1112112e-05 4.0582276e-05 -5.9956736e-05
-3.7941994e-05 3.1618452e-05 -2.7644808e-05 1.6412475e-06 2.2848651e-05 -1.2747466e-05 -2.2361453e-05 -2.9975865e-05
6.8272975e-06 1.723658e-05 -1.4387357e-05 -5.7116973e-05 1.0107701e-05 2.1983204e-05 4.6678448e-05 -3.3453547e-05
-2.5700458e-05 -2.5001244e-05 -5.66303e-05 6.634754e-06 1.5095708e-05 -4.895557e-07 3.776049e-05 -5.149721e-05
-1.2256132e-05 6.110429e-05 4.8335904e-05 2.1025455e-05 1.2734499e-05 4.437293e-05 3.446264e-05 -6.610265e-06
-8.767513e-06 -1.9363275e-05 -1.8878836e-05 5.1000865e-05 -4.0326236e-06 2.3246962e-06 6.126127e-06 -1.2757982e-05
3.607751e-05 4.290405e-06 -3.5611043e-05 4.486617e-05 -1.6743381e-05 6.1257033e-06 6.6165894e-06 2.1399655e-06
-2.9132252e-09 2.3655717e-05 1.27524845e-05 -2.8161227e-05 3.1124233e-05 -2.4997074e-05 -1.6733244e-05 3.1589865e-05
2.3140989e-05 -1.2741838e-05 4.0582185e-05 -2.5998073e-05 2.9484489e-05 -1.4389316e-05 -2.5697187e-05 -1.724481e-05
-8.256001e-06 2.520294e-05 -6.325391e-05 -1.4592533e-05 -4.1732856e-05 7.834357e-05 2.5003064e-05 -2.5498022e-05
4.97847e-06 -1.10931e-05 2.1516576e-05 5.4981425e-05 -7.621072e-05 1.8873634e-05 2.5487941e-05 4.4404624e-05
-3.4815334e-06 -1.244413e-05 2.4999015e-05 3.989268e-05 5.497777e-05 -2.7139413e-05 -9.947337e-06 -3.1119536e-05
-5.922361e-06 -5.9204895e-06 -7.8639234e-05 -3.376513e-05 1.2245862e-05 -3.1620482e-05 1.67355e-05 -5.0494793e-05
-2.3327057e-05 3.42537e-05 5.0506398e-05 1.9082381e-05 3.562146e-05 -1.6736722e-05 -2.1215359e-05 3.39613e-05
3.7883046e-06 -4.8358183e-05 -6.630364e-06 -6.110115e-05 1.8384399e-06 -4.885903e-05 4.8854374e-05 -2.7342832e-05
8.76175e-06 5.9489037e-05 -2.335643e-05 -3.8449685e-05 3.8242084e-05 -8.262149e-06 -8.270526e-06 -2.9456709e-05
-3.786893e-06 -2.1480746e-06 6.1222527e-06 1.7238279e-05 2.1393946e-06 1.9378185e-05 3.559403e-05 4.6713743e-05
2.979985e-05 -2.9479615e-05 -2.5790257e-05 1.6728056e-05 -2.3660017e-05 6.6322045e-06 1.5389978e-05 1.6735872e-05
3.3962493e-05 -2.9485655e-05 1.0608913e-05 -2.5510148e-05 -2.5495374e-05 3.640202e-05 -3.0278272e-05 -2.1348374e-06

base_model.model.gpt_neox.layers.3.attention.query_key_value.lora_A.weight f4 [16, 512]
00000000: 2868 37bb ae04 443c 166d fdbb d064 17bd
00000010: 9aef 4abc 5e8a 1cbd f157 0cba 5932 133d
00000020: 68cb bf3b 54a4 40bc 282c 033c 3837 893c
00000030: 201b 863c 8e68 1e3d a87b 0b3d 3090 a0bb
00000040: 6d5a d03c a6b5 153d 2a66 22bd 4d86 1ebd
00000050: 452b 87bc e84b bc3b 022c d23c 12e0 303d
00000060: cc6f 46bb 9a0d ad3c bb7c e13c 2dcb 853c
00000070: e377 2aba 80b9 ffbc 49f0 bfbb 2a68 053d
00000080: 1076 27bd 8731 9cbc 3adf ae3c a8ce 0b3d
00000090: 64eb 1a3c a73c 203d be79 30bd fa4a bd3c
000000a0: 3e1a 2fbd 650b 893a f240 8abb 0e4b b4bb
000000b0: 5cf1 fabb f46f cb3c 663e 993b 0c67 a9bc
000000c0: dcc1 27bd 951d 90bb d40d 8ebb 61d9 27bc
000000d0: aed4 413a 248b c43b 38bf babc a9c1 00bc
000000e0: c464 8dbc 6938 f4bc 3aa4 5ebb 67fd 333d
000000f0: 3617 2c3d 1493 febc a054 143d 7268 b0bc
00000100: e651 d53c 6c4f b7bc 829d e23c 0646 113c
00000110: 90f4 a63c 1acc ab3c 827f 2bbd 9ead 15bc
00000120: fe43 053d 4e88 053b e667 2a3d 7fb8 a73c
00000130: d686 01bd 494c bf3c ef84 9c3b 5e68 db3c
00000140: eb84 2ebd b191 b73b be91 a93c 3c73 0abd
00000150: 816d aa3c 19f8 31bd 5288 6b3c 1299 2ebd
00000160: b1ac bd3c 9845 333c ea42 f33c 7f6a a1bc
00000170: bd21 cf3b 66c6 08bd 28cd e9bc 7fb2 03bd
00000180: 4e76 163d 9b0c 983c c6bb 073d a410 12bd
00000190: d264 1a3d c694 10bd 0671 8bbb dc0e 253d
000001a0: 58bc 86bc f2c1 2bbd 9af7 c63c 7524 6ebc
000001b0: 226f 203d cdd1 96bc e844 053d 5e17 a7bc
000001c0: 3de1 153c 7245 fb3c 7834 b53a b4cb 573b
000001d0: aa6a 123d 58d8 0f3d a759 ed3c af85 123d
000001e0: aca2 20bd b616 bb3c f0ae e6bc 9b4b afbb
000001f0: 2535 253d e2fa 243c 2b3d e63c 1473 08bc
00000200: b51a df3c 0cd9 c6bc 6987 2cbb 1b32 2e3d
00000210: 6749 0c3d 8ea4 8a3c 9811 8ebc 4803 063d
00000220: d791 9b3c de4d 0bbd 228a 853b e7b4 d23c
00000230: 53ff c13c 4c55 d6bb f176 063d d552 9d3c
00000240: d5b7 cfbc 7b7e b63a ef02 6f3c c215 c43c
00000250: ba86 0f3d f5e9 6e3c 8255 1d3c 40a8 be3c
00000260: 2413 12bd 1620 24bb fe2b 33ba c8fe 24bc
00000270: 5cfb 313c 2ae7 2dbd ac10 41bc e952 65bb
00000280: e5c4 fa3c 08af 2bbc e9df 34bd 94bd aabc
00000290: 588c 04bc 286a 99bb 54a8 ab3c 03c0 003d
000002a0: 9e46 4bbb 50ec 29bc e5a0 f03c ac02 de3c
000002b0: 844d 5cbc 9faf b83c 26b2 ba3c ceac 97bc
000002c0: 9ae8 bb3b b588 0fbc dad4 e53c 9681 b33c
000002d0: 6cd4 073d 7f50 243b 556e 0cbd 2e97 2bbd
000002e0: e010 283d 8adf f23b f096 94bc 4ebc 863b
000002f0: 9434 18bd 0347 b33a 427c 323d 9895 26bd
00000300: 4c8c 273d 4f13 313c 23fd 0b3d 1306 a13c
00000310: 4cf0 5d3c 0d3c 9c3b 1e9b bf3c cfc3 bf3c
00000320: 5c4f a03c 512e 07bd 5b9d 16bc c599 af3c
00000330: 4987 f63c d67f fc3c 436d a4bb e649 2f3d
00000340: f45c a63b 42c2 413b 6627 14bd 6766 21bd
00000350: 62a8 343d 92eb be3b 517d ef3b a9bd 263b
00000360: b397 e7bc 2597 093d 167e 2dbd 21f0 093a
00000370: 8042 80bc 00a0 8a3c 665c 1d3d 57af 843c
00000380: f0cf 72bc d815 0b3c b92b 313c 5fbd 083d
00000390: 6766 8b3b c367 c83c 84e3 40bc 011e fdbc
000003a0: 1ad9 ca3b e391 483b 767b 8cbc 8db0 053d
000003b0: 8725 a53c 3e11 d73c 42f3 e23c 54b0 edbc
000003c0: 4c22 1abd a6b6 08bd 26ea 0bbd 11be 8abc
000003d0: 604a b4bc 5ad5 8dbc 4367 9c3c d508 1a3d
000003e0: 943a 2bbc 5832 a5bc e988 b63c 8538 fbbb
000003f0: 33e9 cdbc c41c 133d 12f8 a2bb 3f3f 2b3d
-0.0027985666 0.011964006 -0.0077339513 -0.036961377 -0.012386227 -0.038217895 -0.00053536805 0.035936687
0.0058531053 -0.011757929 0.008006133 0.016749963 0.016370356 0.03867393 0.034053475 -0.004900001
0.025433743 0.036550187 -0.039648212 -0.038702298 -0.016500125 0.0057463534 0.02565575 0.04318244
-0.0030279038 0.02112465 0.027525296 0.016332233 -0.000650285 -0.031216383 -0.0058575016 0.03257004
-0.040884078 -0.019066585 0.021346677 0.03413263 0.009455536 0.039120343 -0.043084852 0.02310704
-0.042749636 0.0010455666 -0.004219168 -0.0055021113 -0.007658167 0.024833657 0.004676628 -0.02067902
-0.040956363 -0.0043980577 -0.0043351445 -0.010244698 0.00073940575 0.005998032 -0.022796258 -0.007858672
-0.017259963 -0.029812055 -0.0033972398 0.043942835 0.042014323 -0.031075992 0.036213517 -0.021534178
0.026040029 -0.022376738 0.027662996 0.008866793 0.020380288 0.020971347 -0.041869648 -0.009135632
0.032535546 0.0020375433 0.04160299 0.020473717 -0.03162273 0.023351805 0.004776589 0.026783165
-0.04260723 0.0056020846 0.020699378 -0.033801302 0.020804169 -0.043449495 0.014375763 -0.042626448
0.023153635 0.010941885 0.029694993 -0.019704102 0.0063211606 -0.033392332 -0.028540209 -0.03215265
0.036733918 0.018560698 0.03313806 -0.0356604 0.037693806 -0.03529813 -0.004255417 0.040297374
-0.016447231 -0.041933008 0.024287988 -0.014535059 0.039168485 -0.018410588 0.032536417 -0.020396885
0.009147939 0.030672763 0.0013824841 0.0032927813 0.035746254 0.03511843 0.028973414 0.03577202
-0.039217636 0.022837978 -0.028159589 -0.005349589 0.040333886 0.010069581 0.028105339 -0.008328218
0.027234415 -0.024273418 -0.0026325828 0.042528253 0.03424969 0.016924169 -0.017342374 0.032717973
0.01899044 -0.034009807 0.0040753046 0.025721027 0.023681318 -0.00654093 0.032828275 0.019204536
-0.025356213 0.0013923192 0.014588102 0.023936156 0.035040595 0.014582147 0.009602906 0.023273587
-0.035662785 -0.0025043539 -0.00068348635 -0.01007051 0.010863151 -0.042456783 -0.01178376 -0.0034992045
0.030611465 -0.010478742 -0.04415885 -0.020842351 -0.008090101 -0.0046818443 0.020954289 0.031433117
-0.0031017433 -0.010371283 0.029373595 0.027100883 -0.013446216 0.02254468 0.022790026 -0.018515017
0.0057345154 -0.008760621 0.028055597 0.021912377 0.033161566 0.0025072393 -0.03428491 -0.041892223
0.04103172 0.007411902 -0.018138379 0.004111803 -0.037159517 0.0013677779 0.043575533 -0.040670007
0.040905282 0.010807826 0.034176957 0.019656217 0.013546061 0.004767901 0.023389395 0.023408799
0.019569091 -0.033003155 -0.00919279 0.021435628 0.030093806 0.030822676 -0.005017908 0.042795084
0.005076999 0.002956525 -0.036170386 -0.0394043 0.044105895 0.005826422 0.00730864 0.0025442636
-0.028270578 0.03359141 -0.042356573 0.0005261917 -0.01565671 0.016921997 0.038418196 0.01619689
-0.014820084 0.008489095 0.010813647 0.033383723 0.0042541507 0.02446354 -0.011772994 -0.030898096
0.0061904313 0.0030604533 -0.017148715 0.032639075 0.020159496 0.026253339 0.027703885 -0.029014744
-0.037630364 -0.033377312 -0.03415885 -0.016936334 -0.022008121 -0.017313648 0.019092208 0.03760608
-0.010450978 -0.020165607 0.02228208 -0.0076666498 -0.025135612 0.035916105 -0.00497342 0.041808363
