FederatedLLM/FT_lite/my_fl_model/peft_6/adapter_model.bin (torch, 791378 bytes, 12 tensors)

base_model.model.gpt_neox.layers.0.attention.query_key_value.lora_A.weight f4 [16, 512]
0	0xbd283e32	-0.04107494
1	0xbc99711a	-0.018730689
2	0xbca16e66	-0.019705962
3	0x3d13e529	0.036107216
4	0x3d0246b2	0.0318057
5	0x3cf7e484	0.030260332
6	0xbc73a532	-0.014870929
7	0xbc09cc0a	-0.008410463
8	0xbd33ffea	-0.04394523
9	0x3cfb7a66	0.030698013
10	0xbc9e14a1	-0.019296946
11	0x3d22fb6c	0.039790556
12	0x3c4328ce	0.011911584
13	0x3c4e270d	0.012582553
14	0x3d2650eb	0.040604513
15	0xbc4ec1a5	-0.012619411
16	0xbc40cd7a	-0.011767739
17	0xbc556d77	-0.013026587
18	0x3d336fc7	0.04380777
19	0xbcd8d836	-0.026470285
20	0x3ccda1fa	0.02510165
21	0x3b2357e2	0.0024924208
22	0xbd0e4254	-0.034731224
23	0x3b6de71c	0.0036301082
24	0xbd00b658	-0.031423897
25	0xbbc807e7	-0.0061044577
26	0x3d2d9c24	0.042385235
27	0xbc0ac2fa	-0.008469338
28	0xbd102466	-0.035190962
29	0xbd29e798	-0.04148063
30	0xba5c34f8	-0.0008400227
31	0xbc0bbd59	-0.008529031
32	0xbd19ab0e	-0.037516646
33	0x3cef134c	0.029184006
34	0xbd17b534	-0.037038043
35	0xbc54fb47	-0.012999362
36	0xbd06fa11	-0.032953326
37	0x3bd6f984	0.0065605063
38	0x3ce0688e	0.027393606
39	0xbc87c72a	-0.016574461
40	0xbd19fc5d	-0.037594188
41	0xbcd5c234	-0.02609358
42	0x3d1212b0	0.035662353
43	0x3d002498	0.0312849
44	0x3d1a1826	0.037620686
45	0x3d0479ee	0.032342844
46	0x3b2943ae	0.0025827694
47	0xbcd79ca0	-0.026319802
48	0xbcbc0b27	-0.022954537
49	0x3d1bfafe	0.03808116
50	0x3ccae557	0.02476756
51	0x3ca150f2	0.019691918
52	0xbc096f4a	-0.00838835
53	0x3be386f0	0.006943576
54	0x3d1d2a57	0.038370457
55	0xba252bcb	-0.0006300776
56	0xbc996f85	-0.018729934
57	0xbc509e8b	-0.012733112
58	0x3c9aa37d	0.018876785
59	0x3c59be71	0.013290034
60	0x3bc7ef04	0.006101491
61	0x3cf52863	0.029926484
62	0xbcd88884	-0.026432283
63	0xbcf35df7	-0.029707892
64	0x3d2d8279	0.042360757
65	0x3cbf7c68	0.023374751
66	0xba80ba21	-0.0009821096
67	0x3cb58858	0.02215974
68	0x3c8e7e95	0.017394343
69	0x3c331bbb	0.010931904
70	0xbafe09d8	-0.0019381596
71	0x3bd06d3c	0.006360678
72	0x3c634687	0.0138717955
73	0x3cc95d00	0.024580479
74	0xbc5cd214	-0.013477821
75	0x3ccbd29b	0.024880698
76	0xbca4167f	-0.020030258
77	0xbd01ee3a	-0.03172133
78	0xbcf08d44	-0.029364236
79	0x3d2d70b4	0.04234381
80	0x3d1f29e6	0.038858317
81	0xbd317393	-0.04332311
82	0x3d131390	0.035907328
83	0xbd1ec450	-0.038761437
84	0xbad18eca	-0.0015987989
85	0x3d040104	0.03222753
86	0xbc8d50c3	-0.017250424
87	0x3d0befa6	0.034164093
88	0xba98dc55	-0.0011662344
89	0xbc1f694c	-0.009729695
90	0x3d16fcc4	0.03686215
91	0xbcad7758	-0.021175072
92	0xbc732cd2	-0.014842229
93	0xbd05c873	-0.032661866
94	0x3d03d624	0.032186642
95	0x3cd46eeb	0.025931796
96	0xbd18edaf	-0.037336048
97	0xba6be439	-0.00089985464
98	0x3ce59952	0.02802721
99	0xbcde304a	-0.027122635
100	0xbc8d1919	-0.017223882
101	0xbc2bddf5	-0.01048993
102	0x3d0e6b05	0.03477003
103	0xbcb96bc6	-0.022634398
104	0x3c569d0e	0.013098968
105	0x3d0d4ea6	0.034498833
106	0x3c7699f4	0.015051354
107	0xbc32bac8	-0.01090879
108	0x3d255886	0.040367626
109	0x3c7875f4	0.015164841
110	0x3a517edc	0.0007991621
111	0xbcfbaf4b	-0.030723235
112	0xbcbe63ee	-0.02324101
113	0x3caa3996	0.020779412
114	0xbcfcd0f5	-0.030861357
115	0xbd27b1c8	-0.04094103
116	0x3c348a48	0.011019297
117	0x3c21e083	0.009880188
118	0xbc2366c7	-0.0099732345
119	0xbcb666a5	-0.022265742
120	0x3d12ebaa	0.035869278
121	0xbd2f9c5b	-0.04287372
122	0xbd3261ff	-0.043550488
123	0xbb91bd2c	-0.0044476
124	0x3c8b9782	0.017040018
125	0xbc0dad4b	-0.008647273
126	0x3c93f03b	0.018058887
127	0x3ca16693	0.019702232
128	0x3bc7e936	0.006100799
129	0xbd035b07	-0.032069232
130	0xbc1b355a	-0.009473169
131	0x3a6167f2	0.0008598558
132	0xbceed224	-0.029152937
133	0xbcbff764	-0.023433395
134	0x3cf44fb2	0.029823158
135	0x3bb6a8f8	0.005574342
136	0xbc47cfe4	-0.012195561
137	0xbc8de31c	-0.017320208
138	0xbcdb420f	-0.026764898
139	0x3d0515c6	0.032491468
140	0xbd2cd2f8	-0.042193383
141	0x3cb6b8e4	0.02230496
142	0x3d0fcc73	0.035107087
143	0xbd33c992	-0.043893404
144	0x3c3ac612	0.011399763
145	0x3c9be33e	0.019029256
146	0xbc220c2e	-0.009890599
147	0x3b6e9822	0.0036406596
148	0xbceecae6	-0.029149484
149	0xbc59ebd4	-0.013300855
150	0xbc296f1f	-0.010341435
151	0x3c142fca	0.009044597
152	0x3d319326	0.043353222
153	0x3cb3ee34	0.02196417
154	0x3d2881e9	0.041139517
155	0xbcc20ac6	-0.023686778
156	0x3c24147e	0.010014651
157	0x3c84ee41	0.01622689
158	0x3d0c6162	0.03427256
159	0xbc9873d8	-0.018609926
160	0xbd2e8594	-0.04260786
161	0x3cdacdb8	0.026709422
162	0x3cb71d6e	0.0223529
163	0xbc27b14b	-0.010235141
164	0x3cd9e581	0.026598694
165	0xbc4f61f5	-0.012657632
166	0x3c94de5f	0.018172441
167	0xbc03f64a	-0.008054325
168	0x3ad87c9e	0.0016516631
169	0x3cb2d867	0.021831704
170	0x3cabc623	0.020968502
171	0xbd30bf55	-0.04315122
172	0x3d02c875	0.031929452
173	0x3cdeadcb	0.02718248
174	0x3c897cbe	0.016783115
175	0xbcc904b4	-0.024538375
176	0xbc3df917	-0.011595032
177	0x3adc4e8b	0.0016808076
178	0x3d1ee5a4	0.03879322
179	0xbc618ab9	-0.013765984
180	0x3cc72777	0.02431081
181	0xbb8d1436	-0.004305388
182	0x3c7f3714	0.0155770965
183	0x394ba1a7	0.00019419809
184	0xbcf7f048	-0.030265942
185	0x3d2b276c	0.041785643
186	0x3cd98f94	0.026557721
187	0x3caf6c20	0.021413863
188	0xbc40a4d0	-0.011758044
189	0xbcdc3a98	-0.026883408
190	0x3c958c05	0.018255243
191	0x3d02da00	0.031946182
192	0x3a9f0761	0.0012132936
193	0xbc59cd84	-0.013293628
194	0x3d00f7b0	0.031486213
195	0xbc3db374	-0.0115784295
196	0x3cea50c6	0.028602969
197	0xbd0175e8	-0.031606585
198	0xbd0f1fd6	-0.03494247
199	0xbbfa0c2c	-0.0076308455
200	0xbd083d2a	-0.033261456
201	0xbb6eb4b3	-0.0036423623
202	0x3c579fd0	0.013160661
203	0x3b00e630	0.0019668452
204	0xb88c7919	-6.6982764e-05
205	0xbca3c36e	-0.01999065
206	0x3ced7699	0.028987216
207	0x3cf6b0cc	0.0301136
208	0xbcb3ed97	-0.021963878
209	0xbd198fe3	-0.037490737
210	0x3cead61c	0.028666548
211	0x3cb7c25f	0.02243155
212	0x3ce7155c	0.028208427
213	0x3c0c3575	0.008557667
214	0x3bd339ad	0.0064460845
215	0x3c781a2b	0.015142958
216	0xbca0402f	-0.019561855
217	0xbd02f8a6	-0.03197541
218	0xbd33e4d1	-0.04391939
219	0xbbc26c7b	-0.005933342
220	0xbc6d6676	-0.014489761
221	0xbd111f0c	-0.03543
222	0xbba480b0	-0.0050202236
223	0xbcff98a1	-0.031200709
224	0x3c9cc890	0.019138604
225	0x3ccd0544	0.025026925
226	0xbc445f3b	-0.011985595
227	0x3d329ace	0.043604665
228	0xbcaa0809	-0.020755785
229	0xbc8fc1be	-0.017548438
230	0xbc4164e8	-0.011803843
231	0xbd30fbb4	-0.043208793
232	0x3c13a673	0.009011853
233	0x3bd7de2f	0.0065877656
234	0xbb51b04b	-0.0031995948
235	0x3c035047	0.008014745
236	0xbc2caa54	-0.010538656
237	0xbd04e4a1	-0.0324446
238	0x3954481d	0.0002024476
239	0x3c44578a	0.011983762
240	0xbbfbb92a	-0.0076819854
241	0x3c297008	0.010341652
242	0xbcaa6c1f	-0.02080351
243	0xbd2dbbe1	-0.042415503
244	0xbcba4221	-0.02273661
245	0xbc372d4b	-0.011180232
246	0x3d097a52	0.03356392
247	0x3d09f9ce	0.033685498
248	0x3d2ae276	0.041719876
249	0xbc99f0cc	-0.018791579
250	0x3c82f961	0.015988054
251	0x3aa15628	0.0012309002
252	0x3a151356	0.000568678
253	0x3d2cd596	0.04219588
254	0x3b3e4e0d	0.002903822
255	0xbc287130	-0.010280892

base_model.model.gpt_neox.layers.0.attention.query_key_value.lora_B.weight f4 [1536, 16]
0	0xb83a221a	-4.4377615e-05
1	0xb81c36f4	-3.7244477e-05
2	0x377161f4	1.4387526e-05
3	0x350506b8	4.955614e-07
4	0x36698a63	3.4800257e-06
5	0xb73a58d6	-1.1107148e-05
6	0x3755f47c	1.2752713e-05
7	0xb808cff2	-3.261859e-05
8	0xb81af250	-3.6942132e-05
9	0xb6c63b07	-5.9077315e-06
10	0xb8184c8c	-3.6310914e-05
11	0x381777e1	3.611285e-05
12	0xb808ca3c	-3.2613272e-05
13	0xb7564608	-1.2771699e-05
14	0x37a65cbc	1.9831925e-05
15	0xb8647ec1	-5.4477485e-05
16	0xb804a101	-3.16212e-05
17	0x3808d7a4	3.2625758e-05
18	0xb705bb7d	-7.971071e-06
19	0x37e3a828	2.7138813e-05
20	0x38177abd	3.6115514e-05
21	0x37fe1300	3.0288007e-05
22	0x3806b638	3.2117794e-05
23	0x36a058c0	4.7787034e-06
24	0xb755da4e	-1.2746617e-05
25	0xb84c1b62	-4.8662892e-05
26	0x384315a7	4.651179e-05
27	0x370dce58	8.452298e-06
28	0x36eed116	7.1172935e-06
29	0xb7b203ca	-2.1221018e-05
30	0xb8788bd4	-5.9258033e-05
31	0xb6b0bca0	-5.2671676e-06
32	0xb6eefbb6	-7.1222557e-06
33	0x38955734	7.1211165e-05
34	0xb804a5e2	-3.1625743e-05
35	0x35db075a	1.6318911e-06
36	0x36cdbdb4	6.1315604e-06
37	0x37edb3fe	2.8336417e-05
38	0x37854095	1.5884909e-05
39	0x3806c0a4	3.21275e-05
40	0xb7d8b92c	-2.5835434e-05
41	0xb6b102ae	-5.275323e-06
42	0x3685e777	3.990655e-06
43	0x370586fa	7.958844e-06
44	0x381ba926	3.711241e-05
45	0x37b639e2	2.1723044e-05
46	0xb7e98578	-2.7837916e-05
47	0xb6de841c	-6.631495e-06
48	0xb841d3a1	-4.621188e-05
49	0x3868b75a	5.548387e-05
50	0x37cbf8ee	2.4315403e-05
51	0x3774c2fc	1.4588932e-05
52	0x36df39d4	6.65265e-06
53	0x37bb8347	2.2353268e-05
54	0xb70aab77	-8.265363e-06
55	0xb755eee7	-1.2751413e-05
56	0x382b7ec8	4.088765e-05
57	0xb8528532	-5.019195e-05
58	0x385d7f22	5.2808908e-05
59	0xb76c4086	-1.4081719e-05
60	0x37ffaa2b	3.047761e-05
61	0xb67df3bc	-3.784181e-06
62	0x363164ea	2.6433795e-06
63	0xb8027ff5	-3.1113585e-05
64	0x36bcd433	5.62754e-06
65	0xb882ae7c	-6.231383e-05
66	0x37e3acb3	2.7140928e-05
67	0xb6cd583f	-6.1197493e-06
68	0xb7e7d4ef	-2.76365e-05
69	0xb7299989	-1.0108933e-05
70	0xb81555bc	-3.5604215e-05
71	0xb7c65eb6	-2.3647543e-05
72	0x3731f9de	1.0608199e-05
73	0x38133a85	3.510203e-05
74	0xb72966d6	-1.0097128e-05
75	0x388e0f77	6.773968e-05
76	0x3843f966	4.6723893e-05
77	0x3702468d	7.76503e-06
78	0x378c59d9	1.673114e-05
79	0x37e7d4d4	2.7636452e-05
80	0x380e736e	3.396294e-05
81	0xb597fb66	-1.1323543e-06
82	0x36de1c0b	6.61938e-06
83	0x3507d644	5.0603217e-07
84	0xb768defa	-1.3880193e-05
85	0x371325c2	8.770674e-06
86	0x37a6a69f	1.9866331e-05
87	0x36a70290	4.977286e-06
88	0xb858dedc	-5.1705967e-05
89	0x383aed5e	4.456692e-05
90	0xb203b6c0	-7.666756e-09
91	0xb8c9745d	-9.606101e-05
92	0xb5b57698	-1.3520066e-06
93	0x368fd28d	4.2862434e-06
94	0xb75e1523	-1.3237152e-05
95	0x38155280	3.5601202e-05
96	0x373a4d2e	1.1104434e-05
97	0x383a0fd0	4.4360582e-05
98	0x3755ec20	1.27507665e-05
99	0xb60f1700	-2.1322048e-06
100	0x35dd0694	1.6467698e-06
101	0xb696479a	-4.478684e-06
102	0x379e49ac	1.8869374e-05
103	0xb79a3baf	-1.8386023e-05
104	0xb7b2003e	-2.1219366e-05
105	0xb60ef53c	-2.1302394e-06
106	0x3729c757	1.0119597e-05
107	0xb7cd87ce	-2.4501143e-05
108	0xb7e13d48	-2.6850626e-05
109	0x36de5c84	6.626886e-06
110	0x37a28474	1.9373583e-05
111	0x38028aec	3.1123796e-05
112	0xb8801141	-6.1067294e-05
113	0x38796b0f	5.9465932e-05
114	0x3748986a	1.1956416e-05
115	0xb8228f87	-3.875748e-05
116	0x36cd344a	6.1155633e-06
117	0x385d9bed	5.2835723e-05
118	0x36de69d0	6.6284338e-06
119	0xb6eed39e	-7.117588e-06
120	0x37c6739c	2.3657274e-05
121	0xb85aaea0	-5.2137882e-05
122	0x3729a679	1.0111945e-05
123	0xb823f298	-3.908816e-05
124	0x361d5872	2.3446305e-06
125	0x37a9ac2e	2.0226547e-05
126	0xb841bcbd	-4.6190562e-05
127	0xb8227c2e	-3.873946e-05
128	0x36bc9596	5.6202507e-06
129	0x3819946d	3.6616275e-05
130	0xb79e666f	-1.8882767e-05
131	0xb6697a84	-3.479102e-06
132	0xb769abcc	-1.3927882e-05
133	0x36ef6dad	7.135523e-06
134	0x379e4509	1.8867215e-05
135	0x36698024	3.4794293e-06
136	0xb81987b0	-3.660441e-05
137	0x370ab158	8.266732e-06
138	0x366983e3	3.4796474e-06
139	0xb7a273be	-1.9365802e-05
140	0x37810e13	1.5384552e-05
141	0xb7a2961f	-1.938181e-05
142	0x37210c10	9.599156e-06
143	0x38156008	3.5613804e-05
144	0xb75e5cf8	-1.3253877e-05
145	0xb70efca2	-8.52268e-06
146	0x375939d0	1.2947668e-05
147	0x37c83ffe	2.3871657e-05
148	0xb7f747f1	-2.9478195e-05
149	0x37a6c7ef	1.9881843e-05
150	0x37909642	1.7236107e-05
151	0xb6deaecc	-6.6364646e-06
152	0x37a270d7	1.936445e-05
153	0x35872c9e	1.0071269e-06
154	0x38049b22	3.161573e-05
155	0x36861e3c	3.997031e-06
156	0xb7a28915	-1.9375739e-05
157	0x37297d0d	1.0102301e-05
158	0xb7527fee	-1.2546761e-05
159	0x36f01690	7.155184e-06
160	0xb7866f4e	-1.6025875e-05
161	0x37fe0678	3.0282172e-05
162	0x36cdc518	6.132421e-06
163	0x371302d5	8.762542e-06
164	0x37d1a889	2.4993222e-05
165	0xb6ef763c	-7.1365193e-06
166	0x388093f8	6.131077e-05
167	0x371b8004	9.268526e-06
168	0x38deabdc	0.00010617796
169	0xb7f33278	-2.8991359e-05
170	0xb6eed17e	-7.117341e-06
171	0xb83f4644	-4.560339e-05
172	0xb611328e	-2.163611e-06
173	0xb60f17e6	-2.1322571e-06
174	0x3897730d	7.221671e-05
175	0xb6858031	-3.9786323e-06
176	0x366a32dd	3.4898324e-06
177	0xb84f0d5c	-4.9365088e-05
178	0xb6de4951	-6.6246507e-06
179	0x374d7e6b	1.2248386e-05
180	0x380e7722	3.396639e-05
181	0x37de4473	2.6496336e-05
182	0xb8887d08	-6.508274e-05
183	0xb7b035f6	-2.1005962e-05
184	0xb88e0c89	-6.7734225e-05
185	0xb6ffdd0f	-7.625327e-06
186	0xb779cb84	-1.4888941e-05
187	0x37023102	7.760014e-06
188	0x381e5c96	3.7756363e-05
189	0x36dea44f	6.6352436e-06
190	0xb7bfb4a1	-2.2853086e-05
191	0xb685f967	-3.992743e-06
192	0x386b6524	5.612256e-05
193	0xb78edd94	-1.70309e-05
194	0xb7130e16	-8.765162e-06
195	0xb843eb10	-4.6710542e-05
196	0x37fb8070	2.998134e-05
197	0x358636e0	9.999749e-07
198	0xb721acd2	-9.636586e-06
199	0xb755d480	-1.2745266e-05
200	0xb8cdf93a	-9.821584e-05
201	0x38013cdf	3.0812687e-05
202	0x363131c8	2.6404032e-06
203	0xb7c68b9a	-2.3668446e-05
204	0xb70dd5fb	-8.454076e-06
205	0xb755dfad	-1.2747868e-05
206	0xb78edc48	-1.7030296e-05
207	0x35db04bd	1.631815e-06
208	0xb795ec15	-1.7872118e-05
209	0x3631cea2	2.6495331e-06
210	0xb8112e6f	-3.461394e-05
211	0x381e4814	3.7737263e-05
212	0x37fb7ebd	2.9980549e-05
213	0x37a7eb0e	2.0017407e-05
214	0x38898c06	6.5587505e-05
215	0xb783fde9	-1.5734653e-05
216	0x38c2e3ca	9.29307e-05
217	0xb851b2ba	-4.9995935e-05
218	0x370a9e69	8.262324e-06
219	0xb871a9ea	-5.7617122e-05
220	0xb74dbea0	-1.22633355e-05
221	0xb6faa30e	-7.4695627e-06
222	0x37da16e1	2.5998279e-05
223	0x3843f49e	4.671944e-05
224	0xb795ec33	-1.7872173e-05
225	0xb7296845	-1.0097462e-05
226	0xb82cf4ab	-4.123586e-05
227	0xb6de552a	-6.62603e-06
228	0x37b4724a	2.1510892e-05
229	0x37abac2f	2.0464968e-05
230	0x3831214e	4.2231106e-05
231	0xb7f752c8	-2.9483243e-05
232	0x3853cef6	5.0499068e-05
233	0xb848b745	-4.78544e-05
234	0x379e40a2	1.8865165e-05
235	0xb83a17d8	-4.4368062e-05
236	0xb76942a9	-1.3903403e-05
237	0xb7d1b5c0	-2.4999375e-05
238	0xb79e5b15	-1.8877481e-05
239	0x3843f59b	4.672036e-05
240	0x3685924b	3.9807396e-06
241	0xb7b8c8db	-2.202804e-05
242	0x382c5b2c	4.1092906e-05
243	0xb745144e	-1.1746843e-05
244	0xb85d9fd7	-5.283937e-05
245	0xb7d5efbc	-2.5503214e-05
246	0xb50464d0	-4.9320533e-07
247	0x386f97dc	5.712347e-05
248	0x371edf75	9.4695615e-06
249	0x37f038e5	2.8636723e-05
250	0xb7296fe7	-1.0099239e-05
251	0x382f069f	4.1729418e-05
252	0x378c6104	1.6734477e-05
253	0xb848b718	-4.7854235e-05
254	0xb7f753b1	-2.9483666e-05
255	0xb6eefab4	-7.1221384e-06

base_model.model.gpt_neox.layers.1.attention.query_key_value.lora_A.weight f4 [16, 512]
0	0x3ca2243d	0.01979267
1	0xbd12e0aa	-0.035858788
2	0x3d09c9c0	0.03363967
3	0x3d0306b6	0.031988822
4	0x3ce57456	0.028009575
5	0x3b285910	0.002568785
6	0x3d08c8d0	0.033394635
7	0x3d087d32	0.03332252
8	0xbd22f83a	-0.03978751
9	0xbcade380	-0.021226645
10	0x3c8980b6	0.016785007
11	0xbc47636b	-0.012169699
12	0x3caac6d9	0.020846771
13	0xbc60cf65	-0.013721322
14	0xbc43c412	-0.011948602
15	0xbcea571d	-0.028605992
16	0x3d3221b3	0.04348917
17	0x3d0ae21d	0.033907045
18	0x3b992a59	0.0046742377
19	0xbc1e76b0	-0.009671852
20	0xbcc3ee5c	-0.02391737
21	0x3c0a5d42	0.008445086
22	0x3ce67dfb	0.028136244
23	0xbd1ed1eb	-0.038774412
24	0xbd00e0d0	-0.031464398
25	0x3c35a7fb	0.011087413
26	0xbcee877d	-0.02911734
27	0x3cfd632c	0.030931078
28	0xbc83db80	-0.016095877
29	0xbccc414f	-0.024933485
30	0xbd066a61	-0.032816295
31	0x3cf16ca9	0.029470759
32	0xbd20a698	-0.039221376
33	0xba1ba972	-0.000593803
34	0x3d0ead00	0.034832954
35	0xbc9e113e	-0.019295331
36	0xbd039341	-0.032122854
37	0x3c6d1d4a	0.014472315
38	0xbca34280	-0.01992917
39	0xbcdbf9de	-0.026852544
40	0xbcb30124	-0.02185113
41	0x3d3020c0	0.042999983
42	0x3ca22092	0.019790921
43	0x3ceb99b7	0.02875982
44	0xbb91b217	-0.004446279
45	0x3c9b89bc	0.018986575
46	0x3ab359d4	0.0013683387
47	0xbd0ab229	-0.033861313
48	0x3d0d79f2	0.034540124
49	0x3d12c7fa	0.035835244
50	0xbd0c3731	-0.034232322
51	0x3d34c2a2	0.04413093
52	0x3cd655f6	0.026164036
53	0xbc41cd56	-0.011828741
54	0xbcc0db7e	-0.023542162
55	0xbcf31483	-0.029672867
56	0xbcf91c8e	-0.030409124
57	0xbcda86b6	-0.026675563
58	0x3aa9da4a	0.0012958732
59	0xbcb65cba	-0.022261012
60	0xbd0f757e	-0.03502416
61	0x3d337396	0.043811403
62	0xbcdde247	-0.027085437
63	0xbcf6486e	-0.030063834
64	0x3c0a0340	0.008423626
65	0xbcb8eff0	-0.022575349
66	0x3d31469e	0.043280236
67	0xbcc8a715	-0.024493733
68	0x3a72f010	0.00092673395
69	0xbba0e31d	-0.0049098865
70	0xbb6eff65	-0.0036468145
71	0x3b7746ba	0.0037731365
72	0x3cf37033	0.029716587
73	0x3d237a14	0.039911345
74	0x3c6102da	0.01373359
75	0xbc1f1fb0	-0.009712145
76	0x3d1ebc94	0.03875406
77	0x3d1036eb	0.035208624
78	0x3c045277	0.008076302
79	0xbca4e2df	-0.020127712
80	0xbca15316	-0.019692939
81	0xbd25c314	-0.040469244
82	0xbd135640	-0.035970926
83	0xbc452377	-0.012032381
84	0x3c828698	0.01593332
85	0xbcfbf05f	-0.030754266
86	0xbce0dae7	-0.02744813
87	0x3d30914f	0.043107327
88	0x3c9fc54a	0.019503254
89	0xbc26293a	-0.010141665
90	0xbcdfbc4c	-0.027311467
91	0x3d134b53	0.035960507
92	0x3c85c41d	0.016328866
93	0xbc9a4aab	-0.018834433
94	0xbcc5ad0e	-0.02413037
95	0x3cdc5f48	0.026900902
96	0x3ce40e76	0.027838927
97	0xbcfa1bfd	-0.030530924
98	0x3cbc3bb4	0.022977687
99	0x3c8ffe19	0.017577218
100	0x3d0b09cc	0.03394489
101	0xbc06e3a1	-0.008232982
102	0x3bc0ddbe	0.0058858087
103	0xbd204f9e	-0.03913843
104	0x3d15a80b	0.03653721
105	0x3bf64899	0.0075159785
106	0x3d047e72	0.03234715
107	0x3bd7b2de	0.006582602
108	0xbb778c99	-0.0037773012
109	0x3c50f5de	0.012753932
110	0x3d121e0f	0.035673197
111	0x3c2a2739	0.010385328
112	0x3d08454a	0.033269204
113	0x3cc6a5b5	0.024248937
114	0x3c6d2a9e	0.014475493
115	0xbb049b32	-0.0020234105
116	0x3b91ba43	0.004447253
117	0x3d22ecb5	0.039776523
118	0x3c81392f	0.015774338
119	0x3c461b6a	0.012091497
120	0xbc484429	-0.012223282
121	0xbbdc3554	-0.0067202244
122	0x3c311e9a	0.010810519
123	0x3c153c47	0.0091086095
124	0xbd0b02e7	-0.033938315
125	0x3d339cf2	0.043850847
126	0x3cf6ec0a	0.03014185
127	0x3b975416	0.004618178
128	0x3c12cd74	0.008960117
129	0x3b83e5f9	0.0040252176
130	0x3cf845d9	0.030306743
131	0x3d1b894b	0.03797273
132	0xbd2fdd13	-0.042935442
133	0xbcc6dc76	-0.024275046
134	0xbba44874	-0.00501352
135	0xbd271ba6	-0.040797852
136	0x3cecd87d	0.028911823
137	0xbc41ff5d	-0.0118406685
138	0x3cc66937	0.024220092
139	0xbcf33e55	-0.029692808
140	0xbceeacd6	-0.029135149
141	0x3c7036dd	0.014661518
142	0x3a67e1aa	0.0008845577
143	0xbb81d9e4	-0.003962742
144	0xbcaeeb88	-0.021352544
145	0x3d33c7ce	0.04389172
146	0x3ca7d864	0.020488925
147	0x3cbce754	0.023059525
148	0xbc2e64bc	-0.010644134
149	0xbd0568ae	-0.032570533
150	0x3cf18bd2	0.029485617
151	0xbbdb0be9	-0.0066847694
152	0x3c42b172	0.011883127
153	0x3cd3dfa4	0.025863476
154	0xbb4e7178	-0.0031500738
155	0xbbdf07e7	-0.006806362
156	0xbd187450	-0.0372203
157	0xbcd1c714	-0.025607623
158	0x3ca63015	0.0202866
159	0x3cc4bcd2	0.024015818
160	0xbce20e79	-0.027594792
161	0xbd226671	-0.039648477
162	0xbc1bed46	-0.00951702
163	0x3cd6f92d	0.026241863
164	0x3d3421ea	0.043977655
165	0x3a33d9fd	0.0006860791
166	0xbac5f052	-0.0015101528
167	0x3d02792a	0.031853832
168	0xbd12d42f	-0.035846885
169	0xbd08b3ef	-0.033374723
170	0x3be2d251	0.0069220443
171	0x3c7f52f6	0.015583744
172	0xbd044686	-0.03229382
173	0x3c0dcc8d	0.008654726
174	0x3d2e9d69	0.042630587
175	0xbc1b42da	-0.009476388
176	0xbcd860f8	-0.026413426
177	0x3cac5390	0.02103594
178	0xbc048a7c	-0.008089658
179	0xbd1a17d1	-0.03762037
180	0xbb1a79cd	-0.0023571134
181	0xbd152968	-0.03641644
182	0x3c32a2c9	0.010903069
183	0x3d257dd2	0.040403195
184	0xbbe181c0	-0.0068819225
185	0xbc93e7f4	-0.01805494
186	0x39a49cd7	0.00031397372
187	0xbcd99ebd	-0.02656495
188	0x3c1c335d	0.00953373
189	0x3d1ecd15	0.0387698
190	0x3d0c5b90	0.03426701
191	0x3c5713f1	0.013127313
192	0x3d182700	0.03714657
193	0x3c93c37a	0.018037546
194	0xbcc18f20	-0.023627818
195	0xbd30cf09	-0.043166194
196	0xbca1894a	-0.019718785
197	0xbba8a60d	-0.005146748
198	0xbd26296c	-0.040566847
199	0xbce4f5d5	-0.027949253
200	0xbcd4bd68	-0.025969222
201	0x3cc1ef24	0.023673601
202	0xbd17fe6e	-0.037107877
203	0x3d05e7da	0.032691814
204	0xbc7206eb	-0.014772157
205	0x3d1d206e	0.038361005
206	0x3c933198	0.017967984
207	0xbbf0b43e	-0.0073457053
208	0x3c2bfb5e	0.010496942
209	0x3c2944ae	0.010331316
210	0x3bc070ce	0.0058728224
211	0x3cdac048	0.026703015
212	0x3c9f6cf0	0.019461125
213	0xbcf7056e	-0.030153956
214	0xbcfb6617	-0.030688329
215	0xbbc1e61c	-0.0059173238
216	0xbcec0f75	-0.028815964
217	0xbd1f6f76	-0.038924657
218	0x3c464dcd	0.01210351
219	0xbc834354	-0.016023315
220	0x3c4a3aaf	0.012343093
221	0x3d16d73c	0.036826357
222	0xbb8d98c9	-0.004321192
223	0xbb1c6352	-0.002386291
224	0x3d2241b0	0.039613426
225	0x3aee1e35	0.0018166961
226	0xbb73c7c4	-0.0037197927
227	0x3ca04907	0.019566072
228	0x3c596ea7	0.0132710105
229	0xbd081202	-0.0332203
230	0x3bee0155	0.0072633424
231	0x3c963009	0.018333452
232	0xbb441d3f	-0.0029924659
233	0xbcdefaa6	-0.027219128
234	0x3d25dddf	0.040494796
235	0x3c759c7a	0.01499092
236	0xbcc7823f	-0.024354098
237	0xbc8ad1b8	-0.016945705
238	0x3c489d02	0.012244465
239	0x3d06a616	0.032873236
240	0xbcac45ff	-0.02102947
241	0xbbee1453	-0.0072656064
242	0xbce4448d	-0.027864719
243	0x3d000f70	0.031264722
244	0xbcf3004a	-0.029663224
245	0xbd2a0fd6	-0.04151901
246	0x3d09352a	0.033497967
247	0xbd117b77	-0.035518136
248	0x3cc9d83e	0.024639245
249	0xbced98fe	-0.029003616
250	0xbd11d036	-0.035598956
251	0xbcfaf0a9	-0.030632334
252	0x3c966214	0.018357314
253	0xbc809780	-0.01569724
254	0xbaa3042c	-0.0012437156
255	0xbc47acb8	-0.012187175

base_model.model.gpt_neox.layers.1.attention.query_key_value.lora_B.weight f4 [1536, 16]
0	0x378c5a4b	1.6731346e-05
1	0x37a6b4ea	1.9872987e-05
2	0xb8206714	-3.824297e-05
3	0xb685872d	-3.9794454e-06
4	0x38296917	4.0390612e-05
5	0x37e7d614	2.7637034e-05
6	0x38850c28	6.3441985e-05
7	0xb84e3623	-4.9164646e-05
8	0xb808d9f8	-3.2627926e-05
9	0x37f75852	2.9485822e-05
10	0xb6cd6a6e	-6.121866e-06
11	0xb7bfaf78	-2.2850683e-05
12	0x38311873	4.222286e-05
13	0x3804995a	3.1614072e-05
14	0xb7d4a159	-2.5347503e-05
15	0x382281be	3.874464e-05
16	0xb7ffb94a	-3.048465e-05
17	0xb631335e	-2.6404955e-06
18	0x3685c71d	3.9868887e-06
19	0xb843ef06	-4.671423e-05
20	0x379a2876	1.8377072e-05
21	0x3630ca8e	2.6343946e-06
22	0x378ec826	1.702092e-05
23	0x378c5a68	1.67314e-05
24	0x37c822cc	2.3858061e-05
25	0x370aa759	8.264405e-06
26	0xb8057cbd	-3.1825843e-05
27	0xb7bfb6ac	-2.2854038e-05
28	0x37c82b58	2.3862041e-05
29	0xb77a6189	-1.492387e-05
30	0x370aa8dc	8.264757e-06
31	0x381c36a5	3.724419e-05
32	0xb79e505a	-1.8872484e-05
33	0xb808d517	-3.2623382e-05
34	0x370e1aa0	8.470059e-06
35	0xb6cd44bc	-6.117478e-06
36	0x38b91001	8.8244684e-05
37	0x3756141a	1.2760074e-05
38	0x3755f0ce	1.2751856e-05
39	0xb7b201c9	-2.1220085e-05
40	0xb86c6006	-5.6356213e-05
41	0x389bf0df	7.435842e-05
42	0x3816c3a7	3.5945002e-05
43	0x3712e7b3	8.756225e-06
44	0x37d5f7fe	2.5507059e-05
45	0x382290b6	3.8758582e-05
46	0x3866980f	5.497789e-05
47	0x38b23071	8.496724e-05
48	0xb841dc80	-4.6220142e-05
49	0xb7de4515	-2.6496631e-05
50	0xb70aaabc	-8.265193e-06
51	0xb5dd6bc6	-1.6497149e-06
52	0x38432314	4.6524292e-05
53	0x38177848	3.6113226e-05
54	0x37d1ce22	2.501073e-05
55	0xb81e52d5	-3.774728e-05
56	0xb7617c35	-1.3439964e-05
57	0x381777c8	3.611276e-05
58	0xb7ac13c2	-2.0513198e-05
59	0xb81091cf	-3.446807e-05
60	0x38812d5a	6.159647e-05
61	0x37c40278	2.336617e-05
62	0x37ba6215	2.22186e-05
63	0x38b234e3	8.497552e-05
64	0xb7da1737	-2.5998435e-05
65	0x37ec0b06	2.8138526e-05
66	0x3780bf84	1.534797e-05
67	0xb7908fe5	-1.7233144e-05
68	0xb806bdf3	-3.2124994e-05
69	0xb8199240	-3.661425e-05
70	0xb8156261	-3.561599e-05
71	0x381d1b8a	3.7457365e-05
72	0x3890815a	6.890549e-05
73	0xb7b641c1	-2.172671e-05
74	0xb8ba1f70	-8.875027e-05
75	0xb7717059	-1.4390877e-05
76	0x37b05366	2.101967e-05
77	0xb873cd74	-5.8127058e-05
78	0x372eaef4	1.0411943e-05
79	0xb854acc8	-5.0705654e-05
80	0x3820779c	3.8258368e-05
81	0x350378ca	4.8977074e-07
82	0x36de241a	6.6203183e-06
83	0x38355c77	4.3239877e-05
84	0x373a4353	1.1102139e-05
85	0xb79e6e10	-1.888632e-05
86	0x37ba02e8	2.2174281e-05
87	0x381982a2	3.6599704e-05
88	0x37d435f1	2.5297488e-05
89	0xb848c2f9	-4.78653e-05
90	0xb80b6d19	-3.3241788e-05
91	0xb83fa5e6	-4.5692454e-05
92	0x378ed58d	1.7027161e-05
93	0xb7866d97	-1.6025077e-05
94	0x3804a580	3.1625386e-05
95	0xb83c8950	-4.4950575e-05
96	0x3856bacc	5.1195544e-05
97	0xb7ffc610	-3.0490599e-05
98	0xb7df7b8c	-2.6641203e-05
99	0x3868bc9f	5.5488777e-05
100	0x380d9e2a	3.376432e-05
101	0x38296f9b	4.039668e-05
102	0x38980aac	7.2499126e-05
103	0xb78c6bcc	-1.6739497e-05
104	0x3742c889	1.1609992e-05
105	0x381e591a	3.7753118e-05
106	0x374d6373	1.2242107e-05
107	0x35dc0cea	1.6395036e-06
108	0xb7fbfa94	-3.0038216e-05
109	0x38109565	3.447141e-05
110	0x36ffb32a	7.6204497e-06
111	0x37fb7f74	2.9980882e-05
112	0xb8148b9c	-3.541597e-05
113	0xb7027212	-7.775163e-06
114	0xb80065d5	-3.0612417e-05
115	0xb81ce7e6	-3.740927e-05
116	0xb73b2290	-1.1154116e-05
117	0xb766d199	-1.3757869e-05
118	0x37824072	1.5527217e-05
119	0x372c8d57	1.0284907e-05
120	0x38b445cf	8.596072e-05
121	0xb84e248a	-4.9148257e-05
122	0xb873b879	-5.810752e-05
123	0xb6cd3c11	-6.1164687e-06
124	0x3887c785	6.474465e-05
125	0xb898121c	-7.251298e-05
126	0x3884a54d	6.32504e-05
127	0xb77d35dd	-1.5092516e-05
128	0xb6de3c7d	-6.6231573e-06
129	0x37e55cb6	2.73421e-05
130	0x370df2af	8.460759e-06
131	0xb73a4d7e	-1.11045065e-05
132	0x3685ece8	3.9912884e-06
133	0x37aaf8bc	2.0381405e-05
134	0x38333ab8	4.273161e-05
135	0x35050035	4.954666e-07
136	0xb7133928	-8.7751905e-06
137	0x378c68d2	1.6738111e-05
138	0xb73a4d2c	-1.1104432e-05
139	0xb7d78d0f	-2.5695683e-05
140	0x385da4b6	5.2843905e-05
141	0x3806c2d0	3.2129523e-05
142	0x38877200	6.458536e-05
143	0x3897763e	7.2222654e-05
144	0x3843f8be	4.6723282e-05
145	0xb841dc43	-4.621992e-05
146	0x3804ae31	3.163348e-05
147	0x385fbb7e	5.334196e-05
148	0xb86d7f11	-5.6623543e-05
149	0xb755fb40	-1.2754288e-05
150	0xb7e7e8b1	-2.7645701e-05
151	0x372147c9	9.613062e-06
152	0x38296568	4.038718e-05
153	0x361bff34	2.3245348e-06
154	0x3892f242	7.0069465e-05
155	0xb698086b	-4.530933e-06
156	0xb7ffc48e	-3.0489897e-05
157	0xb67d86e4	-3.7778454e-06
158	0xb70e2511	-8.47249e-06
159	0xb80c6b0a	-3.347829e-05
160	0xb853d3cd	-5.0503575e-05
161	0xb742dc9c	-1.1614666e-05
162	0xb7fb8c4e	-2.9986866e-05
163	0xb855e8d3	-5.099999e-05
164	0x387b87ca	5.9969527e-05
165	0x38198cc2	3.6609134e-05
166	0x37855632	1.5894973e-05
167	0x36f3abe3	7.2619746e-06
168	0xb6bc8d07	-5.6192544e-06
169	0x3506d409	5.022744e-07
170	0xb7bfb477	-2.285301e-05
171	0xb782ca5c	-1.5591439e-05
172	0xb755f598	-1.2752971e-05
173	0xb7ac1625	-2.051431e-05
174	0x373a5317	1.110581e-05
175	0x382c5dda	4.10954e-05
176	0x384f21b6	4.938404e-05
177	0xb7bfc610	-2.2861204e-05
178	0x380fbc04	3.426896e-05
179	0x38057c46	3.182541e-05
180	0xb7c40d45	-2.33712e-05
181	0xb7a28fb6	-1.9378826e-05
182	0xb804a8a8	-3.1628326e-05
183	0xb5c8dadf	-1.4964861e-06
184	0x378677d5	1.6029846e-05
185	0x378c6b37	1.6739226e-05
186	0xb7a0d1b7	-1.9171142e-05
187	0xb7f7541c	-2.9483861e-05
188	0xb81095e8	-3.4471886e-05
189	0x37ed90d6	2.8320046e-05
190	0x3779fbc8	1.4900179e-05
191	0xb84ad375	-4.8357488e-05
192	0xb85d945d	-5.282868e-05
193	0x3806c192	3.2128366e-05
194	0xb7ba4ccd	-2.2208691e-05
195	0xb6100345	-2.1459575e-06
196	0xb7cd6836	-2.4486431e-05
197	0x365ce32c	3.2914786e-06
198	0xb8c59b95	-9.4226714e-05
199	0x37cd86ec	2.4500732e-05
200	0x3655d89a	3.1865552e-06
201	0x373a7038	1.1112592e-05
202	0x380e7b70	3.39704e-05
203	0x371687a0	8.972274e-06
204	0x37b46e9e	2.1509182e-05
205	0xb7a2aed5	-1.9393317e-05
206	0xb7166cbb	-8.9660125e-06
207	0xb6d40bd9	-6.3194716e-06
208	0x38a666d0	7.934647e-05
209	0xb82b872a	-4.089546e-05
210	0x37d5dfb8	2.5495756e-05
211	0x383557be	4.323548e-05
212	0x37e9939e	2.7844504e-05
213	0x381b16f6	3.6976264e-05
214	0x385a1a74	5.1999887e-05
215	0x375e2b4a	1.324231e-05
216	0x389880ba	7.271902e-05
217	0x3806acd2	3.210904e-05
218	0x37a41ec4	1.956465e-05
219	0xb8282a0f	-4.009349e-05
220	0x365be83a	3.2768717e-06
221	0x3858da48	5.1701703e-05
222	0x373a68e1	1.1110883e-05
223	0x379e502f	1.8872406e-05
224	0xb80c60be	-3.34687e-05
225	0xb7aaf677	-2.0380348e-05
226	0xb780eb1b	-1.5368269e-05
227	0x37d5f5a4	2.5505964e-05
228	0x386ad1e4	5.5985423e-05
229	0x36cdf97c	6.13852e-06
230	0x385da6a6	5.284571e-05
231	0xb7e5738f	-2.7352738e-05
232	0xb8839a51	-6.2753104e-05
233	0x384ceebc	4.885973e-05
234	0x389705ce	7.201322e-05
235	0x38274d90	3.988814e-05
236	0xb81e59e3	-3.775385e-05
237	0x3855ef75	5.100617e-05
238	0x37cf33b5	2.47004e-05
239	0x38b22fdf	8.496618e-05
240	0x37cc5253	2.435703e-05
241	0xb742d168	-1.1612057e-05
242	0x3835525e	4.3230473e-05
243	0x381e532f	3.7747606e-05
244	0xb506e829	-5.025673e-07
245	0xb89cf813	-7.484867e-05
246	0x382b7c11	4.0885123e-05
247	0x388bb52f	6.6617846e-05
248	0x3886c190	6.425672e-05
249	0xb8109376	-3.446961e-05
250	0xb8155d4f	-3.561127e-05
251	0x36eec152	7.115458e-06
252	0x3779e0fa	1.4893938e-05
253	0xb6cda8b6	-6.1291166e-06
254	0x3685b44e	3.984699e-06
255	0xb861d566	-5.3842923e-05

base_model.model.gpt_neox.layers.2.attention.query_key_value.lora_A.weight f4 [16, 512]
0	0x3c6d7bca	0.014494846
1	0xbd0effb4	-0.034911826
2	0xbc87ca0e	-0.01657584
3	0x3cc4a067	0.024002267
4	0x3c8c5ef1	0.017135115
5	0xbcad9fce	-0.021194365
6	0xbd34af6c	-0.044112608
7	0xbd2d4cd8	-0.042309612
8	0xbc8862c4	-0.016648658
9	0xbcc1a006	-0.023635875
10	0x3d314ffa	0.043289162
11	0x3d3296be	0.04360079
12	0xbb943da2	-0.0045239488
13	0xbbb71d51	-0.0055882116
14	0x3c7cf918	0.015440248
15	0x3cb2215c	0.021744423
16	0x3ca1e458	0.019762203
17	0x3c76d055	0.015064319
18	0xbc9b01e3	-0.018921798
19	0x399651da	0.00028671214
20	0xbd09ff57	-0.033690777
21	0xbd081df5	-0.033231694
22	0xbce580c8	-0.02801551
23	0x3cab7b29	0.02093275
24	0xbc43b052	-0.0119438935
25	0x3d0e87ac	0.034797356
26	0x3c615550	0.01375325
27	0xbc94fcb0	-0.018186897
28	0x3b210ceb	0.002457435
29	0x3ba3c34b	0.004997646
30	0x3d0fc089	0.035095725
31	0x3c9c50a3	0.01908142
32	0x3d19b6cc	0.037527844
33	0x3ca8f96c	0.020626746
34	0xbc82544c	-0.015909337
35	0x3d02ebec	0.031963274
36	0xbc9bcb24	-0.019017763
37	0xbc6bd272	-0.014393436
38	0x3d1d0422	0.03833402
39	0x3c4dbca3	0.0125571815
40	0x3c9b9656	0.018992584
41	0xbcaae4ac	-0.020860992
42	0x3d1be76a	0.03806249
43	0x3d2f3968	0.042779356
44	0xbcd18d34	-0.025580026
45	0x3d0df914	0.034661368
46	0x3d101d62	0.03518427
47	0xbcaf1a54	-0.021374859
48	0x3d1f1e0b	0.03884701
49	0x3caf20a0	0.021377861
50	0xbc712807	-0.014719016
51	0x3d316011	0.043304507
52	0xbcebff8d	-0.02880838
53	0x3be26d2d	0.0069099874
54	0x3d220975	0.0395598
55	0xbc63c09a	-0.0139009
56	0xbcfb7870	-0.030697078
57	0x3d1e17ba	0.038596846
58	0xbd1ac377	-0.037784066
59	0x3d33a94a	0.04386262
60	0xbc2c15e2	-0.010503264
61	0x3d2f069a	0.042730905
62	0x3c0e7a2e	0.008696122
63	0x3cfc4890	0.03079632
64	0xbd2e9d15	-0.042630274
65	0xbd15ad00	-0.03654194
66	0x3c647cbb	0.013945754
67	0x3ba9ea2b	0.0051853857
68	0xbd09a97a	-0.03360889
69	0x3d34bc50	0.0441249
70	0x3c85c7a8	0.016330555
71	0x3b9834fc	0.004644988
72	0x3d28e153	0.04123051
73	0x3c26695a	0.010156954
74	0x3cd71ccc	0.026258849
75	0xbce1457e	-0.027498957
76	0x3d22cf68	0.03974858
77	0xbc8984c8	-0.016786948
78	0xbd0eae5f	-0.034834262
79	0x3b9abb90	0.004722066
80	0x3cd7f56f	0.026362149
81	0x3c9bfb72	0.019040797
82	0x3d13c590	0.036077082
83	0xbd17cf92	-0.03706319
84	0xbd114235	-0.03546353
85	0x3a5b2d29	0.00083609164
86	0xbd16783a	-0.03673575
87	0x3d1a3f72	0.037658162
88	0xbbc715a1	-0.0060755764
89	0x3cdbf91c	0.026852183
90	0x3ccd70ac	0.02507814
91	0xbd0a52ae	-0.033770256
92	0xbc96f9b2	-0.01842961
93	0x3d20d441	0.03926492
94	0xbd11b9f7	-0.03557774
95	0xbc296abe	-0.010340391
96	0xbc6d6940	-0.014490426
97	0x3cbfcff2	0.023414586
98	0x3cbd3864	0.023098178
99	0xbb33dd96	-0.0027445308
100	0x3d2e55e4	0.04256238
101	0xbd10f95c	-0.035394058
102	0x3d2ef155	0.04271062
103	0xbd2c3e9f	-0.042051908
104	0xbcebc740	-0.028781533
105	0xbc851e56	-0.016249817
106	0x3cd5be02	0.02609158
107	0x3d1f6a81	0.03891993
108	0x3d1b2d44	0.037884966
109	0xbd1fa88d	-0.038979102
110	0x3cf197d5	0.029491344
111	0xbd1ca4ac	-0.03824298
112	0x3cee237d	0.029069657
113	0x3bba067c	0.0056770425
114	0xbc9242d2	-0.017854128
115	0x3baac7ae	0.005211792
116	0x3d122433	0.035679054
117	0xbd0e9fb1	-0.034820262
118	0x3c10dfa0	0.008842379
119	0xbc03e1ea	-0.008049468
120	0xbc5d423c	-0.013504561
121	0xbd2c82b5	-0.04211684
122	0x3ca3fda8	0.020018414
123	0x3cc9dc72	0.02464125
124	0x3d208b01	0.039195064
125	0xbb7bb5d9	-0.003840795
126	0x3d310a2e	0.0432226
127	0x38d0f7ce	9.96437e-05
128	0xbc1a8e78	-0.009433381
129	0xbcd13cfa	-0.025541771
130	0x3d2176eb	0.03942005
131	0x3d1aa8c2	0.037758596
132	0x3b9c3e1d	0.0047681467
133	0x3cd055b9	0.0254315
134	0xbd209b66	-0.0392107
135	0x3c81da90	0.015851289
136	0xbb4dbcfb	-0.0031393159
137	0xbabad3ce	-0.0014253797
138	0xbb82f30c	-0.0039962586
139	0xbc11aab2	-0.008890795
140	0x3b9cd069	0.0047855866
141	0x3d1ec1b4	0.03875895
142	0xbc17ae0f	-0.009257807
143	0xbc236393	-0.009972471
144	0xbd0d7390	-0.034534037
145	0x3d335d2c	0.043790027
146	0x3c413c10	0.011794105
147	0xbc7d4efa	-0.015460724
148	0x3afb5184	0.0019174074
149	0xbca998a8	-0.020702675
150	0xbcf2cfc3	-0.029640084
151	0xbb8d1d49	-0.0043064696
152	0xbd13aa5b	-0.036051136
153	0xbcdb504f	-0.026771693
154	0x3cf29792	0.02961329
155	0x3c526380	0.012841105
156	0xbc708d7c	-0.01468217
157	0x3cc0d4c3	0.023538953
158	0xbcf58baf	-0.029973833
159	0xbd02ca34	-0.031931117
160	0x3d29bd8d	0.041440535
161	0xbcf0e795	-0.029407302
162	0x3d1e8b2e	0.03870695
163	0xbd129734	-0.03578873
164	0xbcb9ac22	-0.022665087
165	0xbc63d013	-0.013904589
166	0xbcf92b8d	-0.030416274
167	0xbd079756	-0.03310331
168	0x3ca6dfbd	0.020370359
169	0xbc63466a	-0.0138717685
170	0xb9e1a249	-0.00043036256
171	0x3c29303e	0.010326443
172	0xbc39dbf5	-0.011343946
173	0xbd07fb2e	-0.033198528
174	0xbc380d06	-0.011233574
175	0xbd1ec968	-0.038766295
176	0xbbe69526	-0.007036823
177	0x3c969084	0.018379457
178	0xbd05f1ca	-0.03270129
179	0xbcda9fbb	-0.026687494
180	0x3d2866cc	0.04111366
181	0x3cc89fae	0.024490204
182	0xbd270a3b	-0.04078124
183	0xbd1895ba	-0.037252165
184	0xbd342884	-0.04398395
185	0xbc81b2a2	-0.01583225
186	0x3c047836	0.008085301
187	0xbd12cbad	-0.03583877
188	0x3d10252f	0.03519171
189	0x3d1924d2	0.03738863
190	0xbb06e850	-0.0020585246
191	0xbce7a029	-0.028274613
192	0x3d2e6686	0.042578243
193	0x3b8e711a	0.004346979
194	0xbb50bece	-0.003185201
195	0xbc664acd	-0.01405592
196	0x3c61131b	0.013737465
197	0x3d248c16	0.04017266
198	0x3d271f30	0.040801227
199	0xbba2cf6e	-0.004968575
200	0xbc24c1f8	-0.010056011
201	0x3cc8c517	0.024508042
202	0x3c980ee6	0.018561792
203	0xbc64be47	-0.013961381
204	0xbbb0559c	-0.005381299
205	0xbd11f652	-0.0356353
206	0x3cacd037	0.021095378
207	0x3d265f26	0.040618084
208	0x3aa4a857	0.0012562376
209	0x3cd6ddf0	0.026228875
210	0x3c924024	0.01785285
211	0x3d21dca9	0.03951708
212	0x3cb9fdc2	0.022704009
213	0x39d6752c	0.0004090456
214	0xbcf7eca4	-0.030264206
215	0xbc0fb656	-0.0087715
216	0x3d25bbfd	0.040462483
217	0xbbaf26ce	-0.005345202
218	0xbc31b879	-0.010847204
219	0xbd2d6e82	-0.042341717
220	0xbc0e4485	-0.0086833285
221	0xbd122dc7	-0.035688188
222	0x3b1a869e	0.0023578773
223	0x3c9ed99e	0.019390877
224	0x3d075d94	0.033048227
225	0xbb97e38e	-0.004635281
226	0xbd18fdcf	-0.037351426
227	0xbc8b7bdb	-0.017026832
228	0xbc4e0900	-0.012575388
229	0xbcde41df	-0.02713102
230	0x3d0cae65	0.034346003
231	0x3c2aacd6	0.010417184
232	0x3bdf9a5c	0.006823821
233	0xbca3bbcf	-0.019987015
234	0xbc53273c	-0.012887772
235	0x3ca7ac73	0.020467972
236	0x3cd7d812	0.026348148
237	0x3d241208	0.04005626
238	0xbc10d62d	-0.008840126
239	0x3cb11c0b	0.021619817
240	0x3d03ccb0	0.032177627
241	0x3c990c90	0.018682748
242	0xbb83b74e	-0.0040196544
243	0x3bc606e9	0.006043304
244	0x3d1c5fcb	0.038177293
245	0xbc8bdd2c	-0.017073236
246	0x3abe8ae3	0.0014537241
247	0xbcf4d80c	-0.029888175
248	0xbc47ca8e	-0.012194289
249	0x3d093be4	0.03350438
250	0x3cdc4134	0.02688656
251	0xbcdab914	-0.02669958
252	0xbd015052	-0.03157074
253	0x3cf33158	0.029686615
254	0x3c36114f	0.011112525
255	0x3c90730c	0.017632984

base_model.model.gpt_neox.layers.2.attention.query_key_value.lora_B.weight f4 [1536, 16]
0	0xb794bf6e	-1.7732116e-05
1	0x383117be	4.22222e-05
2	0xb723d7ef	-9.765833e-06
3	0x37e9501d	2.781307e-05
4	0x3685cf61	3.987851e-06
5	0xb783eaf6	-1.572583e-05
6	0x3713348c	8.774117e-06
7	0x37b1f3ad	2.1213515e-05
8	0xb7853d5d	-1.588341e-05
9	0x380fa937	3.425145e-05
10	0xb6dddb1a	-6.61182e-06
11	0x3723b5fd	9.75793e-06
12	0x37bb7af8	2.2349399e-05
13	0x376f4d49	1.4263504e-05
14	0x37e123d1	2.6838768e-05
15	0xb783f836	-1.5732e-05
16	0x373af811	1.1144221e-05
17	0xb6ef0dde	-7.1243694e-06
18	0x3685bac4	3.9854513e-06
19	0xb73a5a5d	-1.1107503e-05
20	0x3731da64	1.060087e-05
21	0xb87750cc	-5.8964637e-05
22	0xb56324be	-8.4617557e-07
23	0x37325bb8	1.0630982e-05
24	0xb6312be4	-2.6400603e-06
25	0x383673d6	4.3500062e-05
26	0xb81e4dbc	-3.774253e-05
27	0xb76c7a43	-1.4095162e-05
28	0x37715a82	1.4385792e-05
29	0x363177f6	2.6444882e-06
30	0x37299166	1.0107038e-05
31	0xb79e4bfd	-1.8870453e-05
32	0x37c82e36	2.3863377e-05
33	0xb8155ce2	-3.5610872e-05
34	0xb631788f	-2.644523e-06
35	0xb7e7c0d5	-2.762714e-05
36	0xb857f728	-5.1490177e-05
37	0x380d8ed0	3.3750024e-05
38	0xb7bfceb5	-2.286523e-05
39	0x37d5cce2	2.5486985e-05
40	0x381ba1da	3.7105616e-05
41	0xb7e555d7	-2.73389e-05
42	0xb80c5e98	-3.34667e-05
43	0x38006c47	3.061842e-05
44	0xb811cafe	-3.4759745e-05
45	0x36a04561	4.7764483e-06
46	0xb79e554b	-1.8874785e-05
47	0x36f8f0e8	7.419021e-06
48	0xb7bfb7c4	-2.2854547e-05
49	0x3831fa5e	4.243326e-05
50	0xb88e0b5d	-6.773204e-05
51	0x37b9d64a	2.2153505e-05
52	0xb779ebf6	-1.48964955e-05
53	0x38176ec4	3.6104364e-05
54	0xb78c54f9	-1.6728869e-05
55	0xb7e3ac30	-2.714069e-05
56	0xb72630a8	-9.9057e-06
57	0x3841c862	4.6201407e-05
58	0xb7bfbb54	-2.2856206e-05
59	0x375e52b6	1.3251489e-05
60	0xb73a64fb	-1.1109975e-05
61	0x378837d0	1.6238453e-05
62	0x3731f188	1.0606258e-05
63	0x387960e1	5.945645e-05
64	0xb7c3ea02	-2.335478e-05
65	0xb8771acb	-5.8914342e-05
66	0x37da1c46	2.6000791e-05
67	0x388e05a4	6.772138e-05
68	0x3883fb3d	6.2933635e-05
69	0xb8058360	-3.1832024e-05
70	0xb7c7f47a	-2.3836492e-05
71	0xb6969a83	-4.488336e-06
72	0x34e53df4	4.269965e-07
73	0xb827454f	-3.988045e-05
74	0xb7b0299a	-2.1000207e-05
75	0xb8812e50	-6.159826e-05
76	0x388d6740	6.742636e-05
77	0x37716c8c	1.4389992e-05
78	0x3790801a	1.722579e-05
79	0xb854a893	-5.0701736e-05
80	0x370d1de0	8.411211e-06
81	0x38261c12	3.9603627e-05
82	0xb7883bff	-1.6240401e-05
83	0xb8282926	-4.0092644e-05
84	0xb6a69baa	-4.965307e-06
85	0x37e122d8	2.6838316e-05
86	0x37641218	1.3594072e-05
87	0xb7fface9	-3.0478886e-05
88	0x384f0030	4.935282e-05
89	0x37adc83b	2.0716447e-05
90	0xb80d9ee9	-3.3765016e-05
91	0xb77177b9	-1.43925945e-05
92	0xb823f3a8	-3.908915e-05
93	0xb7854783	-1.5888136e-05
94	0x37a27b05	1.936919e-05
95	0x380a3d50	3.2958866e-05
96	0xb75ecc40	-1.3279787e-05
97	0x361cfafa	2.33919e-06
98	0x38176bba	3.6101534e-05
99	0x388f1417	6.8225134e-05
100	0x38198715	3.6603848e-05
101	0xb7d790a1	-2.5697345e-05
102	0xb82a40c2	-4.059147e-05
103	0x37555262	1.2714971e-05
104	0xb7d1bbae	-2.5002137e-05
105	0xb7554e0f	-1.2713964e-05
106	0xb72d0181	-1.0311954e-05
107	0xb6963288	-4.476231e-06
108	0x3755e688	1.2749464e-05
109	0xb729a78c	-1.0112195e-05
110	0x38281de6	4.0082166e-05
111	0xb8774892	-5.8956975e-05
112	0xb8213cb8	-3.844194e-05
113	0x38049f1c	3.1619435e-05
114	0xb7e7e6c9	-2.7644814e-05
115	0x35993211	1.141396e-06
116	0x37c3dcaa	2.3348566e-05
117	0xb75e40e8	-1.3247343e-05
118	0xb7bfc680	-2.2861408e-05
119	0xb7fb74d4	-2.9975934e-05
120	0x36c38ab4	5.8276e-06
121	0x379096ea	1.7236413e-05
122	0xb779c440	-1.488725e-05
123	0xb86d77ef	-5.66169e-05
124	0x37299985	1.0108929e-05
125	0x37b00536	2.0983261e-05
126	0x3843c84d	4.6678168e-05
127	0xb810821b	-3.4453446e-05
128	0xb7dbc8ea	-2.6200392e-05
129	0xb7da1ca4	-2.6000962e-05
130	0xb86f9f20	-5.7130237e-05
131	0x36de9f1c	6.6346383e-06
132	0x3782d362	1.559564e-05
133	0xb584cf60	-9.89512e-07
134	0x382079d2	3.8260427e-05
135	0xb857fe9c	-5.1497118e-05
136	0xb74d9f41	-1.2256031e-05
137	0x38802515	6.110423e-05
138	0x38468a9e	4.7335976e-05
139	0x37b05fa5	2.1025373e-05
140	0x375e098d	1.3234455e-05
141	0x383a1d1c	4.4372966e-05
142	0x38108c1a	3.4462755e-05
143	0xb6ddceae	-6.610374e-06
144	0xb7025151	-7.767537e-06
145	0xb79e3cdd	-1.886341e-05
146	0xb79e5dbe	-1.887872e-05
147	0x38580269	5.1500658e-05
148	0xb6981656	-4.5325532e-06
149	0x361c0324	2.324764e-06
150	0x36de56cc	6.62622e-06
151	0xb74544aa	-1.1758102e-05
152	0x381b83a1	3.707747e-05
153	0x368ff5d4	4.2903503e-06
154	0xb8134430	-3.5111036e-05
155	0x383a15eb	4.436627e-05
156	0xb78c7458	-1.6743477e-05
157	0x36cd8c71	6.1258256e-06
158	0x36cd3c58	6.116501e-06
159	0x36312b50	2.6400267e-06
160	0x35056bf9	4.970348e-07
161	0x37c67074	2.3655804e-05
162	0x374d9045	1.2252543e-05
163	0xb7f069b3	-2.865945e-05
164	0x3804a438	3.1624193e-05
165	0xb7d1b0f2	-2.4997138e-05
166	0xb7882cc2	-1.6233305e-05
167	0x38026694	3.108995e-05
168	0x37bded41	2.2641036e-05
169	0xb755c611	-1.2741905e-05
170	0x382a36b6	4.0582112e-05
171	0xb7d5e4ab	-2.549806e-05
172	0x37f323d7	2.8984547e-05
173	0xb7690663	-1.3889369e-05
174	0xb7dbc240	-2.619729e-05
175	0xb78c767b	-1.6744472e-05
176	0xb712e5e6	-8.7558055e-06
177	0x37d36abd	2.5202864e-05
178	0xb884a73a	-6.325399e-05
179	0xb76c6f31	-1.4092585e-05
180	0xb831230b	-4.2232725e-05
181	0x38a44c5a	7.834351e-05
182	0x37d5ef94	2.5503141e-05
183	0xb7da1679	-2.599809e-05
184	0x36b7d347	5.478421e-06
185	0xb73a1c0b	-1.1092993e-05
186	0x37b8b060	2.201664e-05
187	0x3868b4ab	5.548137e-05
188	0xb89ec6fe	-7.571092e-05
189	0x379e5304	1.8873725e-05
190	0x37da0090	2.5987887e-05
191	0x383a3eb0	4.4404238e-05
192	0xb6859a0a	-3.9816414e-06
193	0xb7592b1d	-1.2944246e-05
194	0x37d1b524	2.4999092e-05
195	0x38275284	3.989275e-05
196	0x38669803	5.4977845e-05
197	0xb7e7db6a	-2.7639519e-05
198	0xb72f46d3	-1.0447303e-05
199	0xb8049f53	-3.1619635e-05
200	0xb6d7809e	-6.4224723e-06
201	0xb6b5e1fe	-5.4205293e-06
202	0xb8a3deb9	-7.813931e-05
203	0xb80b66c8	-3.3235905e-05
204	0x3755d787	1.2745971e-05
205	0xb806b93a	-3.2120595e-05
206	0x3788318b	1.6235534e-05
207	0xb855e35c	-5.0994902e-05
208	0xb7bf7c9a	-2.2826996e-05
209	0x3811c465	3.47536e-05
210	0x3855efa6	5.1006347e-05
211	0x37a444c0	1.9582338e-05
212	0x38156857	3.5621542e-05
213	0xb7909789	-1.7236702e-05
214	0xb7b6294b	-2.171532e-05
215	0x38108a79	3.4461238e-05
216	0x368fe3cc	4.288251e-06
217	0xb84ced19	-4.8858205e-05
218	0xb6ef4117	-7.1303325e-06
219	0xb881304c	-6.160195e-05
220	0x35b3ac3b	1.3386665e-06
221	0xb84f06cc	-4.9358976e-05
222	0x384ce8e8	4.88543e-05
223	0xb7e55e2c	-2.734278e-05
224	0x3712ff08	8.761657e-06
225	0x38776ae5	5.8988942e-05
226	0xb7c3ed6d	-2.3356371e-05
227	0xb8235ddb	-3.8949638e-05
228	0x381e4d54	3.7742153e-05
229	0xb7023a5e	-7.7621935e-06
230	0xb7132496	-8.770401e-06
231	0xb7f7199b	-2.9456618e-05
232	0xb67e2141	-3.7868306e-06
233	0xb5dd3113	-1.6480066e-06
234	0x36de33a6	6.6221282e-06
235	0x3798fe5e	1.8238261e-05
236	0x36312228	2.6394937e-06
237	0x37a28db9	1.93779e-05
238	0x38154ae0	3.55941e-05
239	0x3843ee6a	4.6713663e-05
240	0x37f9f9f6	2.979951e-05
241	0xb7f319b0	-2.8979819e-05
242	0xb7d42622	-2.5290126e-05
243	0x379084f7	1.7228054e-05
244	0xb7c67948	-2.3659915e-05
245	0x36cdc510	6.132417e-06
246	0x3779d008	1.4889993e-05
247	0x37883494	1.6236947e-05
248	0x380c5a3a	3.346263e-05
249	0xb7f3266e	-2.8985753e-05
250	0x3731fc8e	1.0608825e-05
251	0xb7d1ccb1	-2.5010058e-05
252	0xb7d1ad4e	-2.4995443e-05
253	0x3818ae4b	3.6401947e-05
254	0xb7f59ad6	-2.9278377e-05
255	0xb630d141	-2.6347846e-06

base_model.model.gpt_neox.layers.3.attention.query_key_value.lora_A.weight f4 [16, 512]
0	0xbb37708c	-0.0027990667
1	0x3c4406c8	0.011964507
2	0xbbfd68e5	-0.0077334517
3	0xbd176556	-0.036961876
4	0xbc4aef9b	-0.012386228
5	0xbd1c8ae4	-0.038218394
6	0xba0c57f4	-0.0005353682
7	0x3d13325a	0.03593669
8	0x3bbfc738	0.005852606
9	0xbc40a66d	-0.011758429
10	0x3c032c28	0.008006133
11	0x3c893845	0.016750464
12	0x3c861b20	0.016370356
13	0x3d1e6808	0.03867343
14	0x3d0b7ba8	0.034053475
15	0xbba087ce	-0.0048990017
16	0x3cd05961	0.025433244
17	0x3d15b49b	0.036549192
18	0xbd22662a	-0.039648212
19	0xbd1e864d	-0.038702298
20	0xbc872c52	-0.016500626
21	0x3bbc4386	0.005745354
22	0x3cd22c02	0.02565575
23	0x3d30df8c	0.04318194
24	0xbb466fcc	-0.0030279038
25	0x3cad0c8e	0.02112415
26	0x3ce17dc8	0.027525797
27	0x3c85ca21	0.016331734
28	0xba2a77e3	-0.000650285
29	0xbcffba8d	-0.031216884
30	0xbbbff04a	-0.005857502
31	0x3d05682a	0.03257004
32	0xbd277611	-0.04088408
33	0xbc9c307b	-0.019066086
34	0x3caede2e	0.021346178
35	0x3d0bcea8	0.03413263
36	0x3c1ae733	0.009454536
37	0x3d203c22	0.039119847
38	0xbd307aca	-0.04308585
39	0x3cbd4afa	0.02310704
40	0xbd2f19b8	-0.042749137
41	0x3a890b66	0.0010455668
42	0xbb8a3cc1	-0.004218668
43	0xbbb442ac	-0.005501112
44	0xbbfaf58f	-0.0076586674
45	0x3ccb6ddc	0.024832658
46	0x3b993a36	0.0046761287
47	0xbca96600	-0.02067852
48	0xbd27c0d0	-0.040955365
49	0xbb901d96	-0.004398058
50	0xbb8e09a4	-0.0043346453
51	0xbc27d961	-0.010244698
52	0x3a41d4ae	0.00073940575
53	0x3bc48f56	0.0059985323
54	0xbcbabe2f	-0.022795765
55	0xbc00c1a9	-0.007858672
56	0xbc8d65d1	-0.017260464
57	0xbcf4386a	-0.029812057
58	0xbb5eac9e	-0.00339774
59	0x3d33fd68	0.04394284
60	0x3d2c1737	0.042014327
61	0xbcfe9421	-0.031076493
62	0x3d1454a0	0.036213517
63	0xbcb0665a	-0.02153318
64	0x3cd553ff	0.026041029
65	0xbcb74e61	-0.022376241
66	0x3ce29d82	0.027662996
67	0x3c1143f1	0.008866296
68	0x3ca6f384	0.02037979
69	0x3cabcb0e	0.020970847
70	0xbd2b7f83	-0.04186965
71	0xbc15ab86	-0.009135133
72	0x3d0543fe	0.032535546
73	0x3b05884e	0.0020375433
74	0x3d2a6761	0.041602496
75	0x3ca7b667	0.020472718
76	0xbd0186d6	-0.03162273
77	0x3cbf4d52	0.023352299
78	0x3b9c8920	0.0047770888
79	0x3cdb6752	0.026782665
80	0xbd2e8572	-0.042607732
81	0x3bb791b2	0.005602085
82	0x3ca990b2	0.020698879
83	0xbd0a733c	-0.033801302
84	0x3caa6d82	0.02080417
85	0xbd31f89f	-0.043449994
86	0x3c6b8c84	0.014376763
87	0xbd2e988d	-0.042625953
88	0x3cbdadbe	0.023154136
89	0x3c3349ca	0.010942886
90	0x3cf340d2	0.029693995
91	0xbca16973	-0.019703602
92	0x3bcf195b	0.0063201613
93	0xbd08c5e0	-0.033391833
94	0xbce9cd29	-0.02854021
95	0xbd03b305	-0.03215315
96	0x3d1676d4	0.036734417
97	0x3c980b90	0.0185602
98	0x3d07bcd2	0.033139057
99	0xbd1210a4	-0.0356604
100	0x3d1a63c6	0.037692808
101	0xbd1094c6	-0.03529813
102	0xbb8b7538	-0.004255917
103	0x3d250edd	0.040297378
104	0xbc86bd65	-0.016447732
105	0xbd2bc1f2	-0.041933008
106	0x3cc6f68f	0.02428749
107	0xbc6e2476	-0.01453506
108	0x3d206e9d	0.03916799
109	0xbc96d1cd	-0.018410588
110	0x3d05456e	0.032536916
111	0xbca7175f	-0.020396886
112	0x3c15e13e	0.00914794
113	0x3cfb4680	0.030673265
114	0x3ab5346e	0.0013824829
115	0x3b57cbb4	0.0032927813
116	0x3d126b31	0.035746757
117	0x3d0fd8de	0.03511893
118	0x3ced5bc1	0.028974416
119	0x3d1285af	0.03577202
120	0xbd20a227	-0.03921714
121	0x3cbb16b8	0.022837982
122	0xbce6aef2	-0.028159592
123	0xbbaf4b9b	-0.005349589
124	0x3d2534a0	0.04033339
125	0x3c24fcfb	0.010070081
126	0x3ce63e38	0.02810584
127	0xbc087315	-0.008328219
128	0x3cdf1bc2	0.027234916
129	0xbcc6d800	-0.024272919
130	0xbb2c8769	-0.0026325828
131	0x3d2e321c	0.042528257
132	0x3d0c48e1	0.03424919
133	0x3c8aa48e	0.016924169
134	0xbc8e108c	-0.017341875
135	0x3d0603cf	0.032718476
136	0x3c9b91d6	0.018990438
137	0xbd0b4cd2	-0.03400881
138	0x3b858a22	0.0040753046
139	0x3cd2b4e7	0.025721027
140	0x3cc1fe48	0.023680821
141	0xbbd6597e	-0.00654143
142	0x3d0675e5	0.032827277
143	0x3c9d52d6	0.019204538
144	0xbccfb6ca	-0.025355715
145	0x3ab68f3b	0.0013928184
146	0x3c6f0508	0.014588602
147	0x3cc416ce	0.023936655
148	0x3d0f86ba	0.035040595
149	0x3c6ee9f6	0.014582148
150	0x3c1d5583	0.009602907
151	0x3cbea94c	0.023274086
152	0xbd12129e	-0.035662286
153	0xbb242016	-0.0025043539
154	0xba32e8e9	-0.00068248675
155	0xbc2502fa	-0.01007151
156	0x3c31fd76	0.010863652
157	0xbd2de7b0	-0.042457283
158	0xbc410e94	-0.011783261
159	0xbb6552ea	-0.0034992048
160	0x3cfac6ff	0.030612467
161	0xbc2bb339	-0.010479742
162	0xbd34e06f	-0.04415935
163	0xbcaabfae	-0.020843353
164	0xbc048a40	-0.008089602
165	0xbb996a29	-0.0046818447
166	0x3caba962	0.020954791
167	0x3d00bf7e	0.03143262
168	0xbb4b4f01	-0.0031022432
169	0xbc29ec50	-0.010371283
170	0x3cf09fd8	0.029373094
171	0x3cde02ad	0.027100885
172	0xbc5c4b6c	-0.013445716
173	0x3cb8afa0	0.022544682
174	0x3cbab332	0.022790525
175	0xbc97adda	-0.018515516
176	0x3bbbe8a2	0.005734519
177	0xbc0f8acd	-0.00876112
178	0x3ce5d5e7	0.028056098
179	0x3cb38197	0.02191238
180	0x3d07d3e6	0.033161066
181	0x3b24507e	0.002507239
182	0xbd0c6dcf	-0.03428441
183	0xbd2b96a8	-0.041891724
184	0x3d28105a	0.04103122
185	0x3bf2df8a	0.007411902
186	0xbc949909	-0.01813938
187	0x3b86bc4e	0.004111803
188	0xbd183494	-0.037159517
189	0x3ab357c6	0.0013682775
190	0x3d327cc9	0.043576036
191	0xbd269598	-0.040670007
192	0x3d278c4d	0.040905286
193	0x3c31134c	0.010807823
194	0x3d0bfda9	0.034177456
195	0x3ca10614	0.019656219
196	0x3c5dee34	0.013545562
197	0x3b9c3c0b	0.0047679
198	0x3cbf9b1e	0.023389395
199	0x3cbfc2c4	0.023408301
200	0x3ca04e50	0.019568592
201	0xbd072e52	-0.03300316
202	0xbc169f74	-0.00919329
203	0x3caf98b9	0.021435129
204	0x3cf68749	0.030093806
205	0x3cfc7dc3	0.030821687
206	0xbba46d44	-0.0050179083
207	0x3d2f4960	0.042794585
208	0x3ba66126	0.005077499
209	0x3b41b17f	0.0029555259
210	0xbd142872	-0.036171384
211	0xbd216667	-0.0394043
212	0x3d34a96e	0.044106893
213	0x3bbee761	0.0058259224
214	0x3bef8184	0.0073091406
215	0x3b26bdaa	0.0025442638
216	0xbce798c0	-0.028271079
217	0x3d0996a0	0.033590913
218	0xbd2d7d91	-0.042356078
219	0x3a0a11a6	0.0005266912
220	0xbc804174	-0.01565621
221	0x3c8aa219	0.016922997
222	0x3d1d5ced	0.0384187
223	0x3c84ae4c	0.016196392
224	0xbc72d209	-0.014820584
225	0x3c0b13c0	0.0084885955
226	0x3c312dd2	0.010814147
227	0x3d08bde5	0.033384223
228	0x3b8b6668	0.004254151
229	0x3cc867c4	0.024463542
230	0xbc40e16b	-0.011772494
231	0xbcfd1e02	-0.030898098
232	0x3bcad4e9	0.0061899316
233	0x3b489a46	0.0030609532
234	0xbc8c7b76	-0.017148715
235	0x3d05b08d	0.032639075
236	0x3ca52587	0.020159496
237	0x3cd70f25	0.026252339
238	0x3ce2f236	0.027703386
239	0xbcedb055	-0.029014746
240	0xbd1a21c6	-0.037629865
241	0xbd08b6a6	-0.033377312
242	0xbd0bea27	-0.034158852
243	0xbc8abe11	-0.016936334
244	0xbcb44848	-0.022007123
245	0xbc8dd44f	-0.01731315
246	0x3c9c695c	0.019093208
247	0x3d1a0850	0.037605584
248	0xbc2b3cad	-0.010451478
249	0xbca5314c	-0.020165108
250	0x3cb689f6	0.022282582
251	0xbbfb3456	-0.007666151
252	0xbccde933	-0.025135612
253	0x3d131cc4	0.035916105
254	0xbba2f814	-0.004973421
255	0x3d2b3fc5	0.041808862
