FederatedLLM/FT_lite/my_fl_model_test/checkpoint-1/adapter_model.safetensors (safetensors, 788168 bytes, 12 tensors)

base_model.model.gpt_neox.layers.0.attention.query_key_value.lora_A.weight f4 [16, 512]
00000000: db89 e9bc 9e13 dbbc 8ed7 bbbc 86de a53b
00000010: e654 f03c 8c56 06bd 7feb 28bd 2456 023d
00000020: 3c8c 43bb 271f b13c 8153 3c3d 53b0 813c
00000030: 2392 db3c ca02 803b e90d 99bc 8e2e 463d
00000040: c080 a83b 5ddd 23bd 46db 80bc f7d6 14bd
00000050: 8ea2 b23b 03fb 153d 8dd4 8cbb 5668 91bc
00000060: 4138 153d b80d 0dbd 98f4 053d 2ec7 5a3c
00000070: 8e4b dcbc 60e1 06bd 20e3 793c b92a 1abd
00000080: 0cfb babc 888b 133d 3e54 95bc 88c4 83ba
00000090: 600b e1ba fb25 9fbc 9b21 cb3b 88c7 e43c
000000a0: d9a1 133d ce89 14bd fe6a 5b3c 8122 eb3c
000000b0: 3fb5 a3bc 23d5 143d 1e34 0c3d 5808 1e3c
000000c0: b81f fb3c 87c0 803c 199a d2bc 79e3 923c
000000d0: 1df1 e2bc 9416 88bc 09ca 8dbc 8e6c 8b3c
000000e0: daa6 c33c ef85 0a3d 7395 6d3c 1dad e7bc
000000f0: e1d6 053d 2a3b 88b9 39a3 763b 0c0f dbbc
00000100: fbf3 1ebc 3ecf d73c 3b5d 39bd a6c0 90bb
00000110: 833a 4a3c 1dd9 0cbd 9401 76bc 1ef8 3fbd
00000120: 6b65 0bbd ec6f cebc 42e1 6abc 27c2 12bd
00000130: 371c b63c ac3f d4bc 33da 063d 0458 4dbc
00000140: ad46 883c eb5f 1cbb 57e8 8fbc 0d96 c13b
00000150: a83a 10bd 1415 aeba 98d4 123d fc85 cbbc
00000160: 5598 083d ea0a 34bd 4d50 21bc 44ec 963c
00000170: 7731 3cbc ce99 a6bc 2306 363c 9235 a9bc
00000180: a404 9a3c 064e cb3c b0b1 c83c fdca 253c
00000190: 7506 1bbd 6018 16bd 8119 203d 8ebe ae3c
000001a0: 185f 963c 0c16 8c3c e204 c3bb cf12 843c
000001b0: fce5 793c 5299 febc 6408 953c aaf8 71bc
000001c0: 02b1 0cbc a480 953c 8a44 8fbb aa41 433c
000001d0: 1bca 903c b5c2 c9bb ab89 2b3d 04b3 20bd
000001e0: 713f cb3c 0582 083d 9f7e 823c 7e9a 16bd
000001f0: 68e5 4fbc ae5e 1cbc 1510 bd3c e755 d13c
00000200: e4ac 2a3d 752c 063d b2a1 c1bb 672a ccbc
00000210: d521 2f3c f34b b0bb d28e fabc 9613 c5bc
00000220: 5795 e5bb e449 0b39 f054 37bc 06f4 d2bc
00000230: 1632 a43b c644 43bd ec27 14bd dc9d 1e3d
00000240: 81b3 51bd 70bf 113d cf5c 423d 2234 893c
00000250: 1341 943c 9db3 6abc 5a34 a23c efe0 f5bc
00000260: ecca 31bd 4e5f 6abc 8e9e 583b c829 353d
00000270: 3cd9 9cbc d201 50bd e99d 213d eed0 56bc
00000280: abb8 bebc 4c39 1b3d 38b4 5fbc 335d d5bb
00000290: 0d6f 0fbd 057d 30bd 3e6d 6f39 07ef 97b9
000002a0: e507 0dbd 1bc1 07bd daf5 df3c 5482 bf3a
000002b0: 24c9 7f3c 1e77 b9ba 14fe b7bb 3be5 963a
000002c0: d4fc 493c 3eaf 3f3c d7b0 0d3c a38c dd3c
000002d0: f0f7 bc3c c5f6 873b fb60 273d cd14 203d
000002e0: bb72 db3c fb6b 38bd 061c 2a3c 9ca7 423c
000002f0: b94d ef3b 2c77 1d3d 709c 22bd e107 37bb
00000300: 4251 6dba b9ba 19bd 3f9c 223d 9643 e8bc
00000310: fbe5 60bc 9d4c c63c 2abd fcbb 0608 913c
00000320: 58ed cbb7 4b8a e53b 4371 b3bc bd50 0ebd
00000330: aa9a 553d e45a 1e3d fd8a b3bc 4e3d 16bc
00000340: 567f 95bb 495b 15bd 15af cd3c b273 43bd
00000350: edb4 033d c3b0 de3c 0802 463c f5f4 88bb
00000360: 8608 f3bc 813e c5bc c394 fb3c f425 2f3c
00000370: 556a 54bc 6120 803b d767 40bb fa7d babc
00000380: bfc5 563b d57b 49bc 00bb edbc ea33 be3b
00000390: 789e 023c e7db cb3c c427 aa3c d080 2ebb
000003a0: 2d35 3f3d 292c 02bc 3c5a 64bd d6b4 00bd
000003b0: 9531 333d afd7 a23b 1611 0d3c 0ce5 0abd
000003c0: 2384 123d ae22 d73c f4d3 87bc 7289 853c
000003d0: 7df1 e5bc 022f 48bc 5509 163d ed0f 82bc
000003e0: e1fb f2bc 635f e5bc 8418 1cbd 2f7a b33c
000003f0: 2023 9dbc 1074 ecbc 6e54 293d 8bea 233c
-0.028508117 -0.026742753 -0.022929933 0.0050619273 0.029337358 -0.03279738 -0.04124021 0.03182043
-0.0029838225 0.0216213 0.045978073 0.015831148 0.026803082 0.0039065825 -0.01868339 0.04838424
0.0051423013 -0.04000603 -0.015729558 -0.03633782 0.005451507 0.036616337 -0.004297799 -0.017749947
0.0364306 -0.03443691 0.032703966 0.013353152 -0.026891496 -0.032929778 0.015251905 -0.0376384
-0.022824787 0.03602174 -0.018228646 -0.0010053078 -0.0017169528 -0.01942729 0.0061990744 0.027927175
0.03604302 -0.036264233 0.013392208 0.028702976 -0.019983886 0.036336076 0.03422939 0.009645544
0.030654773 0.015716804 -0.025708245 0.017930733 -0.027702862 -0.016612329 -0.017308252 0.017019536
0.023883272 0.033819135 0.0145009635 -0.028280789 0.032675628 -0.00025984022 0.003763391 -0.026740573
-0.009701724 0.026343938 -0.045254927 -0.0044174967 0.012343052 -0.034386743 -0.015015025 -0.046867482
-0.034032267 -0.025199853 -0.014335932 -0.03582969 0.02223025 -0.025909267 0.032922935 -0.012533192
0.016635263 -0.0023860883 -0.017566843 0.00590778 -0.03521219 -0.0013281428 0.035847276 -0.024844162
0.0333484 -0.04395572 -0.009845805 0.018423207 -0.011486403 -0.020337012 0.011109862 -0.020655427
0.018801041 0.024817478 0.02449879 0.010119197 -0.037847955 -0.03664434 0.039086822 0.021331098
0.018355891 0.017100357 -0.00595151 0.01612225 0.015252586 -0.031078968 0.018192478 -0.014768759
-0.008587124 0.018249817 -0.004372184 0.011917511 0.017674496 -0.006157244 0.041879337 -0.039233223
0.024810525 0.03332712 0.015929518 -0.03676843 -0.012688972 -0.009544058 0.023078958 0.025553657
0.041668788 0.03275724 -0.005909168 -0.024922563 0.0106892185 -0.0053801476 -0.03058568 -0.02405719
-0.007006328 0.000132836 -0.011189684 -0.025751125 0.0050108535 -0.04767301 -0.036170885 0.038724765
-0.05119658 0.03558296 0.04745179 0.016748492 0.018097436 -0.01432505 0.019800354 -0.030014483
-0.043406412 -0.014304949 0.003305349 0.0442293 -0.019146554 -0.050782986 0.039457235 -0.013111336
-0.023281416 0.03789644 -0.013653807 -0.0065113544 -0.035018016 -0.043087978 0.00022833512 -0.00028979054
-0.034431357 -0.033143144 0.02733891 0.0014610984 0.0156119205 -0.001414988 -0.0056150053 0.0011512408
0.012328345 0.011699496 0.008648119 0.0270446 0.023067445 0.0041492903 0.040863972 0.039082337
0.026788106 -0.045024853 0.010382658 0.0118807815 0.0073029664 0.03844373 -0.03969997 -0.002792828
-0.0009052941 -0.03753159 0.03969979 -0.02835254 -0.013726707 0.024206454 -0.00771298 0.017704021
-2.4310008e-05 0.007005011 -0.021904593 -0.034744967 0.052149452 0.0386609 -0.02191686 -0.00916989
-0.004562299 -0.03646401 0.0251079 -0.047717758 0.032154966 0.027183896 0.012085445 -0.004179592
-0.02966715 -0.024077656 0.030710584 0.010690201 -0.012964805 0.00391011 -0.0029358768 -0.022765148
0.0032771674 -0.01229759 -0.029019833 0.0058045285 0.007972352 0.024885131 0.020770915 -0.0026627071
0.04668157 -0.007945099 -0.055750117 -0.03142246 0.043748457 0.004969559 0.008610031 -0.033909842
0.035770547 0.026261654 -0.01658056 0.01630089 -0.028069252 -0.012218239 0.036629993 -0.015876735
-0.02966112 -0.027999585 -0.038109317 0.021908848 -0.019181788 -0.028863937 0.041340284 0.01000465

base_model.model.gpt_neox.layers.0.attention.query_key_value.lora_B.weight f4 [1536, 16]
00000000: 0131 aabb 0455 f2ba c20b be3b af9f a43b
00000010: 95ae d23b 0717 a83b 12cf 30bc d5da 8fbb
00000020: 5848 b83b 89d3 9e3b c277 1f3c 45d8 463c
00000030: 3169 cb3a c463 0bba a2ae d83b bc29 023b
00000040: 082f 073c 9992 0bbb cece fcbb 395f dfbb
00000050: 6a5e af3b a991 dbbb c4f8 123b 9112 8c3b
00000060: bfbf c83a 8b71 9bbb 6b5d 65bc 230f 023c
00000070: 422e 993b fe41 313c 0d6e 003c ae93 853b
00000080: 7d3f d33b 53f7 f8bb 0db9 1a3c 250a af3b
00000090: 47ed 423b 1bed 763b 7dfa 253c 3190 a83b
000000a0: e3c3 1a3c e558 dd3b 7513 143b 8f95 bbbb
000000b0: b6fd 2d3b 3150 fbbb 85e3 23bb 9f4d 7bbb
000000c0: ffbf f7bb 37b9 253c f022 66bc 2f2b 38bc
000000d0: 892a 963b 3a94 163c 86a6 1bbb 8aa7 c63a
000000e0: 83f5 1e3c 0072 d0bb fa70 2cba 41c4 5ebc
000000f0: 1265 34bb 1608 82bc ffcf 013c 4237 28bb
00000100: b89a 9abb 63a2 22bc c84e 9d3b c421 253c
00000110: cd4a 9e3b ff3a c93a 9486 3f3a 6078 a9bb
00000120: 1278 c33a 90b6 9e3c 3b04 51bb 1bb6 0e3c
00000130: be3e c4bb 8255 d13b fb23 b639 b844 4abb
00000140: 8831 a4ba 4132 f8ba 7193 74bb 9404 df3b
00000150: 6566 29bb 4642 aabb 2e70 3abb 1c3f f7bb
00000160: 402f 1a3c f96a 8139 286b 243c c465 d4ba
00000170: 7933 b43b a2ad 083c 91a4 323c 942d 80bb
00000180: ef77 53bc be38 32bc b842 adbb 6ea9 dabb
00000190: 5ee4 5abc de4b 29ba 896b 7bbc 578b 293c
000001a0: 387b 2139 92a7 1d3c 698c 78bb ed60 ce3b
000001b0: e97e d73b 6c8f 72bb 4c92 b23b 8bad ae38
000001c0: 9470 ffbb 66c7 82b9 7739 873a 4482 a5bb
000001d0: 4c4f 54bc bb1f 29bb 923a 27bb 8235 f03a
000001e0: 4208 b53b 6cac 36bb 353b 82bb fcac 29bc
000001f0: 65da 1e3c fa35 c3bb bd4d 4bbb 017b 3d3a
00000200: 90c2 82bb ecb6 f93b a84b 20bc 3f37 15bc
00000210: 2198 ccbb ee2e 813b da3c e3bb 93c5 b93b
00000220: 8b3d 14bb 0361 193b daa0 a43b b7dd 313b
00000230: 1865 673b c36a 143a 4164 2d39 3f26 e2bb
00000240: 4a86 993c dde2 dbbb fae3 043b 6350 ab3a
00000250: 9784 0039 00e5 833c c666 733a 4060 09ba
00000260: a3e9 48bb c578 efba 37fe 2cbc 51b9 1dba
00000270: da17 d23b a872 483c 819d e3ba cb13 133c
00000280: 995c fb3a 92d1 413b eeb3 033b a577 813b
00000290: 04ed 953c a3bb eb3b dcc2 f4bb 91e5 30bc
000002a0: 711c 4bba 59ca 17bb 2144 9cbc ce88 3b3c
000002b0: 2d6f 25bb d33f bd39 716b 14bc 6884 403b
000002c0: b3bc 85bc 6433 ccbb faf6 3ebb 78ae 753c
000002d0: 4c4d 9dbb 6170 aa3a 6c69 7fba c84d 1d3c
000002e0: de3f 443c fe0b 0bbc e355 43ba 73f4 293b
000002f0: 0786 dd3b f1f3 a7bb 1fe0 babb 8f6d 60bb
00000300: 47bb 623b d25b 3e3c c23b 00bc 1981 46bb
00000310: 5e31 babb f177 91bb 87e6 8b3b 7600 e2ba
00000320: c924 21bc 48cf 9a3b 9d7f daba 5cbe b2bb
00000330: d6ad a6bb 8fb1 523c ca7a c73b bc9f 3dbc
00000340: 86ad 413b aa1e 1b3c e113 bbbb e4e2 50bc
00000350: 41eb 673c 6b9a 9a38 e064 abba 8e7c 30bc
00000360: 6074 ebb9 81e1 3f3b e1fc ba3b 8790 fbbb
00000370: 81f7 abbb b14a b0bb 6d5f 5c3c 2b1f 47bc
00000380: cb06 3f3c f7ea 0a3b 0853 0bbc 1d73 b93a
00000390: 211f 0aba 79f6 23bb 34df 37b9 757f c83b
000003a0: ddd3 c3ba 86de 703c 09ed 033c 7038 cf3b
000003b0: 5927 52bc faea 55bb f01a 16bc 9d01 e23b
000003c0: f040 a5ba 1ad0 443a e96c 663c 756d 74bc
000003d0: 6689 333c a80c 283b 3f01 843b 05c9 da3b
000003e0: 4e94 723a 71b1 f23b ff2f 843b d0a3 d83a
000003f0: d4ed 44bc 99c8 4e3b bd5a 6dba ef8f 9aba
-0.00519383 -0.0018488471 0.0057997415 0.0050239186 0.006429503 0.005129698 -0.010791557 -0.0043901005
0.0056238584 0.0048469943 0.009733142 0.012136524 0.001551902 -0.00053172954 0.0066126147 0.0019861301
0.008250959 -0.0021297096 -0.0077150827 -0.0068167713 0.005351831 -0.0067007137 0.0022426108 0.004274674
0.0015315934 -0.00474376 -0.013999323 0.007938179 0.004674704 0.010818956 0.007838738 0.0040764427
0.0064467774 -0.0075978427 0.009443534 0.0053417855 0.002974348 0.0037677947 0.010130522 0.005144142
0.009446117 0.006754982 0.0022594605 -0.005724616 0.0026548929 -0.0076694717 -0.0025007438 -0.0038345826
-0.0075607295 0.010114959 -0.014046416 -0.0112407645 0.0045827073 0.009190613 -0.0023750379 0.0015156132
0.009702089 -0.006361246 -0.0006578114 -0.013596595 -0.0027526063 -0.015872996 0.007923125 -0.0025667702
-0.004718151 -0.009926411 0.004800651 0.010078851 0.0048306943 0.0015352665 0.00073061255 -0.0051718205
0.0014913103 0.019374162 -0.003189339 0.0087104095 -0.0059889248 0.006388367 0.00034740553 -0.0030863713
-0.0012526968 -0.0018935875 -0.0037319327 0.0068059657 -0.0025848385 -0.0051958887 -0.0028448212 -0.007545365
0.009410679 0.00024684498 0.010035314 -0.0016204645 0.0054993 0.008342179 0.0109034935 -0.0039116833
-0.012907012 -0.010877786 -0.0052874945 -0.0066730296 -0.013360111 -0.00064581435 -0.015345463 0.010348163
0.00015400059 0.009622471 -0.0037925488 0.0062981755 0.006576408 -0.0037011756 0.005449569 8.3292914e-05
-0.007795403 -0.00024944096 0.0010316808 -0.0050509293 -0.012958359 -0.0025806266 -0.0025517088 0.0018326493
0.005524666 -0.0027873768 -0.003974343 -0.010356184 0.009695624 -0.0059573622 -0.0031021677 0.0007228107
-0.003990479 0.007620683 -0.009783663 -0.00910741 -0.006243721 0.003942362 -0.0069347443 0.0056693046
-0.002261969 0.002340377 0.005024058 0.002714021 0.003530806 0.00056616607 0.00016535913 -0.006901532
0.018740792 -0.006710394 0.0020277486 0.0013070222 0.00012256425 0.016100407 0.0009285029 -0.00052404776
-0.0030656836 -0.0018270245 -0.010558656 -0.0006016689 0.0064115347 0.012234367 -0.0017365665 0.008976887
0.0019177377 0.0029574377 0.002009626 0.0039510303 0.018301494 0.007193999 -0.007469518 -0.01079692
-0.00077480735 -0.002316138 -0.019075455 0.011446191 -0.0025243268 0.00036096442 -0.009058819 0.0029375795
-0.01632533 -0.006231712 -0.0029138909 0.01499521 -0.0048004743 0.0013003462 -0.0009743187 0.009601064
0.011978118 -0.008486746 -0.0007451458 0.0025933057 0.006760362 -0.0051255156 -0.005702987 -0.003424499
0.003459649 0.011618571 -0.007826747 -0.003028935 -0.0056821546 -0.004439347 0.0042694244 -0.0017242569
-0.00983543 0.004724417 -0.0016670112 -0.0054548215 -0.005086641 0.012859716 0.0060876356 -0.011573728
0.002955289 0.00946776 -0.005709157 -0.012749407 0.01415521 7.372055e-05 -0.0013076328 -0.010771884
-0.000449094 0.0029278698 0.005706415 -0.007677141 -0.0052480106 -0.0053799977 0.013450486 -0.012153427
0.011659334 0.002119718 -0.008503683 0.0014148686 -0.0005268921 -0.0025018735 -0.0001753539 0.0061187097
-0.001494046 0.014701491 0.008052119 0.0063238665 -0.012826764 -0.0032641278 -0.009161696 0.006897165
-0.0012607854 0.0007507816 0.014064052 -0.014918675 0.010958051 0.002564231 0.004028469 0.0066767954
0.00092536665 0.0074064066 0.004034042 0.0016528312 -0.012019593 0.003155267 -0.00090543536 -0.0011792163

base_model.model.gpt_neox.layers.1.attention.query_key_value.lora_A.weight f4 [16, 512]
00000000: 25ae 243c ebf8 eabc bc5b 6f3c c241 1abd
00000010: b0fa 37bc d135 253d 8e68 50bb 8e77 b93b
00000020: 45d5 ccbc 3c40 a53c 62b9 ccbc 760d dfbb
00000030: 0665 ce3c 7570 d43c 0e2d 18bd 7cd6 5abd
00000040: a150 0e3d 892f 263c 52ea 823c 7b37 40bd
00000050: b496 f6bb b761 bcbc 947b 243d ac73 d3bc
00000060: 0763 783c e944 41bc c0ac b03c 2a9a 1dbd
00000070: 5618 a83c eb82 cc3c cd33 253c a1db 113c
00000080: bce8 27bd b67f 7b3c 992e 2dbd bad9 b03c
00000090: 8efa 0abd e0d1 a2bc c143 a4bc 2fa8 893c
000000a0: 2fe7 43bc c9e2 013a 4f84 7c3c 2997 d73c
000000b0: 089f 26bd 4660 1b3d d587 24bd 9a43 583a
000000c0: 43df aabb 8233 813b 605b 4c3d ec35 a33c
000000d0: e5f5 3b3d ebc4 1f3c 4eaf c13c 0c09 66bd
000000e0: 1373 073d 503a 223d bf32 04bd 3a53 d23c
000000f0: ddc2 223c c88d 8abc aeab d83c 9339 adbc
00000100: 89a9 21bd f0ba d13c 50e6 d13c 25d7 aa3c
00000110: 93fe d33c f5be 1c3d 0d29 fabc 3a7f d03b
00000120: c899 013d 24db 213d 0480 1d3d 5ebc a8bc
00000130: a792 2abc 1a9e 0ebc 8f88 053d 6c01 373c
00000140: 611f 113d 1cae d93c df94 56bc eff2 20bc
00000150: 5f34 b6bc 6c11 2c3d c252 35bd 1019 3abd
00000160: ea8d 45bd dd1f 3cbd e274 1a3c 76fc 06bc
00000170: 7fd2 22bd 91e6 05bc 02fa 70bb b15a 97bc
00000180: 17e1 10bd 5dcd 10bd 90d8 643c 3243 77bb
00000190: bf75 36bc c706 c8bc b247 bbbb 62ef 7d3c
000001a0: 380d cbbc 9168 ecbb c26c 5d3c f642 0fbd
000001b0: 9047 a0bc 5fb4 023c 4ff9 fcbc f117 d1bc
000001c0: db60 26bd 2e6e 2b3d 977c f93c b908 dc3c
000001d0: 4df4 8dbc 6a3a 253b a4c9 3e3d 65b9 913a
000001e0: 9d47 49bd 285b 1f3d 7669 eabc 71d0 94bc
000001f0: 1fee 45bc e8ac 32bd 974d 643b 03cb 323d
00000200: a367 823c ac9b 143d 10ac e2bc fb7b f3bb
00000210: 28a3 653c e616 0dbd 73b8 933c 15fa 163d
00000220: 75f0 c8bc c063 1bbd 19e4 b63c 043d 90bb
00000230: 12e8 97bc fee7 0bbd c87c 033c 42b7 57bd
00000240: 2eaa 553c ed29 ad3c 6007 f1ba 8cda c53c
00000250: 676f 38bb 1d5d d53c b7b6 293d 3b9c 25bd
00000260: c73b 06bd 397f c4bc 5572 9cbc 8709 143d
00000270: 9060 9abc 029e 0dbd 45e5 21ba 5288 01bd
00000280: 4e2a 65ba b316 123d 74d4 273c 1741 063c
00000290: 8433 76bc 0f16 f1bc 15bf 39bd 2681 e13c
000002a0: 7f30 113d c5f9 e1bc 4c17 f53c c6bc 293d
000002b0: cec7 f6bc fbe1 80bb 6165 713c 0ef4 df3c
000002c0: eda4 433a 186c 15bc a737 a2bc fa87 c13c
000002d0: 8171 213d 0972 673b cb95 b8bc 8bf2 94bc
000002e0: 069d f53b 5b8a 46bd d034 9ebc 80d5 1c3c
000002f0: bbd3 db3c 9c81 e03c 5468 f53c b564 e6bc
00000300: 090b dabc 41cd eebc a767 bdbc 2de8 f93c
00000310: 51b7 3dbb e0e7 05bc bd71 0bbd b067 123d
00000320: f494 a7bc e1c7 273c 9da5 a43c a77a 1cbd
00000330: 492c 09bd e38c 11bd 6582 fdbc 3078 473d
00000340: 17a9 c8bc abc6 80bb 008e b33a 5636 7b3c
00000350: 6133 e4bc 0e67 a5bb 66d4 373b 3901 08bd
00000360: b818 dd3c c326 e13c 4dad 3a3d 22a5 8f3c
00000370: b1bc 0cbc 8931 103d a097 6c3c 5249 f2bb
00000380: 5d8c 02bc 71cc 73bc 830e 9f3c 26ce 323d
00000390: 3356 e2bc 60f3 2c3d e8d7 e13c b9db 293c
000003a0: f2ee 25bc 645f 0cbd 5978 f9bb 7ec5 b53c
000003b0: ea08 64bc a66d 963c de65 793b 1113 603b
000003c0: 0cc0 33bd 0b34 9fbc 5447 0fbd e8ac e93c
000003d0: 60c1 1d3d ba96 893a b8f0 6a3b 34f7 07bd
000003e0: 8070 8d3c 5030 03bc a5e0 c83c 80cd 1e3d
000003f0: 384d b33c 11f6 ddbc 76e2 5a3c c5f2 2dbd
0.010051285 -0.028683146 0.0146092735 -0.037660368 -0.011229202 0.040334526 -0.00318006 0.005660004
-0.025004039 0.02017223 -0.024990741 -0.0068070246 0.025194656 0.02593253 -0.037152342 -0.053427204
0.034744862 0.010143169 0.015980873 -0.04692791 -0.0075252894 -0.022995813 0.040156916 -0.025811993
0.015160329 -0.011796215 0.021566749 -0.0384771 0.020519417 0.02496477 0.010083151 0.008902461
-0.040993437 0.015350273 -0.042280767 0.021588195 -0.033930354 -0.019875467 -0.020051839 0.016803829
-0.011956974 0.0004954753 0.015412404 0.026317196 -0.040679008 0.03793361 -0.040168602 0.00082498195
-0.005214603 0.003942908 0.04989183 0.019923173 0.0458888 0.009751539 0.023643162 -0.05616097
0.033068728 0.039606392 -0.032274958 0.025674451 0.009934154 -0.01691331 0.02644905 -0.021145618
-0.039468322 0.025601834 0.025622517 0.020854542 0.025878226 0.03826805 -0.030537153 0.006362823
0.031640798 0.03951563 0.038452163 -0.020597633 -0.010410941 -0.008704687 0.032600936 0.011169773
0.035430316 0.02657228 -0.013097017 -0.009823545 -0.02224177 0.042008802 -0.044268377 -0.045434058
-0.048231043 -0.045928825 0.009427281 -0.008238902 -0.039751526 -0.008172647 -0.003677011 -0.018475862
-0.035370912 -0.0353521 0.013967648 -0.003772926 -0.011136471 -0.024417294 -0.005715334 0.015498968
-0.024786577 -0.0072146137 0.013514699 -0.03497597 -0.019565374 0.007977574 -0.030880598 -0.025524111
-0.040619712 0.041853122 0.030454917 0.026859628 -0.017328406 0.002521182 0.04657902 0.0011117874
-0.04914056 0.038905293 -0.02861474 -0.018165799 -0.012080698 -0.043621927 0.0034836286 0.04365064
0.015918558 0.036281273 -0.027669936 -0.007430551 0.01401595 -0.034445666 0.018032288 0.03685959
-0.024528721 -0.037936926 0.022325562 -0.004401805 -0.018543277 -0.034156792 0.008025356 -0.052665003
0.013041062 0.021138156 -0.0018389039 0.024152063 -0.0028142573 0.026045376 0.041434016 -0.040432196
-0.032771852 -0.023986446 -0.019097487 0.0361419 -0.018844873 -0.034574516 -0.00061758264 -0.031624146
-0.00087419606 0.03566618 0.010243524 0.00819423 -0.015026931 -0.029429464 -0.045348246 0.027527403
0.03544664 -0.02758492 0.029918335 0.041439794 -0.030124571 -0.003933189 0.014733643 0.027338054
0.00074632355 -0.00912001 -0.019801928 0.023624409 0.039414886 0.0035315773 -0.022532364 -0.01818206
0.0074955253 -0.04847179 -0.019312292 0.009572387 0.02683436 0.027405553 0.029956974 -0.028124193
-0.02661659 -0.029150607 -0.023120714 0.030506218 -0.0028948376 -0.008172959 -0.034044016 0.035743415
-0.020456769 0.010240526 0.020098502 -0.038202908 -0.0334895 -0.03553475 -0.030945966 0.048698604
-0.02449469 -0.003929933 0.0013698936 0.015332779 -0.02785653 -0.0050476855 0.0028050183 -0.03320429
0.026989326 0.027484303 0.04557543 0.017534796 -0.008589909 0.03520349 0.014440447 -0.0073939944
-0.0079680355 -0.014880286 0.0194161 0.04365363 -0.027628994 0.042224288 0.027568772 0.010367327
-0.01012777 -0.03427066 -0.0076132235 0.022188898 -0.013918141 0.018362831 0.0038055102 0.0034191052
-0.043884322 -0.019433996 -0.034980133 0.028524831 0.038514495 0.001049719 0.0035849046 -0.033194736
0.017265558 -0.008007124 0.024521181 0.0387702 0.021887407 -0.027094873 0.013359657 -0.04246785

base_model.model.gpt_neox.layers.1.attention.query_key_value.lora_B.weight f4 [1536, 16]
00000000: c38a 013c e5a1 86ba 98c5 183c 41ef d43b
00000010: 03d0 05bb 90b1 95bb 7945 b73b 341e 80bb
00000020: bcc5 b03a 4ee6 eabb 9712 993b 0eaa e33b
00000030: 4500 3f3b 3735 27bc 9cf2 e5ba 5f95 23bb
00000040: b614 8cbb a435 843b c305 763c b9e0 95ba
00000050: 6e08 97bb 9df0 09bc 3f06 2aba 021f 863c
00000060: 30fc 623b 691b ac3b e5fd dfba e20f e13b
00000070: 0d47 e3bb 139e 18bb e1c2 e4bb 1c56 a9bb
00000080: 98f7 033b 4268 813b 55a4 fdba 33e6 bdb9
00000090: 51d6 0ebc e6e0 74bb 9306 4fbb 7e30 72bb
000000a0: 9ac2 46bc ca2d 843c c8b3 833b 4ecb 293c
000000b0: 25d5 9abb c03a e4bb 77b3 11ba 0e41 13bb
000000c0: 068e 83bb 0785 d9bb 8450 33bc 8fc0 8d3b
000000d0: cab2 a63b b35e 8439 fc59 d6bb 1b4a 0ebc
000000e0: e8bb 2fbb 5d45 0fbc 5426 b93b a6c4 cb3b
000000f0: 4849 413c c23f d3ba 8b64 5abc 2b1f 0b3c
00000100: 85e4 2b3c 4f1d eeb8 df4c 07bc 2b11 973b
00000110: 13e1 4f3b b4fe edbb cb9f f63a d2fe 6f39
00000120: c758 02bc 3e8c 513c a548 93bb b1bf 123b
00000130: c64a 23bb a8be 81bb d6c9 973b 6c0b 083b
00000140: 0a58 9a3c 6b61 56bb 12a4 a83b c34d b539
00000150: 4728 45bb 3434 a1ba 8aaf 43bc ce42 ba3a
00000160: f502 ce3b d203 d63b 5028 063c 8464 1e3c
00000170: 6409 f2bb 55cb 673b 96ce b53b 5aee bf3b
00000180: 213a 02bb 2b95 343b a21b abbb c40a 6a3b
00000190: c00c 1d3c f112 fbbb 5d2f 0ebb 06ec be3b
000001a0: fc8a fab9 a8ed b0bb abb0 57bc 0a05 0cba
000001b0: 8e37 18bb 3ec9 08bc 4712 b7bb cff6 91bb
000001c0: 7242 86bb 9cfb 87ba 57ba 27bc b2ff 2e3c
000001d0: 9d0d 6fba 7876 4e3a f478 b7bb ea9d 0f3c
000001e0: 35a1 2c3c 4aea a6ba aa18 9bbb 9707 d93b
000001f0: dc46 8d3b dc96 e53a a7fe 54bc c0c1 48bc
00000200: 7f63 cabb 6156 c4bc 1d96 2cbc f664 e13b
00000210: 3a91 6639 814f a93b 1704 52bb d7cd 1f3a
00000220: 61a7 043c c42a f0ba f878 303c 7bf6 033c
00000230: 77d9 543c e27a a8bb 3c6f 5d3b 3382 53bb
00000240: 8267 84bb d4b1 a7ba 197d f23a a6ac 05bb
00000250: af34 853b 8188 3f3c 6fc9 5c3b b3ba 23bb
00000260: 5559 3f3c 6365 8fb9 64e5 24bc 75d0 83bc
00000270: 68ac ad3b c440 c6bb f871 f03a 79f8 023c
00000280: 347b 40bc e6eb f43b 9767 9a3a c16a 04bc
00000290: bc07 343a 6b4f b03c c3ad f4bb ef0b fdba
000002a0: bd19 403b e5e6 c5bb 1527 85bb c5a7 a53b
000002b0: 57a3 22bb e3e6 613b a025 07bb fca3 c83c
000002c0: 794f 4b3b 92a8 6e3b 3630 90bb e052 563b
000002d0: 49a6 79bb 2f1f 063b ab5f ef3b 77e5 b43b
000002e0: 1f37 96bb 7c97 1dbc 57cd f93b 0180 98bb
000002f0: ede4 dabb c56f debb 1742 873b cea1 d6bb
00000300: 3ecc 693b ec1a 283c e2ae e9bb b4ce b6bc
00000310: 6672 27bc 75f3 11ba 682a 3c3c 966f 8a3a
00000320: ce19 813c a7d2 dcbb ab4f 123c b9a9 223b
00000330: 327e 4cb9 afe1 84ba 976e 3ebb cef4 adbb
00000340: 63ff c63a 3dbb 6fbc ace2 1e3c 32b8 c1bb
00000350: 4d23 373c e809 243b 40ca e3bb 770b 0b3b
00000360: b15e aa3b 32dd d83c b79c 59bc aeee 3d3c
00000370: a8ee 323c dbb4 98ba 0063 01bc 3ec1 9b3b
00000380: 300f be3a c347 a63b 0ecd 71bc 67cc a13c
00000390: 8a71 133c bb0a 363c 7ec6 84bb 0899 96bb
000003a0: 94e2 42bb f88a 353c 3c2f 323b 8509 13bb
000003b0: 2098 dc3b e213 563c 5fe8 b33b 83e0 1a3c
000003c0: 3e3e cbbb 1e53 223c 43ee 103c aa68 19bb
000003d0: fa53 8fbb ae9f 22bb fb8a 52bc 2980 acbb
000003e0: 900f f039 c124 8b3c 3c2d 833c 2bde 21bc
000003f0: 8f2a 2e3b 438f c2bb 288b 8d3b 8b27 5eba
0.0079066185 -0.0010271637 0.009324454 0.006498248 -0.0020418174 -0.0045682862 0.0055929986 -0.0039098505
0.0013486664 -0.0071685677 0.0046714055 0.0069477623 0.0029144448 -0.0102055585 -0.0017543617 -0.0024960858
-0.00427493 0.004034715 0.015016022 -0.001143477 -0.004609159 -0.008419183 -0.0006485916 0.016372208
0.0034635179 0.005252291 -0.0017089216 0.0068683485 -0.00693596 -0.002328758 -0.006981239 -0.0051677357
0.002013659 0.003949196 -0.0019351343 -0.000362204 -0.008718089 -0.0037365495 -0.0031589612 -0.0036955173
-0.012131358 0.016135115 0.0040192343 0.010363413 -0.004725116 -0.0069650114 -0.00055580534 -0.0022469196
-0.0040147332 -0.0066381725 -0.010944489 0.0043259333 0.0050872313 0.00025247558 -0.0065414887 -0.00868466
-0.0026814882 -0.008744565 0.005650321 0.0062185107 0.011797257 -0.0016117024 -0.013329635 0.008491318
0.010491495 -0.000113541835 -0.008258074 0.004610201 0.0031719848 -0.007263029 0.0018815933 0.00022887744
-0.0079557365 0.012789784 -0.004494744 0.002239209 -0.0024916395 -0.0039594956 0.004632215 0.002075876
0.018840808 -0.0032711874 0.005146512 0.00034580947 -0.0030083822 -0.0012298883 -0.011943707 0.0014210583
0.0062869736 0.006531217 0.008188322 0.0096675195 -0.0073863734 0.0035368998 0.0055483086 0.005857271
-0.0019871073 0.0027554731 -0.0052218 0.0035711983 0.009585559 -0.00766217 -0.0021695711 0.005826476
-0.00047787267 -0.0053994246 -0.0131646795 -0.0005341327 -0.0023226473 -0.008348761 -0.0055868956 -0.0044544707
-0.0040972764 -0.0010374668 -0.010237298 0.01068108 -0.0009119155 0.00078759296 -0.0055991355 0.008765677
0.010536482 -0.0012734619 -0.004733165 0.0066232192 0.0043114256 0.0017516273 -0.013000167 -0.012253225
-0.0061764116 -0.02396697 -0.010533837 0.0068784906 0.0002198861 0.0051669483 -0.0032045895 0.0006096041
0.008096547 -0.0018323292 0.010771029 0.008054371 0.012991301 -0.005141602 0.0033788225 -0.003227365
-0.0040406594 -0.0012794086 0.0018500417 -0.0020397096 0.0040651183 0.01169026 0.00336894 -0.0024983108
0.011679013 -0.00027350624 -0.010064457 -0.016090611 0.0053000934 -0.006050201 0.0018344512 0.007993811
-0.011748124 0.0074744103 0.001178014 -0.008082093 0.00068676076 0.021522244 -0.007467003 -0.0019305925
0.0029312216 -0.0060394877 -0.004063497 0.0050554 -0.0024816596 0.0034469895 -0.0020621791 0.024492256
0.0031022711 0.0036416394 -0.0044002784 0.0032703206 -0.0038093498 0.0020465364 0.0073051057 0.0055205184
-0.0045842077 -0.009618636 0.0076233554 -0.004653931 -0.006680122 -0.0067882263 0.0041277516 -0.0065500503
0.0035674716 0.010260325 -0.0071314434 -0.02231536 -0.010220146 -0.0005567589 0.01148472 0.001056182
0.015759375 -0.006738979 0.008930127 0.00248204 -0.00019501967 -0.001013806 -0.0029057616 -0.005308724
0.0015182312 -0.014632043 0.0096975975 -0.0059118504 0.01117785 0.0025030319 -0.0069516003 0.002121655
0.0051992764 0.026472662 -0.013281993 0.01159255 0.010921158 -0.0011650579 -0.007897139 0.004753261
0.0014500376 0.0050744726 -0.0147583615 0.019750787 0.008999238 0.011110957 -0.0040519824 -0.0045958795
-0.0029737102 0.011080496 0.0027188798 -0.0022436094 0.006732002 0.013066264 0.0054903473 0.009452942
-0.006202488 0.009907512 0.0088458685 -0.0023408332 -0.0043740245 -0.0024814415 -0.012850518 -0.0052643013
0.00045787962 0.016985299 0.01601278 -0.009879629 0.002657566 -0.0059374883 0.0043195672 -0.00084745203

base_model.model.gpt_neox.layers.2.attention.query_key_value.lora_A.weight f4 [16, 512]
00000000: 2464 8dbc d19f 31bd 34af 20bd e944 cb3c
00000010: 4eb7 0f3d ca11 ef3a 3d3e 473c 11fc 233c
00000020: 0248 f23c 90fd 4b3d e38c 9dbc 6fee e63b
00000030: 5961 9c3c e8e5 fdbc e9c2 e8bc 6051 9dbc
00000040: 4f56 53bc 3c1b 11bd 1798 2d3c aecf 773b
00000050: debc 843b e79b 0cbc 81d0 3e3d afc3 f33c
00000060: 743c 0c3c 6a0d 0d3c 16ee 583d 04f6 a8bc
00000070: dd1e 1c3d 4c05 103d 915c 6f3c cb13 d63b
00000080: bf44 f6bc fde8 df3c 911f c4bc 3298 3d3d
00000090: c180 a5bc 89d2 0cbd b30e 273d 1c80 64bb
000000a0: dcef 24bd 9cb2 23bd e4cd f7bc 46fe 37bd
000000b0: 86e5 663b 7998 b63c f92d 3db9 9859 243d
000000c0: 4ad4 2dbb 960a fb3c c971 c03c 3a7e 033d
000000d0: 2c11 943c 0e61 85bb f78e fdbb 80ff 573c
000000e0: 841f 8f3c 5b11 77bc ad8c 193d 44d1 8c3c
000000f0: f891 0fbd 390d 4fbc db44 f6bc 88f2 1c3b
00000100: 394c 71bc d9eb 183d 64d7 583c b021 01bd
00000110: 1048 14bd 3d87 4d3c 6b9d ef3c fd42 a63c
00000120: 36bf 383c c5b1 82bb c473 033d 9a3a 89bc
00000130: d74b a8bc f54c 943c b86d b6bc 389b f1bc
00000140: 3442 8fbc 0b3c 16bd 6d9d 7aba 1324 90bc
00000150: da60 91bb 1bd5 933b cd4e 6dbc 9adf 11bd
00000160: 6b2b e03c d3c2 a1bc 7462 35bc 8e14 563c
00000170: 2ddd 5dbd 7d79 6b3b 40e9 7fbc b16e 183d
00000180: f460 85bc ee23 44ba c35b bc3c 5a5b 84bc
00000190: d5a4 d73c 3416 4abb 045f 843c 4645 e6bc
000001a0: 862e 893c 78fb d43c 930c 143d 53b3 abbc
000001b0: ba31 9fbc 329e 5abb b615 673c 1750 ad3c
000001c0: 785b 223d 4b8a a53c cbae 30bd 5b6d 9bbc
000001d0: 75af 083d 7923 02bb 77d8 88bc adeb 76bc
000001e0: 1236 e6bc 59ff 3b3d e2ea ebba beb3 c2bb
000001f0: 93f0 b0bc 66f2 abbc a29c fbbc 2e56 3b3d
00000200: 897b ea3b 3957 cfba 3cc5 8e3c 622f 1e3d
00000210: a89d 6abd d576 06bc 6568 373d f13e 9c3b
00000220: d437 8cbc 7200 e23c 85b1 193d 7d54 143d
00000230: 2c94 0d3b fba2 77bc 7bcc 203d e5d2 b63c
00000240: fe38 df3c d078 fa3b 2558 c7bc a1bd 5a3d
00000250: 3a03 6a3c 9982 033d aabb 51bc 665c 14bd
00000260: 79cb 033b 45de 44bd 8354 c3bc 8c70 903c
00000270: 9e22 c13c d021 76bc 0c83 e93c 7384 1bbd
00000280: fe28 ee3c 0ae4 673b 1531 c1bc 3f15 923c
00000290: 7270 943b b5c4 bc3b 0ab2 c5bc 9bc9 083c
000002a0: 83cf dfbb 0013 b63c d82b b13c 20ec e93c
000002b0: 1815 2dbc 94f8 8b3c 4e6a ebbc af89 6cbc
000002c0: 40ca 8d3a dc20 d6bc e23f 893b 759e 73bc
000002d0: 0a9a a73c cf53 a33c 17cd 793c 4c5a f93a
000002e0: 315f e1bb 5dbb 2b3c 6cee 32bc 472e cabb
000002f0: a6a3 f73c 9627 52bc c777 cbbc 754c 26bd
00000300: c8a5 9a3c 0094 9bbc 6a91 253c d3a5 d73b
00000310: c8c9 363a 75e4 373d 8c5c 89bc 422a e6bc
00000320: 096f 29bc f5a2 50ba b2c5 263d 51c2 323c
00000330: 314c 06bd b102 8dbc ba37 2dbd 0d66 81bc
00000340: 414d fdbc e99f e63c cb85 0f3d 30f5 d6bc
00000350: 1cec 1fbc c6bd 353c bf1b 9c3c cd27 d1bc
00000360: 2635 923c d9d6 c7bc dd83 0cbc 351a 6abc
00000370: 121c 68bd 59de bb3c 7b98 56bc fae8 e4bc
00000380: 5774 fdbb e3ed fdbb 193a b5bc 4aa4 ddbc
00000390: a934 333c 6e62 82bc 592e bb3c 8010 e0bc
000003a0: 152e cc3b 14c7 26bb 0827 8f3c 5c28 d43c
000003b0: 2a86 f93c b555 263d 9616 1e3b f60c 923c
000003c0: ae33 5bbc e9e1 5b3d 417f 553c f819 03bd
000003d0: 4ddf b33c 43ce 033d f15c 1d3d 2e70 b2bc
000003e0: db00 753b 7ec7 3fbd bce3 1fbd 3e04 8ebc
000003f0: 9c6f 9fb8 4638 fdbc a404 7fb9 ad5b 2d3d
-0.017259665 -0.043365303 -0.039229587 0.024813132 0.035086922 0.0018239554 0.012160835 0.010008828
0.029575352 0.049802363 -0.01923222 0.0070474665 0.019089388 -0.030993417 -0.028413253 -0.019203842
-0.012898996 -0.035426363 0.010595343 0.0037812996 0.004050835 -0.008582092 0.046585564 0.029756395
0.008559335 0.008609155 0.05296143 -0.020625122 0.03811537 0.0351613 0.014609472 0.006533121
-0.030062078 0.027332777 -0.023940833 0.046287723 -0.020202996 -0.03438047 0.040785503 -0.0034866398
-0.04026781 -0.039965257 -0.030249543 -0.04492023 0.0035232021 0.022289502 -0.00018041571 0.040124506
-0.002652424 0.030644696 0.023491757 0.0321028 0.018074594 -0.0040704077 -0.00773799 0.013183475
0.017471083 -0.015079821 0.037487675 0.01718963 -0.035051316 -0.01263743 -0.03006213 0.002394827
-0.014727646 0.037334297 0.013234947 -0.031526268 -0.036201537 0.01254445 0.029249867 0.020295614
0.011276057 -0.003988477 0.032092825 -0.016751576 -0.020543976 0.018103102 -0.022269115 -0.02949296
-0.017487623 -0.036678355 -0.00095602014 -0.017595327 -0.0044365944 0.004511488 -0.01448412 -0.035613634
0.027364453 -0.01974622 -0.011070836 0.013066424 -0.054166008 0.0035930567 -0.015619576 0.03721494
-0.016281582 -0.00074821606 0.022992974 -0.016156841 0.026323715 -0.0030835988 0.016158588 -0.028109204
0.016745817 0.025998816 0.036144804 -0.020959532 -0.019432891 -0.0033358452 0.014104297 0.021156354
0.039638013 0.020207545 -0.043135446 -0.018973043 0.033370454 -0.001985757 -0.016704781 -0.015070838
-0.028101955 0.045897815 -0.0017999078 -0.005941837 -0.02159909 -0.020989608 -0.030714337 0.045736484
0.00715584 -0.0015818841 0.017428033 0.038619407 -0.05727926 -0.008207043 0.044777293 0.0047682454
-0.017116465 0.027588103 0.03752281 0.036213387 0.002160321 -0.015114541 0.039257508 0.02231736
0.027248856 0.0076437965 -0.024334023 0.0534035 0.014282996 0.03210697 -0.01280109 -0.03622093
0.0020110293 -0.048063535 -0.02384401 0.017631792 0.023576077 -0.01502271 0.02850487 -0.03796811
0.029072281 0.0035383725 -0.023582974 0.017832397 0.004530006 0.005760754 -0.024132747 0.008348848
-0.0068301572 0.022225857 0.021627352 0.028554976 -0.010564111 0.017086305 -0.028737213 -0.014437123
0.0010817721 -0.026138715 0.0041885236 -0.014869322 0.020459194 0.019937424 0.015246651 0.0019024103
-0.006877803 0.010481683 -0.010921102 -0.0061700675 0.0302294 -0.012826821 -0.024837388 -0.04060026
0.018877879 -0.01899147 0.01010547 0.006581047 0.0006972817 0.044895608 -0.016767763 -0.028096322
-0.010341414 -0.0007958853 0.04071588 0.010910586 -0.032787506 -0.017213197 -0.042289473 -0.015795732
-0.030920627 0.028152423 0.035039704 -0.026239961 -0.009760883 0.011092609 0.0190562 -0.025531674
0.017847609 -0.02439444 -0.0085763605 -0.014288475 -0.056667395 0.022933172 -0.013097878 -0.027943123
-0.007734816 -0.0077493056 -0.02212243 -0.027055878 0.010937848 -0.015916076 0.022849249 -0.027351618
0.0062310793 -0.002544825 0.017474666 0.025898151 0.030459482 0.04060908 0.002412235 0.017828446
-0.013379021 0.05368224 0.013030828 -0.032007188 0.021957064 0.03217913 0.038418714 -0.021782007
0.0037384543 -0.04682111 -0.039035544 -0.017336007 -7.6025e-05 -0.030910622 -0.00024320424 0.042323757

base_model.model.gpt_neox.layers.2.attention.query_key_value.lora_B.weight f4 [1536, 16]
00000000: eb60 ed39 5b8f a6bc 4768 a53b 686d 1bbc
00000010: 78ac 3cbc ac68 343b 2e8c afbb 179e 5d3b
00000020: 5836 fd3a 9924 113c 2955 06bc c273 ae3a
00000030: 901a ddb9 1ce5 91bb 3706 2e3c 66e8 dfbb
00000040: b17a 6d3c dd22 7dba c4ec 11ba cbd1 86bb
00000050: bdb1 c0bb 99e7 4abb ad91 b9bb 378b a13a
00000060: 434f d9bb 9bd1 9e3b e617 323c d3df 42bc
00000070: fe00 64bb 39cf 20bc 6731 fd3a 89ed 8ab9
00000080: a345 99bb 24e3 893b 319a 2b3b e909 1b3c
00000090: d0a5 e43b e9e0 b83b c05c 8b3c 2a5a eaba
000000a0: d85f d3bb 3e45 15bc afd0 b2bb f4b4 6ebb
000000b0: 58c8 10bc d96d 8eba 3977 1a3c 0233 153c
000000c0: 1af1 743b 5228 a9bb 7b7f 203b 026b b83b
000000d0: b8a4 c2bb 8d90 87bb 4157 ff3b b1db d13b
000000e0: 74fe 55bc b3cd 15bc f968 00bc ffbb 023b
000000f0: 3e99 b339 cb37 e9bb 533c d5bb b427 6fbb
00000100: fa54 ad39 8dd8 0ebb 9361 4bb8 fe7c 9ebb
00000110: 62b3 833b 27c5 40bc fe0f c6bb 42a1 91bb
00000120: a6f6 923b 3b61 af39 9a9b 6f3a b7a2 97ba
00000130: 8d44 d6bb e4b5 7dbc 9960 d03a 0c1a ee3a
00000140: 320c a73a 19f3 3cbc f609 86bc 2b0c ec39
00000150: 0db5 f9bb be6f 013c 38ab 9bba 5e8b dd3b
00000160: 7886 edbb 1143 10bb f1bc a5bb 7b20 543b
00000170: deb0 b7b7 a6ef e63b 0ac7 c9bb e767 2bbc
00000180: 6bfe 163c aa0d f639 1a94 cb3b 752b 223b
00000190: 696b 743c f3b2 0a3b 977a d639 0d3f 383b
000001a0: 7193 053c 3779 a7bb 93cb 3cbc a455 d2bb
000001b0: 388e e9ba b3bb debb 71c6 13bc c451 5fbb
000001c0: cffc fcbb 788a 883b bdf5 493c 8251 55bb
000001d0: 9222 bf3a 0f6a d5bb 5729 aeba 5998 14ba
000001e0: 07c5 013b 208d 20bc 5369 6e3b b936 93ba
000001f0: d153 b13a a383 a53b 97ff c23a 8b01 00ba
00000200: 6384 6bbb 3d28 033c b407 aaba b57f 7e3c
00000210: 80c0 35bb d0c1 8a3a 3cd0 84ba f8c9 a7bb
00000220: 6537 e73b 4783 923b 648e 5b3c 8e92 4c3c
00000230: 25f8 6fbb ea17 c53a 4c94 0e3b c39a 0fbc
00000240: 135c cd38 4d73 bfba bdc0 43bb e843 02bc
00000250: 3ff1 f5ba 8313 fb3a 8192 873a e519 603a
00000260: 0bf3 dc3b d86e d039 bd01 b9bb c079 3bbc
00000270: 415e 983b b9a0 c5bb a751 34bc 30db 003b
00000280: d576 b23b e0bb 6a3b 01ed 573b d7e9 9b3c
00000290: 2ec1 d33b cdba 103c b9a4 513b 9f01 e53b
000002a0: 20d9 693b 61b7 0fbb 194f 6bbb 6d7f b0bb
000002b0: 8902 f83b 21c0 54bc 4a8c b83b 766e 1dbb
000002c0: 349c f13a aae1 793b a594 063c 042d 07bc
000002d0: 6984 443b cefa 093c 01b4 613b fd98 bebb
000002e0: 20c4 97bb 7a19 9f39 7ec3 123c 1d1e b1b9
000002f0: a0ad 72bc 9855 4dbb 20fa f0bb 2a04 073b
00000300: 3781 bf3b 339a 463c 8dff 3abc 3ba7 893b
00000310: 0c77 75bb a492 d13b 7fda 073c 33ec 723b
00000320: 5ce6 07bc e6ff f53a 7396 b73b 5f24 ca3b
00000330: 2e53 d2bb 165f b33c f1d8 203c 9fc3 3a3b
00000340: 1742 6abb 432c a2bc 9b58 aab9 1ebd 913c
00000350: 6803 9dbb 9987 f7b9 5581 86b9 65a1 a8bb
00000360: b4ec ebbb 24c2 23bb 3538 f03a 2f3d 38bc
00000370: ef59 003c 3eb0 da3b 1866 363c 2757 2d3b
00000380: 1527 7dbc 69fa 07bc 55c0 8ebb 97a8 403c
00000390: 103c 74bc 150f b1bb 6741 883b 386b e33b
000003a0: d792 8c3b c3bb 3f3b e608 293c f3f9 893b
000003b0: 4ba2 cb3a 138c 493c a253 a9bb 6fe5 a8bb
000003c0: 5b3d 97bb 88e7 fdba fc1b ecba e2b7 ccbb
000003d0: d6c5 a33b b306 dcba 22e2 8bbb a38d 033c
000003e0: ed74 7cbc 5a55 ccbb 6a12 463b 6c80 e5bb
000003f0: e3b4 083c 3f7a 0f3c 1b1e e0ba 95b1 be3b
0.00045276372 -0.02033203 0.005047831 -0.009486534 -0.011515729 0.002752821 -0.005357287 0.0033816153
0.0019318564 0.008858823 -0.008199015 0.0013309645 -0.00042172195 -0.004452361 0.010621599 -0.006833124
0.014494584 -0.0009656379 -0.0005566592 -0.0041143647 -0.005880563 -0.0030960797 -0.005663118 0.0012324814
-0.006631763 0.0048467643 0.010869956 -0.011894184 -0.003479063 -0.009815031 0.0019317091 -0.0002649839
-0.004677491 0.0042079855 0.0026184435 0.009462812 0.006977774 0.0056420458 0.017012 -0.0017879654
-0.0064506344 -0.009110747 -0.005457006 -0.0036423774 -0.008836828 -0.0010866477 0.009427839 0.0091063995
0.0037375153 -0.0051622773 0.0024490047 0.0056279907 -0.005940046 -0.004137105 0.007792384 0.006404363
-0.013061155 -0.009143281 -0.007837527 0.001994848 0.00034255715 -0.0071172467 -0.0065074353 -0.003649217
0.00033060444 -0.0021796555 -4.8489845e-05 -0.0048366776 0.004019187 -0.011765755 -0.006044387 -0.0044442723
0.004484969 0.00033451043 0.0009140313 -0.0011568879 -0.0065389336 -0.015485261 0.0015897929 0.0018165722
0.0012744723 -0.011532568 -0.016362172 0.00045022494 -0.00762046 0.007900177 -0.0011876589 0.0067609986
-0.007248696 -0.002201263 -0.005057924 0.0032367993 -2.189766e-05 0.0070476113 -0.0061577605 -0.010461784
0.009215931 0.00046930957 0.0062127234 0.002474514 0.014918187 0.002116379 0.00040908597 0.0028113753
0.008152829 -0.0051108855 -0.011523145 -0.0064189006 -0.0017818874 -0.006797278 -0.00901948 -0.0034075836
-0.007720567 0.0041668974 0.012326655 -0.0032549803 0.0014582446 -0.0065128873 -0.0013287467 -0.00056684535
0.0019801275 -0.009799272 0.0036378696 -0.0011231519 0.0013529008 0.0050510927 0.0014877197 -0.00048830424
-0.0035937063 0.008005199 -0.0012972266 0.015533377 -0.0027733147 0.0010586325 -0.001013286 -0.005120512
0.007056164 0.004471216 0.013400648 0.012486113 -0.0036616412 0.0015037034 0.0021755872 -0.008764925
9.792312e-05 -0.0014606506 -0.002986952 -0.00795076 -0.0018763914 0.0019155595 0.0010343344 0.00085487805
0.00674284 0.00039755437 -0.005645959 -0.011442602 0.004649908 -0.0060311225 -0.011005796 0.0019661896
0.005446295 0.0035817549 0.0032947662 0.019032402 0.006462238 0.008833599 0.0031989051 0.0069887186
0.0035682395 -0.002192937 -0.00359053 -0.005386284 0.0075686616 -0.01298526 0.005631958 -0.0024022139
0.0018433393 0.003812889 0.008214151 -0.008250479 0.002998615 0.008421613 0.0034439566 -0.0058165775
-0.004631534 0.00030345825 0.008957742 -0.00033782507 -0.014811903 -0.0031331535 -0.007354036 0.0020601847
0.005844261 0.012121725 -0.011413467 0.0042008436 -0.003745499 0.0063956548 0.00829184 0.0037067055
-0.008294668 0.001876828 0.0056026517 0.0061688866 -0.006418607 0.021895926 0.009817348 0.0028497947
-0.003574496 -0.019796496 -0.00032490943 0.017790373 -0.004791666 -0.0004721254 -0.00025654832 -0.005146193
-0.007199848 -0.0024987543 0.0018327298 -0.011245056 0.007833942 0.0066738417 0.0111327395 0.0026449652
-0.015451212 -0.0082994485 -0.004356424 0.011758945 -0.014906898 -0.0054034092 0.004158187 0.0069402717
0.0042899656 0.0029256202 0.010317063 0.0042107045 0.0015536038 0.012301463 -0.0051674405 -0.0051543037
-0.0046154684 -0.001937137 -0.0018013711 -0.0062475065 0.004997949 -0.0016786664 -0.0042689005 0.008029374
-0.015408737 -0.0062357606 0.0030223378 -0.0070038345 0.008343908 0.008757173 -0.0017098816 0.0058195093

base_model.model.gpt_neox.layers.3.attention.query_key_value.lora_A.weight f4 [16, 512]
00000000: e8b9 f9bb cacf 393d 0520 153d 0281 0ebd
00000010: 168b b7bc b367 90bc 7e19 a1bc aaa9 2aba
00000020: 7833 953c bc88 a63c e1c3 023d 5b98 d5bc
00000030: 1b61 edbb bde6 b63c 0888 183d 6e2d 2cbd
00000040: 3341 3abc 0d7a 503c 3083 bc3c bdac b4b9
00000050: 0c13 173d 522f 233b 95f0 00bd 07b6 e33b
00000060: 9023 a33c 35d8 963c 0562 2bbb fe23 373c
00000070: 3e92 1e3c dc51 443d 270d cc3c dee4 33bd
00000080: ceaa 3fbd e81a de3c 8fc0 a13b a476 a3b9
00000090: 66f9 923c 8441 f3bb f4e9 05bc c20a 093d
000000a0: d877 4f3d d685 3fbc 2098 bdbc 6960 723b
000000b0: b7f3 a33c 9d2d 473d 9929 7f3b 088b 01bd
000000c0: d613 063b 3cc6 86bb 7e24 ff3b aff1 cabc
000000d0: 5a22 0cbd 60a3 39ba c782 4f3c 8ed8 9c3b
000000e0: 99d4 143d 0cc1 dcbb 67eb efbc 8384 b6bc
000000f0: a062 463d b9c4 983c 7d91 36bb 77e6 18bc
00000100: 4d7a 8cbc d9d7 f7bb bd53 6abc 3fff 47bd
00000110: ed31 923c 76dd 1f3c 33e7 1cbc 28da fc3c
00000120: 1f44 403c 9749 6b3b 345c aa3c b0a3 d9bc
00000130: 6985 40bd db74 52bc f6cf c03b ed4e ee3c
00000140: bf02 a43c 76d9 0a3d 2e79 5bbc ec7e 7a3d
00000150: e760 bcbc 0dc3 9c3c 2478 c83c f405 5a3c
00000160: be2d a0ba 7c68 7e3c 27bb 91bc 4225 783b
00000170: 3a14 f1bc 60c2 57bc 12f2 fdbb eb24 66bb
00000180: b3fd 13bb d582 92bc 4578 7cbc 55c6 08bd
00000190: 02ed cebb 705b 883c 6d6a 083d 5436 093d
000001a0: b1c0 ee3c 1cb7 00bb 0807 4bbc 1ea4 ec3c
000001b0: ed71 893b 2a98 cfbc 1022 10bc 3514 2dbc
000001c0: dced efbc dbf7 5cbc ddc5 f03b ac27 d53c
000001d0: 87e1 e2bc 3122 27bd 501b a6bc 003c 1f3d
000001e0: 7051 dfbc 605a f0bb 16f3 ef3c 54f0 833c
000001f0: b143 b1bb bfb9 6dbb 4f93 cf3c 9180 28bd
00000200: f3d6 bebc ea6e a9bc 0918 1f3d ef86 9ebc
00000210: 5573 1e3d cf00 b23c ca01 93bc 118b 7a3c
00000220: 4c9a 8f3c 8932 323d 4a28 643c 9a2d b2bc
00000230: 86e9 03bd 308f 82bc f4fe 223d 121a 073d
00000240: 15ea 1a3c 86d6 623c 165e 43bc 0b85 213c
00000250: 4154 73bc afb2 46bc 1b80 e93c f1ee 093d
00000260: 9f94 413d b5cc afbc 3248 263c a014 abbc
00000270: ec80 85bb 0c71 c73c ce10 023a 280c 20bc
00000280: 437c b83c 5c7b 213c a304 eb3c dd88 70bd
00000290: d168 0c3c 750a ccbc ad9d 80bc 0795 903c
000002a0: a928 073d fef8 d7bb 6b81 d63b 262d 05bd
000002b0: 4331 d23c be7e b63c 5ea6 73bc c5fa fc3c
000002c0: 6243 f2bc 4e2b 8839 53e8 713c 6f39 d13b
000002d0: 8cf9 99bc e79f 843c c8fe 243c fab6 8d3c
000002e0: a92c 223d 5b1f ca3c 0408 ed3b e069 0bbd
000002f0: 6096 f73c 8bcb a13c 8b9c 543c 1675 cc3c
00000300: 8593 1dbd 9a4f c93c 85fd b83c 43b6 19bc
00000310: d397 c83c 4f00 8b3c 0676 8d3c 8950 20bd
00000320: 6272 a3bb fd7e 97bc bb6b dd3c 4276 f9bc
00000330: b4c1 d53c 7223 18bd efdb b3bc 51eb 05bd
00000340: b443 d33c c8b9 b33c 7a35 b93c a2e1 5a3c
00000350: 5d13 93bc e7bf a63c adb0 dcba 85cd 04ba
00000360: 43f7 393d b2a3 3f3d c5ce 4cbc 7b1b dcbc
00000370: 1f4c 053c 75b6 5b3c 74d0 1ebc 445d 253c
00000380: 308d 87bc f147 b63c fa14 073c f1f8 8bbc
00000390: 0f5c 323d c66d 83bc fb83 e23c 8f4a 403c
000003a0: dba8 333d 79b2 02bd 9a10 aebc 47fb 1fbd
000003b0: 905d 02bc 39ca 353d 076f fdbc 3754 7d3c
000003c0: ad3f 553c 17c0 03bc a658 333d 7f76 433c
000003d0: 51a9 1fbc 7882 ebbb 77ae d4bc 19d4 4e3c
000003e0: 5cf0 c9bc 9eb3 10bc 5476 203c 0640 2bbd
000003f0: 34be c43b 0e8f 8dbc 5a82 533c 9360 3bbd
-0.0076210387 0.04536418 0.03640749 -0.034791 -0.022405189 -0.017627573 -0.019665476 -0.0006510267
0.018213019 0.020328872 0.031925086 -0.026073625 -0.007244242 0.022326821 0.037239105 -0.042035513
-0.011368084 0.012724412 0.023011774 -0.00034460975 0.0368834 0.0024900031 -0.031479437 0.0069491896
0.019914418 0.018413642 -0.0026150953 0.011178015 0.009678422 0.04792963 0.024908615 -0.043919437
-0.04679375 0.02711244 0.004936285 -0.00031178177 0.017941188 -0.0074235816 -0.008173455 0.033457525
0.0506514 -0.011689624 -0.023143828 0.0036983734 0.020013673 0.048627485 0.0038934706 -0.03162673
0.00204586 -0.004112987 0.0077863326 -0.024773447 -0.034212448 -0.0007081535 0.012665457 0.0047865575
0.03633556 -0.00673688 -0.029287053 -0.022279983 0.0484339 0.018648492 -0.0027857714 -0.009332291
-0.017148161 -0.007563573 -0.014302191 -0.048827406 0.017846072 0.00975739 -0.009576607 0.030865744
0.011734991 0.0035902017 0.020795919 -0.02656731 -0.04700223 -0.012845243 0.005884166 0.02909037
0.02002084 0.033898793 -0.013395591 0.0611562 -0.022995425 0.019135976 0.02447135 0.013307083
-0.0012220663 0.015527841 -0.017789437 0.0037864004 -0.02942859 -0.013168901 -0.0077498043 -0.003511722
-0.0022581636 -0.017884651 -0.015409534 -0.03339227 -0.0063148746 0.016645163 0.03330462 0.033499077
0.029144617 -0.0019640392 -0.012391813 0.02888685 0.004194489 -0.025341112 -0.008797184 -0.0105639
-0.029288225 -0.013486828 0.007347806 0.026019894 -0.02769543 -0.04080409 -0.020276695 0.03887558
-0.027260512 -0.0073349923 0.029290717 0.016105808 -0.005409681 -0.0036274043 0.025338797 -0.041138235
-0.023295855 -0.02068277 0.03884128 -0.01935145 0.038684208 0.021728901 -0.017945189 0.015291945
0.01752963 0.043505225 0.013925621 -0.02175026 -0.032205127 -0.015937418 0.039793923 0.032983847
0.009455224 0.013845092 -0.011924287 0.00985838 -0.014851631 -0.012127562 0.028503468 0.033675138
0.047260877 -0.021459917 0.010149049 -0.020883858 -0.0040742066 0.024345897 0.00049616105 -0.009768523
0.02252019 0.009856071 0.028688734 -0.058724273 0.008569912 -0.02490733 -0.015700186 0.017649187
0.03299776 -0.0065909615 0.0065461895 -0.03251376 0.025658255 0.022277232 -0.014871208 0.030881295
-0.029573146 0.00025972206 0.014764863 0.0063850204 -0.018795751 0.016189529 0.01007051 0.017299164
0.039593372 0.024673155 0.0072336216 -0.034036517 0.030223072 0.019750377 0.012976776 0.024958175
-0.038470764 0.02457409 0.022581825 -0.0093818335 0.024486458 0.01696792 0.017268192 -0.039139304
-0.0049880007 -0.01849317 0.027028909 -0.030451898 0.026093341 -0.03714318 -0.021955458 -0.03269512
0.02578912 0.021939173 0.022608507 0.013359459 -0.01795357 0.020355178 -0.0016837321 -0.0005066025
0.045401823 0.04678697 -0.01250047 -0.026868572 0.008135824 0.0134102 -0.009693254 0.010093037
-0.016546816 0.022251101 0.008244747 -0.017086478 0.043544825 -0.016043555 0.027650824 0.011736526
0.043862205 -0.031908486 -0.02124815 -0.039057996 -0.007956877 0.044382308 -0.030936731 0.015461973
0.01301567 -0.008041403 0.043785714 0.011930107 -0.009744958 -0.007187184 -0.025962098 0.01262381
-0.024650745 -0.008831887 0.009793837 -0.041809104 0.0060041193 -0.017280128 0.012909496 -0.045746397
