FederatedLLM/FT_lite/my_fl_model_test/peft_5/adapter_model.bin (torch, 791378 bytes, 12 tensors)

base_model.model.gpt_neox.layers.0.attention.query_key_value.lora_A.weight f4 [16, 512]
00000000: 76bb f9bc c546 d5bc 5b85 f0bc d2b8 48bb
00000010: 6204 0a3d bd13 cdbc 6edd 33bd 98a9 083d
00000020: 1a67 aabb 3635 683c 8bb9 363d 30cb 153c
00000030: de1a 0d3d 27d4 e5bb 9422 cebc e33a 303d
00000040: 70b1 443c 4d18 e5bc 3603 5bbc 33c6 24bd
00000050: 6810 323b 0faa 003d 299f 22ba 17ee abbc
00000060: eb7c 1f3d 4a20 1fbd ca87 0c3d 9e9f 923c
00000070: 4f13 0cbd 73a9 14bd 72bd 743c 9fb1 22bd
00000080: 15c8 d1bc 66dc 0a3d 213c aebc 2a31 2abb
00000090: 5303 84bb 50b8 90bc 15a4 1539 bfe4 ec3c
000000a0: 467b 163d a1dd 0bbd 29a4 443c 2172 e53c
000000b0: 3f32 b5bc e3bd 353d f4c1 1d3d 44a2 4b3c
000000c0: b61c e83c 0c93 8b3b 1bec ccbc 1bb4 8f3c
000000d0: f36e fabc 78bb 72bc 2eef 56bc fc7f c83c
000000e0: 74a2 923c 653f ef3c 332e 313c 9f21 02bd
000000f0: e793 e33c 17dd aab8 b3b3 813a 4e14 f7bc
00000100: a546 90bc 02b8 ae3c 8404 2dbd 8bb3 46bc
00000110: 0927 013c f86d febc 96a3 90bc 528f 44bd
00000120: 7df1 0abd 4b43 efbc f432 59bc 267a 03bd
00000130: 1142 c13c e5e5 96bc 1782 163d 726c 32bc
00000140: 7712 af3b 1446 8038 3d78 78bc 9dc2 b23b
00000150: ac1d 0cbd 98c0 20bc ec40 eb3c 8014 d4bc
00000160: 93ad 103d ea7e 2cbd 1c27 debb dfb9 023c
00000170: 070b 6ebc 06fa 6abc c4d8 253c 5c7d b8bc
00000180: cf45 5b3c 3ef5 cc3c 05e3 e53c 6a96 d43b
00000190: 0dda 38bd 61f4 06bd 6803 223d fbe6 dc3c
000001a0: d213 4f3c ec80 873c 5f9f 3cbc fcbc 3b3c
000001b0: b160 0d3c e333 8ebc a129 9b3c 93c2 acbc
000001c0: faeb 34bc f909 563c 3c4e 38bb 2800 5b3c
000001d0: d10d 8e3c ff9b cebb 7382 023d 8d42 1fbd
000001e0: f542 e33c 51c3 0c3d e601 393c 78aa 03bd
000001f0: 4a26 4cbc 1bee e5bb 5bf1 ae3c 9731 b63c
00000200: b502 343d 2d5b 193d b6d5 7cbc bbd4 d9bc
00000210: 20de 943b 29c5 02bb cdcc e5bc 09b7 dbbc
00000220: 346c 80bc 3caf bf3b 1b25 70bc 9efe fcbc
00000230: 0cc3 7aba 8e27 31bd 5937 04bd a883 293d
00000240: f134 50bd 2b35 173d 3c9c 3c3d dd04 953c
00000250: fd3d 373c dc9d f2bb 1596 df3c facb f5bc
00000260: d444 30bd 86a5 34bc 13e6 b33b 26e0 093d
00000270: c23a bcbc 91b0 35bd 7e83 183d d254 47bc
00000280: 0ed2 c5bc abd6 123d a69b dfba 096d 83bc
00000290: 401a 07bd 7c65 26bd cc97 bdba 3da9 163b
000002a0: 6930 12bd 8c6e debc 4bbe 053d 9023 333c
000002b0: a9f8 913c 9cb0 c7bb 40b0 19bc e657 983b
000002c0: 8886 083c 3893 5e3c 6656 103c 5c0e 103d
000002d0: 3d7e bb3c efc8 ac3b 6e0a 2a3d 8ffd e53c
000002e0: 9de1 e83c 27a2 0dbd 8780 8c3c 2fad 7b3c
000002f0: d830 223c 13b6 113d 5e32 15bd 9cb7 3dbc
00000300: 3297 613b a4df 14bd 1519 013d 955d d6bc
00000310: 2b69 83bc 71fb be3c f052 9bbb edc6 913c
00000320: 079d 813a 551e bc3b 90da b2bc 0120 1dbd
00000330: 81d1 563d 0ac0 073d 7e9a 83bc 6535 e6bb
00000340: 384b a73b 0aeb 18bd 90c6 e53c 0f4b 3bbd
00000350: cefd fd3c bef7 eb3c 65ff 7e3c 2d18 ddbb
00000360: d63c e9bc 66da e8bc f11e e43c 6c02 243c
00000370: fe81 94bc 1f5f 7d3b 48ba d4bb 21a9 a2bc
00000380: 4f17 1b3b 0c5e eebb 7c52 f1bc a423 0c3c
00000390: edc1 303c 2343 f33c 5d9f fe3c bc07 9ebb
000003a0: 3941 1d3d 25ec 363b 53e2 2fbd 9366 23bd
000003b0: c9dc 173d 0a02 483c 807a 703c 6b3c 01bd
000003c0: 8515 e93c 26a5 e63c fae0 91bc 6e83 863c
000003d0: 3e01 e3bc c18d 83bc 071f 1a3d 11d3 4bbc
000003e0: 4420 ffbc 450c 10bd d0e2 22bd 4ccb b03c
000003f0: 6970 f3bc c226 e0bc 4987 053d 62ed 5f3c
-0.030484896 -0.026034722 -0.029360464 -0.003062774 0.033695586 -0.025033826 -0.043912344 0.033364862
-0.005200279 0.014172843 0.04461054 0.009142682 0.03444945 -0.007013816 -0.025162973 0.04302491
0.012005195 -0.02796569 -0.013367465 -0.04022808 0.0027170423 0.03141218 -0.0006203526 -0.020987554
0.03893749 -0.038849153 0.034309186 0.017898377 -0.0341981 -0.036294412 0.014937745 -0.039720174
-0.025608102 0.033901595 -0.021268906 -0.0025969245 -0.0040287166 -0.017666012 0.00014270873 0.028917668
0.036738656 -0.03414691 0.012002029 0.028008522 -0.022118686 0.044370543 0.038515046 0.012428824
0.028334003 0.0042594727 -0.025014928 0.017541936 -0.030570483 -0.014815204 -0.013118548 0.02447509
0.01789973 0.029205034 0.010814237 -0.031770345 0.027780486 -8.147413e-05 0.0009895473 -0.03016105
-0.017611811 0.021327976 -0.042240635 -0.012127767 0.007882842 -0.031058297 -0.017656129 -0.047988243
-0.033921707 -0.029206892 -0.013256777 -0.03209891 0.023591073 -0.01842017 0.036745157 -0.010890113
0.0053427774 6.116569e-05 -0.015165386 0.0054553286 -0.034207985 -0.009811543 0.02871748 -0.025888681
0.035321783 -0.042113222 -0.0067795645 0.007978885 -0.014528996 -0.014341837 0.010122482 -0.022520714
0.013383343 0.025019284 0.028062353 0.0064876573 -0.045129824 -0.0329479 0.03955403 0.026965609
0.012639003 0.016540967 -0.011512606 0.011458632 0.00862901 -0.017358726 0.018940749 -0.021088874
-0.011042589 0.013063901 -0.0028122803 0.0133667365 0.017340573 -0.0063052173 0.031862687 -0.038881827
0.027741889 0.034365956 0.0112919565 -0.032144994 -0.012460301 -0.00701691 0.021355322 0.022240443
0.043947894 0.037440468 -0.015431812 -0.026590696 0.004543081 -0.0019953942 -0.028051758 -0.026820676
-0.015676595 0.005849747 -0.014657284 -0.03088313 -0.00095658074 -0.043250613 -0.032279346 0.041385323
-0.05083174 0.03691594 0.046047434 0.018190796 0.011184213 -0.007404072 0.027293244 -0.03000449
-0.04303439 -0.011025792 0.0054900735 0.03366103 -0.022977237 -0.04435784 0.037234776 -0.012166219
-0.024148013 0.035849255 -0.0017059937 -0.016043203 -0.03298402 -0.040624127 -0.0014464795 0.0022989057
-0.0356907 -0.027152322 0.03265218 0.010933772 0.017818766 -0.0060940515 -0.0093804 0.00464915
0.008332856 0.013584904 0.0088096615 0.035169944 0.022887344 0.0052729766 0.041513853 0.028075008
0.028427893 -0.03457847 0.01715113 0.015361114 0.009899341 0.03557403 -0.036424987 -0.01157942
0.0034422395 -0.036346093 0.03151806 -0.02616767 -0.016041359 0.023313256 -0.0047401115 0.01779505
0.0009888717 0.0057409205 -0.021832734 -0.0383606 0.052445892 0.033142127 -0.016064879 -0.007025408
0.0051054023 -0.037333526 0.028048784 -0.04572588 0.031004813 0.028804656 0.0155638205 -0.0067472667
-0.028471392 -0.028424453 0.027846785 0.010010343 -0.018128391 0.0038661433 -0.006491933 -0.019856038
0.0023665016 -0.007274395 -0.029458277 0.008553419 0.010788423 0.0296951 0.03108185 -0.0048226994
0.03839228 0.002791175 -0.04294045 -0.039892744 0.03707579 0.012207517 0.014677644 -0.03155176
0.028452644 0.02815492 -0.017807472 0.016420092 -0.027710553 -0.016058804 0.037627246 -0.012440459
-0.031143315 -0.03516795 -0.039767087 0.021581315 -0.029716687 -0.027362231 0.03259972 0.013667436

base_model.model.gpt_neox.layers.0.attention.query_key_value.lora_B.weight f4 [1536, 16]
00000000: 23e2 03bb 8423 b8bb fa1a 53ba cc36 eb3b
00000010: 1820 bd3b ce6e 0fba 7082 ffbb 54f3 acba
00000020: f1bb ea3b 95a8 ceba fb40 c03b 75c9 bb3b
00000030: ae09 21bb 2b92 273b 4bcd f13b c6ff 9c3a
00000040: fc26 0f3c 5b43 ae3b db1e 90b8 33db a8ba
00000050: 1d1f 9cb9 0a84 353b 09f2 913a 7aaf 453b
00000060: 8326 abbb c696 35bb 929d 40bc a0bc b33b
00000070: 6a3a a83b 106e 913b ccb8 063b cfc2 9e3b
00000080: 55b8 913a 00db 57bc 4636 073c 127f 083b
00000090: 536e a43a 95a6 0abb 4997 b63b 359a 1c3b
000000a0: c35e aa38 d94b f13b 7fd0 9239 bfb4 00bc
000000b0: 0b8e d23a 61d5 b1b9 e570 c33a e398 d13a
000000c0: 810a 6cbb ad1a d13a eb1e 3abc a4fc 34bc
000000d0: f708 ff38 8fc7 433b 3437 3ebb 2c3a 21bb
000000e0: 0587 fc3b 5593 c2bb 19fa aa3b 2e63 31bc
000000f0: ab45 e4bb f77c 10bc 0b24 c23b fd1f dcbb
00000100: cb92 b4bb 77b2 3cbc b86a 623b 5c1c aa3b
00000110: ffeb 0b3b cdb3 293b 0edd 8839 9640 04b9
00000120: 2c11 25bb c8d9 593c ab9c 413b 2963 d83b
00000130: 0b81 4bba f627 0339 c93f e3b9 2833 4a3b
00000140: 9218 16b9 2140 4c3b 5bb9 3bbc 81d6 183c
00000150: 80fe 613b 262f 2a38 6616 2e3b 3c10 15bc
00000160: e8de 903b 148f 963b 3e11 3c3c 2361 e3ba
00000170: 4ffd 423a 0034 1d3c f26b c53b 9731 f8ba
00000180: 9b6f 1dbc 3021 15bc 2c3b 70bb dc11 debb
00000190: ee24 04bc bd45 ef3b a9d7 1abc b0b6 0a3c
000001a0: 3aa8 45ba 59c4 563c 52d5 87bb 6da2 0e3c
000001b0: 96da 333c bd64 90bb 6683 6f3b dd31 83bb
000001c0: 0450 a4bb e7b6 4f3b 9a74 72bb 288d b8bb
000001d0: d5a5 46bc 1546 2c38 f596 9b3a 9873 da3b
000001e0: f329 05bb 9237 16bb bf14 bb3b ab4f 06bb
000001f0: 4b19 cc3b 6087 b3bb a9ca 0abb 0e31 c13a
00000200: 6f64 8f38 00aa e83b 1dab 19bc cf72 823a
00000210: b850 80bb dee4 9e3b 3dfb 37bb 06ee 173b
00000220: 4abd 893a 1016 703b b997 163c 97a8 b33a
00000230: 1ed1 ec3b 18f2 6e3a 1baf 8ab9 675e 03ba
00000240: e183 483c e47d a1bb aa16 48ba 1d89 9fbb
00000250: ed78 bdbb 80ea a43b e67f c439 ad51 bcba
00000260: f4c9 81bb b815 89bb fbfc 08bc 3e01 a1bb
00000270: c8de 94ba 1c9d 9c3b 98af 1fbb b7a1 843b
00000280: 0054 7f3b 0498 ff3a 6600 bfba 853c b6ba
00000290: cd3e ed3b 4626 423a e46c 4ebb 3cda 1cbb
000002a0: b100 643a 55a2 cebb 825c 5bbc 6f8e 1a3c
000002b0: 1879 a3bb 945b bbba be81 7ebb 1d1a 093a
000002c0: b1d8 85bc ac55 b33a ad49 5f3a f0a4 043b
000002d0: 0b27 89bb 2e3a f03b 602f 81bb 44ac 843b
000002e0: 0c83 9639 dd19 e5bb 4a3b d4ba 1baf 1c3c
000002f0: 470a 853b 7bd7 6aba 8d8d a5bb 07a5 03b9
00000300: 75a3 fb3a cb13 1c3c 8f73 b8bb 0a71 163b
00000310: 2a83 88ba 416f c2ba 9606 883b 6002 46bb
00000320: 8092 19bb c247 353b f71e e2ba 4b53 74bb
00000330: 6f4d 40ba 51d4 063c 30b1 c638 a2f0 2bbc
00000340: a17c b9ba 257d c23b 6528 79bb 81ee 65bb
00000350: 2fc6 0c3c 9479 4a3b ce6d aabb b4dc 79bb
00000360: 744a 923b b216 8f3b 7b4f 943b 0a10 20bb
00000370: 1363 d3bb 9e74 35bb 8987 833b 7f33 6fbb
00000380: e437 593b 1960 5c3a 878c 85bb 3fa1 1b3b
00000390: 8e6c a2bb dec8 04bb 9769 95bb a9e7 9fb9
000003a0: c2d8 b8bb 8d26 b53b 7350 913b 14e7 0a3c
000003b0: 299b 42bc c69b 1b39 c38b 80ba 5432 2d3b
000003c0: a272 8cbb 5500 753a 8173 fb3b f10f fabb
000003d0: 5b56 b63b 88d8 e3ba f483 033c 0dd9 303b
000003e0: e296 153b 2483 9b3b be45 5db9 e2c1 2dbb
000003f0: 68d6 4bbb 92fd adba d8b1 cabb 2c1b 0a3b
-0.0020123802 -0.005619468 -0.0008053031 0.007178163 0.005771648 -0.0005471528 -0.007797532 -0.0013195076
0.0071635176 -0.0015766794 0.0058671213 0.0057308027 -0.002457242 0.00255693 0.007379209 0.0011978082
0.008737322 0.005318088 -6.872202e-05 -0.0012882709 -0.0002977782 0.002769711 0.0011134754 0.0030164407
-0.005223097 -0.0027708276 -0.011756318 0.0054851323 0.0051339166 0.0044381693 0.0020556925 0.0048450003
0.0011117557 -0.013174772 0.008252686 0.0020827693 0.0012545086 -0.002115642 0.005572234 0.0023895625
8.1238824e-05 0.007363778 0.00028002632 -0.007855593 0.0016064061 -0.0003391905 0.0014910965 0.0015990998
-0.0036017003 0.0015953385 -0.0113599105 -0.011046562 0.000121610174 0.0029873585 -0.0029024603 -0.0024601324
0.0077065253 -0.0059379735 0.0052178022 -0.010826869 -0.006966313 -0.008818856 0.005924707 -0.0067176805
-0.005510663 -0.011517159 0.0034548473 0.005191369 0.0021350381 0.0025894523 0.0002610464 -0.00012612561
-0.0025187237 0.013296552 0.0029542844 0.0066036177 -0.00077630644 0.0001250802 -0.00043344338 0.0030853245
-0.00014314268 0.0031166153 -0.011457766 0.0093284855 0.003448397 4.057507e-05 0.0026563643 -0.009098109
0.0044211037 0.004594693 0.01147872 -0.0017347675 0.00074382586 0.009594917 0.006024831 -0.0018935677
-0.009609128 -0.009102151 -0.0036656363 -0.0067770313 -0.008065445 0.0073020146 -0.009450831 0.008466408
-0.00075400213 0.013108336 -0.004145303 0.0087057175 0.010977408 -0.00440654 0.0036546825 -0.004003747
-0.0050144214 0.0031694712 -0.003699577 -0.0056320615 -0.012124498 4.1073265e-05 0.001187055 0.006666612
-0.0020319193 -0.0022921306 0.0057092602 -0.0020494263 0.006228601 -0.0054787844 -0.0021177924 0.0014739351
6.8374786e-05 0.0071003437 -0.0093791755 0.0009952429 -0.0039158724 0.0048490604 -0.0028073334 0.0023182645
0.0010508683 0.0036634244 0.009191447 0.001370686 0.007227077 0.0009115054 -0.00026451875 -0.00050113205
0.012238474 -0.0049283374 -0.0007632772 -0.00486864 -0.0057822377 0.0050328374 0.00037479325 -0.0014367603
-0.0039608423 -0.0041834973 -0.0083610965 -0.004913478 -0.0011357898 0.004779471 -0.0024366137 0.004047598
0.003895998 0.001950026 -0.0014572262 -0.0013903534 0.0072401525 0.0007406216 -0.003149801 -0.0023933789
0.0008697613 -0.0063059726 -0.013388755 0.009433373 -0.0049888007 -0.001429426 -0.0038834657 0.00052300264
-0.016338678 0.0013682148 0.00085177534 0.0020239912 -0.0041855625 0.0073311543 -0.003942415 0.004048856
0.00028707867 -0.0069916085 -0.0016191986 0.009563233 0.004060063 -0.00089585007 -0.0050522746 -0.00012554611
0.0019198494 0.009526203 -0.00562901 0.002295556 -0.0010415066 -0.0014834182 0.0041511757 -0.0030213818
-0.0023433268 0.002766118 -0.001725166 -0.0037281092 -0.0007335757 0.008229331 9.4743795e-05 -0.010494383
-0.0014151522 0.0059353285 -0.0038018462 -0.0035084786 0.0085921725 0.003089522 -0.005201078 -0.0038125934
0.004464442 0.004366719 0.0045260764 -0.0024423623 -0.0064510196 -0.0027687917 0.00401396 -0.00364992
0.0033144886 0.00084066537 -0.00407559 0.0023747233 -0.0049567884 -0.0020261328 -0.0045597064 -0.00030499444
-0.005641074 0.0055282773 0.004434639 0.008477945 -0.011877813 0.00014839982 -0.0009807277 0.0026427703
-0.0042861262 0.0009346058 0.0076736812 -0.007631295 0.0055644936 -0.0017383257 0.008027066 0.002698484
0.002282553 0.004745858 -0.00021102183 -0.0026513268 -0.0031103138 -0.0013274422 -0.0061857514 0.0021073325

base_model.model.gpt_neox.layers.1.attention.query_key_value.lora_A.weight f4 [16, 512]
00000000: 5540 0c3c e5b1 cebc e9e7 c73c 16ac 16bd
00000010: 8763 55bc d5d7 223d 4c33 9fba 6e06 313c
00000020: ec75 e0bc 792a eb3c 4b36 c5bc 3045 a7bc
00000030: 4472 fe3c bea7 073d e895 1fbd a7ae 48bd
00000040: 68e1 0c3d 7f7a b23b 7cd6 4c3c 8965 4ebd
00000050: 22da 0137 5343 d1bc a9a8 e33c 7b97 b0bc
00000060: fe4b 973c 447d 80bc 6662 a53c 8658 1fbd
00000070: 332b 973c 79e3 d03c 8e81 5f3c f5d3 1b3c
00000080: fbd0 1dbd f6ac 563c da3e 35bd 315e c93c
00000090: 8aac 13bd ed83 59bc 97d7 babc 6dbd 923c
000000a0: f37e 7fbc 5edd edb9 dd90 1e3c d14c dd3c
000000b0: eb83 1dbd a98e 253d 6fd6 23bd 6c61 d33b
000000c0: 35ee cdbb 8d31 073b eddd 423d 0b35 e93c
000000d0: 4a46 0b3d f7b8 9f3b 5ee8 e73c 0f32 5fbd
000000e0: 3985 093d 1e36 213d 0c0b d6bc 9940 9e3c
000000f0: 4b3c 773c aeac 93bc 18e6 f33c 231d 96bc
00000100: 21b0 f1bc 3628 b13c fd9c e53c bac2 e93c
00000110: 1239 fc3c 0d20 293d ece1 26bd 4753 773b
00000120: 5462 e83c 470d 0e3d f350 183d e3b1 cdbc
00000130: 4f69 27bc d8b6 45bc c2d2 123d 2684 633c
00000140: dc91 0a3d c516 fe3c 6226 e7bb 3e10 8cbc
00000150: 7ff3 edbc 0727 3f3d 59f1 1cbd 1bac 3ebd
00000160: 76af 3fbd 9d8a 33bd ac3f 453b dad6 5ebc
00000170: 1f3a 11bd 550f 5dbc 9626 73bc bc71 61bc
00000180: 151d 42bd 28df 0bbd a5cc 943c 914f 5fbb
00000190: 8f1f 51bc 050e b6bc 5302 2dbc 46cc 8d3c
000001a0: c49d 07bd 59fc 02bc 4d05 583c 2a6d eabc
000001b0: 163f 7cbc 1e01 cc3b 450c 08bd 5772 d4bc
000001c0: dd10 19bd 3a5e 0a3d 6803 f63c 236d e53c
000001d0: 0f8d 66bc bdb8 313c 8bce 343d 184b abba
000001e0: 1dc7 45bd 16cd 223d 3b26 d3bc ca50 81bc
000001f0: 9592 2fbc 0e91 24bd 8f8a 793b 7815 253d
00000200: 16b4 823c 57c1 2a3d ef05 04bd 92dc 2ebc
00000210: 48a6 933c 73b3 24bd 5c34 953c aad9 1d3d
00000220: 7e91 ddbc 60df 22bd 0cbc b13c 5989 14bc
00000230: a589 b4bc c93a 09bd 42da 5b3c 31ec 25bd
00000240: bf22 4a3c 1b2c ce3c 5494 183a 64cc d53c
00000250: 0dfb 843b b861 bb3c a2ae 163d f4d4 22bd
00000260: fe9a 16bd 6011 a8bc f8b8 aabc 8662 ba3c
00000270: 8d02 52bc 3c5b 03bd 6794 e739 3b3b 12bd
00000280: 52af de3b 2877 183d 6c28 003c eca0 d73b
00000290: 4d85 90bc 9045 12bd f95b 20bd 57a0 bb3c
000002a0: 9a76 103d e343 e3bc 3d8d d93c 2f9d 203d
000002b0: 65e2 06bd dc4e dcbb 9596 1b3c 7889 0e3d
000002c0: 14b4 243b 6fb6 69bb 0bc3 7ebc 62be a33c
000002d0: 7d4a 163d ade2 cf3b 868a f6bc 54d0 50bc
000002e0: 0fc0 053b 13d7 3bbd ed6a b2bc c6a1 823c
000002f0: afab e03c 007e 073d 65f2 d03c 5ee3 e2bc
00000300: b65e eabc 0f4a d0bc 3b04 9abc c90c 123d
00000310: bf66 7bbb 2711 3abc 7082 03bd a3f4 c93c
00000320: 6943 a9bc 5cf9 353c 0932 b43c f627 27bd
00000330: 1587 1bbd f2ec 11bd bca1 dfbc a886 373d
00000340: 67fb fbbc 498e 2c3b 3c77 87bb b365 7d3c
00000350: ea06 97bc a0e9 32bb c497 4c3a 1f19 11bd
00000360: 42d9 bb3c c62d d43c 1852 0c3d 47ad fd3c
00000370: 6cc2 10bc 8040 fa3c 176e 503c 32cc 6cbb
00000380: 6b79 e5bb f9c1 b0bc f0f2 743c c62a 2d3d
00000390: 81ff bdbc f1ac 203d c52b d33c 13f9 223c
000003a0: ae3c 2abc 17d2 0cbd e477 dabb 8892 b93c
000003b0: 65e7 88bc cd23 e13c d70c 603c 1b7f 423a
000003c0: 1210 0dbd 7fe8 a8bc 3a67 17bd d546 0d3d
000003d0: c8e4 0e3d df57 faba 659b 833a 5235 0fbd
000003e0: f206 613c 0843 15bc e3c3 ca3c 1baf 3c3d
000003f0: e75b c23c 943c bcbc 7974 0d3c 84a9 1dbd
0.00856026 -0.025231311 0.024402576 -0.036785208 -0.013024217 0.039756615 -0.0012146025 0.010804756
-0.02739998 0.028706776 -0.02407374 -0.020418733 0.031060345 0.033118956 -0.03896132 -0.048994686
0.03439465 0.0054467316 0.012502309 -0.0503898 7.739787e-06 -0.025544798 0.027790384 -0.021556607
0.018468853 -0.015684731 0.020188522 -0.038902782 0.018453216 0.025499092 0.013641728 0.009510984
-0.038529377 0.013102761 -0.044249393 0.024581047 -0.036053218 -0.013276082 -0.02280788 0.01791259
-0.015594232 -0.00045369094 0.009678093 0.027014168 -0.038455885 0.040419254 -0.03999942 0.0064508226
-0.0062845 0.00206289 0.047574926 0.028467676 0.03400258 0.0048743444 0.028309043 -0.0544911
0.033574317 0.03935825 -0.026128314 0.019317912 0.015090059 -0.018026676 0.029772803 -0.01832444
-0.02950293 0.02162562 0.02802896 0.028535236 0.030788932 0.04129033 -0.0407428 0.0037738846
0.028367199 0.03468063 0.037186574 -0.025109237 -0.010217979 -0.012067519 0.035845526 0.013886487
0.03383051 0.031016717 -0.007054136 -0.017097589 -0.029046772 0.04666808 -0.038316105 -0.04655085
-0.046798192 -0.043833364 0.0030097766 -0.013601029 -0.03545582 -0.013492425 -0.014840743 -0.013760027
-0.047391016 -0.034148365 0.018163988 -0.0034074525 -0.012763872 -0.022223482 -0.010559636 0.01730932
-0.03310944 -0.007994735 0.013184858 -0.028616507 -0.0153959 0.006225719 -0.033214826 -0.025933428
-0.037369598 0.033781268 0.030030921 0.028006142 -0.014071717 0.010847268 0.044142287 -0.0013068644
-0.048285592 0.039746366 -0.025775066 -0.015785594 -0.0107161 -0.040177397 0.0038076972 0.040303677
0.015955012 0.04168829 -0.03223222 -0.010672705 0.018023625 -0.0402102 0.018213443 0.03853766
-0.027046915 -0.03976381 0.021696113 -0.009065949 -0.02203829 -0.033503328 0.013418736 -0.040508453
0.012337386 0.025167516 0.00058204425 0.026098438 0.004058248 0.022873744 0.036787637 -0.03975387
-0.036768906 -0.020516098 -0.020840153 0.022752058 -0.012817991 -0.03206943 0.00044170322 -0.035701018
0.006795802 0.03722301 0.007822137 0.0065804627 -0.017641688 -0.03571087 -0.039150212 0.022903604
0.035269357 -0.027742332 0.026556605 0.039212402 -0.03293075 -0.006723268 0.009496351 0.03479907
0.002513175 -0.0035661717 -0.015549432 0.019988243 0.03669213 0.0063441605 -0.03009535 -0.012744982
0.0020408665 -0.045859408 -0.021779502 0.01594628 0.027425615 0.033079147 0.025506208 -0.027696308
-0.028609615 -0.025425939 -0.018800845 0.035656724 -0.0038360802 -0.0113566285 -0.032106817 0.024652785
-0.020662026 0.011106815 0.021996515 -0.040809594 -0.03797062 -0.03562636 -0.0272988 0.044806153
-0.030759526 0.0026329926 -0.004134087 0.0154661415 -0.018435914 -0.0027299896 0.0007804597 -0.035424348
0.022930745 0.025900733 0.03425798 0.030966414 -0.008835416 0.030548334 0.01272156 -0.0036132452
-0.0070029995 -0.021576868 0.014950499 0.04227712 -0.023193123 0.03922743 0.025777707 0.009947079
-0.010390444 -0.034380045 -0.006667124 0.02265288 -0.0167119 0.027482891 0.013674936 0.0007419453
-0.034439154 -0.020618675 -0.03696368 0.03449138 0.03488615 -0.0019099674 0.0010040818 -0.03496296
0.013734566 -0.00911022 0.02475161 0.04606543 0.023725463 -0.022978105 0.008633726 -0.03849174

base_model.model.gpt_neox.layers.1.attention.query_key_value.lora_B.weight f4 [1536, 16]
00000000: d8c7 cd3a 1cd3 a4ba 58ef c83b 4976 043b
00000010: 109c 02bb c638 8d3a 2134 6e3b 1df9 9d39
00000020: b5f5 df3b 709e adbb d866 7bba 29dc 253c
00000030: 2242 56bb 5c58 22bc 72f2 0f3b f788 853a
00000040: ae31 39bb d9c7 a93b 0f10 113c 9a38 07bc
00000050: a137 583b 4b97 d7bb 2b52 c5b9 24ad 813c
00000060: cad1 3e3a 3028 383c 2c91 85bb afc2 0bbb
00000070: f6b7 c9bb af55 98bb 18ad 99bb 75f1 ddb9
00000080: 2701 e0ba 364d f5ba aa41 c73a 8e6f d4ba
00000090: 6f02 65bb be3f 073c 0ff3 42bb ef42 66ba
000000a0: dd04 ac3a 89cb 243c 9c7e 5c3b 1d18 c33b
000000b0: bd73 b03b 1578 e0bb 5a8d 83bb e988 32bb
000000c0: bc06 83bb 4fa0 b5bb 9808 3ebc 10d5 723b
000000d0: 684d e93a d22d 08bb 0ef4 10bb ad02 c7bb
000000e0: 775b 8db9 ff25 12bc 6525 dd3b e7e8 903b
000000f0: 9070 5839 bbe7 11bc 589e 5cbc 2dac fe3a
00000100: db07 4a3b 4537 253b 1b6c 87bb 4393 453b
00000110: fca1 5b3c 7bf6 0ebc 2495 063c 6f29 233b
00000120: 4ad0 d8bb ca1c 833b 8fb6 d3bb 56a4 b13b
00000130: 6791 833b d26d 633b 29b5 cc3a 0ba2 f03b
00000140: 7072 db3b b72a 7cbb f4c8 953b 634e c7bb
00000150: 4e40 9dbb 1792 153b 8660 80bb b35c 853b
00000160: cc13 123b 5bbd c13a dfb2 b73b ff3b 113c
00000170: 2862 b7bb 2063 cd3b 0438 3e3b 5f9c ae3a
00000180: 93dc 0bba 8a49 cc3a 3fde f2ba d79a 7f3b
00000190: 6a66 5e3c e69a 51bb df47 73bb 6133 ba3b
000001a0: 7e68 013a 2351 97bb 585a 02bc 2dc0 9fba
000001b0: 0973 6fbb c0e9 d6bb a9e7 5abb b0be 5dba
000001c0: 0ed4 87bb 13df 8a3b 667c 7db9 e6e4 4e3b
000001d0: 019a 3dba db29 c0bb a077 863b e0a2 74b9
000001e0: 595b 423c 0ed9 0cb9 1d9f c2ba dbae 283c
000001f0: b3aa c33b 7efc 803b 2c0e f0ba efe3 0cbb
00000200: 2810 a9bb a2a7 8abc efb5 17bc 67ac 343c
00000210: 9f69 083b be59 043b 8762 7dbb 84ef 93b9
00000220: 558e fb3a 1df3 80ba 740b 633c 9b6a 193c
00000230: 8039 1e3c 8923 adbb b547 1bbb 0075 5c3a
00000240: 2b68 2abb 0b4e 813a 1d3f 4bbb 1ac9 b2bb
00000250: 2592 6f3b 5eed 933b 67b8 a63b fb41 00bc
00000260: d70b f33b 632d 173b 7fef 8dbb 336e 24bc
00000270: 365e 633b e2d3 86bb eec0 9dba 7182 9b3b
00000280: 862b bdbb 1422 653a 236b f6bb 2b58 abbb
00000290: dd6f 883b 21ea 193c 7ee6 5dba f423 ecbb
000002a0: 471f 13bb 7667 d6bb 2f02 c9bb de5e 2db9
000002b0: 0d8e 063a b771 36b8 f769 41bb ecfc 9d3c
000002c0: 8d49 763b d548 363b 4fc9 bfbb 1745 f93b
000002d0: 5bae 0c3b b767 da37 e459 a2b7 3aaf 8138
000002e0: 6cf3 0ebc 8e4a 5bba 6b88 ee3a 1f51 17bb
000002f0: 9904 45bb 7362 6b3a 23e7 10bb 0465 e438
00000300: 56ff b4ba 2961 943b 692f 0bbc 2a6d 85bc
00000310: 3312 c1bb 2f88 00bc 901f f53a 03d7 a0ba
00000320: 2fbd 543c b771 c0bb d57e 193c 43f8 173b
00000330: 96ac c33b 38ea 413b 007b 6839 bb93 a939
00000340: d19b 8a3a cc80 2abc 331c 803b 70f7 f4b9
00000350: c5c9 b839 5082 2a3a 50f6 6a3b b196 caba
00000360: ece8 a73a 2784 523c ccb1 4dbc ff01 263c
00000370: d3c1 ea3b e67c 933a e0e5 b9b9 961e 1e3b
00000380: 1eb9 b8ba 6d0d 213c a0e3 03bc 1357 2f3c
00000390: e072 7b3b 6e8c 243b 9bbf 85bb d284 b7bb
000003a0: 9831 8cba c965 2d3b 0ec2 233b fa95 2dbc
000003b0: fc4a d23a 7a44 933b 4982 e83b 416f b13b
000003c0: 0ecf 19bc ff93 bc3b 621a a63a f269 f739
000003d0: 17d2 82ba 673b 243b e8b0 d7bb 7a13 1bbb
000003e0: 5b66 783b 9f03 513c e6ab 113c 43be 10bb
000003f0: 5fce 95bb c984 e2ba 39d7 9b39 93fb 2cba
0.0015699817 -0.0012575123 0.0061320476 0.0020212105 -0.0019929446 0.0010774366 0.003634699 0.00030130977
0.0068347105 -0.0052984282 -0.0009590215 0.010123291 -0.0032693227 -0.009908762 0.0021964577 0.0010187913
-0.0028258371 0.0051812944 0.008853926 -0.008253241 0.0032992142 -0.006579315 -0.00037635988 0.01582963
0.0007279186 0.01124005 -0.0040761437 -0.0021325757 -0.006155963 -0.004648886 -0.004689824 -0.00042332304
-0.0017090187 -0.0018715027 0.0015202065 -0.0016207562 -0.0034944077 0.008254943 -0.0029746925 -0.00087837776
0.0013124008 0.010058292 0.00336448 0.0059538023 0.005384891 -0.0068502524 -0.004014653 -0.002724225
-0.0039986055 -0.005542792 -0.011598729 0.0037053265 0.0017799558 -0.0020779264 -0.0022118124 -0.006073317
-0.00026961762 -0.008920192 0.0067488425 0.0044222954 0.00020641298 -0.0089053465 -0.0134654865 0.0019429974
0.0030827436 0.0025209945 -0.00413276 0.003014759 0.013405319 -0.008725758 0.008214269 0.0024896523
-0.006616627 0.0040012347 -0.0064609717 0.0054212017 0.004015136 0.003470291 0.0015617955 0.007343536
0.0066969916 -0.0038477608 0.0045710746 -0.0060823425 -0.0047989255 0.0022822672 -0.0039177565 0.0040698885
0.0022289632 0.0014781164 0.00560604 0.008864402 -0.005596418 0.00626792 0.0029025087 0.0013321749
-0.00053352973 0.0015585881 -0.0018529369 0.0039002204 0.013574222 -0.0031983196 -0.0037121696 0.0056823944
0.000493653 -0.0046178265 -0.00795611 -0.001218801 -0.0036537072 -0.006558627 -0.003340224 -0.00084588956
-0.004145152 0.0042380183 -0.00024174302 0.003156954 -0.0007232726 -0.0058643646 0.004103616 -0.00023330329
0.011862599 -0.000134323 -0.0014848445 0.010295595 0.0059712767 0.0039363494 -0.001831477 -0.0021498164
-0.0051593967 -0.016925637 -0.009259685 0.011027432 0.0020814908 0.0020195092 -0.0038663463 -0.00028216478
0.0019192199 -0.0009838078 0.013857711 0.009363796 0.009657264 -0.005283777 -0.0023693864 0.00084097683
-0.002600203 0.0009865178 -0.003101296 -0.005456102 0.0036555615 0.0045143804 0.0050879004 -0.007828231
0.007417183 0.0023067824 -0.0043315287 -0.010036039 0.0034693605 -0.004114614 -0.0012035647 0.0047457744
-0.0057730107 0.0008740735 -0.007520096 -0.0052290163 0.004163726 0.0093942 -0.0008464827 -0.0072064344
-0.0022449063 -0.006543095 -0.0061342935 -0.00016533906 0.00051328616 -4.3498087e-05 -0.0029512623 0.019285642
0.003758046 0.0027814407 -0.0058528553 0.007607113 0.0021466229 2.6035921e-05 -1.9353763e-05 6.183838e-05
-0.0087250285 -0.00083652965 0.0018198615 -0.0023089123 -0.0030062555 0.00089792087 -0.0022110424 0.00010890703
-0.0013809006 0.004528184 -0.00849519 -0.016287405 -0.005892062 -0.007844969 0.0018701423 -0.001227111
0.012984558 -0.005872931 0.009368618 0.0023188747 0.0059715016 0.0029589068 0.00022171065 0.0003234426
0.0010575001 -0.010406684 0.0039096116 -0.00046723662 0.00035245545 0.00065044034 0.003585238 -0.0015456286
0.0012810505 0.01284889 -0.012554597 0.010132312 0.007164219 0.0011252433 -0.0003545722 0.0024127117
-0.0014093255 0.009829861 -0.0080498755 0.010701912 0.0038368031 0.0025108117 -0.004081679 -0.00560055
-0.0010695932 0.0026458374 0.0024987492 -0.010594839 0.0016044076 0.004494247 0.0070956093 0.005414874
-0.009387745 0.005754947 0.0012672658 0.00047190447 -0.0009980825 0.002505982 -0.006582368 -0.0023662732
0.0037902805 0.012757211 0.008891081 -0.002208606 -0.0045717205 -0.0017282005 0.00029724257 -0.0006598767

base_model.model.gpt_neox.layers.2.attention.query_key_value.lora_A.weight f4 [16, 512]
00000000: ea72 92bc eb74 2cbd 85cb 17bd 6206 033d
00000010: 1a89 173d 4b5d 8e3b 9085 743c 90f5 433c
00000020: fa3f fd3c aaa2 393d 3e66 b9bc eb45 8b3b
00000030: a362 ba3c 7ad4 18bd 6561 dabc 01ba 47bc
00000040: edf3 8abc b23e 33bd 6e90 063c 2295 3fbb
00000050: efac 553b 4c0b 26bc 1b9d 453d 5cfa df3c
00000060: 00c8 8d3c 6822 253c c7af 503d b8d7 a0bc
00000070: 392a 3c3d 5914 293d e834 263c e9ab 133c
00000080: fc3e 09bd a9cf fd3c f92b 8cbc 4897 333d
00000090: 509f 63bc 7a95 1dbd 9f9f 283d 8950 84bb
000000a0: f7b6 09bd 3d7d 03bd 7713 98bc 5cbb 3cbd
000000b0: 061e 8c3a 597b 263c e3d8 0bbb 6bec 0b3d
000000c0: 603a 4c3a fd75 053d 2eb4 eb3c f95b e93c
000000d0: 5ae3 be3c e46e 3d3b 900b 4fbc 08d4 193c
000000e0: 8b20 0e3c 07a2 81bc dd11 223d 341d 6e3c
000000f0: 3e85 06bd b55f 85bc 598c e4bc 35b9 263c
00000100: fed1 c2bc b004 fb3c 93f0 a4bb 961e 1bbd
00000110: e15f f5bc 1ccc dc3b cad4 143d 0f07 b83c
00000120: 3235 b23c 9833 28bb bca2 e43c 5bd4 2dbc
00000130: e49e 84bc 812c ac3c 86d6 c5bc 0d26 d9bc
00000140: 0cde 95bc fcee e3bc 2b9d e23a cf67 a7bc
00000150: d057 10bc 0d7f a13b ce1b 28bc f626 f1bc
00000160: 2735 d23c 87b4 bebc 27f7 75bc f91c be3c
00000170: 161f 4dbd 43d0 da3b 959b b9bc fa9e 073d
00000180: d08d 83bc e5b2 873b 0eb0 913c aac7 e8bb
00000190: 269c f33c d965 503b 0069 743c eede a5bc
000001a0: abe4 bc3c 32e4 163d af52 063d 968e 2fbc
000001b0: 8f9b b2bc 2016 faba 83de 4e3c 6040 f63c
000001c0: 4614 2b3d 8e3c b13c da39 26bd 4401 59bc
000001d0: fa1a fb3c 3f73 87bb b11e 81bc afee 4fbc
000001e0: c2b8 05bd ba40 413d b11c b73a 48e1 d4bb
000001f0: d072 9bbc 0ce5 d3bc d0af c2bc 124f 083d
00000200: a548 e23b be44 f4bb def9 8f3c 920f 0e3d
00000210: 57c7 3fbd c052 13bc 0749 2b3d 993d 033c
00000220: 1c5c b7bc d5b5 e73c 8618 e23c 2073 273d
00000230: d40e 483b cf5e 8abc 71ea 333d fbc8 6f3c
00000240: fca0 ca3c b37c 853b 46d1 afbc 42b6 4a3d
00000250: 6c65 863c 3a3e fb3c 139d c0bb 9fe7 12bd
00000260: ce08 813a b041 38bd 99da c1bc 887f 403c
00000270: 1327 a13c 79f3 debc cbcd d43c eee5 1bbd
00000280: 4658 223d 7536 fc3a 98e6 b9bc 5cc4 8b3c
00000290: a517 dd3a 1590 3b3c 7cbf b1bc 3b0d 6d3c
000002a0: cc41 ff3a 285e c13c 7c73 dd3c 0ad6 cf3c
000002b0: 924c 41bc 450d e43c 8a17 07bd 8f6d 29bc
000002c0: a158 343b 7e6b aebc f0dd afba 710f 6dbc
000002d0: 61a4 ac3c f54e 1a3c 8d0f 7b3c 3eaf 163c
000002e0: 19ce 013b dccc 473c 9cae 32bc ef69 3bbc
000002f0: ad5f f53c d013 61bc c134 9fbc b7fd 0dbd
00000300: 7160 de3c 49c9 c3bc 69e2 6a3c cb85 8a3b
00000310: 2228 4bbb 608b 483d a22d 76bc 9425 19bd
00000320: 86c9 86bc 98df 54bb 94f5 183d 3de5 333c
00000330: 603a 05bd f47a bcbc 7ae2 25bd c6c2 14bc
00000340: 579f d4bc 5109 e63c d5f6 0c3d 307c cdbc
00000350: a004 7bbc 1ea1 863c 58a7 983c 660e d3bc
00000360: e54b 423c 6db9 cdbc cbb6 5dbc 2504 94bc
00000370: ed5d 36bd 73a7 df3c 147c adbc d56d efbc
00000380: c9f6 2cbc 7db8 9bbb 477e 9bbc 8833 cbbc
00000390: 7dec 213c 0525 44bc fc22 9a3c b978 bdbc
000003a0: 1d41 143c 1de3 03bb 1dec ae3b 627a de3c
000003b0: b4e1 af3c 824c 213d 83ad 103c a49c 9d3b
000003c0: 25d4 8dbc 6b8c 613d f5ed fc3b 71f8 08bd
000003d0: 968f e33c 1aea be3c 02d6 2c3d af7d b2bc
000003e0: 1391 453c 4531 2bbd 822f 1abd 529f 05bc
000003f0: ed2c b53b b006 0bbd 944d 083c f95d 183d
-0.01787706 -0.04210369 -0.037059326 0.03198851 0.036995985 0.0043446175 0.014924422 0.011960402
0.030914295 0.045321144 -0.02263176 0.004250278 0.022752112 -0.03731201 -0.02665777 -0.012190343
-0.016962016 -0.043760963 0.008213146 -0.0029233177 0.0032604297 -0.010134529 0.04824553 0.02734106
0.017307281 0.010079004 0.050948884 -0.019634113 0.045938704 0.04127917 0.01014445 0.009013155
-0.033507332 0.03098281 -0.017110812 0.043845445 -0.0138929635 -0.03847263 0.04116785 -0.004037921
-0.033621754 -0.03210186 -0.018563969 -0.046077117 0.00106901 0.010161244 -0.0021338991 0.034161013
0.0007790681 0.032583226 0.02877244 0.028486239 0.023301769 0.0028905207 -0.012637034 0.009388931
0.008674751 -0.015824331 0.039567817 0.01453333 -0.032841913 -0.016280988 -0.027898954 0.010175993
-0.023781773 0.030641884 -0.0050335615 -0.037870966 -0.029952945 0.006738199 0.036335744 0.022464303
0.021753881 -0.0025665518 0.027909629 -0.0106097115 -0.016189046 0.021017315 -0.024150144 -0.026507402
-0.018294357 -0.027823918 0.0017289271 -0.020435242 -0.008809999 0.0049284757 -0.010260535 -0.029437523
0.02566011 -0.023279442 -0.015012539 0.023207175 -0.050078474 0.0066776588 -0.022657195 0.033110596
-0.016058832 0.004141199 0.017784145 -0.00710388 0.029737543 0.0031798987 0.014917612 -0.020247903
0.023058256 0.036838718 0.032793697 -0.0107151475 -0.021802692 -0.001908008 0.012626293 0.030059993
0.04176738 0.02163532 -0.040582515 -0.013244931 0.030652512 -0.0041336115 -0.015761705 -0.012691184
-0.032646902 0.04718087 0.0013970343 -0.006496582 -0.018975645 -0.025866054 -0.023765475 0.033278532
0.0069056326 -0.007454484 0.0175752 0.034682818 -0.046820965 -0.008991897 0.04181769 0.0080102915
-0.022382788 0.028284946 0.027599584 0.040881276 0.0030526416 -0.016890911 0.043924753 0.01463532
0.024734966 0.004073703 -0.021462094 0.04949022 0.016405784 0.03066932 -0.0058780997 -0.035865422
0.0009844543 -0.04498452 -0.023663806 0.011749156 0.019671952 -0.027215706 0.025977036 -0.038061075
0.039634965 0.0019242304 -0.022692963 0.017061405 0.0016868009 0.011447926 -0.021697752 0.014468486
0.0019474565 0.023604468 0.027032606 0.025370616 -0.011798041 0.027838359 -0.032981433 -0.010341062
0.0027518647 -0.02129149 -0.0013417583 -0.014469014 0.021074476 0.009418239 0.015323532 0.009197054
0.0019806682 0.012194838 -0.010905888 -0.011438831 0.029952848 -0.013737634 -0.019434335 -0.03466579
0.027145596 -0.023899691 0.014336207 0.004227375 -0.0030999263 0.048961043 -0.015025528 -0.037389353
-0.016453516 -0.0032481905 0.037343577 0.010979948 -0.032526374 -0.023007847 -0.040499188 -0.009079641
-0.025954885 0.028080614 0.034415085 -0.025083631 -0.015320927 0.016434249 0.018634483 -0.025763702
0.011858915 -0.025112832 -0.013532351 -0.018068383 -0.04452317 0.027301526 -0.02117733 -0.029227177
-0.010556885 -0.0047522173 -0.018981112 -0.024804845 0.009883043 -0.011971717 0.01881551 -0.023128854
0.009048727 -0.0020124384 0.0053382055 0.027157966 0.021469928 0.039379604 0.008830431 0.004809933
-0.017313072 0.055065554 0.0077187964 -0.033440057 0.027778428 0.023304988 0.04219628 -0.021788446
0.012058514 -0.041795034 -0.037642963 -0.008155661 0.005529037 -0.033941925 0.008319277 0.037198994

base_model.model.gpt_neox.layers.2.attention.query_key_value.lora_B.weight f4 [1536, 16]
00000000: 84dd a5ba 2648 f0bb 4150 b23b db3d c0bb
00000010: 4e9c 09bc 1041 ff39 2730 abb9 266d d73b
00000020: cad7 7bb9 3629 c33b d090 9fbb 3c45 b9ba
00000030: 058f 34bb fbfb 64bb edda 373c cfb9 47bc
00000040: 9cc4 2b3c 652f 2dba 4b2d d6b9 8fff 84bb
00000050: 33c9 08bc 803a edba 7f20 93bb fa3c 363b
00000060: 687d aeba 19c4 403c 1095 3c3c 74bd f3bb
00000070: 667d 8b37 1262 23bb c678 3a3b b2bf 45ba
00000080: e230 e0bb dd6c 003a 4f31 043c f811 833b
00000090: a945 3d3b 6ca3 053c cf02 2f3c 109e 71bb
000000a0: 45da 86ba e6de 0d3b 1c47 19bb 2f47 77bb
000000b0: f50e 0abc 710f 2abb e9d8 0f3c 84c9 f13a
000000c0: ea1e 60bb f1d1 00bb 7f08 7d3b 444a 8aba
000000d0: 1b5f 28bc 62f6 963a eba3 d53b c1f7 39bb
000000e0: 6850 65bc 65bc b2bb 594e 1dbb 08d5 873b
000000f0: 7105 01bb 160a 6bbb 7ec9 6b3a 6c15 7439
00000100: a6d4 07bc ab76 88ba 87f4 56bb 4834 e2bb
00000110: 4a2c f03b 18cc babb 9188 c6bb 65af 11bb
00000120: bb66 083c 42b7 9f3a 3041 94bb 9667 3ebb
00000130: 875c ccb9 8483 fbbb fc63 33bb 9c08 803b
00000140: ded1 2db9 13cc 03bc aaa4 88bc 7524 97bb
00000150: c052 ddbb b8a7 35ba 4817 593a 6b77 e23b
00000160: 5a06 07bc b370 b3bb 3a23 d439 0bfa b83b
00000170: d153 c4ba a758 ef3b 532b 36bc 3034 77ba
00000180: 197b 0c3b 83c9 423b 3f75 f93a 0f8d 943a
00000190: bb8d 023c 68a7 b5b9 bc35 c2bb b8b4 ffba
000001a0: 05e9 103b 95dd 29bc ec57 96bb 2455 a5bb
000001b0: 74e8 74bb fc20 5dbb 4f3a 4bbb 1261 70bc
000001c0: 0b3e 51b9 85fe 713b c233 163c ab7d f9bb
000001d0: df19 77bb 2df9 c7b9 a278 243a 009a eeba
000001e0: 0825 93b9 4b75 3a3b 9aa3 543b c84b 59bb
000001f0: 668b 2f3b 7880 b63b 6f75 2dbb bb44 bfbb
00000200: 25dd 0b39 76d3 0b3c f9df 7438 8712 753c
00000210: 2c83 f9ba 7b48 893a ee9c 373b 9893 d8bb
00000220: 4484 793b 162e 5d3a 8fc2 143c 09c1 4c39
00000230: b588 1b3a fc94 42bb 9773 a93b 87e0 8cba
00000240: 4a20 a53b 5dbe 35bb ea57 e1b9 bbf4 f93a
00000250: dbae 8bba 8e31 3b39 beab a7bb ff88 023c
00000260: 9e55 b63b 8a14 a9bb 021e 94ba 7692 d9bb
00000270: 1acb 8fba aee6 16bc 799e 79b8 01ee d53b
00000280: d7b1 c8ba e368 56bb e6e0 703b a7e8 0d3c
00000290: 9c87 183c 7b66 a0b8 6c8f d5ba fa60 063c
000002a0: 8a2e b63b a1e8 83b9 3546 763b bb7b 85ba
000002b0: 3b86 883b 1a06 b6bb 7967 f938 7e25 693b
000002c0: 683b 553a 1f1d c239 efb7 153c e8e9 e9ba
000002d0: 20e4 bd3b d2f0 ec3b 2b26 0a3c 0114 b6bb
000002e0: d580 89bb 3856 83bb be99 573b b289 07bc
000002f0: 8938 ffbb b1cb bdbb 0453 e2b9 be9a 9f3b
00000300: 498d 663b e0c6 bd3b a51f 98bb 59a1 b63b
00000310: 3236 173b 2d41 713a f6e4 7e3b 5750 923b
00000320: f0d5 7a39 31dd 5f3b 77d1 b83b 2bc4 203a
00000330: 89ec 9f3a 015d d33b c032 a43b 9517 c63b
00000340: 3bb9 ebba 176f 5ebc fcf3 81bb bdff 183c
00000350: cbd7 f9ba 1aaa 1a3b 1b51 cbbb cc6f be39
00000360: d520 a8ba 0ce5 8dba f130 843b e639 06bc
00000370: 8f80 943b 661d 483a fba1 503c f29e 323a
00000380: 0f67 08bc 1210 2cbb ab37 c63a 1a37 c13b
00000390: b3ec dfbb b9d8 50bc db0f 473b 6073 5db9
000003a0: c045 ea39 8cfe d63b a5de f33b f0ba f0ba
000003b0: a25c dbb9 d9f3 413c 4aee 96bb 4cf8 b9bb
000003c0: 33cc 153b a9d2 babb 4f12 b9ba e914 63ba
000003d0: 5d06 133b 54ab 86bb c543 efbb 5111 e53b
000003e0: 789f 1bbc 5a9a 8bbb 6103 a63b 3719 a1bb
000003f0: dfd3 0d3c b85d dd3b c852 9d3b 2abd 853a
-0.0012654518 -0.0073328195 0.005441696 -0.0058667487 -0.008399082 0.00048685865 -0.00032651538 0.006574291
-0.00024017613 0.0059558405 -0.004869558 -0.0014135013 -0.0027551067 -0.003494023 0.01122163 -0.012190296
0.010483887 -0.00066064886 -0.00040851007 -0.0040587853 -0.008348751 -0.0018099099 -0.004489958 0.002780734
-0.001331252 0.011765503 0.011510149 -0.007438356 1.6628484e-05 -0.002493028 0.0028453334 -0.00075435184
-0.006841765 0.00048990344 0.008068397 0.003999945 0.0028880632 0.008156639 0.010681822 -0.0036867894
-0.0010288438 0.002164775 -0.0023388332 -0.0037731638 -0.008426418 -0.0025949145 0.008779743 0.0018446897
-0.0034198114 -0.0019656385 0.00386098 -0.0010550697 -0.010276581 0.001151752 0.0065197847 -0.0028376433
-0.013996221 -0.0054545873 -0.0024002998 0.0041452684 -0.0019687081 -0.0035864166 0.0008994563 0.00023277634
-0.008290445 -0.0010411342 -0.0032799558 -0.006903205 0.0073294984 -0.0057005994 -0.0060587605 -0.0022229787
0.008325274 0.0012185352 -0.0045243725 -0.0029053441 -0.0003897885 -0.00767559 -0.0027372828 0.0039072763
-0.00016576747 -0.008044261 -0.01668008 -0.0046125003 -0.0067542493 -0.0006929594 0.0008281362 0.0069112084
-0.00824126 -0.0054760813 0.00040462037 0.005645042 -0.0014978593 0.0073042694 -0.011118728 -0.0009430079
0.0021435677 0.002972216 0.0019032134 0.0011333543 0.0079683615 -0.00034647738 -0.005926816 -0.0019508814
0.0022111547 -0.010367771 -0.004588118 -0.00504555 -0.0037369998 -0.0033741584 -0.0031010096 -0.014671581
-0.00019954906 0.0036925387 0.009167613 -0.0076138577 -0.003770463 -0.00038141888 0.0006274079 -0.0018203855
-0.00028065615 0.002845126 0.0032446147 -0.0033156741 0.0026785969 0.005569514 -0.00264677 -0.0058370507
0.00013338456 0.008534303 5.8382724e-05 0.014958031 -0.0019036285 0.0010473871 0.0028017121 -0.0066093914
0.0038073221 0.00084373483 0.0090795895 0.00019526867 0.00059331517 -0.0029690852 0.00517125 -0.0010748067
0.0050392495 -0.0027731874 -0.00042980845 0.0019070128 -0.0010656969 0.0001785217 -0.005116909 0.007967233
0.0055644056 -0.005159919 -0.0011300447 -0.006639774 -0.0010970563 -0.009210272 -5.9513815e-05 0.0065286164
-0.001531179 -0.0032716326 0.0036755144 0.008661426 0.009309676 -7.648483e-05 -0.0016293353 0.008201832
0.005559747 -0.0002515959 0.0037578468 -0.0010183969 0.004166392 -0.0055549266 0.000118925185 0.0035575326
0.00081341574 0.0003702426 0.0091380915 -0.0017846199 0.005795017 0.0072308565 0.0084319515 -0.005556584
-0.004196266 -0.004008081 0.0032898034 -0.008272575 -0.007788722 -0.005792104 -0.0004316793 0.0048707416
0.0035179427 0.00579153 -0.004642444 0.0055734334 0.0023073074 0.00092031324 0.0038893796 0.0044651437
0.00023921556 0.003415894 0.0056402045 0.0006132747 0.001220123 0.006450296 0.0050109327 0.0060452917
-0.001798428 -0.013576291 -0.003965853 0.0093383165 -0.0019061504 0.0023599924 -0.006204737 0.0003632292
-0.0012827168 -0.0010825708 0.0040341546 -0.008192515 0.004531927 0.0007633775 0.012733932 0.0006813846
-0.008325352 -0.0026254696 0.0015122792 0.005896461 -0.0068336367 -0.012746983 0.003037444 -0.00021119183
0.00044683926 0.006561106 0.007442313 -0.0018366259 -0.00041839952 0.011837923 -0.004606043 -0.0056753512
0.0022857308 -0.005701382 -0.0014119836 -0.00086624786 0.0022434213 -0.0041097794 -0.00730178 0.0069905897
-0.0094984695 -0.0042603435 0.0050663208 -0.004916336 0.008656471 0.006755557 0.004801128 0.001020347

base_model.model.gpt_neox.layers.3.attention.query_key_value.lora_A.weight f4 [16, 512]
00000000: e1de 8dbb 6a64 3d3d 6221 df3c dfe0 02bd
00000010: 3d73 37bc 6603 a9bc 44b6 e0bc cc34 f3ba
00000020: 3c29 863c a9cd 943c 7ea5 043d 1c9a c6bc
00000030: 345b 46bc 801d c33c 1d34 1e3d 00d1 20bd
00000040: 9ac2 d0bb 37ab 583c b1aa 7c3c 7b17 1fbb
00000050: 2b58 1b3d d830 c33b a0c6 01bd 1bbd 393c
00000060: eb63 4c3c 3999 683c 2494 b0bb 30c9 2d3c
00000070: 2938 6a3b b269 2f3d aedc c03c d1ff 2abd
00000080: 20bb 43bd 284a b93c 6f9f 083c 601b c93a
00000090: d924 9f3c d0e3 4bbc 6044 f8bb b779 1d3d
000000a0: 1b3c 583d db97 25bc fb78 c7bc 0efe 42b8
000000b0: a45f a73c e801 2e3d dc86 ad3a 2458 f2bc
000000c0: 33c7 c2b9 b106 b3bb dd6d d53b 654b e5bc
000000d0: 9d40 07bd c9b5 78ba 9caf 723c 7c7e e73b
000000e0: 8b18 1a3d 5ce6 05bc 6bde 14bd bc87 94bc
000000f0: 8ac4 373d 05c6 903c ad84 013c 2198 83bc
00000100: 0544 acbc f331 00bc 50eb 0abc 8bdd 28bd
00000110: c2bd 5d3c 87e0 813c 9ba9 43bc b38f fb3c
00000120: e555 e13b 2e3b aeba 5413 b53c 883b cabc
00000130: c539 38bd 18a4 83bc 1de7 f03b 9151 db3c
00000140: 4102 863c c4f4 083d 7e1c 74bc c16e 523d
00000150: c47b a1bc 6238 7e3c f2c8 f93c efc6 403c
00000160: 9a54 603b 5f8b 5e3c 2837 97bc 8a5c 6f3b
00000170: e999 efbc fadd bfbb ec2f 2fbc 6614 08bc
00000180: 7d8a 23bc 2ba0 79bc c730 24bc d046 0cbd
00000190: d19d 18bb 676a 903c f603 fe3c 4a06 133d
000001a0: ec82 d43c 78ea 1dbb b287 cebb 3893 de3c
000001b0: a9cc c53b 876b fdbc 1fbd 1e3b 840b 80bc
000001c0: 8630 f5bc 1468 b7bc 39b5 983c 0ced e43c
000001d0: fd00 fabc 8fc7 1bbd 52fb d7bc 4b97 0f3d
000001e0: bdd5 dfbc cced 21bc b01f d83c 6e9f 373c
000001f0: 409f 01bc 5cd9 c7ba 130a d03c 2893 2bbd
00000200: 6f6e d0bc e1f8 b7bc f3af 213d d205 2abc
00000210: 6b07 1e3d fafc 613c 7ec5 35bc fe4f cd3c
00000220: eb74 613c 16b5 393d 2181 0d3c 29ac b3bc
00000230: b3ac 0bbd c3b3 24bc 5e11 1e3d b70b f13c
00000240: 4fb7 153c 19c9 993c c1b3 61bb d7ee 393c
00000250: dacd 75bc 66b7 2abb 2217 7c3c 98a5 0a3d
00000260: 575b 073d 570b 84bc 6222 953b 7205 a0bc
00000270: 3b46 bdba 690c c43c a8f8 13bc f706 1abc
00000280: 2ee0 8b3c 3d03 3c3c 87d9 d03c c00d 61bd
00000290: 240a d93b f87a f3bc 4e3c 22bc cf42 243c
000002a0: 61a9 193d 8059 1abc 845f 053c 693b e9bc
000002b0: 80b4 9f3c c90b b53c d80b 49bc 6e5c 093d
000002c0: 65f5 cbbc 26cc f6ba d14b 923c 4a85 2c3a
000002d0: 21f5 83bc 7aaf 723c a3d8 4f3a 668c 123c
000002e0: e81f 153d f88a d53c a49e d33b b7a8 0dbd
000002f0: 40d8 0c3d 0da4 f43c e651 173c 17fa ef3c
00000300: 5472 03bd d600 b13c 8bff 6b3c cfd4 75bc
00000310: f07b df3c 66ba 943c 420d 903c 6db9 16bd
00000320: 60a4 7ebb 2591 c4bc f26b de3c fc41 f8bc
00000330: 4660 bd3c 062b 05bd 3f29 cdbc 6df5 debc
00000340: fbda f43c edd9 b13c 2766 bf3c 920c bd3c
00000350: e970 d8bc de10 8a3c f48f 6e3a 3f24 43bb
00000360: f44c 243d 2b64 323d 3ead e3bb c762 abbc
00000370: 86be d13b 48ba 8a3c db95 d8bb 214e 5e3c
00000380: a75e 6dbc 7b41 813c bf25 e23b c304 59bc
00000390: 8d6e 193d e705 88bb 4c39 f43c 3d7f 5d3c
000003a0: 3df3 473d f701 12bd 960b aabc c375 ecbc
000003b0: 3e04 08bc d86b 1d3d 0821 edbc e5af 5a3c
000003c0: 5a5a 4c3c 7341 74bc 01c5 013d 7db0 913c
000003d0: a955 9ebc 2981 3ebc 233d eabc aeb3 8c3c
000003e0: 0613 debc dbcd 62bb a23c 6a3c 2df4 18bd
000003f0: 9d15 223c c07c 76bc 0b79 723b c382 37bd
-0.0043295478 0.04623834 0.027237598 -0.031952735 -0.011196909 -0.020631503 -0.027430661 -0.0018555163
0.016377084 0.018164473 0.03238439 -0.024243407 -0.012106705 0.023817778 0.038623918 -0.039261818
-0.0063708546 0.013224415 0.015421555 -0.002427547 0.03792588 0.0059567504 -0.031683564 0.01133659
0.012474994 0.014196687 -0.0053887535 0.010607049 0.003573904 0.04282541 0.023542728 -0.04174787
-0.04778588 0.022618368 0.008338793 0.0015343241 0.01942675 -0.012444451 -0.0075765103 0.038446154
0.052791696 -0.010107006 -0.02434968 -4.648981e-05 0.020431347 0.042482287 0.0013239044 -0.029583044
-0.00037150978 -0.005463444 0.006513341 -0.027990052 -0.033020604 -0.00094875373 0.014812376 0.0070646387
0.037621062 -0.008172598 -0.036344927 -0.01813113 0.04486517 0.017672548 0.0079051675 -0.016063752
-0.021028528 -0.007824409 -0.008478954 -0.041226905 0.013534011 0.015854133 -0.011942293 0.03070817
0.0068766945 -0.0013292783 0.022103943 -0.02468659 -0.04497697 -0.016069457 0.0073517696 0.026772292
0.016358497 0.03343655 -0.014899371 0.051375154 -0.019712336 0.015516372 0.030491326 0.011766179
0.0034230114 0.013583033 -0.018458918 0.0036523663 -0.029248195 -0.005855319 -0.010692578 -0.008305645
-0.009981749 -0.015235941 -0.010021395 -0.03424722 -0.0023287425 0.017628862 0.031007748 0.03589467
0.025941335 -0.0024096053 -0.0063027972 0.027169809 0.0060363603 -0.030935062 0.0024221612 -0.015630491
-0.029930364 -0.022388496 0.018641101 0.027945064 -0.03051805 -0.03803211 -0.026364956 0.035056394
-0.027323598 -0.009883355 0.026382297 0.011207445 -0.007911503 -0.0015247273 0.025395429 -0.041888386
-0.025443284 -0.022457542 0.03947444 -0.010377364 0.038581293 0.0137932245 -0.011094449 0.025062557
0.013760786 0.045338713 0.008636744 -0.021932678 -0.034100246 -0.010052624 0.03859078 0.029424531
0.009137942 0.018772649 -0.0034439417 0.011348448 -0.015002692 -0.0026049255 0.015386375 0.03384933
0.033046093 -0.016118689 0.004551218 -0.019533847 -0.0014440486 0.023931699 -0.009031452 -0.009401075
0.01707467 0.011475381 0.02549435 -0.054944754 0.0066235233 -0.029721722 -0.009902073 0.010025694
0.037515048 -0.0094207525 0.0081404485 -0.028470712 0.019495249 0.022100346 -0.01227089 0.033535413
-0.024897287 -0.0018829152 0.017858418 0.0006581141 -0.016108098 0.014812345 0.0007928705 0.008944606
0.03640738 0.026067242 0.0064581204 -0.034584727 0.03438592 0.029863382 0.009235835 0.029294057
-0.032091454 0.021606844 0.014404188 -0.015004351 0.027280778 0.018155288 0.017584447 -0.03679793
-0.00388553 -0.023994992 0.027151082 -0.030304901 0.023117196 -0.032511733 -0.025044082 -0.027216638
0.029889574 0.02171036 0.02336414 0.023077283 -0.026421027 0.016853746 0.000910043 -0.0029776243
0.04011245 0.04355256 -0.0069481423 -0.020921124 0.006400886 0.016934529 -0.006609661 0.013568432
-0.014487899 0.015778294 0.0069014723 -0.013245764 0.037458945 -0.0041510942 0.029812478 0.0135191055
0.048815954 -0.035646405 -0.020757478 -0.028864747 -0.008301793 0.038432926 -0.028946415 0.013347601
0.012472713 -0.014908182 0.03168202 0.017784351 -0.019327955 -0.011627474 -0.028593605 0.017175522
-0.02710868 -0.0034607563 0.014296683 -0.03734224 0.009892848 -0.015044391 0.0036998417 -0.04480244
