FederatedLLM/Fine_tuning/my_fl_model/peft_2/adapter_model.bin (torch, 791378 bytes, 12 tensors)

base_model.model.gpt_neox.layers.0.attention.query_key_value.lora_A.weight f4 [16, 512]
0.025244564 -0.021747135 -0.042807274 -0.024149852 0.015463823 -0.014537101 0.0073353457 -7.382873e-05
0.033713963 -0.03647389 0.013854104 -0.032991093 -0.026061509 -0.026211826 0.041724578 0.046804562
0.027225494 0.02100898 -0.016530106 -0.040322974 0.022239571 -0.02538987 0.032224096 0.020778185
-0.028285211 0.0040702275 -0.014955455 0.010173572 0.010085879 0.03874066 -0.017125474 0.026815044
-0.032959294 -0.02266196 0.026546458 0.029711718 0.017982788 0.028025592 -0.034502555 -0.0028670044
0.022240829 -0.036466103 -0.014169258 -0.031654693 -0.019541565 0.0055282977 -0.03366371 0.046950456
0.024736894 0.024386078 -0.021511761 -0.048933104 0.030342495 -0.04321444 -0.03020445 -0.02398565
-0.016752755 0.0339945 0.007518008 -0.034660913 0.029457733 0.017844634 -0.0394454 0.01832077
0.01604784 -0.029972771 -0.02540098 0.011232929 0.02914104 -0.04390622 0.015743941 0.01141166
0.035262246 -0.013186954 0.013481002 0.034424894 -0.027995404 -0.018982824 -0.01760842 -0.034842268
0.027963456 0.005924969 -0.0075074863 0.02569906 -0.04372537 -0.000980992 -0.04052605 -0.0029961534
0.02164496 -0.016326325 -0.036804736 0.0106051555 -0.00045453134 -0.027866548 0.032817926 -0.010836008
0.027527211 0.01656035 -0.036981363 0.018162899 -0.009464766 0.011153495 0.026318347 0.009673396
-0.006643061 0.039132316 0.032210894 0.03543429 -0.025646938 -0.0027703345 0.0006947952 -0.038032055
-0.025768826 0.0030874356 0.016759988 0.039938424 -0.015811283 -0.010955529 -0.010508309 0.033090208
0.050059948 0.025296964 0.044632994 0.020924881 0.04040228 -0.002032125 0.025509458 -0.008603104
-0.031079007 0.014413636 0.008924175 -0.0016238311 0.03150972 -0.023650728 -0.02190928 -0.029743642
0.042791132 0.02089329 0.011895966 0.026247425 -0.012607688 0.03907342 -0.014230006 0.0066620586
0.030447615 0.01501399 -0.023276327 -0.018772531 -0.02756921 -0.043426283 0.024823265 -0.03341979
-0.027191045 -0.03224616 0.044103835 0.018695248 0.0432911 -0.012938558 -0.038163587 -0.03712591
0.022236167 0.024946455 0.030438008 0.016066095 -0.050730143 -0.019866662 -0.02788507 0.027732065
0.037702147 -0.040540174 0.026644602 0.014759789 -0.005637841 -0.025922373 0.0070820847 0.04456609
-0.021419328 -0.024219599 -0.0024675159 -0.0018044682 0.02436508 0.025243785 0.02610217 -0.009770638
0.021094458 0.015129245 -0.008097655 0.014158382 -0.032520264 -0.008117354 0.029881192 0.008521422
-0.009064925 0.034030188 0.00044805068 0.021020401 -0.035512514 0.012203611 -0.012725513 -0.004056078
-0.03179954 0.027993992 0.033091925 0.00638713 -0.028879594 0.029260807 0.0006958103 0.011685958
-0.006741306 0.04034603 0.023901565 0.010782144 -0.006295374 0.013924491 -0.033551876 0.028013546
-0.04220344 0.048694756 0.008842055 -0.008159975 0.017298238 -0.03462692 0.027442764 -0.031609528
-0.032889567 0.018840438 0.027866086 0.04206939 0.049954865 0.042137515 -0.0010526156 -0.0026371311
-0.0009750338 0.01994721 0.04468751 0.016730266 -0.018387152 0.04081708 0.015473057 0.00597568
0.041264214 -0.0032979439 0.018479578 -0.031657573 -0.006428588 0.018749014 0.0048142383 0.029132035
-0.00983742 0.014032479 0.028966751 -0.02873463 0.032561406 -0.012362062 -0.021608291 0.025719235
00000000: b0cd ce3c 0c27 b2bc ae56 2fbd e9d5 c5bc
00000010: fa5b 7d3c 052d 6ebc 575d f03b 7fd4 9ab8
00000020: a717 0a3d a565 15bd 53fc 623c ab21 07bd
00000030: f27e d5bc 2fba d6bc 64e7 2a3d 24b6 3f3d
00000040: 0008 df3c 061b ac3c 256a 87bc b429 25bd
00000050: c32f b63c 6bfe cfbc 6afd 033d 0337 aa3c
00000060: 63b6 e7bc 8b5f 853b ba07 75bc 0eaf 263c
00000070: 3e3f 253c 87ae 1e3d b94a 8cbc 39ab db3c
00000080: 5300 07bd 93a5 b9bc f577 d93c fd65 f33c
00000090: a450 933c ed95 e53c 8d52 0dbd 5ae4 3bbb
000000a0: 6632 b63c 7b5d 15bd 2d26 68bc 5aa8 01bd
000000b0: a215 a0bc b926 b53b f5e2 09bd 1f4f 403d
000000c0: 07a5 ca3c 50c5 c73c 6f39 b0bc 146e 48bd
000000d0: d390 f83c a001 31bd 536f f7bc 8e7d c4bc
000000e0: 133d 89bc d13d 0b3d 9f59 f63b 9af8 0dbd
000000f0: 5851 f13c e92e 923c 8091 21bd 7015 963c
00000100: c276 833c 7589 f5bc b715 d0bc 520a 383c
00000110: 31b9 ee3c 02d7 33bd 70f9 803c f9f7 3a3c
00000120: 256f 103d 180e 58bc 6cdf 5c3c 1e01 0d3d
00000130: 9e56 e5bc de81 9bbc 893f 90bc c4b6 0ebd
00000140: 9e13 e53c 3e26 c23b 5c01 f6bb d686 d23c
00000150: 6019 33bd a194 80ba a5fe 25bd 1d5b 44bb
00000160: c550 b13c c9be 85bc 90c0 16bd 3fc1 2d3c
00000170: 2a4e eeb9 6348 e4bc 176c 063d 8389 31bc
00000180: bf80 e13c 92a9 873c c579 17bd 5cca 943c
00000190: 1b12 1bbc 26bd 363c 9399 d73c 2a7d 1e3c
000001a0: 09ae d9bb 3549 203d 92ef 033d 8c23 113d
000001b0: 8719 d2bc 808e 35bb eb22 363a 80c7 1bbd
000001c0: 2519 d3bc 9356 4a3b 3e4c 893c 7996 233d
000001d0: aa86 81bc d27e 33bc 0b2b 2cbc 9989 073d
000001e0: a90b 4d3d 943b cf3c 16d1 363d a86a ab3c
000001f0: dc7c 253d 662d 05bb 36f9 d03c 09f4 0cbc
00000200: 6799 febc 2c27 6c3c b436 123c bbd6 d4ba
00000210: 5610 013d 2cbf c1bc 177b b3bc f0a8 f3bc
00000220: c145 2f3d 6828 ab3c 4ce7 423c d704 d73c
00000230: 7a90 4ebc 730b 203d f924 69bc 664d da3b
00000240: 476d f93c 3dfd 753c ffad bebc dac8 99bc
00000250: d3d8 e1bc c2df 31bd 295a cb3c 31e3 08bd
00000260: c1bf debc 8d14 04bd 39a6 343d c726 993c
00000270: 0252 313d 3ffc 53bc 6c51 1cbd 5711 18bd
00000280: 9f28 b63c 825c cc3c 2159 f93c 0b9d 833c
00000290: 69ca 4fbd 69bf a2bc 3b6f e4bc 5b2e e33c
000002a0: 916d 1a3d 740d 26bd c845 da3c 0bd3 713c
000002b0: a3bd b8bb 285b d4bc d510 e83b ef8a 363d
000002c0: 9677 afbc 2e68 c6bc 0cb6 21bb e883 ecba
000002d0: 4799 c73c 0ecc ce3c 38d4 d53c 0715 20bc
000002e0: 49ce ac3c a7e0 773c 07ac 04bc 8ff8 673c
000002f0: f833 05bd a6fe 04bc 67c9 f43c 6f9d 0b3c
00000300: 0d85 14bc 3d63 0b3d 58e8 ea39 fa32 ac3c
00000310: 9275 11bd a8f1 473c ac7e 50bc d9e8 84bb
00000320: 3c40 02bd a853 e53c 668b 073d 214b d13b
00000330: e694 ecbc 5cb4 ef3c 0a67 363a 7676 3f3c
00000340: 2ce6 dcbb e141 253d 37cd c33c 97a7 303c
00000350: 6d49 cebb 8c23 643c b16d 09bd aa7c e53c
00000360: 84dd 2cbd 2774 473d 44de 103c 6ab1 05bc
00000370: 09b5 8d3c f5d4 0dbd a6cf e03c fe78 01bd
00000380: 36b7 06bd 4357 9a3c 6b47 e43c f450 2c3d
00000390: 799d 4c3d 6398 2c3d ebf7 89ba b8d3 2cbb
000003a0: 6999 7fba 5568 a33c 400a 373d e90d 893c
000003b0: a7a0 96bc cf2f 273d b482 7d3c a3cf c33b
000003c0: aa04 293d 5122 58bb 7c62 973c 5fab 01bd
000003d0: e8a6 d2bb 8897 993c c2c0 9d3b 4ea6 ee3c
000003e0: 212d 21bc 7ce8 653c ae4b ed3c e364 ebbc
000003f0: 1c5f 053d 3f8a 4abc df03 b1bc 25b1 d23c

base_model.model.gpt_neox.layers.0.attention.query_key_value.lora_B.weight f4 [1536, 16]
-0.0023018837 -0.0009574993 -0.0042718993 0.0011619924 0.0018460576 0.002490606 -0.00309551 -0.0009530128
-0.007098188 0.0019793697 -0.0014049936 0.0009794844 -0.0008222356 -0.0005490355 0.002064387 -0.010829944
-0.003564643 -0.0009456441 0.00025782202 0.0017674471 0.00083250675 -0.0011209633 -0.008440632 0.0004185025
-0.0062844595 -0.0015169452 -0.005441886 -0.00046674447 0.004509001 0.0046877973 0.0035030593 -0.0030503364
-0.0019301085 0.0030713377 0.00078343024 -0.0059027416 0.006748447 -7.386156e-05 0.0019804514 -0.00044145342
-0.007615979 -0.0006460046 0.0050587617 0.0019605972 0.010595718 0.0061218687 0.003894507 0.0010626891
-0.004608173 -0.0026265255 -0.002293109 0.00018254928 0.0054342146 -0.0042347703 0.002317864 -0.0021549843
0.0026481138 -0.0013953289 0.0031029077 0.0031000874 0.0057123955 -0.0039803423 0.0050626337 0.004049134
-0.0026370024 0.003144579 0.0014466706 -0.0013302533 0.0011021831 -0.00015796597 -2.204754e-05 -0.0043166783
0.0043361033 0.001729026 -0.0032353168 -0.0042955545 0.0053709126 0.0039767907 -0.0018836415 -0.0016549554
0.00028833013 -0.0062962174 0.00017891372 -0.0003420341 -0.0022741216 0.00092717505 0.0023122458 -0.008160348
0.00024205644 -0.002165942 -0.0018402816 -0.0017009984 0.0069115995 0.002634182 -0.0025053378 -0.0030492824
-0.0027643943 -0.001574047 0.0054563885 -0.0028563356 -0.009652232 -0.004702439 -2.44664e-05 -0.0014899055
-0.0014906162 -0.0035528268 0.0008731547 -0.0003943726 0.0019098709 -0.0021698708 0.0015537101 -0.0022645835
0.00036540543 -0.0015129794 -0.004471207 -0.004448135 0.0054223076 0.005241409 -0.0006286581 0.00015928317
-0.0049433457 -0.0025823123 -0.006014622 -0.0023357717 -0.004281582 -0.008735647 0.0012829896 -0.0017560495
0.0035165285 -0.0018516988 -0.0019584731 -0.00635413 0.0024395064 -0.00010650017 -0.0059387404 -0.0026359328
-0.0019605178 0.000404184 -0.0019851867 0.00095910794 -0.004459816 -0.00079677766 0.0021691138 -0.0043699504
0.0045023435 -0.0028743292 -0.0039594583 0.0027621642 0.0014864098 0.00084907014 0.003818707 -0.0011827317
-0.0065467414 -0.0025292505 -0.0033935613 0.0046936995 -0.0006427641 -0.0025630412 0.0036249373 0.0010456084
0.0030763405 0.0040816097 0.0011220016 0.002305655 -0.006471199 0.0021355953 0.00238234 -0.00094460364
0.00092880847 -0.0019658236 -0.0047056056 -0.004515455 -0.0016570063 0.0008972723 0.0040984624 -0.0041068336
-0.0038840314 -0.0044798367 -0.00024650074 0.003392919 0.0033301353 0.0044231825 0.007293232 -0.0022338652
-0.0019604394 -0.0035759083 0.00081940123 0.0010689601 0.00056773337 -0.00335911 0.002673374 0.0011605197
0.003842489 0.008658816 -0.00018596475 -0.0015627119 -0.0032473982 -1.1745256e-05 -0.0021902462 -0.0019333321
-0.0015001168 0.0031078206 -0.0037348988 0.0084814485 0.0013229828 0.00429993 0.0015813891 -0.0022184413
1.01550595e-05 0.0013335767 -0.0011606655 0.0017595384 0.005039622 -0.0025379981 0.0038039354 0.003753552
0.0016108692 0.0024078658 -0.0027586694 -0.0017277373 -0.003709047 0.0017593069 -0.0017687237 0.00044222263
0.0024051506 0.0052974494 -0.0032793335 0.0029887746 0.0016845748 0.004259397 -0.002607813 0.0026138537
0.0009027514 0.0052264757 0.0026885408 0.0038199113 -0.0030011546 0.0062301764 -0.0015847837 0.0014104166
-0.0012574514 0.0031137052 -0.0015927614 -0.0025591895 -0.0028238755 0.002966887 -0.00082727225 -0.00032610807
0.0045084925 -0.0050884867 0.0003210332 0.0018777683 -0.0054550325 0.0071522268 -0.0048258975 0.0044712303
00000000: 33db 16bb b100 7bba 4afb 8bbb ff4d 983a
00000010: 6af7 f13a 6f39 233b 0ade 4abb 9bd3 79ba
00000020: eb97 e8bb 50b8 013b c327 b8ba 0b62 803a
00000030: 4c8b 57ba 26ed 0fba ab4a 073b 1470 31bc
00000040: c99c 69bb 1ae5 77ba 492c 8739 afa9 e73a
00000050: 953c 5a3a 49ed 92ba 944a 0abc 746a db39
00000060: deed cdbb 3cd4 c6ba d951 b2bb 62b5 f4b9
00000070: 3ec0 933b 189c 993b 9593 653b 27e8 47bb
00000080: b2fb fcba 7f48 493b 1d5f 4d3a c96b c1bb
00000090: 1422 dd3b 20e6 9ab8 76ca 013b e072 e7b9
000000a0: 768f f9bb a358 29ba f8c3 a53b 5d7d 003b
000000b0: aa99 2d3c f599 c83b fc3a 7f3b ee49 8b3a
000000c0: 2800 97bb c921 2cbb fc47 16bb b36a 3f39
000000d0: 7f11 b23b d4c3 8abb 4ee7 173b a33a 0dbb
000000e0: fa8b 2d3b 78e3 b6ba 275a 4b3b d62a 4b3b
000000f0: 0c2f bb3b 886d 82bb 73e4 a53b 99ae 843b
00000100: 8fd1 2cbb 4815 4e3b 369e bd3a e55b aeba
00000110: 2177 903a aba3 25b9 bbf2 b8b7 ec72 8dbb
00000120: df15 8e3b 7ca0 e23a 9c07 54bb b9c1 8cbb
00000130: 7bfe af3b bd4f 823b 85e4 f6ba 17eb d8ba
00000140: 042b 9739 8050 cebb c99a 3b39 0a53 b3b9
00000150: 6e09 15bb aa0d 733a 0c89 173b fbb2 05bc
00000160: 88d0 7d39 7af2 0dbb 9b35 f1ba 09f4 deba
00000170: b37a e23b 3ea2 2c3b 9830 24bb 78d6 47bb
00000180: d72a 35bb 4150 ceba 81cb b23b 5c31 3bbb
00000190: 6524 1ebc eb16 9abb 323d cdb7 ef48 c3ba
000001a0: c860 c3ba 8bd6 68bb 6ce4 643a cbc3 ceb9
000001b0: a254 fa3a 6434 0ebb dca5 cb3a 6869 14bb
000001c0: e393 bf39 2a4f c6ba 3483 92bb a9c1 91bb
000001d0: 9dad b13b 20c0 ab3b 88cc 24ba 4005 2739
000001e0: cafb a1bb 033c 29bb 4e16 c5bb bf13 19bb
000001f0: 834c 8cbb f61f 0fbc fd29 a83a 3e2b e6ba
00000200: 8f75 663b b4b4 f2ba ba59 00bb 4e36 d0bb
00000210: 20e0 1f3b d858 dfb8 c499 c2bb 9dbf 2cbb
00000220: 087c 00bb a8e8 d339 e819 02bb a56c 7b3a
00000230: a623 92bb d8de 50ba b127 0e3b cd31 8fbb
00000240: 6588 933b 3e5f 3cbb 58be 81bb 6d05 353b
00000250: a3d3 c23a 2294 5e3a 4643 7a3b e405 9bba
00000260: 0c86 d6bb c8c1 25bb 8366 5ebb 9bcd 993b
00000270: 2b7f 28ba b2f8 27bb 5b90 6d3b cc0c 893a
00000280: 6e9c 493b 06bf 853b 2010 933a 791a 173b
00000290: 5a0c d4bb 58f5 0b3b 0821 1c3b 479f 77ba
000002a0: 487b 733a 0cd5 00bb 7b31 9abb 62f6 93bb
000002b0: e82f d9ba ed36 6b3a 654c 863b 9e92 86bb
000002c0: 3c8b 7ebb 98cb 92bb c53c 81b9 bc5b 5e3b
000002d0: 663e 5a3b 58f0 903b 10fc ee3b 0a66 12bb
000002e0: b77a 00bb c959 6abb 16cd 563a 591c 8c3a
000002f0: f1d3 143a 8424 5cbb c633 2f3b 941c 983a
00000300: 45d2 7b3b b5dd 0d3c 88ff 42b9 e9d3 ccba
00000310: 4dd2 54bb 7e0d 45b7 3c8a 0fbb dc67 fdba
00000320: 919f c4ba 94ac 4b3b 34c5 74bb c6f5 0a3c
00000330: f067 ad3a 6de6 8c3b 9d46 cf3a 4563 11bb
00000340: a65f 2a37 69cb ae3a 7921 98ba 50a0 e63a
00000350: 6a23 a53b 8b54 26bb 724b 793b 27fe 753b
00000360: cd23 d33a 49cd 1d3b cbca 34bb 3e75 e2ba
00000370: 7c13 73bb 8b98 e63a 85d4 e7ba 1eda e739
00000380: bb9f 1d3b 3a96 ad3b 16ea 56bb 51df 433b
00000390: f3cc dc3a 6992 8b3b d8e7 2abb 304d 2b3b
000003a0: 9fa6 6c3a db42 ab3b 3b32 303b 7a57 7a3b
000003b0: 05af 44bb 8226 cc3b 84b8 cfba badd b83a
000003c0: 11d1 a4ba 4e0f 4c3b 34c4 d0ba 13b8 27bb
000003d0: c510 39bb 1b70 423b 4ddd 58ba 7cf9 aab9
000003e0: fabb 933b 52bd a6bb 5950 a839 731f f63a
000003f0: 21c0 b2bb 3a5d ea3b 9022 9ebb 6683 923b

base_model.model.gpt_neox.layers.1.attention.query_key_value.lora_A.weight f4 [16, 512]
-0.0005493514 -0.022331778 0.032781165 -0.034927323 -0.02661672 -0.014736887 -0.023842808 -0.0040573464
0.026561948 0.023828695 -0.026635736 -0.03166361 -0.00045467084 -0.015416013 0.03136311 0.0031613237
-0.026754472 -0.013236426 -0.042931583 -0.0033608729 -0.04309917 0.041437037 0.0295574 0.0065338723
0.011065165 -0.010453946 0.012503966 -0.0069784657 0.025691256 0.030698735 0.008781568 0.016084297
-0.0011670964 -0.0065525146 0.018873151 0.011085081 -0.030070245 0.028718598 -0.027641525 -0.033473127
-0.012002204 0.023629377 -0.027710797 -0.025601303 0.025595903 -0.042870823 -0.034049243 -0.005144967
-0.008412908 0.022868425 0.012482969 0.031270426 -0.021589637 0.00066774024 0.039781768 -0.021753322
-0.016540982 -0.020501472 -0.021381391 0.039885942 0.03179684 0.03585152 -0.020386042 -0.0175491
-0.014183066 -0.013937537 -0.015829021 0.024322877 0.041864794 -0.046942525 -0.015053782 -0.037680436
0.023532394 -0.028804552 -0.008013702 0.022179423 0.030878006 0.039758183 -0.03985101 -0.0076332544
0.028900828 0.0071808896 -0.00906665 -0.036285795 -0.02241097 -0.02095351 0.036688846 -0.031711638
0.015696814 0.030806758 -0.030474385 -0.027960582 -0.022848705 0.029011387 -0.049104635 -0.016640939
0.021833226 0.041659914 0.016548727 0.015786283 -0.014782217 0.0033740865 0.001422096 0.013606563
0.027373843 -0.002315747 -0.039122112 -0.027548006 0.021615166 0.013724162 0.014467067 -0.039459817
0.020806346 0.041669335 0.0049091 -0.030383583 0.017501354 -0.029802676 0.005675149 -0.04674667
-0.041503765 -0.0170711 7.1935387e-06 -0.03373122 -0.010584281 0.026726866 0.012339974 0.030593567
0.004714424 0.025877384 -0.01203979 -0.037420273 -0.007200377 0.040991656 -0.031487767 -0.03215248
-0.00019451932 -0.03961501 0.032567654 0.00472067 0.0149900215 -0.030254517 0.047873545 0.006488743
-0.014822426 0.012475344 -0.027917111 0.030122634 0.01923311 -0.027497493 0.020643042 0.025667882
0.026480978 0.008477936 0.010630981 0.037570275 -0.0035760915 -0.0063204193 0.011758475 0.030881518
-0.018772904 -0.029202225 -0.010519822 0.0285208 0.015189367 0.012349993 0.0025341013 -0.0018042893
0.023522696 0.038334616 -0.016797757 0.022515252 -0.019368265 0.013060185 0.035811793 -0.017071119
0.031872623 -0.005052677 0.041792918 0.005764202 0.00093091466 -0.025646143 -0.006069554 -0.037609417
0.034104295 -0.031463586 0.029028956 0.0027898604 -0.0031327568 -0.012304151 -0.03085678 -0.0012812271
-0.028922595 -0.012830582 0.03878835 -0.012629895 0.05147006 -0.0044043562 -0.020741085 -0.028824124
0.02769974 0.013194174 -0.016530039 -0.011726624 -0.0048668263 -0.034029067 -0.015867762 0.008238753
-0.028672025 0.03350072 0.04049914 0.0071603283 -0.00838336 0.03147411 0.009565306 -0.0244356
0.038446654 0.0065658237 0.026735004 -0.02949228 0.010390142 0.0056585367 -0.01762812 -0.02936883
-0.004419488 -0.0030104218 0.0025386116 -0.0437121 -0.0438857 0.0066690394 0.0071637896 -0.0326981
0.030178832 -0.02013029 0.037078816 0.008325821 -0.009348116 -0.031008039 0.015044284 -0.047471967
0.033677936 0.0006668233 0.0207555 -0.008961177 -0.030847874 -0.032924056 0.022887504 -0.035592772
-0.021461569 0.040320314 -0.04006072 -0.0259853 0.02992154 0.03347443 0.0008379623 0.012466895
00000000: 5902 10ba 22f1 b6bc 8b45 063d f40f 0fbd
00000010: 4f0b dabc fc72 71bc fe51 c3bc 7df3 84bb
00000020: 7198 d93c 6534 c33c 3033 dabc b4b1 01bd
00000030: e360 eeb9 7293 7cbc 9b76 003d 362e 4f3b
00000040: 322c dbbc 98dd 58bc 07d9 2fbd 1742 5cbb
00000050: c188 30bd e2b9 293d 5c22 f23c 181a d63b
00000060: aa4a 353c 0747 2bbc 6fdd 4c3c 9dab e4bb
00000070: 7876 d23c ea7b fb3c 91e0 0f3c 37c3 833c
00000080: 42f9 98ba 7ab6 d6bb de9b 9a3c 339e 353c
00000090: e055 f6bc 4443 eb3c 7b70 e2bc 1e1b 09bd
000000a0: e4a4 44bc 6592 c13c c101 e3bc d3b9 d1bc
000000b0: 80ae d13c 5199 2fbd 3877 0bbd 1d97 a8bb
000000c0: 4bd6 09bc 9056 bb3c 5e85 4c3c 6b15 003d
000000d0: c0dc b0bc 4a0b 2f3a 35f2 223d 0634 b2bc
000000e0: f480 87bc b4f2 a7bc 0728 afbc 715f 233d
000000f0: 673d 023d 0bd9 123d a100 a7bc 21c3 8fbc
00000100: 1760 68bc 445a 64bc ddab 81bc c540 c73c
00000110: 6b7a 2b3d ce46 40bd 23a4 76bc cd56 1abd
00000120: 02c7 c03c 86f7 ebbc e74b 03bc 9fb1 b53c
00000130: dff3 fc3c 7ad9 223d d03a 23bd 6120 fabb
00000140: 6ec1 ec3c ab4d eb3b 498c 14bc 6aa0 14bd
00000150: 3697 b7bc b2a6 abbc 0b47 163d 10e4 01bd
00000160: 9b96 803c 745e fc3c 6ba5 f9bc 970d e5bc
00000170: 352d bbbc 4aa9 ed3c f121 49bd 9452 88bc
00000180: 98db b23c 96a3 2a3d 3291 873c 3c52 813c
00000190: 1d31 72bc c71f 5d3b a065 ba3a 10ee 5e3c
000001a0: 1c3f e03c cac3 17bb 823e 20bd 5bac e1bc
000001b0: 4a12 b13c 4fdb 603c 4707 6d3c 9ea0 21bd
000001c0: 1272 aa3c 77ad 2a3d 84dc a03b fee6 f8bc
000001d0: 005f 8f3c be24 f4bc 9af6 b93b 7079 3fbd
000001e0: daff 29bd b1d8 8bbc 0760 f136 bf29 0abd
000001f0: b169 2dbc 4df2 da3c 9a2d 4a3c 5c9f fa3c
00000200: 747b 9a3b cffc d33c 8a42 45bc 0046 19bd
00000210: 24f1 ebbb dee6 273d 51f9 00bd 52b2 03bd
00000220: e2f7 4bb9 5943 22bd a965 053d daaf 9a3b
00000230: b598 753c 52d8 f7bc 0d17 443d 859f d43b
00000240: c3d9 72bc 6365 4c3c 6db2 e4bc bec3 f63c
00000250: c18e 9d3c 6c42 e1bc 991b a93c 7345 d23c
00000260: a3ee d83c 0ae7 0a3c 912d 2e3c 4ae3 193d
00000270: dc5c 6abb 851b cfbb 9ea6 403c 3dfb fc3c
00000280: a2c9 99bc 8139 efbc 555b 2cbc 74a4 e93c
00000290: d3dc 783c a057 4a3c 2a13 263b e77d ecba
000002a0: abb2 c03c c204 1d3d 739b 89bc e871 b83c
000002b0: 32aa 9ebc 63fa 553c 63af 123d bbd8 8bbc
000002c0: de8c 023d ed90 a5bb 0d2f 2b3d a2e1 bc3b
000002d0: a008 743a dc17 d2bc 1ce3 c6bb 550c 1abd
000002e0: f2b0 0b3d f6df 00bd 22ce ed3c 17d6 363b
000002f0: f04e 4dbb 5a97 49bc 5cc7 fcbc d9ee a7ba
00000300: 14ef ecbc 5d37 52bc 88e0 1e3d 9eed 4ebc
00000310: 45d2 523d 6b52 90bb 35e9 a9bc 9220 ecbc
00000320: 91ea e23c 602c 583c 016a 87bc 0721 40bc
00000330: e679 9fbb 1062 0bbd 1cfd 81bc d6fb 063c
00000340: 98e1 eabc 0d38 093d 6de2 253d 30a1 ea3b
00000350: 5c5a 09bc ffea 003d cdb7 1c3c 2b2d c8bc
00000360: 3d7a 1d3d 1f26 d73b 5e03 db3c cb99 f1bc
00000370: 6a3b 2a3c 3f6b b93b d968 90bc e796 f0bc
00000380: 5ad1 90bb 7f4a 45bb d65e 263b 750b 33bd
00000390: 7ec1 33bd f587 da3b 39be ea3b 71ee 05bd
000003a0: 9939 f73c 47e8 a4bc f5df 173d 0669 083c
000003b0: d728 19bc 9204 febc 4d7c 763c f771 42bd
000003c0: e0f1 093d c1cd 2e3a 7007 aa3c e7d1 12bc
000003d0: aeb4 fcbc 60db 06bd 937e bb3c bac9 11bd
000003e0: 2cd0 afbc ea26 253d b616 24bd 20df d4bc
000003f0: 041e f53c 7c1c 093d b3aa 5b3a f341 4c3c

base_model.model.gpt_neox.layers.1.attention.query_key_value.lora_B.weight f4 [1536, 16]
0.0006052682 -0.00018830235 0.0015093437 -0.0030849525 0.0054502967 -0.0010492612 0.0020904331 0.0013821237
-0.0009550415 0.00038610346 -0.0011951384 0.0005905596 0.0024788515 -0.0019280359 0.002064718 -0.0005812436
-0.004003707 -0.0010056988 -0.0070915665 0.004933851 -0.00172298 -0.0012728245 0.008083636 0.0009365164
-0.0032758287 -0.004633604 1.1491835e-05 0.00077861507 0.0058284034 -0.0013803606 0.0020175555 0.0024705494
0.0032853058 0.0026454318 0.00021108356 0.0011497337 0.0015584289 0.00281053 0.00037436336 -0.0019273742
-0.005049068 0.00053089205 0.0005787442 -0.0012424918 -0.004812137 -0.0010505195 0.0005532821 -0.0017823909
0.004835666 0.0024074353 0.0021871356 -0.0027181946 -0.0031317265 0.004450028 0.0025072237 -7.164218e-05
0.012063347 0.0029275771 -0.0015738088 -0.0053132754 -0.0008003498 -0.0050895526 -0.0072879763 0.0017957202
0.0041286275 -0.002812153 0.00080050534 7.706188e-05 0.00078973704 -0.002399816 -0.002120024 -0.005472452
-0.00084348314 0.0018137209 0.0037839382 0.0053839204 4.5650577e-05 -0.00034690343 -0.0014239285 0.0041782977
-0.0028097993 -0.0035328188 0.0016980399 0.007755964 -0.001590262 0.0011504984 -0.0009561249 0.0042836796
0.004374432 0.0038269532 -0.0012034965 0.0038767303 -0.00013233 -0.0017142029 0.0014477726 0.0007358252
-0.0027397114 -0.0010473534 -0.0009635919 -0.0054235994 0.00050415087 -5.4806507e-05 0.0038236661 -0.005559179
-8.7068925e-05 -0.00078273093 0.0004427479 0.00013956228 -0.0036149144 -0.0026766174 -0.0055514625 0.003345041
0.0008665535 0.0034609216 -0.00043435575 0.0017793311 0.0037572572 -0.0035808836 0.002537201 -0.0015892796
-0.002123814 -0.0020469395 0.00033677393 -0.0019629658 0.0032270346 0.0011625353 0.0048538186 0.00037564078
0.0051641366 -0.000696618 -0.0016468987 0.0023580429 0.0032512054 -0.004789341 -0.001905011 0.003553235
-0.0031044981 -0.0026822244 0.0011335163 0.0038578238 0.0058340067 0.0006664467 0.002051552 0.0007925206
-0.000589645 -0.0013140443 -0.00038450572 0.0029439402 0.003842004 -0.0043198355 -0.0034160775 -0.0015234768
-0.0041833054 0.00014093223 0.007770635 -0.000872901 -0.0061002667 0.004457881 0.0065323217 0.0006688962
0.0042381603 -0.0036028656 0.0038038443 0.00012531973 0.0012647272 0.0012442307 -0.0025737276 -3.99952e-05
-0.0007127044 0.0043001967 -0.0048225387 -0.0031655617 0.0046913438 -0.004326439 0.003179228 0.0025557086
0.0036163004 0.004957952 -0.0060647367 -0.0026917586 -0.0025028656 -0.0044849026 -0.0020568848 0.006733207
0.0017954326 -0.0049890582 0.0002568453 0.0034780777 -0.00044388694 0.0015442774 0.0061096903 0.005985411
0.0018128159 0.005811001 -0.0019675104 0.00028930447 0.0040715546 -0.00082650926 0.0006132023 0.0041159634
0.00093476044 0.006897765 -0.0032813698 -0.002371584 0.00039838217 0.00048718794 -0.0028154755 0.00013875666
-0.0002230264 -0.0023255548 0.0039066696 -0.002085013 0.004108092 -0.00077396136 0.0047935485 0.0016999206
0.00027440113 0.003674824 -0.004023696 0.0025067043 -0.0031922448 -0.0033995674 -0.0026318883 0.00017504841
0.0065242066 -0.0008500906 -0.0015038723 -0.0010486935 -0.0021638111 0.0021595552 0.00015529338 0.0003310728
-0.0014350549 -0.008348933 0.011164986 -0.0058975886 0.0034336282 -0.0028844236 0.0040624207 0.0031613666
-0.005381345 -0.006536553 0.0034918226 -0.003720941 0.0035344101 -0.0028768717 0.004423329 -0.0023883777
-0.00027593 -0.004086767 -0.0033597443 0.0014907096 -0.0049168617 0.0044186306 -0.0024763984 0.003238581
00000000: dcaa 1e3a 0773 45b9 2cd5 c53a ea2c 4abb
00000010: 6798 b23b 5d87 89ba a6ff 083b 6028 b53a
00000020: c05b 7aba ee6d ca39 31a6 9cba c9cf 1a3a
00000030: 3a74 223b 26b6 fcba 3850 073b 995e 18ba
00000040: 8731 83bb a7d1 83ba 5f60 e8bb 24ac a13b
00000050: 9ed5 e1ba e7d4 a6ba 3a71 043c 8d80 753a
00000060: 49af 56bb 7dd5 97bb 0ecd 4037 f91b 4c3a
00000070: 31fc be3b 37ed b4ba f738 043b f1e8 213b
00000080: 494e 573b fb5e 2d3b 5056 5d39 a9b2 963a
00000090: 3244 cc3a de30 383b 3346 c439 f29f fcba
000000a0: a772 a5bb 902b 0b3a deb6 173a 1bdb a2ba
000000b0: 22af 9dbb 96b1 89ba 220a 113a 1d9f e9ba
000000c0: 8274 9e3b 10c6 1d3b 0c56 0f3b bd23 32bb
000000d0: a73d 4dbb 8ad1 913b 3c50 243b 9a3e 96b8
000000e0: 58a5 453c 98dc 3f3b 4348 ceba fc1a aebb
000000f0: 91ce 51ba 43c6 a6bb facf eebb 5f5e eb3a
00000100: 7049 873b 194c 38bb 01d9 513a 489c a138
00000110: 5b06 4f3a 3b46 1dbb 1af0 0abb 4152 b3bb
00000120: 321d 5dba 60ba ed3a f3fb 773b 996b b03b
00000130: ef78 3f38 97e0 b5b9 1da3 baba 1aea 883b
00000140: 9c24 38bb dd86 67bb c490 de3a be25 fe3b
00000150: 5770 d0ba 52cc 963a 75a4 7aba 1c5e 8c3b
00000160: 6557 8f3b 9fcd 7a3b a4be 9dba be10 7e3b
00000170: 10c2 0ab9 1baf e0ba 30c3 bd3a 65e4 403a
00000180: bb8c 33bb 5947 89ba 8f99 7cba 73b8 b1bb
00000190: fe28 043a 0ae0 65b8 7996 7a3b c629 b6bb
000001a0: c698 b6b8 2f30 4dba 9e20 e839 7757 1239
000001b0: 33e8 6cbb 306a 2fbb 0be9 b5bb 7a38 5b3b
000001c0: 6c29 633a a1d0 623b 3eba e3b9 7238 e93a
000001d0: 513c 763b 42ad 6abb 2b47 263b 604f d0ba
000001e0: b02f 0bbb f225 06bb 0891 b039 1aa5 00bb
000001f0: a87c 533b 3660 983a c80c 9f3b a7f1 c439
00000200: eb37 a93b 3e9d 36ba c0dc d7ba 6589 1a3b
00000210: 2d12 553b e7ef 9cbb 90b1 f9ba 64dd 683b
00000220: d674 4bbb 42c8 2fbb 7f92 943a 8bd3 7c3b
00000230: 322b bf3b 7bb4 2e3a 5573 063b 28c1 4f3a
00000240: 6892 1aba 033c acba 7c97 c9b9 1fef 403b
00000250: 22ca 7b3b 688d 8dbb 45e0 5fbb 66af c7ba
00000260: 1c14 89bb 35c7 1339 d0a0 fe3b 65d3 64ba
00000270: bfe4 c7bb 6b13 923b 160d d63b dd58 2f3a
00000280: 44e0 8a3b 0e1e 6cbb eb49 793b 4268 0339
00000290: 34c5 a53a 7415 a33a fcab 28bb 85c0 27b8
000002a0: c8d4 3aba aae8 8c3b 6306 9ebb 5075 4fbb
000002b0: d8b9 993b cdc4 8dbb 985a 503b ad7d 273b
000002c0: 74ff 6c3b 5176 a23b b3ba c6bb 3768 30bb
000002d0: 1e07 24bb 17f6 92bb cdcc 06bb 3ca2 dc3b
000002e0: b954 eb3a 417b a3bb 31a9 8639 76f0 633b
000002f0: 7fb9 e8b9 5a69 ca3a cc33 c83b 4421 c43b
00000300: 029c ed3a 366a be3b 59f1 00bb caad 9739
00000310: ad6a 853b 19aa 58ba 4fbf 203a 34df 863b
00000320: b60a 753a a606 e23b 400c 57bb 946c 1bbb
00000330: f3dd d039 426d ff39 d783 38bb 357f 1139
00000340: 32dc 69b9 5668 18bb 8503 803b b7a4 08bb
00000350: 2c9d 863b abe3 4aba 3313 9d3b dfcf de3a
00000360: 7fdd 8f39 51d5 703b 35d9 83bb 8547 243b
00000370: fb34 51bb 47cb 5ebb c27b 2cbb 338d 3739
00000380: 03c9 d53b 9dd8 5eba 951d c5ba 5174 89ba
00000390: bace 0dbb 5387 0d3b 40d6 2239 d793 ad39
000003a0: 7418 bcba f7c9 08bc 58ed 363c 8f40 c1bb
000003b0: b906 613b 9908 3dbb 0e1e 853b ee2e 4f3b
000003c0: fe55 b0bb 9530 d6bb 10d7 643b 08db 73bb
000003d0: 90a1 673b e689 3cbb 93f1 903b 5486 1cbb
000003e0: b3aa 90b9 49ea 85bb 282f 5cbb ea63 c33a
000003f0: a01d a1bb 29ca 903b 124b 22bb 5f3e 543b

base_model.model.gpt_neox.layers.2.attention.query_key_value.lora_A.weight f4 [16, 512]
0.039486803 -0.038022693 -0.00736571 0.019925762 -0.045172304 -0.027996114 -0.016933125 0.000380719
0.03778269 -0.0020483576 0.0054133586 0.013227156 0.03267888 -0.0154393315 -0.020638384 0.030409887
0.024120076 -0.038256805 -0.048966743 0.028447354 -0.006398498 0.018522175 -0.0014830473 0.038205747
0.036424883 0.031405758 0.0015604458 0.02586006 -0.0075956364 0.0071477676 0.03414012 -0.0042069843
-0.01161242 -0.007417334 0.0006282884 0.0496726 0.023483383 -0.03981474 0.0032370186 0.017538467
0.044715405 -0.012146556 0.015590887 -0.026128065 0.0027781122 0.03150368 0.006595241 -0.023700608
0.011675315 -0.015010154 -0.02988565 0.016136609 0.04285179 -0.03358166 0.030617906 0.026137754
0.04741275 0.030941103 -0.031172408 -0.009372425 0.0162623 0.009937153 0.039972883 0.0021371546
-0.04412707 -0.047855083 -0.036306683 -0.025652247 -0.013593431 0.041266173 -0.012651525 0.033695817
0.0006530558 6.4730426e-05 -0.0060204808 0.024088766 -0.018107122 0.003653585 -0.03427753 0.023088671
-0.013358844 -0.005544057 -0.015732046 0.023532752 -0.040751815 0.04012577 -0.01655643 0.027965626
0.02878635 0.0025368615 -0.025716133 -0.0067543364 -0.008936903 0.0011515104 -0.023975266 -0.031271588
0.040345233 0.00039331923 0.03730201 0.0028008835 0.03168707 0.022183046 0.04394418 0.041096825
-0.027722932 0.026326764 -0.00040724257 -0.039706778 0.036351223 -0.04274528 0.023614494 0.022750532
-0.0037432218 0.01686069 -0.04297082 0.028645506 -0.022978494 -0.01152357 -0.03308192 0.03191576
-0.02823797 -0.03112879 0.018998295 0.029036604 0.036078192 0.007410291 0.04097227 -0.035377778
0.040634602 0.0115648825 -0.011250888 -0.03646157 -0.0037674473 -0.010689209 0.016334403 -0.012991154
0.017690096 -0.015194814 -0.006778559 -0.021759888 0.045581605 -0.0049352613 -0.03173675 0.042857178
-0.001661342 0.014049542 -0.017077154 0.020384623 -0.0098404065 0.032828517 -0.028419586 -0.019330459
0.0030848403 -0.017115567 0.032155372 0.024788512 -0.008439844 0.006953339 -0.0040059546 0.033225723
0.03388267 0.03264297 0.048684474 0.039889064 0.019467808 -0.027332384 -0.016334359 0.02458745
0.014144203 0.0021596192 -0.03502496 0.030477181 0.02658898 0.034626804 0.018589724 0.037123356
-0.040551536 -0.02362688 0.03381895 -0.035263173 -0.02518489 -0.006038063 -0.012940785 0.01173252
-0.022811808 -0.014250106 -0.025716873 0.00014913976 0.014779925 -0.031148316 -0.026673999 -0.020534234
0.003943526 -0.019581106 0.026298983 -0.026872626 -0.026103694 0.024130939 0.009707786 0.017476942
0.013555384 0.018267991 0.035758562 0.024209335 -0.024080973 -0.040183067 -0.015582022 0.013968462
-0.010465638 0.011957667 -0.014282173 -0.036348414 0.030177256 0.0070545147 -0.03277645 -0.014841565
-0.02574699 0.028747145 0.017241923 -0.028652955 -0.006465994 -0.022798894 0.029614944 0.03617302
-0.016522203 -0.014602696 0.020704038 0.005409385 0.030044718 -0.029767381 0.0039326483 0.031876296
0.0061816955 -0.020206843 -0.011911382 0.026064007 -0.017869985 0.01841595 0.03020991 0.027754044
-0.0011879833 -0.045432005 0.0012361484 0.027886923 0.0055587566 -0.0044801724 -0.03963836 0.041488074
0.007801346 0.035885766 0.034225993 0.029141985 -0.01677809 0.046113078 0.018751303 -0.010304789
00000000: eabc 213d afbd 1bbd 0e5c f1bb 5a3b a33c
00000010: 9806 39bd 1b58 e5bc 56b7 8abc 3d9b c739
00000020: 06c2 1a3d bd3d 06bb 8b62 b13b b7b6 583c
00000030: 4ada 053d 40f5 7cbc d411 a9bc 281e f93c
00000040: 7797 c53c 2bb3 1cbd 5a91 48bd 6d0a e93c
00000050: 7eaa d1bb d1bb 973c cf62 c2ba a17d 1c3d
00000060: 4232 153d 53a3 003d df87 cc3a 7ad8 d33c
00000070: d1e4 f8bb d237 ea3b 83d6 0b3d beda 89bb
00000080: 0542 3ebc 1b0d f3bb b9b3 243a 7f75 4b3d
00000090: 3960 c03c c814 23bd 2924 543b d5ac 8f3c
000000a0: 8027 373d 5902 47bc eb70 7f3c 860a d6bc
000000b0: fd10 363b 010a 013d e41c d83b c727 c2bc
000000c0: d249 3f3c 26ed 75bc c0d2 f4bc ec30 843c
000000d0: 5c85 2f3d ec8c 09bd 67d2 fa3c d81e d63c
000000e0: df33 423d 3278 fd3c 475d ffbc cd8e 19bc
000000f0: 8438 853c 71cf 223c 9bba 233d 810f 0c3b
00000100: 96be 34bd b103 44bd 51b6 14bd a924 d2bc
00000110: fbb6 5ebc b806 293d 5848 4fbc a004 0a3d
00000120: d531 2b3a e2bf 8738 7447 c5bb ce55 c53c
00000130: 6355 94bc fc70 6f3b 9866 0cbd 7424 bd3c
00000140: 0edf 5abc ecaa b5bb 7ee0 80bc c2c7 c03c
00000150: 60eb 26bd eb5a 243d 5aa1 87bc 2b18 e53c
00000160: 5ad1 eb3c 7941 263b a4aa d2bc 7b53 ddbb
00000170: 176c 12bc 47ee 963a c767 c4bc a316 00bd
00000180: 0b41 253d 6a36 ce39 fec9 183d 078f 373b
00000190: 4dca 013d 38b9 b53c d0fe 333d 2555 283d
000001a0: 341b e3bc 3aab d73c 2c83 d5b9 93a3 22bd
000001b0: 05e5 143d ad15 2fbd 2f73 c13c 535f ba3c
000001c0: d750 75bb 6e1f 8a3c 2c02 30bd fba9 ea3c
000001d0: 653d bcbc 5bcd 3cbc e880 07bd 1aba 023d
000001e0: 5153 e7bc ce01 ffbc 50a2 9b3c 2cde ed3c
000001f0: bac6 133d 07d2 f23b 8ad2 273d 4ae8 10bd
00000200: 7870 263d a27a 3d3c a555 38bc ba58 15bd
00000210: 47e7 76bb cb21 2fbc bacf 853c d9d8 54bc
00000220: d2ea 903c abf3 78bc ad1e debb cb41 b2bc
00000230: c7b3 3a3d f9b7 a1bb 65fe 01bd 028b 2f3d
00000240: 63c1 d9ba 0d30 663c 63e5 8bbc a7fd a63c
00000250: a839 21bc 3277 063d 31d0 e8bc e95a 9ebc
00000260: 082b 4a3b f235 8cbc 5ab5 033d 4711 cb3c
00000270: 4547 0abc d6d8 e33b 6244 83bb b217 083d
00000280: 8ec8 0a3d a3b4 053d 5f69 473d b762 233d
00000290: f47a 9f3c 2ae8 dfbc a2cf 85bc 9f6b c93c
000002a0: 16bd 673c 6688 0d3b 5576 0fbd 48ab f93c
000002b0: 22d1 d93c d6d4 0d3d 7a49 983c a90e 183d
000002c0: 5e19 26bd 298d c1bc bd85 0a3d 1e70 10bd
000002d0: 8b50 cebc f2da c5bb 9605 54bc c139 403c
000002e0: d4df babc 4779 69bc 31ac d2bc 6662 1c39
000002f0: 8027 723c c12a ffbc 6e83 dabc 6937 a8bc
00000300: b238 813b 8e68 a0bc f770 d73c fb23 dcbc
00000310: 6ad7 d5bc 3fae c53c 680d 1f3c ce2b 8f3c
00000320: 6717 5e3c c1a6 953c 9277 123d a852 c63c
00000330: 7645 c5bc 0097 24bd bd4b 7fbc fadb 643c
00000340: 1178 2bbc 17ea 433c c6ff 69bc 13e2 14bd
00000350: 4b36 f73c 8f29 e73b 9940 06bd 092a 73bc
00000360: 5aeb d2bc 227f eb3c ef3e 8d3c 9ab9 eabc
00000370: b0e0 d3bb bfc4 babc 0a9b f23c 292a 143d
00000380: 9259 87bc 2540 6fbc 849b a93c 3641 b13b
00000390: 5720 f63c b9da f3bc 72dd 803b b890 023d
000003a0: d28f ca3b d288 a5bc f527 43bc 2f84 d53c
000003b0: 1364 92bc 0cdd 963c c67a f73c 735c e33c
000003c0: 1bb6 9bba e916 3abd 4206 a23a 1e73 e43c
000003d0: 3b26 b63b 69ce 92bb d55b 22bd 66ef 293d
000003e0: 6fa2 ff3b f4fc 123d 8e30 0c3d 2cbb ee3c
000003f0: 3472 89bc 11e1 3c3d 559c 993c 6bd5 28bc

base_model.model.gpt_neox.layers.2.attention.query_key_value.lora_B.weight f4 [1536, 16]
-0.0014192564 -0.0009353828 0.0020147157 -0.0023690804 -0.0066631073 0.0028282045 -0.0050734947 0.00038137758
0.0015954768 0.0051627997 0.0012370197 0.0029248865 -0.005660457 0.0015588441 -0.0017291855 -0.00090300635
-0.005099769 0.0024092037 -0.0013489149 4.422622e-05 0.005574076 -0.0017025757 -0.0064764046 -0.0043408233
0.0031765108 0.00534215 0.005265102 0.0031616183 0.0016225696 0.0011547019 -0.0048892875 -0.0074894154
7.3636504e-05 0.005764048 0.000763562 -0.0034963954 0.0014560439 -0.0029431654 0.0013765664 -0.0026828998
-0.0026352168 0.002835173 -0.006777145 -0.0015657368 0.0016008299 0.0029851738 -0.005479485 -0.000334403
0.00019586735 -0.00258547 -0.0027492433 -0.001880941 0.005832249 -0.0024985026 0.0076091066 -0.0026829003
0.0067153475 -0.0018910529 0.0025050065 0.0027126404 -0.0042018285 -0.002918998 0.0008249952 0.00048873085
0.002939024 0.0015700816 0.0011847639 -0.000120973484 0.0009401393 -0.003213097 0.0034539024 0.003338888
-0.0017503733 0.0015938275 -0.0008312967 -0.001873016 0.0028135835 -0.005779899 1.1496782e-05 0.0010744277
-0.000108365704 -0.0017981976 0.0033858921 0.0016936306 0.003751507 -0.00011360868 0.0017436994 -0.0004206866
-0.0015859073 0.00069067854 0.0013241158 -0.0027807017 -0.002373926 -0.003909017 -0.002492875 0.0014992636
0.009235407 0.002284075 0.0036466054 -0.0037503983 -0.0012596572 -0.0008554848 -0.0052419584 -0.0014742257
0.0003236861 0.0035831267 0.0010481585 -0.00061065465 -0.0027146696 0.008971292 0.001890406 0.0010426408
0.0032559927 0.0011965345 0.0059435335 0.00065802736 0.0016319957 -0.0025005648 -0.004068958 -0.00023050784
-0.0069894865 -0.0075078583 0.000338762 0.0013238551 0.003087879 -0.0031947652 0.0010805564 0.0018898557
-0.0040312936 0.0012807555 -0.00391202 -0.006321845 -0.0029231072 0.0024005545 0.0024529328 0.0010240986
0.0012438116 0.005424323 0.0004764457 0.004536755 -0.0039609633 -0.0036101807 0.006862698 0.002114585
-0.00021966184 -0.0051585166 0.0005912647 -0.0020373545 0.0007289785 0.0021082864 0.0022401947 -0.0059710513
-0.003926661 -0.00346386 -0.006858061 -0.0050395606 0.0006665998 -0.008468235 0.0015991363 0.0070993532
-0.00094661856 -0.004300475 0.0012768027 0.0027600948 -3.2164076e-05 -0.0015383684 -0.004113659 -0.0037354685
0.0010739863 -0.006033683 0.009076122 0.0023838903 -0.0024239623 -0.00056618126 -0.00403265 0.00452154
-0.003134515 0.0031300727 0.0043302844 -0.0009864508 0.0012682924 0.0060247523 -0.0013419589 -0.0045052734
0.0001898934 0.00090711226 -0.0043397816 0.0012774685 0.0007482158 0.006354845 0.0018898858 -0.0035568594
0.0007821018 0.0031330837 0.0033763421 -0.004963204 -0.0042603607 0.0027140728 0.008353363 -0.005392323
-0.00054942485 -0.007142713 0.00029707362 0.0010702438 -0.008533828 0.006995143 0.004087713 -0.0073404578
-0.0029783193 0.0017288653 0.0010310852 -0.0045241225 -0.004877645 -0.0015752945 0.0030534465 -0.004019444
0.002111904 -1.3943211e-05 0.005443502 -5.522524e-06 -0.0050658192 0.005987744 -0.0013484834 -0.0028757227
0.0022510155 -0.0016576952 0.0036870695 0.0025656915 -0.007805659 0.0027303465 0.0022222348 0.0006312992
0.002013966 -0.0026313358 0.0011594547 0.0009514735 -0.0055321814 0.0039647305 -0.0020988889 -0.003407578
0.0050113774 -0.003409445 0.00036751875 0.003936783 -0.0024482731 -0.0008723011 -0.005279474 0.003056279
-0.0017777837 0.00048513393 -0.0048563154 0.0049179965 0.005468432 -0.00074087444 -0.0028438885 -0.007676254
00000000: 5806 baba 7a34 75ba 5209 043b 9342 1bbb
00000010: 3256 dabb 6659 393b 8f3f a6bb a2f3 c739
00000020: 511f d13a b42c a93b 7e23 a23a 74af 3f3b
00000030: 5b7b b9bb 2152 cc3a d6a5 e2ba bbb7 6cba
00000040: f71b a7bb bbe3 1d3b 13ce b0ba 8b7f 3938
00000050: bda6 b63b f628 dfba 0538 d4bb 773d 8ebb
00000060: 022d 503b 340d af3b e086 ac3b 2733 4f3b
00000070: 67ac d43a 5e59 973a 5136 a0bb c569 f5bb
00000080: 4c6d 9a38 57e0 bc3b c729 483a c823 65bb
00000090: bad8 be3a 1fe2 40bb e76d b43a 97d3 2fbb
000000a0: 9ab3 2cbb 4fce 393b d012 debb 6939 cdba
000000b0: f0d2 d13a e8a2 433b 408d b3bb d052 afb9
000000c0: be61 4d39 fd70 29bb a62c 34bb e889 f6ba
000000d0: 731c bf3b ebbd 23bb d055 f93b 99d3 2fbb
000000e0: 6b0c dc3b 35dd f7ba 092b 243b 8ec6 313b
000000f0: 7eaf 89bb a94c 3fbb 7e44 583a 2c1e 003a
00000100: a49c 403b 32cb cd3a 144a 9b3a 25b3 fdb8
00000110: ae73 763a d392 52bb de5a 623b 3fd1 5a3b
00000120: c86c e5ba fae7 d03a 61eb 59ba fd7f f5ba
00000130: 1964 383b 4f65 bdbb 4de2 4037 d0d3 8c3a
00000140: 6542 e3b8 80b1 ebba d8e5 5d3b d0fc dd3a
00000150: d8db 753b 3241 eeb8 d88c e43a 9a8f dcb9
00000160: 38de cfba a70e 353a f48d ad3a 6f3c 36bb
00000170: df93 1bbb 3617 80bb 815f 23bb f082 c43a
00000180: 1b50 173c 6bb0 153b e3fb 6e3b 3ec9 75bb
00000190: 151b a5ba 9d42 60ba bcc4 abbb ce3a c1ba
000001a0: 6ab4 a939 e4d2 6a3b 5d62 893a 5714 20ba
000001b0: 99e8 31bb 53fc 123c 80c7 f73a 38a9 883a
000001c0: 7e62 553b 09d5 9c3a f9c1 c23b 787f 2c3a
000001d0: b0e8 d53a 84e0 23bb e554 85bb 7ab4 71b9
000001e0: 1008 e5bb 7b04 f6bb de9b b139 3585 ad3a
000001f0: 035e 4a3b 445f 51bb 75a1 8d3a 09b5 f73a
00000200: f118 84bb 06df a73a 6730 80bb 7b27 cfbb
00000210: 9a91 3fbb 9f52 1d3b 62c1 203b 0c3b 863a
00000220: 6407 a33a 85be b13b 76cb f939 0fa9 943b
00000230: f8ca 81bb c898 6cbb 7ce0 e03b d994 0a3b
00000240: 0755 66b9 c608 a9bb 1aff 1a3a 2385 05bb
00000250: eb18 3f3a 2d2b 0a3b 3bd0 123b cfa8 c3bb
00000260: 38ab 80bb ed01 63bb 96b9 e0bb e622 a5bb
00000270: c1be 2e3a 5abe 0abc 1c9a d13a b1a1 e83b
00000280: 7f26 78ba 00eb 8cbb 645a a73a b5e2 343b
00000290: eae7 06b8 14a3 c9ba dfcb 86bb c3ce 74bb
000002a0: 00c5 8c3a 34b6 c5bb 04b4 143c 0b3b 1c3b
000002b0: 57db 1ebb c86b 14ba 5224 84bb 6d29 943b
000002c0: 6f6c 4dbb e821 4d3b 0fe5 8d3b cc4b 81ba
000002d0: d53c a63a 496b c53b abe4 afba f9a0 93bb
000002e0: 1f1e 4739 46cb 6d3a ba34 8ebb bb70 a73a
000002f0: ea23 443a 4e3c d03b 0bb6 f73a 331a 69bb
00000300: f705 4d3a 6c54 4d3b 9f45 5d3b 5fa2 a2bb
00000310: 7f9a 8bbb 96de 313b 8bdc 083c 15b2 b0bb
00000320: 4707 10ba 6b0d eabb 8cc0 9b39 6c47 8c3a
00000330: 78d1 0bbc 8337 e53b 39f2 853b 3988 f0bb
00000340: e82f 43bb 189b e23a 7a25 873a 173f 94bb
00000350: a7d4 9fbb 1d7a ceba 551c 483b 8ab5 83bb
00000360: df67 0a3b a3ed 69b7 685f b23b 1f4e b9b6
00000370: 2cff a5bb d634 c43b 98bf b0ba 9f76 3cbb
00000380: c685 133b 0547 d9ba c3a2 713b 2925 283b
00000390: 9dc6 ffbb 9def 323b eaa2 113b c67d 253a
000003a0: befc 033b 7d72 2cbb d8f8 973a 4e6c 793a
000003b0: 4d47 b5bb 92ea 813b 838d 09bb ac51 5fbb
000003c0: 7b36 a43b ff70 5fbb 88af c039 2100 813b
000003d0: 3573 20bb 23ab 64ba 70ff acbb da4b 483b
000003e0: 8604 e9ba 9359 fe39 ba21 9fbb 2527 a13b
000003f0: 8830 b33b 3e37 42ba 8860 3abb 1689 fbbb

base_model.model.gpt_neox.layers.3.attention.query_key_value.lora_A.weight f4 [16, 512]
-0.028920824 0.039055955 0.008296581 -0.021089658 0.020361831 -0.008946011 -0.031544518 0.040792838
0.017336136 -0.006603428 0.03728402 0.014240076 -0.031176945 -0.024056729 0.034934625 0.023002286
-0.01330405 -0.019673517 -0.041497488 -0.021939779 0.021433163 -0.042093944 0.03253836 0.013849204
-0.012734653 0.005058881 -0.026345097 -0.032764316 0.019957606 0.024302086 0.038224414 -0.009369973
0.028001025 0.024947194 -0.014797603 -0.006379275 0.033025615 0.0045332173 -0.04246765 -0.013839456
-0.010202037 0.0017337913 -0.031407077 0.011659883 -0.034678616 -0.010926734 0.029887708 0.02263857
-0.040625315 0.02150443 0.03206745 -0.024694016 0.026906788 -0.032767143 0.0007605226 -0.02245023
0.001221314 0.039197598 -0.035299134 0.0252451 0.004924462 -0.018714804 -0.033829942 -0.0010967113
0.025923152 -0.011106798 0.02627106 -0.010866083 0.0079864105 -0.020591063 -0.01978135 -0.0020065587
0.039638862 -0.008097674 -0.0001903151 -0.016635861 -0.003519936 0.018833263 0.002299228 -0.00549939
-0.011036418 0.025251355 -0.03601065 -0.04110875 -0.026379066 -0.029524164 -0.013817132 -0.007176893
0.0041819583 0.037793484 0.029375711 -0.010789777 0.03715697 -0.03693961 -0.023901666 0.022155356
0.012761108 0.026456272 -0.039051514 0.046248604 -0.009152678 0.017890224 0.007098548 0.027402036
0.0040571615 0.019265506 -0.030525817 -0.008111595 -0.012817296 0.034317724 0.020275816 -0.018375283
0.045422982 -0.03553632 -0.040443785 -0.019057553 -0.04650987 0.011616019 -0.035337083 0.034328815
0.038356006 0.04209474 0.028651476 0.017451787 -0.04034493 -0.045674365 -0.015571646 -0.034499645
0.026166284 0.038857497 0.0011864364 0.041199103 -0.03439743 -0.041885223 -0.041742064 0.024349803
0.030858787 -0.030158877 0.0028689534 -0.006333655 0.04210982 0.022414524 0.013402567 0.021746324
0.036976505 0.028797043 0.010391965 -0.022369303 -0.023818888 -0.016696341 0.026197836 -0.0037280452
0.041071218 -0.033476796 -0.020404587 -0.029019158 -0.007931915 -0.010497548 -0.0010455337 -0.016054723
0.018565 0.039812405 -0.02048942 0.015531941 0.03814388 0.027483279 0.014272301 0.04184816
-0.030210821 -0.04195144 0.02750771 1.5854834e-05 -0.03232676 0.006837554 -0.006039294 -0.045327995
0.01376318 0.039864227 -0.0010350358 0.030501682 0.013554482 0.013024291 -0.03869583 -0.017118735
0.039148923 0.020933071 -0.03707296 0.034508567 -0.015646392 -0.02476512 0.03670375 -0.036135763
0.03534987 0.00088398636 0.028941719 0.026220415 -0.04314061 0.017340248 0.043007817 0.0063001956
0.015712945 -0.02386434 0.013531924 -0.040678944 0.0060139936 -0.031117503 -0.019401683 -0.010087635
0.033520974 0.0065783383 0.028116116 0.00075000414 0.040617544 -0.01675797 -0.04077133 0.0058833854
-0.022355013 -0.01850836 0.040224373 0.0011920199 0.014355303 0.02793057 0.027082635 -0.040654387
-0.023957081 0.04324161 0.017323105 -0.010355812 -0.042820673 -0.0077628056 0.026194997 -0.0096359225
-0.017088577 -0.007677288 -0.033792645 0.0043054894 0.001304517 -0.022596588 -0.010218793 0.04278605
-0.0041652624 0.012805561 0.039961953 0.026866436 0.02920513 0.02552006 -0.036049362 -0.013748663
0.0075492742 -0.013691648 0.02786607 -0.020739023 -0.00401527 -0.03533208 -0.035785124 -0.00096464803
00000000: 5deb ecbc 23f9 1f3d 62ee 073c 38c4 acbc
00000010: dbcd a63c 4a92 12bc d334 01bd 6416 273d
00000020: 8304 8e3c 9261 d8bb 21b7 183d 354f 693c
00000030: cb66 ffbc 9e12 c5bc 9c17 0f3d 4a6f bc3c
00000040: 3bf9 59bc 5b2a a1bc 45f9 29bd 0dbb b3bc
00000050: 9a94 af3c b36a 2cbd f246 053d c6e7 623c
00000060: 02a5 50bc f8c4 a53b acd1 d7bc e033 06bd
00000070: 227e a33c 2b15 c73c 3491 1c3d 8484 19bc
00000080: 6862 e53c 0f5e cc3c a571 72bc 3d09 d1bb
00000090: de45 073d 628b 943b 8ff2 2dbd e3be 62bc
000000a0: 7226 27bc 6240 e33a b5a4 00bd 1809 3f3c
000000b0: 2a0b 0ebd 0b06 33bc 11d7 f43c 8674 b93c
000000c0: bb66 26bd 0f2a b03c 2959 033d 1b4b cabc
000000d0: a06b dc3c d736 06bd cf5d 473a 8be9 b7bc
000000e0: 7f14 a03a a98d 203d d395 10bd d0ce ce3c
000000f0: 625d a13b ca4f 99bc 4491 0abd 86bf 8fba
00000100: ca5c d43c 4af9 35bc 6836 d73c a807 32bc
00000110: 6fd9 023c 97ae a8bc 7f0c a2bc 7880 03bb
00000120: 5c5c 223d 1bac 04bc 528f 47b9 ee47 88bc
00000130: baae 66bb 3748 9a3c a5ae 163b 3a34 b4bb
00000140: 18d2 34bc eedb ce3c e77f 13bd a661 28bd
00000150: e918 d8bc a9dc f1bc 4161 62bc 242c ebbb
00000160: cf08 893b 57cd 1a3d 55a5 f03c 9bc7 30bc
00000170: e831 183d fd4d 17bd 6dcd c3bc 267f b53c
00000180: f713 513c d3ba d83c 7bf4 1fbd 2d6f 3d3d
00000190: 1df5 15bc 858e 923c f09a e83b 3c7a e03c
000001a0: f0f1 843b b2d2 9d3c 4711 fabc 7fe6 04bc
000001b0: a3ff 51bc be90 0c3d 7819 a63c c387 96bc
000001c0: 730d 3a3d 888e 11bd 62a8 25bd 961e 9cbc
000001d0: 2281 3ebd 1d51 3e3c 9ebd 10bd 5f9c 0c3d
000001e0: 301b 1d3d 896b 2c3d 80b6 ea3c 0df7 8e3c
000001f0: ba40 25bd 0b15 3bbd 3820 7fbc 804f 0dbd
00000200: ad5a d63c 0a29 1f3d 3382 9b3a 64c0 283d
00000210: 52e4 0cbd d78f 2bbd baf9 2abd 3d79 c73c
00000220: 91cb fc3c c00f f7bc 0d05 3c3b 8d8a cfbb
00000230: 597b 2c3d aa9e b73c 7196 5b3c 5925 b23c
00000240: ad74 173d c7e7 eb3c 0f43 2a3c d43f b7bc
00000250: d41f c3bc c4c6 88bc d89c d63c 3852 74bb
00000260: 4b3a 283d f71e 09bd 8527 a7bc 96b9 edbc
00000270: ddf4 01bc e8fd 2bbc 4a0a 89ba 3285 83bc
00000280: a015 983c 5512 233d 6ed9 a7bc af79 7e3c
00000290: c23c 1c3d 9d24 e13c 5fd6 693c fa68 2b3d
000002a0: af7c f7bc 46d5 2bbd d957 e13c ffff 8437
000002b0: 1169 04bd 8f0d e03b 45e5 c5bb d9a9 39bd
000002c0: f67e 613c ac48 233d 0aaa 87ba aade f93c
000002d0: 9e13 5e3c d663 553c 857f 1ebd 973c 8cbc
000002e0: 9f5a 203d d57b ab3c d1d9 17bd db58 0d3d
000002f0: dd2c 80bc 39e0 cabc ac56 163d 1803 14bd
00000300: 06cb 103d 52bb 673a 2f17 ed3c 32cc d63c
00000310: 35b4 30bd 230d 8e3c f728 303d df71 ce3b
00000320: 6fb8 803c 267f c3bc 01b5 5d3c f79e 26bd
00000330: 0911 c53b 22ea febc 47f0 9ebc 9c46 25bc
00000340: 4a4d 093d 1a8f d73b c553 e63c ed9b 443a
00000350: 955e 263d 0348 89bc d7ff 26bd 6ac9 c03b
00000360: dc21 b7bc d89e 97bc 50c2 243d 8d3d 9c3a
00000370: 8132 6b3c a7ce e43c 67dc dd3c 3785 26bd
00000380: a441 c4bc 1d1e 313d 2fe9 8d3c 6cab 29bc
00000390: bb64 2fbd 225f febb e496 d63c fddf 1dbc
000003a0: 58fd 8bbc c291 fbbb 286a 0abd 1015 8d3b
000003b0: 54fc aa3a 7b1c b9bc b96c 27bc 6d40 2f3d
000003c0: c17c 88bb 6ace 513c 25af 233d 0017 dc3c
000003d0: 993f ef3c 720f d13c 7fa8 13bd 1242 61bc
000003e0: e75f f73b ef52 60bc 6247 e43c e2e4 a9bc
000003f0: 8792 83bb 5fb8 10bd 6c93 12bd 6fe0 7cba
