FederatedLLM/FT_lite/my_fl_model_dp/peft_10/adapter_model.bin (torch, 791378 bytes, 12 tensors)

base_model.model.gpt_neox.layers.0.attention.query_key_value.lora_A.weight f4 [16, 512]
0	0xbc66bc53	-0.014082986
1	0xbcdd5c2c	-0.02702149
2	0x3cda86b2	0.026675556
3	0x3b6be225	0.0035992947
4	0x3d34c859	0.04413638
5	0x3bb69395	0.0055717924
6	0xbc1453a4	-0.009053145
7	0x3c646704	0.013940576
8	0x3d4a0297	0.049318876
9	0xbd178961	-0.03699625
10	0x3d0c44c4	0.034245268
11	0x3d1281fb	0.03576849
12	0xbcaffd44	-0.021483071
13	0xbd743808	-0.059623748
14	0x3c2d54fe	0.010579346
15	0xbd190a2a	-0.03736321
16	0xbb0953d6	-0.002095451
17	0x3cefe982	0.02928615
18	0xbd3e86b9	-0.0465152
19	0xbc77da5a	-0.015127743
20	0x3c99bf91	0.018768104
21	0xbcb9c305	-0.022676
22	0xbcddad24	-0.027060099
23	0x3c0a9cd0	0.008460239
24	0x3d23e245	0.04001071
25	0x3ca0b406	0.019617092
26	0x3c8e4c46	0.017370354
27	0xbc39431e	-0.011307506
28	0x3ca22a94	0.019795693
29	0x3cc5a8d5	0.024128357
30	0x3c70e71f	0.014703541
31	0x3d23c0e4	0.039978877
32	0xbcc29cb9	-0.023756372
33	0xbc6579b8	-0.014006071
34	0x3bc0fdd9	0.005889636
35	0x3c8c853b	0.017153373
36	0x3ce848f5	0.028355101
37	0x3c895cb1	0.016767832
38	0x3cce3ee2	0.02517647
39	0xbd3225a4	-0.04349293
40	0x3c8caf46	0.01717342
41	0xbd0ad463	-0.033893954
42	0x3c6ac25d	0.014328566
43	0xbcd44f6c	-0.025916778
44	0xbc75124d	-0.0149579765
45	0x3d16ee04	0.036848083
46	0x3ca402da	0.020020891
47	0xbc8388f0	-0.016056508
48	0xbd63d4be	-0.05562281
49	0x3b7cbcc3	0.003856466
50	0x3c27567c	0.010213491
51	0x3c873af4	0.016507603
52	0xbcdd7e71	-0.027037831
53	0x3c9e9587	0.01935841
54	0x3d157088	0.03648427
55	0xbc535473	-0.012898552
56	0x3d03f580	0.03221655
57	0xbc0c47e2	-0.00856206
58	0x3cceeea0	0.02526027
59	0x3d728f15	0.059218485
60	0x3d2044a1	0.03912795
61	0xba64d0b8	-0.0008728611
62	0xbbab84a2	-0.005234317
63	0xbd12b04a	-0.035812654
64	0xbd2ad827	-0.041710045
65	0xbb52d553	-0.0032170608
66	0x3d22fc93	0.039791655
67	0x3cfa717e	0.030571695
68	0xbb27ae48	-0.0025586057
69	0x3c851f53	0.016250288
70	0xbd23c3c1	-0.039981607
71	0xbc465285	-0.012104635
72	0x3cae74b6	0.021295886
73	0x3b728eaf	0.0037011316
74	0xbd015f43	-0.03158499
75	0xba5c9011	-0.00084138016
76	0x3caa8e39	0.02081977
77	0xbc9f90b3	-0.019478178
78	0xbbd4ef32	-0.006498241
79	0xbbb103d5	-0.005402068
80	0xbce007d4	-0.027347483
81	0xbcb9b79c	-0.02267056
82	0x3cca6dc2	0.02471054
83	0x3ce8a02b	0.028396687
84	0x3c9ecd7e	0.019385096
85	0xbc04d519	-0.008107447
86	0xbd0412fa	-0.03224466
87	0x3bc5c86a	0.006035854
88	0x3d07c7e9	0.033149634
89	0x3a136b77	0.00056236185
90	0x3d4dbb31	0.050227348
91	0xbcd14298	-0.02554445
92	0x3b994030	0.004676841
93	0xbcfbd36d	-0.030740464
94	0xbace9259	-0.0015760168
95	0xbd32db68	-0.043666273
96	0x3d2b6866	0.04184761
97	0xbc22f3b7	-0.009945801
98	0xba5a8a73	-0.00083366706
99	0xbd154ae6	-0.03644838
100	0x3c01c46c	0.007920366
101	0x3d11da75	0.035608727
102	0xbd120b4d	-0.03565531
103	0x3cee9bd8	0.029127046
104	0xbcd1fbde	-0.025632795
105	0xbd1c163b	-0.038107138
106	0xbc8b70b2	-0.01702151
107	0x3d178846	0.036995195
108	0x3d0df2f6	0.034655534
109	0xbc9c41d5	-0.01907436
110	0xbd324033	-0.043518256
111	0xbd09ca79	-0.03364036
112	0xbbf18afc	-0.0073713046
113	0xbb13d5d3	-0.002255787
114	0x3bc6224d	0.0060465694
115	0xbc407a27	-0.011747873
116	0xbbc08eff	-0.0058764215
117	0xbb7b14b2	-0.0038311896
118	0xbc0092e8	-0.007847525
119	0xbc6f2252	-0.014595585
120	0xba12fba5	-0.0005606956
121	0xbb2ec631	-0.0026668424
122	0x3cfe9758	0.031078026
123	0xbc6393ed	-0.013890249
124	0xbc9ec2b5	-0.019379953
125	0x3c5c7bd1	0.0134572545
126	0x3c78c99a	0.015184784
127	0xbcd8a14e	-0.026444104
128	0xbcab7af4	-0.020932652
129	0x3d018632	0.03162212
130	0x3cdfd3f1	0.027322741
131	0x3c6c0166	0.01440463
132	0xbb58c0f1	-0.0033073986
133	0x3d1aaa9c	0.037760362
134	0xbd003e8e	-0.031309657
135	0xbd0c51a9	-0.034257565
136	0xbc4f2bcf	-0.012644722
137	0xbcdd64f6	-0.027025681
138	0x3d2351fa	0.0398731
139	0x3cef96ce	0.029246714
140	0x3c1dd50a	0.009633312
141	0x3c44f2ea	0.012020806
142	0xbcb6d647	-0.022318972
143	0x3d38d010	0.0451203
144	0xbd286d53	-0.041119885
145	0xbc394e83	-0.011310223
146	0xbd18a56c	-0.037267134
147	0x3c19623e	0.009361802
148	0xbc0e037b	-0.008667822
149	0x3cdfc5af	0.027315943
150	0x3d1699a3	0.036767613
151	0x3d1511fa	0.036394097
152	0x3b7299a5	0.0037017849
153	0xbcc92bc6	-0.024557006
154	0xbd1eabe2	-0.03873814
155	0xbcee36e5	-0.02907891
156	0x3d0b00b3	0.033936214
157	0x3c86f2d0	0.016473204
158	0x3ce5e844	0.028064854
159	0xbcd17b0c	-0.025571369
160	0x3bbc0dcc	0.0057389494
161	0x3bf71f59	0.0075415787
162	0xbcfb7851	-0.03069702
163	0x3c74ec7e	0.014948962
164	0x3c3dfbec	0.011595707
165	0xbd27152a	-0.040791668
166	0x3d24a7d3	0.040199112
167	0xbd2556dd	-0.040366042
168	0x3cf28925	0.029606411
169	0xbcf1cecd	-0.029517556
170	0x3d1a0f59	0.037612293
171	0xbcb51dbe	-0.022108909
172	0xbcffc9c1	-0.031224133
173	0x3ce60484	0.028078325
174	0x3d360dbe	0.0444467
175	0x3d0c25bf	0.034215685
176	0x3d25a3a3	0.04043926
177	0xbd15866f	-0.03650516
178	0x3d0acb06	0.033885024
179	0x3ce5aa6c	0.028035365
180	0x3c32c2fd	0.010910747
181	0xbd1a54b7	-0.037678447
182	0x3c636f23	0.0138814775
183	0xbc13272e	-0.008981509
184	0xbd2b271f	-0.041785356
185	0xbc3053c6	-0.010762161
186	0x3c84fe57	0.01623456
187	0xbc83d458	-0.016092464
188	0x3c888a0a	0.016667385
189	0xbd3eae81	-0.04655314
190	0x3c622cc6	0.01380462
191	0xbd1c220b	-0.038118403
192	0x3bec5c9f	0.0072131897
193	0xbc0be06b	-0.008537392
194	0x3cb00b04	0.021489628
195	0x3d65e9b1	0.05613107
196	0xbd404ee2	-0.04695023
197	0xbb0c116f	-0.0021372696
198	0x3cebf894	0.028805055
199	0xbca1a340	-0.019731164
200	0x3c264b43	0.01014978
201	0x3d08f1e5	0.033433814
202	0xba97d88d	-0.0011584923
203	0xbc1d0b26	-0.0095851775
204	0xbc5685cc	-0.013093423
205	0x3c5d20a3	0.013496551
206	0xbc668ca6	-0.014071619
207	0x3ce3ee13	0.027823484
208	0xbd294a5b	-0.041330677
209	0x3d14eba5	0.03635754
210	0xbb95039b	-0.004547549
211	0xb9d865df	-0.0004127463
212	0xbc540933	-0.012941646
213	0xbd0784fe	-0.033085816
214	0xbcda5efe	-0.026656624
215	0xbd081d33	-0.03323097
216	0xbd4ebb42	-0.05047155
217	0x3c9dea1a	0.019276667
218	0x3d0de1e9	0.034639273
219	0xbc0d5562	-0.008626314
220	0x3c19dc42	0.009390892
221	0xbd15e1ee	-0.036592416
222	0xbd67a34f	-0.056552228
223	0xbd562d27	-0.052289154
224	0xbc9842f8	-0.01858662
225	0xbd2e9705	-0.042624492
226	0xbba9da4c	-0.0051834937
227	0x3b9f368e	0.0048587983
228	0x3c2795b1	0.01022856
229	0xbc628f8d	-0.0138281705
230	0x3cc13095	0.023582736
231	0x3d2dd3b8	0.04243824
232	0xbcefd519	-0.029276418
233	0x3d0eeb78	0.03489253
234	0x3ba1a7bc	0.0049333256
235	0xbd08a260	-0.033357978
236	0x3c63cd9a	0.013904
237	0x3d5fd4ef	0.05464643
238	0xbb267e3c	-0.0025404831
239	0x3d07adab	0.033124607
240	0xbaa614bd	-0.0012670975
241	0xbca8b5b0	-0.020594448
242	0xbd0211f0	-0.031755388
243	0x3cc72353	0.024308836
244	0x3d24349a	0.040089227
245	0x3d6bf134	0.057603076
246	0x3c88b949	0.016689913
247	0x3d19c90e	0.037545256
248	0x3b5523a6	0.0032522469
249	0xbcde70da	-0.027153421
250	0x3c3b8979	0.01144635
251	0x3d18930d	0.037249614
252	0x3bd5172a	0.0065030055
253	0x3c926f77	0.017875416
254	0xbcab6650	-0.02092281
255	0xbc453fff	-0.012039184

base_model.model.gpt_neox.layers.0.attention.query_key_value.lora_B.weight f4 [1536, 16]
0	0xbb830110	-0.0039979294
1	0xbaa0f00f	-0.0012278574
2	0xbbaedeb7	-0.0053366083
3	0xbb128ab6	-0.002236051
4	0x3c2b6aca	0.010462472
5	0xb9c7188a	-0.0003797452
6	0xbb0bafac	-0.0021314425
7	0x3b80ee17	0.0039346325
8	0xbba68ddb	-0.0050828285
9	0x3bc5cb48	0.006036196
10	0xbb3b445e	-0.0028574686
11	0x399ae060	0.0002954034
12	0xba5dc4fa	-0.0008459833
13	0xbb9db89b	-0.0048132665
14	0x3c0317f5	0.008001317
15	0x3b77737d	0.0037758045
16	0x3ba34cb1	0.0049835076
17	0xbbd7e28e	-0.0065882867
18	0x3ad14a8e	0.0015967654
19	0xbca55be4	-0.020185418
20	0xbb78a649	-0.003794091
21	0xbbcc08dc	-0.006226642
22	0xbb795487	-0.0038044767
23	0xb9751391	-0.0002337231
24	0xbaa78d34	-0.0012783171
25	0xbbd35072	-0.006448799
26	0x3bb35d95	0.0054738023
27	0xbc6daf33	-0.014507103
28	0x395e4b23	0.0002119956
29	0x3c249d89	0.010047325
30	0xbc2eaefe	-0.010661839
31	0x3ae6aa42	0.0017598348
32	0x3b9f8ecc	0.0048693176
33	0xbc3cca17	-0.011522791
34	0xbbc04e36	-0.0058686985
35	0x3c029d99	0.0079721445
36	0xbc1153b7	-0.008870057
37	0x3c9c80b9	0.019104348
38	0xbbbfffbb	-0.005859343
39	0xbc4eee45	-0.01263005
40	0x3c358e30	0.011081263
41	0xbc2acaf1	-0.010424362
42	0x3b95a136	0.004566337
43	0x3b672e73	0.0035275489
44	0x3b95bed5	0.004569868
45	0xbbe0a091	-0.0068550785
46	0xbb8700ab	-0.0041199527
47	0x3b259b87	0.0025269703
48	0xbb95e325	-0.004574197
49	0x3c0d01b9	0.008606368
50	0xbb4130f7	-0.0029478648
51	0xbc12ae51	-0.008952693
52	0x3b76b3f4	0.0037643882
53	0x3c33f55b	0.01098379
54	0x3b9e2487	0.0048261317
55	0x3c1e2930	0.009653375
56	0x3c1c1bf8	0.009528153
57	0xba4fe350	-0.00079302955
58	0x3bcb00d0	0.006195165
59	0xbb7ec745	-0.0038876098
60	0x3c305677	0.010762802
61	0xbbc48f58	-0.005998533
62	0xbbf0ab2c	-0.007344624
63	0x3c12a8f0	0.008951411
64	0x3b287a1c	0.0025707548
65	0xb990c1ca	-0.00027610204
66	0x3c26c505	0.010178809
67	0xbbc3a9cd	-0.0059711696
68	0x3c16282f	0.009164854
69	0xbb3f54eb	-0.0029194902
70	0xbbd38200	-0.006454706
71	0xbb9592e9	-0.004564632
72	0x3be294b7	0.006914701
73	0x3b875518	0.004130017
74	0xbc4afde4	-0.012389634
75	0xbb7f548b	-0.0038960304
76	0xbb30076b	-0.002685989
77	0x3c9e4742	0.019321088
78	0xbabef5a6	-0.0014569059
79	0xbb13f43a	-0.002257599
80	0xba607853	-0.00085628516
81	0xbb48b641	-0.003062621
82	0x3c098b98	0.008395098
83	0xbc5fab80	-0.013651729
84	0x3aea7f23	0.0017890673
85	0x3bd50689	0.006501023
86	0xbbfe076f	-0.007752351
87	0x3b97e7f2	0.0046358043
88	0xbb3deb31	-0.0028979296
89	0x3bd04d75	0.00635689
90	0x3ba7c6a5	0.005120116
91	0x3bbb9e94	0.005725691
92	0xbbef746a	-0.007307579
93	0xbbe784bf	-0.007065385
94	0xbb5fa4ee	-0.0034125405
95	0x3c7f2a6c	0.015574079
96	0xbb851007	-0.0040607485
97	0xbb864176	-0.004097159
98	0x3b607996	0.0034252158
99	0xbc8aea6b	-0.016957482
100	0xbbb2f49d	-0.005461289
101	0x3b2cd153	0.0026369884
102	0x3ba28bb7	0.004960503
103	0xbb25a7db	-0.0025277052
104	0xbb160673	-0.0022892028
105	0xbba51a35	-0.0050385245
106	0x3bd0284e	0.006352461
107	0xbba54db9	-0.0050446657
108	0xbaaea15e	-0.0013323238
109	0x3c738bdb	0.014864887
110	0x3ab481c0	0.0013771579
111	0x3b8ba9b2	0.0042621726
112	0x3b8a42fb	0.0042194105
113	0xbba8bdb0	-0.0051495656
114	0xbbfa654a	-0.007641469
115	0xbc5236bd	-0.012830433
116	0x3adfc085	0.0017070925
117	0xb99244a3	-0.00027898428
118	0xba35bc20	-0.0006932635
119	0xbc103e87	-0.00880397
120	0x3bea791a	0.0071555497
121	0x3c1d14c7	0.009587473
122	0x3cb1b77b	0.021693936
123	0x3b3c67e5	0.002874845
124	0xbc291e4b	-0.010322164
125	0x3a306cf6	0.00067301036
126	0xbb8c4c7d	-0.004281579
127	0x3aca3078	0.0015425822
128	0x3c0ed12f	0.008716865
129	0xbbe28e29	-0.0069139195
130	0x39c03e12	0.0003666734
131	0xba077331	-0.0005167006
132	0x3c8758a7	0.016521765
133	0xbcc7df7f	-0.024398563
134	0x3b04f37f	0.0020286737
135	0x3ad65cfe	0.0016354618
136	0xb939f7e3	-0.0001773532
137	0x3c899802	0.016796116
138	0xba5a76ba	-0.00083337317
139	0xbc245841	-0.010030807
140	0x3b949d4e	0.0045353537
141	0xbbefab65	-0.007314133
142	0x3c3f4cc9	0.011676022
143	0x3c18ca30	0.009325549
144	0xbbaad6cd	-0.0052135945
145	0xbc4ec50f	-0.012620225
146	0xbbf71650	-0.0075405017
147	0xbb2202a2	-0.0024720808
148	0x3c4b6127	0.0124133
149	0xba437dc5	-0.0007457401
150	0x3b6c0d8c	0.0036018817
151	0x3b3e207e	0.0029011066
152	0x3b8a0f1f	0.0042132284
153	0x3b203e54	0.0024451213
154	0xbc5a5ab9	-0.013327294
155	0xbc30b203	-0.010784629
156	0xbbef1751	-0.0072964807
157	0x3c69291d	0.014230994
158	0xbbcbe250	-0.006222047
159	0x3b87a21f	0.0041391994
160	0xbaef19e9	-0.0018241975
161	0xbb03f50b	-0.002013507
162	0x39296614	0.00016155123
163	0x3ba402c0	0.0050052106
164	0x3b78e7b0	0.0037979893
165	0xbbb7a27d	-0.005604087
166	0xbb1f6a15	-0.0024324704
167	0xbc022517	-0.007943413
168	0xbbf82f06	-0.007573965
169	0x3acd04ed	0.0015641727
170	0xbc0237a8	-0.00794784
171	0x3c1c4f27	0.009540356
172	0x3be3a5e7	0.0069472673
173	0x3c688b5a	0.01419338
174	0xbaf51176	-0.001869722
175	0xbc250c35	-0.010073711
176	0xbba9f253	-0.005186358
177	0xba8477ab	-0.0010106465
178	0x3bf98f83	0.007615985
179	0xba6969b2	-0.00089039945
180	0x3c10db10	0.008841291
181	0xbbe71c19	-0.00705291
182	0x3b9dbcea	0.00481378
183	0xbc16f11b	-0.009212757
184	0x3c169a0c	0.009192001
185	0x3c201419	0.009770417
186	0x3bbc779e	0.005751564
187	0x3abfc949	0.0014632131
188	0xbb9caa75	-0.0047810622
189	0x3c1d719e	0.009609608
190	0xb99ae1e8	-0.00029541482
191	0x3b1f2011	0.0024280588
192	0xbba0a454	-0.004902402
193	0xbb245262	-0.0025073518
194	0xba3942be	-0.00070671353
195	0x3c1847d3	0.009294468
196	0xbba9faf5	-0.005187387
197	0x3b4cc642	0.00312461
198	0xbbd673f4	-0.0065445844
199	0xbb87135d	-0.0041221813
200	0xbb920ad1	-0.004456856
201	0x3c0d1fc0	0.008613527
202	0x3bdc7e67	0.0067289355
203	0x3bc4127f	0.00598365
204	0x3839d937	4.4309734e-05
205	0xbb8d8d73	-0.0043198406
206	0x3b814494	0.0039449427
207	0xba9bfb90	-0.0011900533
208	0xbb507d13	-0.0031812831
209	0xbbec48a6	-0.007210809
210	0x3c1cadeb	0.00956295
211	0x3c43cb29	0.011950293
212	0xbbb55474	-0.0055337492
213	0xbb1ae47d	-0.0023634725
214	0xbba967d3	-0.0051698475
215	0x3b81d999	0.0039627072
216	0xb979655b	-0.00023784248
217	0xbb421976	-0.0029617227
218	0x3bfc50d8	0.007700067
219	0xbc30f2d5	-0.010800083
220	0x3c31f248	0.010860987
221	0xbc6b04b3	-0.014344382
222	0xbb17e838	-0.0023179185
223	0x3babe2ed	0.0052455575
224	0x3c09636d	0.008385521
225	0x3bd572ff	0.0065139527
226	0x3c51adff	0.012797832
227	0x3a2e552d	0.00066502654
228	0x3b71476e	0.0036816257
229	0xbb1e09f2	-0.0024114815
230	0xbbd17aaf	-0.006392799
231	0x3c31e8b8	0.010858707
232	0xbb84f7a9	-0.0040578437
233	0x3c3b6ac6	0.011439031
234	0xbbcac5dd	-0.006188138
235	0xbc1ba389	-0.009499439
236	0x3b13d7ee	0.0022559124
237	0x3c0ccc5e	0.008593647
238	0xbc0c8e05	-0.008578782
239	0xbc1bf024	-0.009517703
240	0x3b3d34d7	0.0028870606
241	0x3b895cb9	0.0041919616
242	0xbbc2c169	-0.0059434664
243	0x3babf3a3	0.0052475496
244	0xbc101e10	-0.00879623
245	0x3b20fc8c	0.0024564592
246	0xba6e64bc	-0.000909399
247	0x3b4d5bb2	0.0031335172
248	0x3b6d321b	0.0036193195
249	0x3aeafd0d	0.0017928198
250	0x3a4a2029	0.0007710481
251	0x3c36e1e5	0.011162256
252	0xbbae896c	-0.0053264406
253	0xbb590a09	-0.0033117554
254	0x3b9ff58b	0.004881566
255	0x3a8a7d6c	0.0010565943

base_model.model.gpt_neox.layers.1.attention.query_key_value.lora_A.weight f4 [16, 512]
0	0x3c19234b	0.009346793
1	0x3d20e6c3	0.03928257
2	0x3cecdb0a	0.02891304
3	0x3c94651c	0.018114619
4	0x3d161cc8	0.03664854
5	0xbb0468a2	-0.0020203968
6	0xbb5a120e	-0.0033274922
7	0xbccc4934	-0.02493725
8	0x3d1630be	0.036667578
9	0xbb4d57f6	-0.0031332946
10	0xbd504387	-0.05084565
11	0x3c19908c	0.009372842
12	0xbc82f4cf	-0.015985874
13	0xbd0daa77	-0.034586396
14	0x3d32c48d	0.043644477
15	0xbc945667	-0.018107606
16	0xbc06fb4c	-0.008238625
17	0xbd2f5a94	-0.04281099
18	0xbb007a06	-0.0019603982
19	0xba1c357e	-0.00059588987
20	0xbc8bf196	-0.01708297
21	0x3c09d30f	0.008412137
22	0xbd48485c	-0.048897132
23	0x3c4ec861	0.012621016
24	0x3d1df4dd	0.038563598
25	0xbd333689	-0.04375318
26	0xbc958466	-0.018251609
27	0xbc2c8805	-0.010530476
28	0xbce616ab	-0.02808698
29	0x3cdd48de	0.027012285
30	0x3d193020	0.03739941
31	0xbcfe3a23	-0.031033581
32	0xbcc7c798	-0.024387166
33	0x3d17297f	0.036904808
34	0x3ce7fe97	0.02831964
35	0x3b1a4049	0.0023536852
36	0xbd209a18	-0.039209455
37	0x3d5d0966	0.05396404
38	0x3b4f1ee4	0.0031604106
39	0x3c9d1240	0.019173741
40	0xbc9486e6	-0.01813073
41	0x3d0d8c6e	0.034557752
42	0x3d2b5a67	0.04183426
43	0xbb7b0727	-0.0038303824
44	0xbcabed95	-0.020987311
45	0xbce4a4f8	-0.027910694
46	0x3ba2de4b	0.004970347
47	0xba1a3b7a	-0.00058834965
48	0x3b9dc66f	0.004814915
49	0xbc4cb051	-0.012493209
50	0xbd1afb60	-0.037837386
51	0x3cdb27c2	0.026752356
52	0x3c68e42f	0.014214559
53	0x3c891eff	0.016738413
54	0xbc39cb17	-0.011339924
55	0xbcd2fb0d	-0.025754476
56	0x3cacb9bd	0.02108466
57	0x3cb32ae1	0.021871032
58	0xbd319d2d	-0.043362785
59	0xbbafe45f	-0.0053678
60	0xbbf83c2a	-0.0075755315
61	0x3d50a340	0.050936937
62	0xbb41a980	-0.0029550493
63	0xbd09a972	-0.03360886
64	0x3bacd04b	0.005273854
65	0xbc8ab7d8	-0.016933367
66	0xbc075abc	-0.008261379
67	0xbd306162	-0.04306162
68	0xbd110307	-0.035403278
69	0x3d716e4e	0.058943085
70	0xbd48b140	-0.048997164
71	0xbd1c8ce1	-0.03822029
72	0x3b659858	0.003503343
73	0x3bd7d267	0.006586361
74	0xbd3145db	-0.04327951
75	0x3cb9d762	0.02268571
76	0x3cbccc2c	0.023046575
77	0xbcbb3c0f	-0.022855787
78	0x3cba0b7b	0.022710552
79	0x3ca6c80b	0.02035906
80	0xbceaf9b8	-0.028683528
81	0xbc52f3a4	-0.012875471
82	0x3cb90a77	0.022587998
83	0xbcedb749	-0.029018061
84	0x3d08377d	0.033256043
85	0xbae6ad0e	-0.0017599182
86	0xbb1fdbf7	-0.0024392584
87	0xbd11c677	-0.03558966
88	0x3b6c215e	0.003603063
89	0x3d0b3d55	0.033994038
90	0x3cedf0a1	0.029045405
91	0xbc6b808c	-0.01437391
92	0xbd14520c	-0.03621106
93	0xbc6e750d	-0.014554274
94	0xbd07cc8c	-0.033154055
95	0x3d0d8f58	0.03456053
96	0x3c17441d	0.009232548
97	0x3bcb152f	0.0061975936
98	0x3ceacdcc	0.028662585
99	0x3b91674f	0.004437364
100	0xbd5ea660	-0.054357886
101	0xbc99435d	-0.01870888
102	0xbc7b9b34	-0.0153568275
103	0x3aea2671	0.001786424
104	0xbc4004de	-0.01171991
105	0xbc47c39f	-0.012192636
106	0x3d26aa69	0.04068986
107	0xbbf68196	-0.007522772
108	0xbbdc7ccc	-0.006728744
109	0x3ad8a44c	0.0016528456
110	0xbcafd996	-0.021466058
111	0x3cbd04e2	0.023073617
112	0xbc38fa2e	-0.011290116
113	0x3cd16175	0.025559166
114	0xbcb1b9a0	-0.021694958
115	0x3c602838	0.013681464
116	0x3b441215	0.0029918004
117	0x3c7420a4	0.01490036
118	0x3c9049d2	0.017613325
119	0x3d5e5e0d	0.054288913
120	0xbc6dfa98	-0.014525078
121	0xbcdb4513	-0.026766336
122	0xbca8f44d	-0.020624304
123	0x3b850b5a	0.004060191
124	0x3d530102	0.051514633
125	0xba09f7d6	-0.00052630657
126	0xbd130b9d	-0.035899747
127	0x3cb654a4	0.022257157
128	0xbab6269b	-0.0013897003
129	0xbd3f4e78	-0.046705693
130	0xbd09ef7b	-0.033675652
131	0x3cc6fa05	0.02428914
132	0xbcf094e9	-0.02936788
133	0x3d1d9c18	0.03847894
134	0xb9a1dce0	-0.00030872878
135	0x3b7ef23a	0.0038901703
136	0x3cd7bb87	0.026334537
137	0x3c41aa96	0.011820456
138	0xbb6f104a	-0.0036478215
139	0x3d14f635	0.036367614
140	0x3cfb1645	0.030650267
141	0xbd1ebf02	-0.038756378
142	0x3c778f10	0.015109792
143	0xbcc193d5	-0.023630062
144	0x3c4c9a0b	0.012487899
145	0xbd0bb245	-0.034105558
146	0x3c33b061	0.010967345
147	0x3d3b2b31	0.045695487
148	0xbd18a10a	-0.037262954
149	0xbce79f1d	-0.028274113
150	0xbd1ca91c	-0.038247213
151	0x3cd0eb76	0.025502902
152	0x3d0f149d	0.034931768
153	0xbc5a7f54	-0.013336021
154	0x3d2ffb23	0.042964112
155	0x3c5bdeed	0.013419849
156	0x3c891660	0.016734302
157	0x3bc16ba8	0.005902726
158	0xbd29af77	-0.041427102
159	0x3d219b89	0.03945497
160	0xbd4920cf	-0.049103554
161	0xbd178c83	-0.036999237
162	0xbbb7b597	-0.005606364
163	0xbd3371d6	-0.043809734
164	0xbbfe8ab3	-0.007767999
165	0xbd396b4b	-0.04526834
166	0xbd4c6d59	-0.04990897
167	0xbc38e287	-0.011284477
168	0x3d217cab	0.039425533
169	0x3ceac3bc	0.028657787
170	0x3c9961f9	0.018723475
171	0x3d2269ad	0.03965156
172	0xbbcca486	-0.0062451987
173	0x3c46841a	0.012116456
174	0xbb455a00	-0.0030113459
175	0xbc435367	-0.01192174
176	0x3ca2738e	0.019830491
177	0x3cf9d8ff	0.03049898
178	0xbca78226	-0.020447802
179	0xbcc54f68	-0.024085715
180	0x3cbb1da6	0.022841286
181	0xbd291174	-0.04127641
182	0xbcc1f315	-0.02367548
183	0xbcc4baec	-0.024014913
184	0x3d098046	0.033569597
185	0x3cb707da	0.022342611
186	0x3b82c08f	0.00399024
187	0x39058225	0.00012732351
188	0x3d31a225	0.043367524
189	0x3be081d4	0.006851414
190	0xbce34462	-0.027742568
191	0xbc5f1fac	-0.013618391
192	0xbc6b9f36	-0.014381221
193	0xbcfa7d83	-0.030577427
194	0x3d43e11b	0.0478221
195	0x3d057832	0.03258533
196	0x3c3a1a37	0.011358789
197	0xbd02c829	-0.03192917
198	0xbd333960	-0.04375589
199	0xbcc1d37a	-0.02366041
200	0xbd0870ad	-0.03331058
201	0x3d121b5a	0.035670616
202	0x3cf645e4	0.030062623
203	0x3d12d9bd	0.035852183
204	0x3d3fe1de	0.046846263
205	0xbd1b7d79	-0.037961457
206	0xbc4c935b	-0.012486304
207	0xba5fd2e1	-0.00085381983
208	0xbd15eced	-0.036602903
209	0xbc8ea540	-0.017412782
210	0xbd01f4b0	-0.031727493
211	0x3cfa6efa	0.030570496
212	0xbb1fc931	-0.0024381394
213	0x3cec1adc	0.028821401
214	0x3cad93be	0.021188613
215	0xbc99476e	-0.018710818
216	0xbc4122b5	-0.01178806
217	0x3cb8ffcd	0.022582913
218	0xbd3eaabb	-0.04654954
219	0xbb150536	-0.0022738702
220	0xbc2231b8	-0.009899549
221	0xbc99153d	-0.018686885
222	0x39d21ef2	0.00040077377
223	0x3d2d7ec6	0.04235723
224	0xbd1782f7	-0.036990132
225	0x3c68afde	0.014202086
226	0x3c9bba9b	0.019009879
227	0xbc1c28cb	-0.00953121
228	0xbcb132a6	-0.021630596
229	0xbc27d1c6	-0.010242885
230	0xbc0c22e2	-0.008553239
231	0x3c64aa71	0.013956652
232	0xbccf098d	-0.025273109
233	0xbd03c539	-0.032170508
234	0xbb7c2189	-0.0038472137
235	0xbcff0aac	-0.031133018
236	0x381f65e1	3.8003436e-05
237	0x3d013b14	0.031550482
238	0xbd2e871f	-0.04260933
239	0x3c28b739	0.01029759
240	0x3d14a1f8	0.036287278
241	0xbd423080	-0.047409534
242	0x3d12c048	0.035827905
243	0xbca8057d	-0.02051043
244	0xbcac2658	-0.021014377
245	0x3cc7e8bc	0.024402969
246	0x3c7f709b	0.015590812
247	0xbcc202c9	-0.023682969
248	0x3ab4dd5a	0.0013798878
249	0xbc9a0728	-0.01880224
250	0xbce91dc1	-0.02845657
251	0xbcfdf7c6	-0.031001937
252	0xbc79bb11	-0.015242354
253	0x3d0cdc8d	0.03439002
254	0x3c04feb4	0.008117367
255	0xbca0e57a	-0.019640673

base_model.model.gpt_neox.layers.1.attention.query_key_value.lora_B.weight f4 [1536, 16]
0	0xb9e64777	-0.00043922264
1	0xbb9aae09	-0.0047204536
2	0x3baa7667	0.005202103
3	0x3b0871a9	0.00208197
4	0xbba83f94	-0.005134532
5	0xbbc9c883	-0.006157936
6	0xbc177287	-0.009243614
7	0x3b012d62	0.0019710888
8	0x396fadbb	0.00022857536
9	0xbab42274	-0.0013743178
10	0x3bde1ecd	0.006778574
11	0xbc484064	-0.012222383
12	0x3ba3f237	0.0050032395
13	0xbc507ac3	-0.012724581
14	0xbb44ff80	-0.0030059516
15	0x3c220bcf	0.009890511
16	0xbc685670	-0.014180765
17	0xbbd1a2e1	-0.0063975905
18	0xbb6822c9	-0.0035421124
19	0xbb694c89	-0.0035598597
20	0xb96b48a8	-0.00022438413
21	0x3c1afaa9	0.009459176
22	0xbae4faaa	-0.0017469723
23	0x3c65a855	0.014017184
24	0xbb5827ae	-0.0032982635
25	0x3b2d591b	0.0026450816
26	0xbb497c5b	-0.0030744288
27	0xbc2ccd65	-0.010547017
28	0xbbe34ba5	-0.0069365078
29	0xbb349b35	-0.002755833
30	0x3c7bfc39	0.015379959
31	0xba170cb3	-0.0005762085
32	0xbbb4e14b	-0.005520021
33	0x3bc333e8	0.0059571154
34	0x3be85d80	0.007091224
35	0xbbb88907	-0.0056315693
36	0xba2bdf68	-0.00065564224
37	0xbbee0331	-0.007263564
38	0x399a1ab3	0.0002939306
39	0x3c8a9006	0.016914379
40	0x3b4743f3	0.003040549
41	0xbb9923bf	-0.0046734507
42	0x3a88a0bb	0.0010423878
43	0x3a654279	0.0008745562
44	0xbb0cf1a9	-0.0021506345
45	0xbc08c86e	-0.008348567
46	0xbb0702b0	-0.0020600967
47	0xbb79b9f5	-0.0038105224
48	0x3be581af	0.007003985
49	0x3a6accff	0.00089569384
50	0x3c163cc8	0.009169765
51	0xbbf6ceb7	-0.0075319665
52	0xbaa73543	-0.0012756962
53	0x3b5274b4	0.0032113018
54	0xbb52d99e	-0.0032173167
55	0xbae29d5d	-0.001728933
56	0x3b947003	0.0045299544
57	0x3b828419	0.0039830324
58	0xbc086464	-0.008324716
59	0xbbb63e2e	-0.0055616116
60	0xba703dfc	-0.000916451
61	0x3c3e5b6c	0.011618476
62	0xbc16a670	-0.009194955
63	0xbc0691af	-0.008213445
64	0x3c132dcd	0.008983088
65	0x3bc1455f	0.0058981623
66	0xbb5fe79d	-0.0034165152
67	0x39817429	0.00024691343
68	0xbbc2594e	-0.005931056
69	0xbc292295	-0.010323186
70	0xbbb300f5	-0.0054627606
71	0x3c12b957	0.008955321
72	0x3b4c2031	0.0031147117
73	0xbbd1b045	-0.006399187
74	0x3bee2e53	0.007268706
75	0xbc56aa94	-0.013102192
76	0xbbc94d42	-0.006143243
77	0xb9ebe431	-0.0004499271
78	0x3c5b8503	0.013398412
79	0x3c6ffd9b	0.014647867
80	0x3c0e0a11	0.008669392
81	0x3c8745a7	0.016512705
82	0xbae25126	-0.0017266616
83	0x3b89896c	0.00419729
84	0x399f8e5f	0.00030432918
85	0xbc8bde25	-0.0170737
86	0xbc479184	-0.01218069
87	0x3cb22d8a	0.02175023
88	0x3c36a50f	0.0111477515
89	0xbafa83d2	-0.0019112772
90	0xbc25c8cb	-0.010118674
91	0x3c2f2424	0.010689769
92	0x3c37e0b8	0.011223011
93	0x3b8dc606	0.0043265847
94	0x3bad6ed1	0.0052927514
95	0xbc03d0a7	-0.008045352
96	0x3a877456	0.0010334353
97	0x3bf53b1e	0.007483854
98	0xbbb952a0	-0.0056556016
99	0xbc27f81e	-0.010252027
100	0x3be9e3bf	0.007137745
101	0x3b8956b0	0.004191242
102	0x3bbc7a7e	0.005751907
103	0xbb9b3a10	-0.004737146
104	0xbc97bc65	-0.01852245
105	0xbb76eec4	-0.0037678936
106	0x3bada8ac	0.0052996483
107	0x3c12d43e	0.008961735
108	0xbc22b5df	-0.009931057
109	0xbcb041b5	-0.021515707
110	0xbbf1bd4e	-0.007377303
111	0x3c7938c9	0.015211293
112	0xb9237fcf	-0.00015592504
113	0x3a595df5	0.0008291894
114	0x3a42717e	0.00074174243
115	0xbc6bc3d2	-0.014389949
116	0x3c30d93f	0.010793983
117	0x3bb1bd31	0.0054241647
118	0x3c828422	0.015932146
119	0x3bc2d943	0.00594631
120	0xbc02a527	-0.007973946
121	0xbbd02a69	-0.006352712
122	0x3bf44934	0.0074550156
123	0xbb9c8ef2	-0.0047777826
124	0x3b53f662	0.00323429
125	0x3aed1977	0.0018089254
126	0x3b716cc9	0.0036838523
127	0xbb1fdfc7	-0.0024394856
128	0xbb0e3e5a	-0.0021704645
129	0x3b4a28a6	0.0030846982
130	0x39acab2d	0.00032933932
131	0xbc328bbb	-0.010897572
132	0xbcb2f16b	-0.021843633
133	0x3b1479b7	0.0022655556
134	0x3c7b2441	0.015328468
135	0x3c938adf	0.018010555
136	0x3b046f03	0.002020777
137	0x3b206acb	0.0024477716
138	0x3b2cb4a7	0.0026352794
139	0x3ad84dd0	0.0016502682
140	0xbbaa0c0f	-0.005189426
141	0xba88e289	-0.0010443489
142	0x3c221267	0.009892083
143	0x3c9adaf9	0.018903242
144	0xbb4a1c65	-0.0030839678
145	0xba96aed2	-0.0011496192
146	0x3b810752	0.00393764
147	0xbba3ef0b	-0.0050028614
148	0xba6fbef8	-0.0009145583
149	0x3c8df6c5	0.017329583
150	0x3b97c658	0.0046317987
151	0xbbc40148	-0.005981598
152	0x3bdf51b9	0.006815162
153	0xbc178680	-0.009248376
154	0x3c95fd41	0.018309237
155	0x3be48cbc	0.0069747847
156	0x3a5fe53f	0.0008540935
157	0xbb68f938	-0.0035548937
158	0xbba3b9a1	-0.004996494
159	0xb9cb5b2e	-0.0003878711
160	0x3caffed1	0.02148381
161	0x3a88f259	0.0010448202
162	0xbbc4c356	-0.006004731
163	0xb8a5c84a	-7.90512e-05
164	0xbbb98c81	-0.0056625013
165	0xbc1e8e86	-0.009677535
166	0xbc098fcc	-0.0083961
167	0xba6d7d14	-0.00090594706
168	0xbbbe8725	-0.0058144503
169	0x3bb8c396	0.00563855
170	0x3bf808d0	0.00756941
171	0x3aae104a	0.0013280001
172	0x3c051916	0.008123657
173	0xbb8afdf6	-0.0042417003
174	0xbb53d95c	-0.0032325601
175	0x3bc42517	0.0059858668
176	0xbc2707b8	-0.010194711
177	0x3c0f327d	0.008740065
178	0xbc752884	-0.014963273
179	0xbbbcdde1	-0.0057637547
180	0xbb87e5cb	-0.0041472665
181	0x3c66deae	0.014091177
182	0xbbc343a1	-0.0059589897
183	0xbaf7274f	-0.0018856319
184	0xbc4aab77	-0.012369982
185	0xbc532cae	-0.01288907
186	0xbc0fbe98	-0.008773468
187	0x3bba1b53	0.005679527
188	0xbb95071b	-0.004547966
189	0x3c5fda41	0.013662876
190	0xbc4393a8	-0.011937059
191	0xbaf8c772	-0.0018980338
192	0xb84606b3	-4.7213118e-05
193	0xbb962447	-0.0045819613
194	0xbb2bc82f	-0.0026211848
195	0x3cb82ca2	0.02248222
196	0x3a5e3bfc	0.00084775663
197	0xbc867a28	-0.01641567
198	0xbbd28540	-0.006424576
199	0x3c0b00d4	0.008484084
200	0x3b1a3b0c	0.002353373
201	0xbc4fc727	-0.012681759
202	0x3c143641	0.009046138
203	0x3b944f3f	0.0045260484
204	0x3bc6e370	0.006069593
205	0x3c3d3b0a	0.011549721
206	0x3bd4db07	0.0064958367
207	0xbbd8e6ff	-0.0066193338
208	0x3bedafde	0.007253631
209	0x3c5c6c9b	0.013453628
210	0xbbb04e6e	-0.0053804433
211	0xba2bdc07	-0.0006555919
212	0xbbf837d0	-0.0075750127
213	0x3c00bfd3	0.007858234
214	0xbb9760bd	-0.0046196864
215	0xbb6a15e8	-0.0035718624
216	0x3bd4e229	0.006496687
217	0xba949d6e	-0.0011338422
218	0x3bf7f993	0.0075675934
219	0xbbfeff38	-0.0077818893
220	0xbbf571c5	-0.007490369
221	0xbbcbebe0	-0.006223187
222	0xbb572fd4	-0.0032834904
223	0x3c8043ef	0.015657393
224	0x3bed8331	0.0072483052
225	0x3b24a64d	0.0025123537
226	0xbc147831	-0.009061859
227	0x3ab16f6a	0.0013537232
228	0x3b4d2a59	0.0031305759
229	0xbb693fce	-0.003559101
230	0xbc80f04a	-0.015739579
231	0xba528668	-0.00080308923
232	0xbcaa0080	-0.020752192
233	0x3b9bd077	0.0047550756
234	0xbaecd775	-0.0018069582
235	0x3bdece1b	0.006799472
236	0x3acc940a	0.0015608084
237	0x3bb53232	0.0055296654
238	0xbb8f3a62	-0.0043709734
239	0x393e10d9	0.00018126088
240	0xbcb4a96c	-0.022053443
241	0x3aabd70c	0.0013110354
242	0x3c4eabc4	0.012614194
243	0xbb733f9e	-0.0037116776
244	0xbbb45898	-0.0055037253
245	0x3c38427e	0.011246322
246	0x3c3f19e4	0.011663888
247	0xbbcaaee1	-0.006185398
248	0xbb8cbe0d	-0.0042951168
249	0xbbd7d948	-0.0065871812
250	0xbc537baf	-0.012907906
251	0xbc18bb40	-0.009321988
252	0xbb1292de	-0.0022365372
253	0x3c292724	0.010324273
254	0x3ba1debe	0.004939883
255	0x3ae355b9	0.0017344273

base_model.model.gpt_neox.layers.2.attention.query_key_value.lora_A.weight f4 [16, 512]
0	0xbd397684	-0.04527904
1	0x3bfe85ec	0.0077674296
2	0xbca4b006	-0.020103466
3	0xbcebaa39	-0.028767692
4	0x3b0ba7d1	0.0021309743
5	0xbd040da0	-0.032239556
6	0x3cbaaba5	0.022786925
7	0xbbbbe4b6	-0.0057340516
8	0x3d226699	0.039648626
9	0xbd05bbab	-0.032649677
10	0xbbe09367	-0.006853509
11	0x3d1c3b7f	0.038142677
12	0xbcf7f81b	-0.030269673
13	0x3c885115	0.016640225
14	0xbcd2a33c	-0.025712602
15	0x3c9fc7aa	0.019504387
16	0xbc583303	-0.013195756
17	0x3cad9e69	0.0211937
18	0x3d2cd997	0.042199697
19	0xbc2850e7	-0.010273195
20	0x3c713907	0.014723069
21	0xbc9aaefc	-0.018882267
22	0xbc7ec4fe	-0.015549896
23	0x3d3ad247	0.045610692
24	0x3b7f222d	0.0038930282
25	0xbcaf2eb4	-0.021384574
26	0xbce18fb9	-0.027534353
27	0x3c8c3c91	0.017118724
28	0x3ccef2a7	0.02526219
29	0x3cff1fc4	0.031143077
30	0xbcd8d483	-0.026468521
31	0xbcb2666b	-0.021777352
32	0x3be458fa	0.0069686146
33	0x3bcfabe8	0.0063376315
34	0x3c81a3d4	0.01582519
35	0xbbcf2dfd	-0.006322621
36	0xbb98c01d	-0.0046615736
37	0xbd20878a	-0.03919176
38	0xbd161d15	-0.03664883
39	0xbbc51451	-0.006014385
40	0x3d2687cf	0.04065686
41	0xbcbabadf	-0.022794185
42	0xbd18a611	-0.03726775
43	0xbd2265bc	-0.039647803
44	0xbc2b6a83	-0.010462406
45	0xbc3ebd17	-0.011641762
46	0x3c92da3f	0.017926333
47	0xbc621c4c	-0.013800692
48	0xbd39b45c	-0.04533802
49	0xbd2ac2d4	-0.04168971
50	0xbd0a2b92	-0.03373296
51	0xbc8552c5	-0.01627482
52	0xbc9343e3	-0.017976707
53	0x3d1885c1	0.037236933
54	0x3bfa2bca	0.0076346146
55	0xbb92da7a	-0.004481611
56	0x3cb9fb63	0.022702878
57	0xbd038392	-0.032107897
58	0xbc0fb9f0	-0.008772358
59	0x3c1129bc	0.008860048
60	0x3c95021d	0.018189484
61	0x3cc98c23	0.024602955
62	0x3d610b93	0.05494268
63	0x3c6939fb	0.014235015
64	0xbc8f9ad7	-0.017529888
65	0x3ca49c69	0.020094113
66	0xbc94d71e	-0.018168982
67	0xbbf082b5	-0.0073398002
68	0xbcd36d9b	-0.0258091
69	0x3d009216	0.03138932
70	0x3d196f37	0.03745958
71	0x3d2cfb57	0.042231884
72	0x3d1e2f72	0.038619466
73	0xbd1ae274	-0.03781362
74	0x3c9a598a	0.018841524
75	0xbc787e1c	-0.015166786
76	0xbc99694a	-0.018726964
77	0xbca0d560	-0.019632995
78	0xbc4b7897	-0.012418888
79	0xbc1cc42e	-0.009568257
80	0xbc6a6e6a	-0.014308551
81	0x3c0c1506	0.008549934
82	0xbbc1d9f7	-0.005915876
83	0x3cecaa5a	0.028889824
84	0x3d1a62c0	0.03769183
85	0xbcb6fa5a	-0.022336174
86	0x3d516988	0.051126033
87	0xbcf3d758	-0.02976577
88	0xbafe4b32	-0.0019401072
89	0x3d19d62c	0.037557766
90	0xbca3f337	-0.020013435
91	0x3b9c2824	0.0047655273
92	0xbc819910	-0.015820056
93	0xbd29bcbe	-0.041439764
94	0x3c9dfa50	0.019284397
95	0x3d152dc3	0.036420595
96	0xbd07b3c9	-0.03313044
97	0xbc3b1035	-0.011417438
98	0xbd04662d	-0.032324005
99	0xbc731758	-0.014837109
100	0x3d28e899	0.041237447
101	0xbd07cef8	-0.033156365
102	0x3c919a79	0.017773854
103	0xbcc5bcde	-0.02413791
104	0xbc3552cd	-0.0110671045
105	0x3d37548d	0.04475837
106	0x3d18c979	0.037301514
107	0xbc58d638	-0.0132346675
108	0x3cf3146c	0.029672824
109	0x3cdd8a5f	0.02704352
110	0x3d4556de	0.048178546
111	0xbd2d11f6	-0.042253457
112	0xbc4d518a	-0.012531647
113	0xbbfd892e	-0.0077373004
114	0xbd3b2fff	-0.04570007
115	0x3b9d6c47	0.0048041674
116	0x3bdc06d3	0.0067146807
117	0xbd44d8f0	-0.04805845
118	0xbca21449	-0.019785063
119	0xbd0b37fd	-0.03398894
120	0xbd022db0	-0.031781852
121	0x3c5a6876	0.0133305695
122	0xbcd1c25d	-0.025605375
123	0x3d417c2d	0.047237564
124	0xbbb0d735	-0.0053967484
125	0xbce08db5	-0.027411321
126	0xbd306926	-0.043069027
127	0x3ce09b11	0.027417691
128	0x3c5aad65	0.013347005
129	0x3c806411	0.015672715
130	0xbc9f0791	-0.019412788
131	0xbd35140c	-0.04420857
132	0x3c4fccda	0.012683118
133	0xbc8f37fb	-0.017482748
134	0x3d471c5e	0.048611037
135	0x3cf8baa4	0.030362435
136	0xbcc1bf3b	-0.023650756
137	0xbcc7b3a1	-0.024377646
138	0x3d0582b9	0.03259537
139	0x3bf769f9	0.0075504747
140	0xbd10ab37	-0.035319533
141	0xbce94ed4	-0.028479971
142	0x3c022f5d	0.007945863
143	0x3c895fb4	0.016769268
144	0x3bc383e3	0.00596665
145	0x3c0428f7	0.008066407
146	0xb87c8ced	-6.021273e-05
147	0xbbcb49b8	-0.0062038563
148	0x3c4669de	0.012110202
149	0x3ce2cea2	0.02768642
150	0x3c2ffc3a	0.010741288
151	0xbd099c9d	-0.033596624
152	0x3b58ff38	0.0033111107
153	0xbd0f911a	-0.03505049
154	0xbbbf74ee	-0.0058427965
155	0xba758293	-0.00093654654
156	0x3c6b798c	0.014372241
157	0x3c37e35f	0.011223643
158	0x3d1e58a0	0.038658738
159	0x3ba1e61b	0.004940761
160	0xbcd73097	-0.026268287
161	0xbcc3ac13	-0.023885762
162	0xbd5cedef	-0.05393785
163	0xbd497f9e	-0.04919397
164	0x3b00229b	0.0019551876
165	0xbbfc3173	-0.0076963245
166	0xbd43d357	-0.04780897
167	0xbd173411	-0.03691489
168	0xbd0f5e5f	-0.03500211
169	0xbccf256a	-0.025286395
170	0xb9e402b9	-0.00043489577
171	0x3cc631ab	0.024193605
172	0xbce923c3	-0.028459435
173	0x3d152f58	0.036422104
174	0xbc6d05a3	-0.014466676
175	0xbce95936	-0.028484922
176	0x3d37148e	0.044697337
177	0x3d3a0184	0.0454116
178	0x3d17bb77	0.037044015
179	0x3d4f86e9	0.05066577
180	0xbc08110a	-0.008304844
181	0xbc1165ed	-0.008874399
182	0x3cd43147	0.025902404
183	0x3ccfcf95	0.025367538
184	0x3cb0eb92	0.021596704
185	0xbd01b141	-0.031663183
186	0x3cd5dede	0.026107248
187	0x3ba0234e	0.004887021
188	0x3ab31db2	0.0013665466
189	0x3cc66ba0	0.024221241
190	0x3cb4ea60	0.022084415
191	0xbc3db806	-0.011579519
192	0xbd28eed8	-0.041243404
193	0x3cf45f6d	0.029830659
194	0xbd25b46a	-0.04045526
195	0xbd202312	-0.039095946
196	0xbd3c725e	-0.046007507
197	0x3ce5a398	0.02803211
198	0x3c291e30	0.010322139
199	0x3d117514	0.035512045
200	0x3c8f038c	0.017457746
201	0x3ae1108d	0.001717107
202	0x3d4b442f	0.04962557
203	0xbcfe4b84	-0.031041868
204	0x3d34bff9	0.044128392
205	0xbcc49e11	-0.024001153
206	0xbcfc41f1	-0.030793162
207	0x3d2bab25	0.041911263
208	0x3b87ff32	0.0041502947
209	0xbd2c4ce8	-0.04206553
210	0xbc583fc3	-0.013198796
211	0x3c751034	0.014957476
212	0xbcfd5665	-0.030924985
213	0xbb7ca5bd	-0.0038550936
214	0x3b48ea89	0.0030657372
215	0xbd08623c	-0.03329681
216	0xbc47a047	-0.012184209
217	0xbd1136a0	-0.035452485
218	0xbcb513c9	-0.02210416
219	0x3c9b03de	0.018922742
220	0x3cff4696	0.031161588
221	0xbc6fb1a5	-0.014629756
222	0xbd259f57	-0.04043516
223	0x3bf7aa39	0.007558134
224	0x3d126daf	0.035749134
225	0x3cebac8a	0.028768796
226	0x3c0a6a03	0.008448127
227	0xbcb6998d	-0.022290016
228	0xbd302b50	-0.043010056
229	0xbb07edb0	-0.0020741038
230	0x3d30e9ea	0.043191828
231	0x3cd019d0	0.025402933
232	0xbbf186b1	-0.007370793
233	0xbc7c70f8	-0.015407793
234	0x3d37221b	0.04471026
235	0xbd01a199	-0.031648252
236	0xbd00cdee	-0.03144639
237	0x3d34b8eb	0.044121664
238	0xbbfb5b11	-0.007670768
239	0xbcf0865c	-0.029360943
240	0x3cba72ae	0.022759762
241	0xbcd27fc2	-0.025695685
242	0xbc29c381	-0.010361553
243	0xbb9078df	-0.00440894
244	0x3b03161c	0.0020002192
245	0x3ca0c590	0.019625455
246	0xbd17936e	-0.037005834
247	0x3d3a89db	0.045541625
248	0xbc95221e	-0.018204745
249	0xbcfbee0e	-0.030753162
250	0xbb40e1bc	-0.0029431423
251	0x3c9e088a	0.019291181
252	0xbcb530c8	-0.022117987
253	0x3c1c5f3d	0.009544191
254	0xbbc65521	-0.0060526286
255	0xbb3bfd7b	-0.0028685022

base_model.model.gpt_neox.layers.2.attention.query_key_value.lora_B.weight f4 [1536, 16]
0	0xbbaaf4a9	-0.005217154
1	0xbb42331e	-0.002963252
2	0xbbf80dc3	-0.00757
3	0xbb8a18be	-0.0042143753
4	0xbb9cd69c	-0.0047863256
5	0xbbe8b0d0	-0.007101156
6	0x3b586eca	0.003302502
7	0xbc5c0abe	-0.0134302955
8	0xbac77b96	-0.0015219327
9	0xbb1a112d	-0.0023508773
10	0x398e778f	0.0002717343
11	0x3baa4e7b	0.005197344
12	0xbb92e32b	-0.004482647
13	0xb89e5cb4	-7.5512944e-05
14	0x3c07f639	0.00829845
15	0x3bc5c531	0.00603547
16	0x3bd84f52	0.0066012526
17	0xbbcd01fd	-0.0062563405
18	0xbc958fad	-0.018256987
19	0x3b7bb23b	0.0038405794
20	0x3b31917f	0.002709478
21	0xbc2600ce	-0.010132028
22	0x3c21c239	0.009872966
23	0xbb80ce40	-0.003930837
24	0xbc875e33	-0.01652441
25	0x3c447de2	0.011992903
26	0xbb8c8b5e	-0.004289075
27	0xbacb7058	-0.0015521152
28	0x3bc02ad9	0.005864483
29	0x3b0d8bd2	0.0021598232
30	0xbb39e23c	-0.0028363606
31	0x3c160415	0.009156247
32	0xbc09da61	-0.008413882
33	0xbc0f83d4	-0.008759458
34	0xbacf1961	-0.001580041
35	0xbbba97b1	-0.0056943526
36	0xbb54975e	-0.0032438855
37	0xb9b54a4f	-0.00034578374
38	0xbad953fa	-0.0016580813
39	0x3c8addfd	0.016951555
40	0xbc169fd1	-0.009193377
41	0xbbfdae2e	-0.007741711
42	0x3c182742	0.009286704
43	0x3b77595d	0.0037742474
44	0x3beaa797	0.0071610915
45	0xbc852d7f	-0.016257046
46	0x3c232926	0.009958541
47	0xbbc33fbf	-0.005958527
48	0xbbbb1711	-0.005709537
49	0xba698d4f	-0.0008909301
50	0xbb822d57	-0.00397269
51	0x3a988c4d	0.0011638493
52	0xbb8744d8	-0.00412808
53	0xbada4ed1	-0.0016655569
54	0x3c1b1b27	0.009466923
55	0x3b4d9aa5	0.0031372693
56	0x3c8b5f00	0.017013073
57	0xbc30a757	-0.010782084
58	0xbbd14704	-0.0063866396
59	0x3964a866	0.00021806508
60	0x3b087951	0.0020824263
61	0x3c0b0d17	0.008487008
62	0xbb9e123f	-0.0048239524
63	0x3c3a13f5	0.011357297
64	0x3b885576	0.0041605784
65	0x3c7670ab	0.015041511
66	0x3bcdd32a	0.0062812762
67	0x3b1f2f59	0.0024289696
68	0x3c67a1ff	0.014137744
69	0x3b919512	0.0044428194
70	0x3b901ab7	0.004397716
71	0x3b25d22e	0.0025302279
72	0x39a4b2f0	0.00031413836
73	0xbb88870a	-0.0041664885
74	0x3aa00a68	0.0012210133
75	0x3bb38017	0.005477916
76	0x3c04b0d5	0.008098801
77	0x3c1671e7	0.00918243
78	0xbb9b9e99	-0.004749131
79	0x3b1ec04f	0.0024223512
80	0xbc4864da	-0.012231076
81	0xbaf85411	-0.0018945952
82	0x3bf213c1	0.0073876088
83	0x396f6dc1	0.00022833703
84	0x3b4ef32a	0.0031578043
85	0xba190d72	-0.00058384903
86	0xbb78925f	-0.003792904
87	0xbbb3bda1	-0.005485252
88	0xbc0fa311	-0.008766905
89	0x3c7fb0ea	0.015606144
90	0xb81aafba	-3.688012e-05
91	0xbc000158	-0.00781282
92	0x3c7f57cf	0.0155849
93	0x3acf874d	0.001583317
94	0x3c10c960	0.008837074
95	0xbbb08e60	-0.005388066
96	0xbb89ad20	-0.0042015463
97	0x3b8c871a	0.0042885663
98	0x3ba67b61	0.005080626
99	0xbb9cbc51	-0.0047831913
100	0xba3512de	-0.00069074135
101	0xbaf472c8	-0.001864993
102	0xba0ae11c	-0.0005297826
103	0xbc496212	-0.012291448
104	0xbb3deaf1	-0.0028979147
105	0xbbedc642	-0.0072563
106	0x3ba3d8ad	0.005000195
107	0x3aed7f45	0.0018119594
108	0x3b88b010	0.004171379
109	0xbac47680	-0.0014988929
110	0xbaa8696c	-0.0012848801
111	0xbc273493	-0.010205406
112	0xbb465283	-0.0030261583
113	0xbc27f249	-0.010250636
114	0x3c4b5dac	0.01241247
115	0xbc9251ea	-0.017861325
116	0xbc7ac150	-0.015304878
117	0x3bc5432f	0.006019972
118	0x3bc56d70	0.006025009
119	0xbc804ab1	-0.015660616
120	0xbc221896	-0.009893557
121	0x3b1c186e	0.0023818272
122	0x3b2dcedd	0.0026521005
123	0x3c11ee69	0.008906939
124	0xbb05f8d2	-0.0020442498
125	0x3bc6913f	0.006059795
126	0x392a29fd	0.00016228105
127	0xbb80a10f	-0.0039254497
128	0x3a13e592	0.00056418136
129	0xbb9b6add	-0.0047429637
130	0x39db3bc9	0.00041815478
131	0x3b10947d	0.0022061162
132	0xb9c0d15f	-0.00036777087
133	0xbc80ccc5	-0.015722642
134	0xbc75a7ca	-0.014993617
135	0x3bb079e5	0.0053856247
136	0x3b0a9327	0.0021144839
137	0xbc242e6b	-0.0100208325
138	0x3bc5f692	0.0060413564
139	0xbc9aa3e8	-0.018876985
140	0x3bb0ac29	0.005391617
141	0xbbcdc074	-0.0062790457
142	0x399833f0	0.00029030396
143	0x3c818601	0.015810968
144	0x3af1ef5d	0.0018458177
145	0xbc74de6c	-0.014945608
146	0x3c24d83d	0.010061321
147	0x3ad21801	0.0016028882
148	0x3c0c3ab4	0.008558918
149	0xbb364212	-0.0027810377
150	0x3c288c5d	0.010287371
151	0xbb8e2fc4	-0.00433919
152	0xbafc14dd	-0.0019232292
153	0x3bf0cdb5	0.007348741
154	0xbb665fab	-0.0035152237
155	0xbb03cba4	-0.0020110393
156	0xbc3c49e7	-0.011492229
157	0x3c5e1291	0.013554231
158	0xbc3e074a	-0.011598418
159	0x3c1ca3f7	0.009560577
160	0xbb472665	-0.0030387875
161	0x3c02b7c3	0.0079783825
162	0xbbfa22ea	-0.0076335566
163	0x3c059d70	0.008155212
164	0x3b35a9ae	0.0027719545
165	0xbbee9601	-0.0072810655
166	0x3b5053c6	0.0031788214
167	0x3bfe36f9	0.007758018
168	0x3a9e24af	0.0012065376
169	0x3bb7b187	0.0056058797
170	0xbb1604a1	-0.0022890943
171	0x3af84ac4	0.001894318
172	0x3b0e3c9e	0.002170361
173	0xba62e060	-0.00086546503
174	0xbc2ca4d6	-0.010537347
175	0x3a1bba38	0.00059405295
176	0xbc066131	-0.008201883
177	0xbb82dc17	-0.003993522
178	0x3ba0b55c	0.004904432
179	0x3bed6c3e	0.0072455695
180	0xbbaeb06a	-0.005331089
181	0xbbce58cf	-0.006297208
182	0xbbb5793a	-0.005538133
183	0xbc234275	-0.009964575
184	0xba0946b4	-0.0005236671
185	0xbca860e5	-0.020554015
186	0xbc31078b	-0.010805021
187	0xbba08356	-0.004898469
188	0x3a25c22b	0.0006323184
189	0xbb67e4ad	-0.0035384104
190	0x3b20b603	0.002452255
191	0xbc7c64dd	-0.015404907
192	0xbaff2628	-0.0019466328
193	0x3bd5ce10	0.0065248087
194	0x3b8def3a	0.0043314965
195	0x3bd90c40	0.0066237748
196	0x3c14634b	0.009056876
197	0xbb486974	-0.0030580433
198	0xbc0c1495	-0.008549829
199	0xbbded8a7	-0.0068007293
200	0x3c6f3aa2	0.0146013815
201	0xbc9f3a83	-0.01943708
202	0x3b3effe3	0.002914422
203	0x3b5aeb01	0.0033404233
204	0x3b826d49	0.003980313
205	0xbc71d6d6	-0.014760694
206	0xb9c00e3d	-0.00036631702
207	0xbb995d57	-0.0046803164
208	0xbb40e1fd	-0.0029431575
209	0x3bf78996	0.0075542433
210	0x3a40505d	0.0007336194
211	0x3c898dbd	0.016791219
212	0xba2c89d9	-0.000658182
213	0xbb9d8823	-0.0048074885
214	0xbc1f4afa	-0.009722466
215	0x3b06a7cc	0.0020546792
216	0x3c40bdca	0.011763999
217	0xbbab3fdd	-0.005226119
218	0xbc2090f2	-0.009800183
219	0x3c810014	0.015747108
220	0x3a534aa1	0.0008060132
221	0x3ab770cd	0.0013995409
222	0xbba3fb11	-0.0050042947
223	0xbbc91368	-0.0061363466
224	0x3ba5f6a1	0.005064801
225	0x3bc6ad6c	0.006063154
226	0xbc090681	-0.008363367
227	0xb9bf3714	-0.00036471395
228	0xbbb072db	-0.0053847856
229	0x3b76147c	0.003754883
230	0x3c67ad78	0.014140479
231	0x3c436679	0.011926287
232	0x3c264788	0.01014889
233	0x3c6aea48	0.014338084
234	0xba7f4269	-0.0009737374
235	0x3c95dce1	0.0182938
236	0xbc12cd4e	-0.008960081
237	0xb9b74944	-0.00034959067
238	0xbaca0bb3	-0.0015414864
239	0x3bc81121	0.0061055575
240	0xbbe80243	-0.0070803477
241	0x3a57d510	0.0008233348
242	0x3b86408c	0.00409705
243	0x3b7a0f47	0.0038156079
244	0xbb383a10	-0.002811078
245	0xbb9c0866	-0.0047617434
246	0x3bb598cd	0.005541897
247	0xba259683	-0.00063166785
248	0xbc10be67	-0.008834458
249	0xbc0781da	-0.008270705
250	0xbbc157cd	-0.0059003592
251	0xbaf13e88	-0.0018405477
252	0xbbd4c70d	-0.0064934553
253	0xbc1843dc	-0.009293523
254	0x3b32048c	0.0027163355
255	0xbbcf2b2b	-0.0063222847

base_model.model.gpt_neox.layers.3.attention.query_key_value.lora_A.weight f4 [16, 512]
0	0xbcd6eec2	-0.026236895
1	0x3ac3979f	0.0014922506
2	0x3ce41f9c	0.027847104
3	0x3bb65a34	0.0055649523
4	0xbd2fa27f	-0.042879578
5	0xbc83bcc4	-0.016081221
6	0x3a95d831	0.0011432228
7	0x3c93e015	0.018051187
8	0x3c8f266b	0.017474374
9	0xbc974280	-0.018464327
10	0xbd29e3b6	-0.041476928
11	0x3bdaaeb1	0.006673657
12	0xbc021577	-0.007939688
13	0xbd0909d8	-0.033456653
14	0x3bf0c302	0.0073474655
15	0xbd2c2f41	-0.042037252
16	0x3d2aade0	0.041669726
17	0x3d1e30c7	0.038620736
18	0x3ce842d6	0.028352182
19	0xbc345e23	-0.011008772
20	0xbd141a17	-0.036157694
21	0x3b2d3667	0.0026430131
22	0x3b531b05	0.003221215
23	0xbafc2d50	-0.0019239578
24	0xbbecbf84	-0.007224979
25	0xbd25ddb4	-0.040494636
26	0x3bab7e79	0.0052335826
27	0x3c2b609e	0.010460047
28	0x3d1dd24a	0.038530625
29	0x3cb245e8	0.02176185
30	0xbc6ae8e1	-0.014337749
31	0x3d088d6e	0.033338003
32	0xbb9da6bc	-0.004811136
33	0xbc70a625	-0.014688049
34	0x3d23a72a	0.039954342
35	0xbc1846cf	-0.009294226
36	0x3c01cbb3	0.007922101
37	0x3ce73964	0.028225608
38	0x3c031304	0.008000139
39	0xbaabab1c	-0.0013097259
40	0x3c097bff	0.008391379
41	0x3ca156c7	0.019694699
42	0xbc54bd71	-0.0129846195
43	0x3d148840	0.03626275
44	0xbd36e8e0	-0.04465568
45	0x3d155fe7	0.036468413
46	0x3d492353	0.049105953
47	0x3a9cb34d	0.0011955291
48	0x3ab78025	0.0013999982
49	0x3cb82831	0.022480102
50	0xbc92c2b9	-0.017915117
51	0x3bd38a89	0.0064557237
52	0x3c7450ab	0.014911811
53	0x3cb406c4	0.021975882
54	0x3a785bf3	0.0009474151
55	0x3c21a92c	0.009866994
56	0x3d2091a6	0.0392014
57	0x3c993d42	0.018705968
58	0x3b95cfe6	0.0045719026
59	0xbd1b78bc	-0.03795694
60	0xbd352282	-0.044222362
61	0x3bcbcb4e	0.006219304
62	0x3cba8918	0.02277045
63	0x3c561557	0.013066611
64	0xbcd4dab3	-0.02598319
65	0x3cef613b	0.029221168
66	0xbce9464f	-0.028475909
67	0x3ca46b0b	0.020070573
68	0xbc86293a	-0.01637708
69	0x3d0ad40c	0.03389363
70	0x3c78451a	0.015153194
71	0xbd179050	-0.03700286
72	0x3c4b6404	0.012413982
73	0xbaecc82e	-0.0018065029
74	0x3d29adb5	0.041425426
75	0x3d15b0cb	0.036545556
76	0xbce8e392	-0.028428826
77	0xbbc118e3	-0.0058928593
78	0x3d2d8478	0.04236266
79	0x3a09a8e5	0.00052513025
80	0x3cf9482e	0.030429926
81	0x3d07e387	0.03317597
82	0xbd0b693d	-0.03403591
83	0xbd104a4b	-0.0352271
84	0x3d003a14	0.031305388
85	0x3c0b8f69	0.008518078
86	0xbc8b09ca	-0.016972441
87	0x3cee506b	0.02909108
88	0x3c0b3166	0.008495664
89	0x3b523d0b	0.0032079841
90	0x3c581941	0.013189615
91	0xbd3c571d	-0.045981515
92	0x3d109228	0.035295635
93	0xbd12c5dc	-0.035833225
94	0x3cd19ccd	0.025587464
95	0x3bd845ab	0.006600102
96	0x3a52fac9	0.0008048234
97	0x3cd1b450	0.025598675
98	0xbb5a7a22	-0.0033336957
99	0x3ca43f88	0.020049825
100	0x3d594790	0.053046763
101	0xbc22f79b	-0.009946729
102	0x3cb49cf4	0.022047497
103	0x3c985e9c	0.0185998
104	0xbd2fd227	-0.042925026
105	0x3d1dc6a7	0.038519528
106	0x3c44c24a	0.012009213
107	0x3c8d7792	0.01726893
108	0x39f1ad83	0.00046096378
109	0x3be06788	0.0068482794
110	0xbcc18e21	-0.023627343
111	0x3d125c0f	0.035732325
112	0xbb3a13a4	-0.0028393054
113	0xb94aee21	-0.00019352931
114	0xbcd485f4	-0.02594278
115	0xbc20c58f	-0.009812727
116	0x3d35945d	0.044330943
117	0x3c04a8f4	0.008096922
118	0xbc9c49c0	-0.019078135
119	0xbc8564cc	-0.016283415
120	0xb9a30325	-0.00031092126
121	0x3bdb684d	0.006695783
122	0x3cafa5c0	0.02144134
123	0xbcbdf8b2	-0.023189876
124	0xbd2b4b88	-0.04182008
125	0x3a98d38b	0.0011659724
126	0x3ce0515a	0.027382541
127	0xbd1d8f5d	-0.0384668
128	0x3d191bf8	0.03738019
129	0xbd4cf6ad	-0.050039936
130	0x3ca1341c	0.019678168
131	0xbc427701	-0.011869193
132	0x3c78daab	0.015188853
133	0xbc02c10f	-0.007980599
134	0x3d1fdee8	0.03903094
135	0xbcce6137	-0.02519284
136	0x3cabdcb5	0.020979265
137	0x3c05393e	0.008131323
138	0x3c0ea937	0.008707336
139	0xbc23d5e4	-0.009999726
140	0xbcfe9d45	-0.031080851
141	0x39c2c991	0.00037152742
142	0xbd07a300	-0.033114433
143	0x3b5f9fd8	0.0034122374
144	0xbd396334	-0.045260623
145	0x3d3c7080	0.046005726
146	0xbc8081c1	-0.015686871
147	0x39fc37a1	0.00048106632
148	0x3ca43d13	0.020048654
149	0x3d070551	0.032964054
150	0x3ccf9bb0	0.025342792
151	0x3bf67db5	0.0075223097
152	0xbcff7f51	-0.031188639
153	0x3ceeb35e	0.029138263
154	0xbcce654d	-0.025194788
155	0x3c6db3a1	0.014508159
156	0x3c46745b	0.012112702
157	0x3cb13300	0.021630764
158	0x3d04e5e2	0.032445796
159	0x3d037ad3	0.032099556
160	0xbaa50153	-0.0012588896
161	0x3d21940c	0.03944783
162	0xbc937f49	-0.01800503
163	0xbcfe8bc8	-0.031072512
164	0xbce6e3bc	-0.028184764
165	0xbd36641a	-0.044529058
166	0x3bad23b6	0.005283798
167	0xbbd04961	-0.0063564037
168	0xbc7a161f	-0.015264063
169	0x3cd4c34b	0.02597203
170	0x3cc712ca	0.024300952
171	0x3cd2fdfb	0.025755873
172	0xb9fa1155	-0.0004769663
173	0xbba7d677	-0.0051220017
174	0xbc6d176b	-0.014470915
175	0x3d0a8616	0.03381928
176	0x3bfd9dac	0.007739743
177	0x3c672960	0.014108986
178	0x3c9b4051	0.018951567
179	0xbd0f9d4b	-0.035062116
180	0xbc3ed337	-0.011647037
181	0xbd168d1a	-0.03675566
182	0xbd0ca1e2	-0.03433407
183	0x3d1ff8a5	0.039055485
184	0xbd2a04d1	-0.0415085
185	0x3b2513c8	0.0025188792
186	0xbcc40f7f	-0.02393317
187	0xbcc6278d	-0.024188781
188	0x3ba60700	0.0050667524
189	0xbd03c86b	-0.032173555
190	0xbad358ea	-0.0016124521
191	0x3cc3adb3	0.023886537
192	0x3c835c6e	0.016035285
193	0xbae4c9b6	-0.0017455134
194	0xbcf30c7c	-0.029669039
195	0xbbd38023	-0.006454484
196	0x3d0c08f6	0.034188233
197	0x3cec6381	0.02885604
198	0xbd0486f0	-0.03235525
199	0xbd09111a	-0.033463575
200	0x3bbbc481	0.005730212
201	0x3ce24001	0.02761841
202	0xbce00966	-0.027348232
203	0xbc8bb106	-0.017052185
204	0xbd23463f	-0.039861914
205	0x3b3f0a55	0.0029150445
206	0x3c4e1cf9	0.01258015
207	0x3ca63f64	0.020293899
208	0x3ca996f0	0.020701855
209	0x3c41f6c9	0.011838623
210	0xbcde954b	-0.027170798
211	0xbc85498d	-0.016270423
212	0x3c9d6ac0	0.019215941
213	0x3ce3965b	0.027781656
214	0x3cf5e6c8	0.030017272
215	0x3c9aa1f3	0.018876052
216	0x3cb30d0b	0.021856805
217	0xbd30f558	-0.043202728
218	0xbbb1b1c0	-0.005422801
219	0xbbfefa24	-0.007781284
220	0x3c995b1e	0.018720206
221	0xbbe75113	-0.0070592253
222	0xbc8b9423	-0.01703841
223	0x3c3fdd8c	0.011710536
224	0xbc1a4e47	-0.009418077
225	0xbbe4a4d7	-0.0069776583
226	0xbc8321f6	-0.016007405
227	0xbd10a9cf	-0.035318192
228	0xbb45fd09	-0.0030210635
229	0x3d418263	0.047243487
230	0xbd2a80c9	-0.041626725
231	0x3d09bd5c	0.033627853
232	0x3cc0f267	0.023553086
233	0x3c87d280	0.016579866
234	0x3d37ac55	0.044842083
235	0x3ccc9597	0.024973674
236	0x3ac47acb	0.0014990208
237	0x3c669591	0.014073745
238	0xbc98087f	-0.018558739
239	0xbcfb23de	-0.030656751
240	0x3c0ef03e	0.00872427
241	0x3c95298d	0.01820829
242	0x3c2d8805	0.010591512
243	0x3c982fc9	0.018577473
244	0xbd68cf67	-0.05683842
245	0x3c611f77	0.013740412
246	0x3d317dc0	0.043332815
247	0x3bfc7941	0.0077048843
248	0xbcb3578d	-0.021892333
249	0xbd30ecb6	-0.043194495
250	0x3d02c941	0.031930212
251	0x3cad0aba	0.021123279
252	0x3d2e32ab	0.04252879
253	0xbcc463a9	-0.023973303
254	0x3d112a37	0.03544065
255	0xbb9ef31a	-0.0048507573
