FederatedLLM/Fine_tuning/my_fl_model/checkpoint-1/adapter_model.safetensors (safetensors, 788168 bytes, 12 tensors)

base_model.model.gpt_neox.layers.0.attention.query_key_value.lora_A.weight f4 [16, 512]
0.026559217 -0.021810027 -0.044802744 -0.025509402 0.017864812 -0.011919926 0.0072610783 0.0016323404
0.031518947 -0.037935384 0.012095074 -0.03658059 -0.025163217 -0.025535442 0.040038463 0.049020153
0.0253447 0.023081437 -0.01651102 -0.043676235 0.02247273 -0.02714157 0.028649352 0.02089872
-0.034379184 -0.00095891085 -0.010880011 0.011043103 0.007278951 0.034750693 -0.01761963 0.02829779
-0.031176422 -0.021060193 0.028724616 0.029879976 0.01698833 0.03078438 -0.035157662 -0.002625375
0.018903686 -0.039669044 -0.011856799 -0.03442757 -0.01964915 0.009346371 -0.036242675 0.046469513
0.023962904 0.023950975 -0.021307265 -0.046479948 0.027757267 -0.041927733 -0.02814968 -0.020962458
-0.017513676 0.030213676 0.010177768 -0.03288275 0.032377567 0.021952972 -0.03879471 0.020254917
0.011782617 -0.027224408 -0.028161129 0.01052197 0.027119812 -0.0410068 0.013702273 0.010084834
0.032418374 -0.017977076 0.015503443 0.029780054 -0.027383639 -0.019060392 -0.020908445 -0.03055292
0.028930312 0.008069874 -0.004953171 0.027592639 -0.040467303 -0.005430079 -0.04327095 -0.0010526808
0.024706835 -0.021877587 -0.03584002 0.010885808 -0.006029767 -0.02896577 0.029912697 -0.009655289
0.025735334 0.016540395 -0.034044325 0.018777156 -0.010198285 0.010344321 0.021162186 0.008359458
-0.0020272338 0.036570247 0.033893473 0.038762227 -0.024725825 -0.0032403849 0.0016253657 -0.035352495
-0.023283731 0.0029937015 0.016943216 0.042308424 -0.016246436 -0.014169733 -0.008165377 0.033619374
0.04715933 0.024146697 0.043333802 0.019144148 0.039311897 0.0012706296 0.02467165 -0.008457148
-0.030345889 0.017275132 0.00812412 0.0021401935 0.033898503 -0.023748595 -0.018661572 -0.033252936
0.042031877 0.020828 0.012798748 0.02590963 -0.0145828035 0.04116485 -0.015578619 0.0049824743
0.029664136 0.01587985 -0.021595044 -0.015311737 -0.028647361 -0.043158635 0.028092267 -0.032969702
-0.027524117 -0.03209938 0.04229597 0.02105003 0.042537678 -0.009195662 -0.039847195 -0.03302113
0.018470189 0.03147052 0.033452824 0.013652093 -0.045884658 -0.023982048 -0.027687466 0.027135111
0.042193435 -0.037219133 0.026348356 0.013764352 -0.003186237 -0.027189614 0.008905298 0.041356955
-0.020019623 -0.024264682 -0.006044918 -0.00016262139 0.027637191 0.025339875 0.028491065 -0.012382565
0.01733119 0.013395259 -0.009843618 0.011122933 -0.032981504 -0.0054461663 0.031218383 0.00947462
-0.012101629 0.037121158 0.0013449757 0.02200683 -0.0339899 0.010812607 -0.014028148 -0.0017595752
-0.031753827 0.024910547 0.0314978 0.0054773916 -0.026510708 0.030608008 0.0005636794 0.009794922
-0.0069047664 0.04007407 0.023379743 0.011719495 -0.004797005 0.017894728 -0.03167336 0.0280423
-0.044795346 0.04459723 0.009319975 -0.008652845 0.017438885 -0.036011536 0.025527794 -0.034231946
-0.03344181 0.019992426 0.027817627 0.036240358 0.04479411 0.03779961 -0.0013423307 -0.0068005044
-0.0012100275 0.025713569 0.044775564 0.017131772 -0.019959966 0.043224864 0.017939005 0.007803853
0.04204752 -0.002259796 0.01986109 -0.030322896 -0.008041341 0.018632978 0.008781755 0.027377749
-0.009208861 0.02116912 0.028271997 -0.0247479 0.03185846 -0.014132344 -0.021240061 0.028840536
00000000: b792 d93c f1aa b2bc 1583 37bd 18f9 d0bc
00000010: 3a59 923c cb4b 43bc 57ee ed3b 41f4 d53a
00000020: 031a 013d 2262 1bbd 6b2a 463c 87d5 15bd
00000030: 1723 cebc b42f d1bc 5fff 233d 5bc9 483d
00000040: b09f cf3c 4815 bd3c 1e42 87bc dae5 32bd
00000050: bb18 b83c ff57 debc 0cb2 ea3c cb33 ab3c
00000060: 30d1 0cbd 6b5f 7bba 1342 32bc 22ee 343c
00000070: 4484 ee3b be56 0e3d 0b57 90bc c4d0 e73c
00000080: b265 ffbc 6d86 acbc e34f eb3c dac6 f43c
00000090: 1c2b 8b3c 862f fc3c 7b01 10bd 7c0e 2cbb
000000a0: e7db 9a3c 027c 22bd 0543 42bc ec03 0dbd
000000b0: 41f7 a0bc 8521 193c 3373 14bd d156 3e3d
000000c0: da4d c43c d634 c43c 938c aebc c261 3ebd
000000d0: 3563 e33c 6abc 2bbd 289a e6bc 76b9 abbc
000000e0: d778 8fbc ac82 f73c a7c0 263c 10b0 06bd
000000f0: 579e 043d b8d6 b33c 34e7 1ebd a4ed a53c
00000100: e10b 413c b905 dfbc 2bb2 e6bc 5764 2c3c
00000110: 5e2a de3c bff6 27bd 807f 603c dc3a 253c
00000120: 21c9 043d a944 93bc 2702 7e3c 4df5 f33c
00000130: a753 e0bc 8a24 9cbc 3048 abbc 1e4a fabc
00000140: 43ff ec3c 8137 043c 364e a2bb f509 e23c
00000150: 0bc1 25bd ceee b1bb e13c 31bd 1bfa 89ba
00000160: fd65 ca3c a038 b3bc fccc 12bd 635a 323c
00000170: 5a95 c5bb 9f49 edbc 790b f53c 3831 1ebc
00000180: e8d2 d23c b97f 873c 1072 0bbd 8dd2 993c
00000190: b516 27bc 3a7b 293c 525c ad3c 1cf6 083c
000001a0: 57db 04bb afca 153d e2d3 0a3d 24c5 1e3d
000001b0: d08d cabc a35c 54bb 390a d53a c7cd 10bd
000001c0: 86bd bebc fa31 443b 80cc 8a3c 994b 2d3d
000001d0: 3f17 85bc 2b28 68bc 13c8 05bc 78b4 093d
000001e0: 242a 413d 4bcf c53c c97e 313d 30d4 9c3c
000001f0: 8305 213d 418b a63a 331c ca3c da8f 0abc
00000200: f197 f8bc 9484 8d3c 071b 053c 7d42 0c3b
00000210: 28d9 0a3d 6a8c c2bc 27e0 98bc 3b34 08bd
00000220: 9e29 2c3d 7b9f aa3c d7b1 513c 6f40 d43c
00000230: b6ec 6ebc 799c 283d 773d 7fbc 0644 a33b
00000240: 3402 f33c 7616 823c 17e8 b0bc 14de 7abc
00000250: dfad eabc 1cc7 30bd c121 e63c 3d0b 07bd
00000260: 427a e1bc a47a 03bd 8a3e 2d3d 1d71 ac3c
00000270: fd3b 2e3d 67a9 16bc d036 23bd 2a41 07bd
00000280: cb4e 973c 3be7 003d d405 093d 07ad 5f3c
00000290: 8df1 3bbd 0076 c4bc d3d0 e2bc 744a de3c
000002a0: 06d3 2c3d 1773 18bd 82d8 d73c e083 613c
000002b0: 30d0 50bb c1bc debc 87e7 113c e965 293d
000002c0: 3100 a4bc bac6 c6bc 7314 c6bb 5985 2ab9
000002d0: 6467 e23c 9295 cf3c 1866 e93c 3ee0 4abc
000002e0: 24fa 8d3c ca77 5b3c 2047 21bc f63c 363c
000002f0: 9d17 07bd c175 b2bb b2bd ff3c 703b 1b3c
00000300: e945 46bc 5b0c 183d e549 b03a ab47 b43c
00000310: fe38 0bbd 5c27 313c 51d6 65bc 8ca1 e6ba
00000320: 4d10 02bd 3411 cc3c d603 013d b17b b33b
00000330: fc2c d9bc a5bd fa3c e2c3 133a e17a 203c
00000340: 6141 e2bb b524 243d e086 bf3c 2003 403c
00000350: 3230 9dbb f797 923c edbb 01bd f7b8 e53c
00000360: 537b 37bd 96ab 363d cfb2 183c aac4 0dbc
00000370: fedb 8e3c d580 13bd aa1f d13c cc36 0cbd
00000380: 48fa 08bd 28c7 a33c cbe1 e33c c570 143d
00000390: 077a 373d c4d3 1a3d 25f1 afba c4d6 debb
000003a0: c999 9eba 43a5 d23c 9566 373d ee57 8c3c
000003b0: 1583 a3bc 8e0c 313d d2f4 923c 77b7 ff3b
000003c0: 053a 2c3d 1619 14bb bab3 a23c b967 f8bc
000003d0: d4bf 03bc 30a4 983c 5ae1 0f3c 4d47 e03c
000003e0: c3e0 16bc dd6a ad3c ad9a e73c 1cbc cabc
000003f0: 047e 023d 598b 67bc a3ff adbc fd42 ec3c

base_model.model.gpt_neox.layers.0.attention.query_key_value.lora_B.weight f4 [1536, 16]
-0.0026406215 -0.0021053827 -0.0018037647 0.0033870118 -0.0006387732 0.0022661367 -0.0050142594 -0.005217114
-0.0049888142 0.0013005536 0.0019830284 -0.002673421 0.0011297598 -0.0008109937 -0.0011915482 -0.004570168
-0.0032725427 0.0030143522 0.001408732 -0.0014046056 -0.0007349896 0.00034652208 -0.0019684173 0.0010527764
-0.0038016157 2.1074944e-05 -0.0018105257 -5.935385e-05 0.0024427492 0.0013997117 0.0028569733 -0.0019797815
0.0003082426 0.002681651 -0.0010806816 -0.007001239 0.0029490176 0.0027251788 0.0016128459 0.00075836095
-0.0027319533 0.0016412557 0.0012450045 0.006472873 0.004915002 0.00297138 0.003494654 -0.0017291353
-0.00069680915 0.00038957465 0.0032412007 0.0033303078 -0.0012743443 -0.00034473915 0.0029221834 -0.0006989507
0.0007935906 0.0013001682 -0.0009504529 -0.00097396865 0.0031078714 -0.002395781 0.0066424287 0.00083578995
0.0007737651 0.0009748717 0.002263542 -0.00040311183 0.0025376792 -0.0010436617 0.0009985133 -0.0013630672
0.0033091386 0.0012320818 4.6734214e-05 -0.002158753 0.0035153271 0.0013296688 0.00037439502 -0.0016790702
0.0011126765 -0.0029335343 -0.0020266592 1.3145706e-05 0.0003803357 -0.0010865213 0.0017928951 -0.0042123166
0.0006223949 -0.0009288587 -0.0004648242 -0.0003077897 0.002874618 0.0049672658 0.0024843398 0.0006578281
-0.0013987389 -0.0032516844 0.0017412386 -0.0021656163 -0.003028998 -0.0048996597 -0.0015012496 0.0016253103
-0.00308824 -0.0021857189 -0.0015655179 -0.00026143808 0.00087056827 -0.0041530295 0.0016332908 -0.0030620405
-0.003165863 -0.002595418 -0.002504615 -0.0032452005 0.0026533003 0.0034814805 -0.0050883456 0.0015145071
-0.005110059 -0.0026645155 -0.004046089 -0.00073244004 -0.000109839064 -0.00643135 -0.0020410148 -0.0018809603
0.0022304766 -0.003577108 -0.0014585337 -0.0019258457 0.0012622514 0.00021167251 5.6593537e-05 -0.0041388315
0.0011091945 -0.0037867415 -0.0013619672 0.00020725578 -0.00032610292 -0.0009877029 0.0005002559 -0.0011157016
0.0018928454 -0.002507027 -0.00045261977 0.0013722748 0.00065441534 0.0015318048 0.0008797349 -0.0021787726
-0.0023738923 -0.0009754843 -0.0026880128 0.0028655927 0.0019561225 9.041159e-05 0.0016786965 0.0040465007
0.0011973752 0.0033856202 -0.00061569567 0.0021027278 0.0008046973 -0.0001239173 0.00012782162 0.00050562824
0.0032557289 0.00024808449 -0.0022853795 -0.0039373 -0.0027109012 -0.0015526994 0.004520749 -0.0039198734
-0.0013974617 -0.0020611573 -0.00037050244 0.0037507024 0.0002452869 0.0034625633 0.0001531119 0.001566783
0.0011845753 0.0007672142 0.0008390494 0.002369145 -0.0005846439 0.00096410856 0.0042480584 0.002456826
0.0027420418 0.00018703695 -0.00096189196 -0.0013241274 0.0011982304 -0.0038225793 -0.003959367 0.002205734
-0.0006221862 0.0012368015 -0.0034335225 0.0027372886 0.002020163 0.005935168 0.00076525717 -0.0041003143
5.7113903e-06 0.0008221052 0.002237715 0.0034467208 0.0015382447 -0.0016840674 0.0012307002 0.0032961622
0.0010258406 0.0024997357 -0.0011149795 0.00016883567 -0.0021260113 -0.0008068339 0.00021652704 0.0020232515
0.0046699475 0.005085731 -0.0020871891 -0.0014377952 0.0031211665 0.00060999626 -0.0022792346 0.0010757343
0.0004656212 -0.00019118142 0.002064888 0.0038360173 -0.00309114 0.0042203665 -1.2811004e-06 0.0011954206
0.0031174303 0.0026870058 -0.0010719725 0.0012228588 -0.00014158721 -0.0021927506 0.00067204755 -0.0025924859
0.0030299868 -0.0034859956 0.0015374611 0.002744337 -0.003618091 0.0042966753 -0.0024241942 0.00042468618
00000000: 470e 2dbb 76fa 09bb 4d6c ecba a1f8 5d3b
00000010: 5873 27ba 7783 143b a84e a4bb 53f4 aabb
00000020: 3579 a3bb 5677 aa3a b2f5 013b 9034 2fbb
00000030: 7314 943a de98 54ba b92d 9cba 59c1 95bb
00000040: 2878 56bb 708c 453b 34a5 b83a be1a b8ba
00000050: 51ac 40ba 68ad b539 9000 01bb 50fd 893a
00000060: 8724 79bb 19ca b037 294f edba b6f2 78b8
00000070: 8816 203b 8876 b73a 0f3c 3b3b 39bf 01bb
00000080: 9f9b a139 a3be 2f3b a8a5 8dba a66a e5bb
00000090: 4e44 413b ea98 323b 2166 d33a becc 463a
000000a0: 920a 33bb 671f d73a 6b2f a33a 651a d43b
000000b0: 060e a13b 7cbb 423b 9106 653b 27a4 e2ba
000000c0: 12aa 36ba d33f cc39 536a 543b 4b41 5a3b
000000d0: e607 a7ba 1bbe b4b9 1a82 3f3b ca39 37ba
000000e0: f708 503a 686a aa3a d027 79ba ee51 7fba
000000f0: 6ead 4b3b 8902 1dbb bba8 d93b ea18 5b3a
00000100: 7fd6 4a3a 888e 7f3a ef57 143b c158 d3b9
00000110: 314f 263b 7acb 88ba 8ce0 823a f2a8 b2ba
00000120: 22de 583b ce7d a13a 7b04 4438 de79 0dbb
00000130: 6761 663b 4848 ae3a 734a c439 3f14 dcba
00000140: 3ad7 913a 8a40 40bb b3d1 04bb 618c 5c37
00000150: cb67 c739 9b69 8eba 94ff ea3a 7907 8abb
00000160: 3728 233a a77e 73ba a6b3 f3b9 d65e a1b9
00000170: 1664 3c3b 72c4 a23b 4ed0 223b 1972 2c3a
00000180: e455 b7ba 361a 55bb 463a e43a 03ed 0dbb
00000190: 2782 46bb 538d a0bb 94c5 c4ba 5d08 d53a
000001a0: 1264 4abb 473e 0fbb 1032 cdba a011 89b9
000001b0: d936 643a 2316 88bb 2514 d63a 84ac 48bb
000001c0: 5e7a 4fbb e317 2abb 7824 24bb 6ead 54bb
000001d0: fee2 2d3b 8d29 643b 23bc a6bb 6d82 c63a
000001e0: 4872 a7bb 279f 2ebb 0e95 84bb 3801 40ba
000001f0: 6659 e6b8 13be d2bb 8cc2 05bb 8e8a f6ba
00000200: 302d 123b ea6d 6abb 452c bfba a96c fcba
00000210: 2172 a53a 68f4 5d39 d95e 6d38 099f 87bb
00000220: 6462 913a fb2a 78bb 0984 b2ba cd52 5939
00000230: cbf8 aab9 cf75 81ba 9b23 033a bc3c 92ba
00000240: 5a19 f83a ef4c 24bb 994d edb9 e7dd b33a
00000250: 128d 2b3a d7c6 c83a 029e 663a bdc9 0ebb
00000260: 4e93 1bbb a5b7 7fba 5f29 30bb abcc 3b3b
00000270: 4a32 003b 5a9b bd38 b507 dc3a 8298 843b
00000280: 3ff1 9c3a 48e1 5d3b a366 21ba ebcd 093b
00000290: 52f2 523a ccef 01b9 db07 0639 238c 043a
000002a0: 115e 553b 5611 8239 4ec6 15bb 7704 81bb
000002b0: 60a9 31bb f283 cbba cb22 943b 4872 80bb
000002c0: 092b b7ba 7b14 07bb ff3f c2b9 58ce 753b
000002d0: da99 8039 2cec 623b aa8c 2039 835c cd3a
000002e0: c043 9b3a e01e 493a a7f3 5b3a a843 1b3b
000002f0: ca42 19ba 3bbc 7c3a 4c33 8b3b b302 213b
00000300: d4b3 333b 591f 4439 7a27 7cba 588e adba
00000310: f10d 9d3a 3d84 7abb 94bd 81bb 138e 103b
00000320: 361a 23ba 2c1c a23a f304 61bb 1564 333b
00000330: b664 043b cc7b c23b 8a9b 483a ee5b 86bb
00000340: 78a4 bf36 8c82 573a a1a6 123b 61e2 613b
00000350: ed9e c93a edbb dcba 724f a13a 6d04 583b
00000360: 8075 863a 9bd2 233b 8124 92ba 7b09 3139
00000370: 8d54 0bbb b581 53ba 890b 6339 8798 043b
00000380: 5c06 993b 34a6 a63b 39c9 08bb 6774 bcba
00000390: 7c8c 4c3b 28e8 1f3a 365f 15bb a7ff 8c3a
000003a0: 9f1e f439 df77 48b9 1253 073b b165 7b3b
000003b0: b994 4abb 004b 8a3b 46f2 abb5 a9af 9c3a
000003c0: cd4d 4c3b 7a18 303b 6e81 8cba 5548 a03a
000003d0: 0777 14b9 40b4 0fbb 592c 303a b2e6 29bb
000003e0: be92 463b 4d75 64bb a284 c93a 56da 333b
000003f0: 7f1d 6dbb 20cb 8c3b 3bdf 1ebb 6aa8 de39

base_model.model.gpt_neox.layers.1.attention.query_key_value.lora_A.weight f4 [16, 512]
0.00037503126 -0.022960622 0.03410357 -0.030702272 -0.032739725 -0.015286093 -0.019134834 -0.009099223
0.027604293 0.021802338 -0.027816912 -0.032940082 0.001143329 -0.014384789 0.030399902 0.0039323983
-0.027666774 -0.009298867 -0.04222206 -0.0051729204 -0.04037813 0.038020775 0.02908541 0.012584046
0.010207173 -0.006512621 0.0066775563 -0.0073569166 0.026780812 0.033452958 0.006873531 0.01747218
-0.0031214699 -0.0051333746 0.018359441 0.01346015 -0.034721162 0.032764576 -0.026422348 -0.034630883
-0.011627486 0.022359401 -0.030153377 -0.026843317 0.021497129 -0.0425958 -0.034421097 -0.0063976515
-0.0076279147 0.023398858 0.012702974 0.028723596 -0.019833332 -0.0017001058 0.03917235 -0.023870964
-0.013403474 -0.020946179 -0.023781583 0.037446383 0.031245444 0.039921604 -0.021900967 -0.021002432
-0.01551464 -0.011464436 -0.013787227 0.022815539 0.045828443 -0.04282142 -0.016182581 -0.035894163
0.025855707 -0.027704783 -0.0068688868 0.02155928 0.032464836 0.04006718 -0.036281776 -0.0077227443
0.027672006 0.008244134 -0.012095151 -0.035883147 -0.024301218 -0.022493115 0.03611581 -0.031740274
0.0104868105 0.0315344 -0.02784057 -0.028002305 -0.02099309 0.025792371 -0.047090348 -0.018961
0.021405298 0.045641083 0.018770797 0.015902974 -0.01815061 0.0038559972 -0.002545972 0.017054006
0.025038088 0.0024134286 -0.03973053 -0.027101733 0.019322338 0.011472229 0.013799712 -0.041320466
0.018085478 0.03885128 0.003578916 -0.030453386 0.017531315 -0.030747762 0.007648895 -0.044374026
-0.042667456 -0.014476751 0.001011586 -0.034936547 -0.013124316 0.025198659 0.012560261 0.03504793
0.006911037 0.027214201 -0.011683571 -0.03769719 -0.004363102 0.03813767 -0.031344496 -0.029040907
-0.004177604 -0.04261213 0.033821233 0.0072402987 0.010582989 -0.03203579 0.046169203 0.005743008
-0.013664418 0.008799482 -0.026377723 0.029601563 0.02201507 -0.026841614 0.017079491 0.028768245
0.026607586 0.0039910646 0.013276236 0.039949562 -0.008561724 -0.007841555 0.010368006 0.029355425
-0.025905758 -0.03374519 -0.010192626 0.028947745 0.017943967 0.011905743 0.002784415 0.0010272174
0.025720373 0.037695047 -0.018509194 0.02179062 -0.018716183 0.012471031 0.035775587 -0.021177763
0.027845114 -0.0071878294 0.043265127 0.00920624 0.0035070342 -0.03026638 -0.00562735 -0.036809407
0.037491526 -0.0331018 0.033314552 0.0024316995 -0.0062181964 -0.01414316 -0.030758055 -0.0007920415
-0.03284343 -0.015312697 0.036125474 -0.011486023 0.0474774 -0.002006393 -0.017305274 -0.029677404
0.027186343 0.017138353 -0.012121382 -0.01225326 -0.0080278 -0.03656538 -0.012489919 0.009769779
-0.030636253 0.03260639 0.04157239 0.006236267 -0.0067003504 0.0327037 0.010635245 -0.026180383
0.0416154 0.007838072 0.025827024 -0.02865748 0.010923631 0.009002767 -0.019939143 -0.029977074
-0.0063220584 -0.0069945743 0.0021625953 -0.043056842 -0.042273227 0.0053084074 0.0089863 -0.037818033
0.028993785 -0.02176302 0.03621046 0.008519643 -0.006322173 -0.031635366 0.015145932 -0.04435204
0.03120237 0.0024306583 0.02140449 -0.008808331 -0.031547014 -0.032330137 0.024581807 -0.034003757
-0.02130117 0.03887055 -0.039637107 -0.025693253 0.032227706 0.032251753 0.0031016686 0.015122143
00000000: d89f c439 ea17 bcbc 2fb0 0b3d 5583 fbbc
00000010: 171a 06bd 8572 7abc a8c0 9cbc e814 15bc
00000020: 6622 e23c d19a b23c 4be0 e3bc 2eec 06bd
00000030: c1db 953a 2eae 6bbc 3709 f93c 59db 803b
00000040: 6ea5 e2bc 465a 18bc 0af1 2cbd 9a81 a9bb
00000050: 8a63 25bd acbb 1b3d 8744 ee3c 512d 4e3c
00000060: fd3b 273c d367 d5bb 67cf da3b 4a12 f1bb
00000070: 6f63 db3c f805 093d 5b3b e13b d121 8f3c
00000080: 9391 4cbb de35 a8bb 8a66 963c f687 5c3c
00000090: c737 0ebd 2634 063d ae73 d8bc 1dd9 0dbd
000000a0: 3681 3ebc 102b b73c 3704 f7bc 84e6 dbbc
000000b0: bf1a b03c ef78 2ebd 23fd 0cbd 64a3 d1bb
000000c0: 96f3 f9bb f6ae bf3c 2220 503c bf4d eb3c
000000d0: 8379 a2bc 16d6 deba 3073 203d 0a8d c3bc
000000e0: 3f9a 5bbc 5297 abbc 98d1 c2bc 6161 193d
000000f0: 72f6 ff3c d684 233d a869 b3bc 4b0d acbc
00000100: 1e31 7ebc 54d5 3bbc d2e3 61bc a7e7 ba3c
00000110: 9bb6 3b3d 8365 2fbd 5591 84bc c205 13bd
00000120: 59cf d33c 24f5 e2bc 6614 e1bb 169d b03c
00000130: d9f9 043d 7c1d 243d 339c 14bd 130f fdbb
00000140: 67b0 e23c 6712 073c bd2a 46bc 35fa 12bd
00000150: 5913 c7bc 7b43 b8bc 2cee 133d 1702 02bd
00000160: dfd0 2b3c 372a 013d e811 e4bc 1765 e5bc
00000170: b3f9 abbc 864a d33c cfe1 40bd 1954 9bbc
00000180: 2a5a af3c 25f2 3a3d 37c5 993c f446 823c
00000190: 97b0 94bc e6b4 7c3b 52da 26bb d8b4 8b3c
000001a0: ad1c cd3c 9d2a 1e3b 7bbc 22bd 7404 debc
000001b0: e149 9e3c 04f6 3b3c 3018 623c a63f 29bd
000001c0: ff27 943c 8522 1f3d 3f8c 6a3b 6179 f9bc
000001d0: d59d 8f3c bbe2 fbbc 95a3 fa3b 8ac1 35bd
000001e0: 12c4 2ebd e52f 6dbc 3297 843a a019 0fbd
000001f0: 5f07 57bc 6b6d ce3c 8ec9 4d3c 6b8e 0f3d
00000200: fb75 e23b 51f0 de3c 736c 3fbc 5e68 1abd
00000210: 5af8 8ebb 3f36 1c3d 1663 00bd 32e7 edbc
00000220: 48e4 88bb 0f8a 2ebd 2288 0a3d 0740 ed3b
00000230: 4664 2d3c f637 03bd eb1b 3d3d d82f bc3b
00000240: b9e0 5fbc b42b 103c 1816 d8bc fa7e f23c
00000250: f358 b43c f2e2 dbbc 4aea 8b3c 62ab eb3c
00000260: 27f8 d93c 7ac7 823b 9284 593c 27a2 233d
00000270: 7946 0cbc de79 00bc 92de 293c ca7a f03c
00000280: 5038 d4bc 6538 0abd f9fe 26bc d223 ed3c
00000290: 3aff 923c 4e10 433c bb7a 363b b2a3 863a
000002a0: 88b3 d23c 1f66 1a3d 98a0 97bc 3e82 b23c
000002b0: ae52 99bc 4c53 4c3c 6c89 123d fd7c adbc
000002c0: 701b e43c e287 ebbb c636 313d c5d5 163c
000002d0: 45d6 653b 33f1 f7bc a265 b8bb 76c5 16bd
000002e0: b790 193d c195 07bd d774 083d 265d 1f3b
000002f0: 03c2 cbbb b6b8 67bc 51f8 fbbc 01a1 4fba
00000300: d586 06bd 1be2 7abc 4ef8 133d df2f 3cbc
00000310: aa77 423d b07d 03bb cac3 8dbc 071e f3bc
00000320: e5b5 de3c bb65 8c3c c398 46bc e6c1 48bc
00000330: 0987 03bc 94c5 15bd 84a2 4cbc 6c11 203c
00000340: e1f8 fabc 478e 053d cf47 2a3d 9959 cc3b
00000350: 9d8e dbbb 51f4 053d 733f 2e3c 3e78 d6bc
00000360: e974 2a3d 426b 003c 3293 d33c 17c3 eabc
00000370: 07f9 323c 5780 133c 6a57 a3bc 7b92 f5bc
00000380: 4529 cfbb be32 e5bb 54ba 0d3b 5f5c 30bd
00000390: b126 2dbd 26f2 ad3b 463b 133c 15e7 1abd
000003a0: 6084 ed3c 5c48 b2bc 6b51 143d f995 0b3c
000003b0: 3b2a cfbb 1694 01bd a526 783c 7caa 35bd
000003c0: 1d9c ff3c ae4b 1f3b 7858 af3c d150 10bc
000003d0: 7137 01bd 9b6c 04bd c95f c93c 8647 0bbd
000003e0: cb7f aebc ba36 1f3d 855a 22bd a87a d2bc
000003f0: 3301 043d 6a1a 043d 5d45 4b3b ddc2 773c

base_model.model.gpt_neox.layers.1.attention.query_key_value.lora_B.weight f4 [1536, 16]
0.0028202438 -0.0011498482 0.002081353 -0.0026057996 0.003656618 0.00061202096 0.00047155138 0.0019795494
-0.0013803574 0.002163416 0.00092394947 0.0020066479 0.0012898314 -0.0024359573 -0.0014862355 0.00038620224
-0.0010881524 -0.0021304756 -0.0051028817 -0.0002374713 -0.0006114882 -0.0009222515 0.004191511 0.0009829908
-0.0012919828 -0.0046225614 0.0031452898 0.00035914787 0.0019972704 0.00049672264 -0.0008135499 0.0019395223
-0.0013100752 -9.9611e-05 -0.0045422614 -0.00026286845 -0.001239362 0.0015499655 -0.0011075226 0.0023892636
-0.002088787 0.0018813361 0.0036370275 0.002419931 -0.0028073438 -0.0011136989 0.00202372 -0.004117595
0.003154389 -0.0008798922 0.0017552384 -0.00083214644 -0.0013328935 0.002916959 -0.0015605103 -0.0018735412
0.005635091 0.0009242043 0.0020101578 -0.0038270461 0.001301058 -0.004109999 -0.005061849 0.0009434856
0.0016144747 -0.0041411896 -0.00096638396 -0.0030119414 0.00072242063 -0.00013167622 -0.0023774318 -0.000102986334
-0.00057298754 -0.0008129071 -0.00081786775 0.0029408794 -0.0020069277 -0.0022416064 -0.0027015104 0.0020267435
-0.004592456 -0.0016477484 -0.0014111272 0.0012521525 -0.0015928727 -0.0011479198 -0.0006197317 0.0038540564
9.116476e-06 0.00078339205 0.0033459272 0.0025670214 -0.0001385963 -0.0024039454 -0.00047251052 0.0006400701
0.00023470938 0.0026762064 -0.0021658784 -0.002237059 0.00027635653 0.00055512367 0.003058065 -0.0019223626
-0.000419585 -0.0005114934 0.0010584091 0.0008354404 -0.0035812717 0.0012600811 -0.0012775741 -0.0005352879
0.0022441 0.00066780526 0.00068920763 0.0009727286 0.003390191 -0.003191401 0.00036073817 0.00080662774
-6.650979e-05 -0.00065322453 -0.0014471123 -0.00014587822 0.0012023658 0.0029086354 0.001200985 -0.00026491852
0.0018286305 -0.0015162551 0.0022067367 -0.00064142846 0.0019575157 -0.0031026748 0.0009477568 -0.0004910551
-0.0010064256 -0.0024321734 -0.00096890767 0.001010468 0.0035378626 0.0016999905 0.0023977587 0.00058169966
-0.0005093448 8.255127e-05 0.0019470216 -0.0022169142 0.0027113822 -0.0024829984 -9.788164e-05 0.00026531238
-0.004383401 0.0073674335 0.0037564193 0.0015073755 -0.0025847487 -0.0013069693 0.007528471 -0.0011077822
0.0019079603 -0.0011228643 0.0027884156 0.0016995628 0.003932021 0.0035575833 -0.0009548104 -0.0025636642
-0.00075063726 0.0019983468 -0.001455156 -0.0006890232 -0.00053251977 -0.004190095 0.004083146 0.00023285659
0.0023302631 -8.612626e-05 -0.0013607396 -0.00083875144 -0.0015001436 -0.00059688516 -6.54907e-05 0.005605899
-0.0009827019 -0.004274582 -0.00022482901 0.0010041513 0.0025144492 0.003797472 0.0024177239 0.0049123196
0.0019621109 0.0024313997 -0.00057226414 -0.0019247837 0.0019046365 -0.0024713406 -0.00033433273 0.0008056426
0.0018131363 0.0037793785 -0.00031113488 0.00080185663 0.0010120227 0.00045801635 -0.00068864605 -0.0021768892
-0.002272887 -0.00045926383 0.0037300733 -0.0005217574 0.0009408345 0.003211787 0.0027780219 0.0012263651
-0.0007902127 0.00076885626 -0.0016480067 0.003336272 0.00010236836 -0.0021239796 -0.0011862523 -0.0006540173
0.00542372 0.0027636532 0.00021920161 -0.002379117 -0.00028627084 0.002007755 0.00031253762 -0.00111629
0.0004430517 -0.004765101 0.007947713 -0.0071361726 0.004264008 -0.0035445038 0.0020066064 0.0029485794
-0.004496468 -0.002534501 0.0045825955 0.00037936462 0.002067756 -0.0012021399 0.0024076449 1.8134244e-05
0.0019703936 -0.0010655923 -0.002733949 -0.0007662211 -0.0021010633 0.004220851 -0.002500946 0.0024297906
00000000: d7d3 383b 81b6 96ba 4f67 083b 10c6 2abb
00000010: dfa3 6f3b 0870 203a 8e3a f739 54bb 013b
00000020: 1ced b4ba 19c8 0d3b 3335 723a f781 033b
00000030: 8f0f a93a 95a4 1fbb cacd c2ba 307b ca39
00000040: 56a0 8eba 739f 0bbb 1336 a7bb b701 79b9
00000050: 474c 20ba 40c3 71ba f158 893b b3d7 803a
00000060: c057 a9ba db78 97bb 3521 4e3b 034c bc39
00000070: a3e4 023b 7e36 023a 6944 55ba 9237 fe3a
00000080: d4b6 abba 40e6 d0b8 40d7 94bb 9bd1 89b9
00000090: 1772 a2ba 3628 cb3a 4b2a 91ba 3195 1c3b
000000a0: 08e4 08bb 2a97 f63a 325b 6e3b b597 1e3b
000000b0: 6afb 37bb 89f9 91ba 63a0 043b e4ec 86bb
000000c0: deb9 4e3b 91a8 66ba 0710 e63a 6724 5aba
000000d0: 7cb4 aeba 742a 3f3b 098a ccba 9c91 f5ba
000000e0: 92a6 b83b 4d46 723a dabc 033b 2ecf 7abb
000000f0: 4388 aa3a 2cad 86bb dedd a5bb 3f54 773a
00000100: c89c d33a d1b2 87bb ee54 7dba fe63 45bb
00000110: d460 3d3a 9112 0ab9 b0ce 1bbb 5efa d7b8
00000120: 8b34 16ba 4619 55ba 2d66 56ba c5bb 403b
00000130: a986 03bb eae7 12bb d30b 31bb 1dd3 043b
00000140: 507c 96bb 43f9 d7ba 92f5 b8ba 441f a43a
00000150: f0c7 d0ba cc75 96ba 7e75 22ba 5694 7c3b
00000160: f7f2 1837 8d5c 4d3a 5847 5b3b 793b 283b
00000170: 2954 11b9 838b 1dbb 4abb f7b9 61ca 273a
00000180: 521c 7639 4b63 2f3b 69f1 0dbb 9f9b 12bb
00000190: f2e3 9039 b885 113a d169 483b c9f7 fbba
000001a0: bffb dbb9 be15 06ba 51ba 8a3a 7501 5b3a
000001b0: c5b3 6abb 4e29 a53a 4674 a7ba 9052 0cba
000001c0: c011 133b a70f 2f3a f1ab 343a b6fe 7e3a
000001d0: f72d 5e3b d326 51bb 7521 bd39 df73 533a
000001e0: 2c7b 8bb8 283d 2bba 08ad bdba e3f6 18b9
000001f0: b498 9d3a ce9e 3e3b 5f6a 9d3a c3e4 8ab9
00000200: a8ae ef3a 14bd c6ba e69e 103b 8925 28ba
00000210: aa49 003b 3f56 4bbb e272 783a 26ba 00ba
00000220: 0aea 83ba 1965 1fbb 4bfe 7dba ae71 843a
00000230: 7cdb 673b 37d2 de3a b723 1d3b 347d 183a
00000240: 8d85 05ba 601f ad38 3433 ff3a a649 11bb
00000250: 72b1 313b cdb9 22bb ce45 cdb8 a019 8b39
00000260: a2a2 8fbb 836a f13b 422e 763b 2193 c53a
00000270: e364 29bb 9d4e abba 64b1 f63b 0133 91ba
00000280: 8614 fa3a 132d 93ba dabd 363b ddc3 de3a
00000290: 2fd8 803b 5826 693b 3e4c 7aba 2603 28bb
000002a0: 6ac6 44ba b2f6 023b efba beba 909f 34ba
000002b0: cc98 0bba 104d 89bb e9cb 853b f72a 7439
000002c0: 54b7 183b af9e b4b8 d85a b2ba a8df 5bba
000002d0: 77a0 c4ba 4978 1cba 0d58 89b8 b0b1 b73b
000002e0: 01ce 80ba cb11 8cbb 14c0 6bb9 ba9d 833a
000002f0: 75c9 243b 02df 783b ad72 1e3b 86f7 a03b
00000300: c296 003b 1e58 1f3b ff03 16ba 0649 fcba
00000310: ffa4 f93a 37f6 21bb 6149 afb9 c231 533a
00000320: c2a6 ed3a 73af 773b d11f a3b9 b033 523a
00000330: d9a5 843a ea21 f039 4186 34ba 24aa 0ebb
00000340: b7f4 14bb 59c9 f0b9 3f74 743b 8cc6 08ba
00000350: 56a2 763a d87c 523b 790f 363b fcbd a03a
00000360: 4726 4fba 128d 493a ee01 d8ba 5ba5 5a3b
00000370: 98ae d638 7732 0bbb 067c 9bba 5c72 2bba
00000380: 76b9 b13b 681e 353b 7cd9 6539 f6ea 1bbb
00000390: 9f16 96b9 8a94 033b 17dc a339 7a50 92ba
000003a0: 6449 e839 9024 9cbb 2037 023c 8ed6 e9bb
000003b0: 17b9 8b3b e84a 68bb 4581 033b f43c 413b
000003c0: 1c57 93bb df19 26bb 9929 963b 75e5 c639
000003d0: 3083 073b 1f91 9dba 94c9 1d3b fe1e 9837
000003e0: b821 013b 58ab 8bba 0e2c 33bb 3adc 48ba
000003f0: feb1 09bb 114f 8a3b e9e6 23bb 1f3d 1f3b

base_model.model.gpt_neox.layers.2.attention.query_key_value.lora_A.weight f4 [16, 512]
0.035912298 -0.036682613 -0.0053970483 0.018887648 -0.0458158 -0.027502742 -0.017488029 0.003493783
0.035503373 -0.0020018124 0.006930555 0.013467615 0.03302099 -0.0150641445 -0.020788794 0.033547036
0.02519196 -0.039679352 -0.04711197 0.027852172 -0.009533504 0.014867088 -0.00131706 0.03782383
0.03667969 0.034578655 -0.0008800265 0.024896387 -0.0056758765 0.008768133 0.033626787 -0.0024136237
-0.014364263 -0.0037215597 0.00033429734 0.04487407 0.022592124 -0.038404588 0.0041128504 0.019351047
0.045375925 -0.014408849 0.01595316 -0.023357283 0.0010527831 0.03468702 0.0074722087 -0.020908454
0.0072619566 -0.01598862 -0.030852918 0.020458154 0.039305784 -0.033786006 0.027674641 0.02547748
0.044248693 0.02879285 -0.034444913 -0.012465555 0.01430609 0.008322776 0.03861757 0.004635421
-0.04380352 -0.046242796 -0.039339166 -0.022970797 -0.012376725 0.039865706 -0.012404636 0.03752344
0.0070781056 -0.00066350884 -0.0037788202 0.028513264 -0.015238093 -0.0006252021 -0.03514626 0.024544222
-0.013102155 -0.004647065 -0.013173678 0.020548003 -0.039831858 0.041330572 -0.019347059 0.027508449
0.031510986 0.0016823028 -0.026151616 -0.0060441284 -0.010902893 1.996983e-05 -0.020272436 -0.031336594
0.042584304 0.002212196 0.030106902 0.00261836 0.033151023 0.023420619 0.042051096 0.03996088
-0.026579171 0.024935577 0.0008653887 -0.038400453 0.03483023 -0.045875758 0.02673618 0.022772012
-0.005061783 0.018536652 -0.043024685 0.029312255 -0.021695646 -0.00883434 -0.03245649 0.034060832
-0.031674135 -0.033206884 0.022077743 0.02677212 0.037580464 0.00487248 0.043828268 -0.036494996
0.039003126 0.01085352 -0.011118961 -0.037925366 -0.0026437817 -0.0066716997 0.017641133 -0.0085597355
0.013955526 -0.013502805 -0.007223716 -0.02010568 0.043609582 -0.006786571 -0.033136 0.043042034
-0.002673729 0.01611288 -0.013703078 0.018760951 -0.012496102 0.033031873 -0.033724878 -0.02243084
0.00423598 -0.014871156 0.03465996 0.020446818 -0.009666408 0.009777708 -0.0057642376 0.033000533
0.035347003 0.030686267 0.047204174 0.041551728 0.01692848 -0.027930653 -0.014194335 0.025712986
0.013056748 0.0007560961 -0.031762686 0.029631382 0.028296243 0.032516122 0.017835924 0.040544998
-0.040832095 -0.024609419 0.037606202 -0.034403164 -0.023037197 -0.00510538 -0.014429367 0.012646322
-0.021940874 -0.016976884 -0.025982244 -0.002614381 0.0128703015 -0.027444243 -0.026511915 -0.021275757
-0.00019278255 -0.021518871 0.02419131 -0.021514678 -0.024452055 0.029451849 0.005755151 0.011060874
0.0154426815 0.016471218 0.036833677 0.024438215 -0.02187345 -0.03797176 -0.019019177 0.012371224
-0.010289289 0.008404367 -0.013815039 -0.039221328 0.029301858 0.010146129 -0.030297747 -0.00982681
-0.025358036 0.03164314 0.017742222 -0.03301686 -0.0042158477 -0.024900647 0.027331823 0.039155703
-0.011707619 -0.013976958 0.023949936 0.008448624 0.03389618 -0.029319871 0.010229063 0.034027487
0.0011911003 -0.022211913 -0.012102946 0.027342666 -0.016314443 0.02049875 0.031207027 0.024394548
-0.0019893087 -0.04523794 0.0007904024 0.023902375 0.00914636 -0.0065174005 -0.038026657 0.037491925
0.0062997807 0.0333991 0.03364412 0.028805759 -0.018852219 0.0444297 0.02257756 -0.0061261007
00000000: c618 133d 8240 16bd b9d9 b0bb 45ba 9a3c
00000010: 59a9 3bbd 6e4d e1bc 0e43 8fbc f4f7 643b
00000020: fc6b 113d d730 03bb b619 e33b 45a7 5c3c
00000030: 0541 073d 9acf 76bc 434d aabc 9e68 093d
00000040: 5f5f ce3c d186 22bd 7bf8 40bd 3d2a e43c
00000050: 6a32 1cbc 1695 733c 33a1 acba 29ed 1a3d
00000060: 713d 163d 59a2 0d3d 94b1 66ba 82f3 cb3c
00000070: b4fc b9bb 37a8 0f3c 3ebc 093d e32d 1ebb
00000080: 1658 6bbc 69e5 73bb a144 af39 dfcd 373d
00000090: 1e13 b93c 214e 1dbd 17c5 863b 1686 9e3c
000000a0: 1bdc 393d 1813 6cbc 34b0 823c c657 bfbc
000000b0: 8afd 893a fa13 0e3d 6ed9 f43b 3548 abbc
000000c0: b5f5 ed3b 91fa 82bc 42bf fcbc dc97 a73c
000000d0: 1aff 203d 3263 0abd eeb5 e23c 26b6 d03c
000000e0: 1e3e 353d fcde eb3c 1c16 0dbd 543c 4cbc
000000f0: 1764 6a3c 415c 083c 752d 1e3d bbe4 973b
00000100: 526b 33bd 1669 3dbd 1b22 21bd 412d bcbc
00000110: bfc7 4abc 394a 233d d03c 4bbc 2eb2 193d
00000120: 74ef e73b 53ef 2dba 15a6 77bb a694 e93c
00000130: 32a9 79bc 9ae4 23ba 86f5 0fbd f710 c93c
00000140: 6caa 56bc 6846 98bb 69d6 57bc 4954 a83c
00000150: bb26 23bd 3f4a 293d b97d 9ebc 6659 e13c
00000160: aa11 013d b780 dc3a ea3b d6bc d30d c6bb
00000170: 0ca2 32bc e284 a737 6112 a6bc cd5a 00bd
00000180: e16c 2e3d 7dfa 103b c0a2 f63c cb98 2b3b
00000190: 5ec9 073d 99dc bf3c c53d 2c3d 05ae 233d
000001a0: 90bc d9bc b245 cc3c 41db 623a cb49 1dbd
000001b0: 25aa 0e3d 38e8 3bbd d505 db3c 5f8c ba3c
000001c0: 50dd a5bb 2dda 973c a73a 30bd 4120 f03c
000001d0: 11bb b1bc e8bd 10bc 19f1 04bd 5f83 0b3d
000001e0: bdbc 01bd f103 08bd 62dc b43c 3451 db3c
000001f0: f9ed 193d 53a9 9f3b 4585 333d c77b 15bd
00000200: bec1 1f3d f6d2 313c 4d2c 36bc a157 1bbd
00000210: 4c43 2dbb 469e dabb 2384 903c 223e 0cbc
00000220: b8a5 643c de3a 5dbc ecb4 ecbb abb4 a4bc
00000230: f69f 323d e261 debb 9db9 07bd d84c 303d
00000240: bb39 2fbb 29ff 833c e082 60bc 91b0 993c
00000250: 73bc 4cbc 6e4c 073d 1923 0abd e2c0 b7bc
00000260: facd 8a3b 26a6 73bc 9af7 0d3d 1680 a73c
00000270: db5f 1ebc ae32 203c eee1 bcbb 912b 073d
00000280: 05c8 103d c461 fb3c 2a59 413d 2532 2a3d
00000290: 98ad 8a3c d3ce e4bc 5b8f 68bc 0aa4 d23c
000002a0: f8eb 553c c034 463a 9719 02bd 83bd f23c
000002b0: 86cd e73c a02f 053d a51c 923c 8312 263d
000002c0: 8e3f 27bd b199 c9bc f608 1a3d 55ea 0cbd
000002d0: 81b8 bcbc 084b a7bb 2769 6cbc 8532 4f3c
000002e0: 59bd b3bc 1b13 8bbc b7d8 d4bc 0956 2bbb
000002f0: f5dd 523c c0d2 e0bc 842f d9bc 7f4a aebc
00000300: ac25 4ab9 5848 b0bc db2c c63c 8d3f b0bc
00000310: ad4f c8bc 0145 f13c b595 bc3b ab38 353c
00000320: 4d03 7d3c a6ee 863c e9de 163d a732 c83c
00000330: f32f b3bc 4788 1bbd 1bce 9bbc adb0 4a3c
00000340: 6894 28bc 78b2 093c 7958 62bc 8ba6 20bd
00000350: 730a f03c f33b 263c fb32 f8bc a100 21bc
00000360: a8bb cfbc 3d9c 013d 2358 913c b03c 07bd
00000370: 1825 8abb 71fc cbbc fde6 df3c bb61 203d
00000380: 50d1 3fbc 9cff 64bc a832 c43c 196c 0a3c
00000390: b9d6 0a3d 3a30 f0bc cd97 273c 6860 0b3d
000003a0: b21e 9c3a c2f5 b5bc 6f4b 46bc bafd df3c
000003b0: dea5 85bc ffec a73c e1a5 ff3c 13d7 c73c
000003c0: 105f 02bb 6b4b 39bd 0233 4f3a eace c33c
000003d0: 9dda 153c eb8f d5bb d7c1 1bbd 2291 193d
000003e0: 646e ce3b 7fcd 083d 6bce 093d 0efa eb3c
000003f0: f86f 9abc ebfb 353d 93f4 b83c 75bd c8bb

base_model.model.gpt_neox.layers.2.attention.query_key_value.lora_B.weight f4 [1536, 16]
-0.0017681493 -0.00029285508 0.0035471772 -0.0033664254 -0.004803828 0.0022497696 -0.0019699181 0.0013366836
-0.0001440942 -0.0005991095 0.0015792897 0.0011635341 -0.0037158143 0.0003813822 -0.0010173189 -0.0002056403
0.00045174712 0.0008692938 -0.0025989183 -0.002617078 0.0010091221 0.00014476303 -0.0027841346 -0.0018074048
0.0008838899 0.0040684026 0.004550178 0.0011254553 0.0025758403 -2.2600649e-05 -0.0025872532 -0.0038639258
0.0008653646 0.0032452454 0.0017956072 -0.0009764388 0.0016545614 -0.0059994417 0.0040547764 -0.00071168615
-0.0032191093 0.0018964643 -0.0049997107 0.0008112472 0.00086979003 0.0020663198 -0.0041386713 -0.00053647155
-0.0025129241 -0.0009901735 -9.012512e-05 -0.0012002955 0.0036245107 -0.0017355689 0.0048937676 0.00044181885
0.007985782 -0.0035441148 -0.0017057307 0.0011370956 -0.0046523 -0.0023551239 -0.0027234647 -0.0034168926
0.003734825 -0.00066224206 0.0006239062 0.002810762 -0.00043142185 -0.004004538 0.0006396175 0.0001685593
-0.0020718246 -0.00024479188 0.00084700267 -0.00080581347 -0.002513799 -0.0023703212 -0.001859577 0.000110585584
0.00047963278 -0.0040398645 0.0044479133 0.003308283 0.0009555333 0.00031943276 0.00077903987 0.0020607829
-0.0010067895 -0.0033198446 9.099812e-05 0.00022090603 -0.0016347002 -0.002244682 -0.002150311 0.0020095552
0.0046857507 0.0036280272 0.0016559964 -0.00040906089 -0.0012725095 0.00042110804 -0.005085752 -0.00223994
-0.003726694 0.002815483 -0.00021975827 0.001953369 -0.002298574 0.006140532 -0.0019747356 -0.0024879707
0.0008137347 0.0013248137 0.004258032 0.00048350665 0.0012727183 -0.0016291837 -0.0017373597 0.0018656865
-0.0029901315 -0.006651935 0.00024557757 0.0022876076 0.0074882805 -0.00031111817 0.0026978578 0.0014481294
0.0023890955 0.0022588533 -0.0027818007 -0.004484073 -0.001562573 0.0050202566 -0.00093284255 0.0012729517
0.00012635942 0.003837012 -0.0005599664 0.0028276728 -0.002143675 -0.0046425466 0.005421558 0.00066190766
0.0036129195 0.00012922048 0.0007957208 -0.0010041613 0.0022693747 0.0009683503 0.0031377405 -0.0012327676
-0.004220519 -0.0021403152 -0.0033536544 -0.0019282493 0.0006456829 -0.005465415 9.6522934e-05 0.005084483
-0.0016095437 -0.0022430993 -0.0008463619 -0.0009331766 0.00028748438 -0.00038926088 -0.0034277115 9.326754e-05
0.0025159612 -0.0033681167 0.0053395447 -0.0011830676 -0.0033404594 -0.0029184439 -0.0012316017 0.0061997487
-0.0016628485 0.0034080232 0.00059207994 0.00083697017 -0.0033084352 0.0015618812 -0.005026825 -0.0010781144
-0.004057185 -0.0032566001 -0.0021436985 0.001175082 0.0046223947 0.004796374 0.0018056151 -0.0006332677
-0.002283136 0.0033625173 0.0033595166 -0.0034387794 -0.0013129583 0.0008373982 0.0051426594 -0.002172631
-0.0010718894 -0.004657905 -0.0021951755 -0.00046235917 -0.0013444804 0.0018448255 0.0026266905 -0.00484628
4.8539823e-05 0.00026442166 -0.0023242617 -0.003242619 -0.0031222291 -0.0022675097 0.0012930585 -0.0015607522
0.0021654947 0.0005426949 0.0016432009 0.003335147 -0.0062321643 0.0036215128 -0.0007118067 -0.0011044795
0.0028022742 -0.003758187 0.0036491163 0.0032256776 -0.0034409547 0.0026687263 0.00189764 0.0027870692
0.0026653775 -0.0040725274 0.0033320235 0.0011854433 -0.0034581989 -0.0005968406 -0.0037431982 -0.0017404273
0.0030307525 -0.002917457 0.0011369508 -0.0006538512 -0.00041690943 -0.0007365848 -0.000455242 0.002772076
-0.00040778503 0.00028834658 -0.0011243987 0.0041859914 0.0022751903 0.0014352449 -0.0007639388 -0.007090485
00000000: 3fc1 e7ba 588a 99b9 c277 683b 3f9f 5cbb
00000010: 6e69 9dbb df70 133b be19 01bb a933 af3a
00000020: fe17 17b9 8f0d 1dba 2b00 cf3a ba81 983a
00000030: 0585 73bb 41f4 c739 8f57 85ba 26a1 57b9
00000040: 79d8 ec39 52e1 633a 9d52 2abb 4883 2bbb
00000050: 8544 843a 88cb 1739 0776 36bb 71e6 ecba
00000060: d9b4 673a 3c50 853b a919 953b 0384 933a
00000070: 6ecf 283b 8696 bdb7 e88e 29bb eb39 7dbb
00000080: a3d9 623a 2fae 543b 945a eb3a b3f7 7fba
00000090: dedd d83a f796 c4bb eedd 843b 7390 3aba
000000a0: b1f7 52bb c892 f83a 9dd4 a3bb e1a9 543a
000000b0: 9f02 643a 186b 073b b19d 87bb ffa1 0cba
000000c0: dfaf 24bb b6c8 81ba 8e01 bdb8 3c53 9dba
000000d0: 3389 6d3b 077c e3ba e65b a03b eca3 e739
000000e0: ccd6 023c 6144 68bb d392 dfba 990a 953a
000000f0: 5272 98bb 6c58 1abb 287c 32bb f2ed 5fbb
00000100: f7c3 743b 509a 2dba a38d 233a c334 383b
00000110: 7630 e2b9 8038 83bb 01ac 273a 4bbf 3039
00000120: 73c7 07bb 6957 80b9 6309 5e3a 3a3d 53ba
00000130: 8cbe 24bb 6457 1bbb 0dbd f3ba 2fea e738
00000140: 3977 fb39 d760 84bb cdbf 913b c7cf 583b
00000150: c17c 7a3a 8a79 a739 7b38 4c3a 330e 073b
00000160: 40f6 83ba c091 59bb 3ed6 be38 03a3 6739
00000170: 7043 d6ba 841b 13bb 3bec 0cbb beb2 033b
00000180: ed8a 993b 32c4 6d3b 050e d93a 3977 d6b9
00000190: 55ca a6ba 2ac8 dc39 61a6 a6bb f5cb 12bb
000001a0: 8d3b 74bb f783 383b e96e 66b9 1804 003b
000001b0: aca3 16bb 8436 c93b 916a 01bb 390d 23bb
000001c0: d050 553a 5fa5 ad3a f686 8b3b 2a7f fd39
000001d0: 57d1 a63a 558a d5ba 1eb8 e3ba 0d8a f43a
000001e0: 15f6 43bb 7af8 d9bb ddc0 8039 b0eb 153b
000001f0: 4060 f53b 931d a3b9 8bce 303b 29cf bd3a
00000200: 5f92 1c3b 4509 143b df4e 36bb 21ef 92bb
00000210: 40cf ccba f780 a43b 018a 74ba 2cd9 a63a
00000220: 597f 0439 6176 7b3b b5ca 12ba 7a50 393b
00000230: e67c 0cbb 8120 98bb 53a7 b13b df83 2d3a
00000240: bbc6 6c3b 5c7f 0739 eb97 503a 109e 83ba
00000250: cab9 143b e3d8 7d3a 8da2 4d3b d194 a1ba
00000260: 484c 8abb 8844 0cbb fcc8 5bbb 4fbd fcba
00000270: 0c43 293a 3917 b3bb 5b6c ca38 bc9b a63b
00000280: 53f7 d2ba f600 13bb 63de 5dba 6ca0 74ba
00000290: 80b9 9639 b615 ccb9 75a3 60bb a198 c338
000002a0: d3e2 243b 9fbb 5cbb 59f7 ae3b 2911 9bba
000002b0: 9ceb 5abb 5d43 3fbb b26d a1ba 4327 cb3b
000002c0: f0f3 d9ba 2459 5f3b d035 1b3a 1e68 5b3a
000002d0: 55d2 58bb 09b8 cc3a 10b8 a4bb 844f 8dba
000002e0: 22f2 84bb af6c 55bb 4b7d 0cbb 3605 9a3a
000002f0: 7577 973b e72a 9d3b 64aa ec3a e001 26ba
00000300: aaa0 15bb ae5d 5c3b 562b 5c3b 255d 61bb
00000310: 9217 acba d884 5b3a c183 a83b b362 0ebb
00000320: a47e 8cba 57a1 98bb efdc 0fbb cc68 f2b9
00000330: 4739 b0ba 12ce f13a 8e24 2c3b 8bcd 9ebb
00000340: 3d97 4b38 13a2 8a39 a452 18bb 1f82 54bb
00000350: 509e 4cbb 809a 14bb d87b a93a 2792 ccba
00000360: f9ea 0d3b a343 0e3a ac60 d73a 7b92 5a3b
00000370: 2f37 ccbb e756 6d3b 8a98 3aba 2fc4 90ba
00000380: 5ca6 373b ea4b 76bb 0326 6f3b e465 533b
00000390: a481 61bb cce5 2e3b 3bba f83a 43a7 363b
000003a0: 9dad 2e3b d672 85bb 145e 5a3b e060 9b3a
000003b0: f3a2 62bb 4b75 1cba 7250 75bb 0d1f e4ba
000003c0: 979f 463b ce32 3fbb bd05 953a 3667 2bba
000003d0: a394 dab9 5f17 41ba 8cad eeb9 b8ab 353b
000003e0: fbcb d5b9 392d 9739 8f60 93ba a42a 893b
000003f0: 5c1b 153b d41e bc3a 1143 48ba 4d57 e8bb

base_model.model.gpt_neox.layers.3.attention.query_key_value.lora_A.weight f4 [16, 512]
-0.029317325 0.03797417 0.0034353859 -0.016161265 0.01805307 -0.01005116 -0.03103068 0.037808128
0.014011297 -0.010399125 0.03450966 0.01824461 -0.029926496 -0.024617944 0.036302514 0.020190606
-0.009123111 -0.01878967 -0.04119839 -0.024777949 0.020664327 -0.0407687 0.031259686 0.014772152
-0.011498024 0.003486636 -0.0264171 -0.03131183 0.021777345 0.024550535 0.035846237 -0.0043617655
0.029040474 0.028380908 -0.01503397 -0.0062554367 0.034027867 0.0070051644 -0.04294032 -0.017184561
-0.01106828 0.0025530364 -0.029611006 0.011323021 -0.035055656 -0.011080618 0.025241535 0.021743238
-0.04455539 0.020778462 0.031701673 -0.02363692 0.026834669 -0.030935938 0.00055635214 -0.021728612
0.0030383533 0.038415074 -0.034365963 0.025142793 0.0047448305 -0.020539755 -0.036757592 -0.00043870456
0.029903099 -0.014103827 0.026555495 -0.0100691365 0.003064249 -0.019750852 -0.017710064 -0.0019620704
0.039916284 -0.007055361 0.0002716587 -0.014134733 -0.0028584306 0.023500953 0.002394435 -0.0036384042
-0.0134842675 0.022819683 -0.037804272 -0.038766347 -0.02491912 -0.029662676 -0.0142002795 -0.0064875726
0.007259072 0.03876211 0.025831718 -0.012430834 0.034627926 -0.038580183 -0.027521847 0.0209286
0.011958832 0.024662333 -0.037792634 0.0441679 -0.010169684 0.011320176 0.007271682 0.027504833
0.0050940593 0.020931246 -0.03004661 -0.008441075 -0.013551383 0.034451365 0.018763717 -0.01921464
0.04484895 -0.03240649 -0.03791418 -0.017538862 -0.04312532 0.012271402 -0.03495914 0.033905685
0.03851766 0.044231985 0.031892583 0.010620079 -0.0421759 -0.04435644 -0.013567821 -0.031198798
0.023940736 0.038773697 -0.0023522777 0.042235237 -0.03581367 -0.0429471 -0.0421669 0.02311812
0.032336775 -0.030070987 0.0023997764 -0.002703991 0.044355053 0.021978486 0.013773061 0.020135589
0.03365579 0.028868048 0.010431388 -0.02111799 -0.023887703 -0.01785332 0.02786783 -0.0037374743
0.042469446 -0.030752657 -0.024813816 -0.026828822 -0.00860274 -0.012127212 -0.0035356127 -0.015219763
0.021065861 0.03771957 -0.021848701 0.017055051 0.040385623 0.027184704 0.015758265 0.039176796
-0.028675595 -0.04283761 0.028478466 -0.0024869833 -0.028770898 0.005398639 -0.006181125 -0.045386534
0.017619666 0.0374177 0.0003139686 0.034365732 0.013593299 0.014644926 -0.039295264 -0.012265807
0.040979013 0.023536138 -0.041216128 0.031358987 -0.015453594 -0.021800615 0.031811334 -0.03471189
0.036225718 0.0006384688 0.029539661 0.027206952 -0.038758516 0.017712006 0.04481965 0.004421267
0.015597179 -0.025093745 0.0129586 -0.04008717 0.0060929726 -0.035494093 -0.013999772 -0.012216323
0.034121104 0.0046779765 0.028403018 -0.0015108457 0.03900839 -0.017347751 -0.037966654 0.0059990087
-0.018595994 -0.016860269 0.03906331 -0.0025929424 0.014738395 0.025805658 0.027208317 -0.04437072
-0.025470749 0.04223579 0.01965433 -0.013264192 -0.040993895 -0.0051710685 0.02615007 -0.011522295
-0.018566398 -0.0137494 -0.032766625 0.004136185 0.0026535543 -0.023694219 -0.0072284746 0.045415007
-0.0030197199 0.012198104 0.03931483 0.027475782 0.027481101 0.023174208 -0.034973722 -0.013731445
0.010725222 -0.014088308 0.027539928 -0.020043714 0.0018705153 -0.037188843 -0.032747768 5.8940175e-05
00000000: e32a f0bc ce8a 1b3d 3624 613b a164 84bc
00000010: 08e4 933c 9fad 24bc 0d34 febc b2dc 1a3d
00000020: a48f 653c 1761 2abc 005a 0d3d b875 953c
00000030: 6928 f5bc 92ab c9bc f2b1 143d c566 a53c
00000040: 1a79 15bc cbec 99bc a5bf 28bd 20fb cabc
00000050: 3c48 a93c 15fd 26bd 280a 003d e506 723c
00000060: 3562 3cbc 0c80 643b ad68 d8bc d540 00bd
00000070: 6766 b23c 341e c93c 81d3 123d 24ed 8ebb
00000080: 4ae6 ed3c 147f e83c 0a51 76bc 68fa ccbb
00000090: ce60 0b3d 948b e53b 30e2 2fbd a3c6 8cbc
000000a0: bb57 35bc d850 273b c892 f2bc 3184 393c
000000b0: 8596 0fbd 7b8b 35bc 56c7 ce3c e01e b23c
000000c0: b67f 36bd 9837 aa3c 9dd9 013d 37a2 c1bc
000000d0: 61d4 db3c 5d6d fdbc 29d8 113a 3400 b2bc
000000e0: 1c1f 473b 2059 1d3d 53c3 0cbd 42f8 cd3c
000000f0: 867a 9b3b fd42 a8bc 218f 16bd ee01 e6b9
00000100: 58f7 f43c bd13 67bc e98a d93c 05f9 24bc
00000110: 91d1 483b 8acc a1bc b214 91bc 1496 00bb
00000120: 427f 233d a830 e7bb 6a6d 8e39 5e95 67bc
00000130: 8254 3bbb 1285 c03c f4eb 1c3b 4b72 6ebb
00000140: 1eed 5cbc 58f0 ba3c a7d8 1abd 76c9 1ebd
00000150: 2f23 ccbc 24ff f2bc 4aa8 68bc b495 d4bb
00000160: 82dd ed3b 05c5 1e3d 0a9d d33c b2aa 4bbc
00000170: 03d6 0d3d 4106 1ebd 7f75 e1bc 7572 ab3c
00000180: faee 433c a908 ca3c 73cc 1abd 66e9 343d
00000190: bf9e 26bc 4278 393c 4a47 ee3b d151 e13c
000001a0: 11ec a63b 0178 ab3c 4f24 f6bc 6f4c 0abc
000001b0: 9f06 5ebc e01c 0d3d 5eb6 993c 0568 9dbc
000001c0: 88b3 373d abbc 04bd e64b 1bbd a9ad 8fbc
000001d0: 2da4 30bd fe0d 493c 5131 0fbd b0e0 0a3d
000001e0: b2c4 1d3d 992c 353d cca1 023d d7ff 2d3c
000001f0: a3c0 2cbd 19af 35bd 914b 5ebc 9f94 ffbc
00000200: 5d1f c43c 2bd1 1e3d ac28 1abb dbfe 2c3d
00000210: 5bb1 12bd 4ce9 2fbd 33b7 2cbd 3662 bd3c
00000220: 9173 043d 6e57 f6bc 9145 1d3b 7135 31bb
00000230: a5ad 353d 3a0c b43c 68a8 613c 64f3 a43c
00000240: a7da 093d af7c ec3c 6ae8 2a3c a3ff acbc
00000250: 25b0 c3bc 2041 92bc 134b e43c 6af0 74bb
00000260: 71f4 2d3d ffec fbbc 5846 cbbc 1ec8 dbbc
00000270: 82f2 0cbc 37b1 46bc bdb5 67bb 505c 79bc
00000280: 5092 ac3c d67f 1a3d 0cfc b2bc 09b7 8b3c
00000290: 656b 253d 75b2 de3c 7a17 813c d977 203d
000002a0: 15e9 eabc 7d76 2fbd ac4b e93c a8fc 22bb
000002b0: f2b0 ebbc 11e7 b03b 098b cabb 3be7 39bd
000002c0: 1e57 903c 4d43 193d 279c a439 15c3 0c3d
000002d0: 6eb6 5e3c 46f1 6f3c 12f4 20bd 86f6 48bc
000002e0: 9cd9 273d dcce c03c 3ed2 28bd 4872 003d
000002f0: 1231 7dbc 3497 b2bc 9a4c 023d 0e2e 0ebd
00000300: 6b61 143d ea5e 273a 29fd f13c 1de1 de3c
00000310: 40c1 1ebd c518 913c cf94 373d 47e0 903b
00000320: 4f8b 7f3c 6691 cdbc 4f50 543c 7232 24bd
00000330: 8fa7 c73b 4162 11bd 4d5f 65bc f926 48bc
00000340: 92c2 0b3d b649 993b 72ad e83c 9207 c6ba
00000350: 43c7 1f3d df1c 8ebc ec82 1bbd 5593 c43b
00000360: a056 98bc 8c1e 8abc d900 203d 5bee 29bb
00000370: 4f79 713c 6366 d33c fae3 de3c 12be 35bd
00000380: 08a8 d0bc 70ff 2c3d 1e02 a13c 0e52 59bc
00000390: 37e9 27bd 1172 a9bb ac38 d63c 02c8 3cbc
000003a0: 8f18 98bc 2a45 61bc 4c36 06bd d688 873b
000003b0: 41e7 2d3b 611a c2bc d7dc ecbb 1605 3a3d
000003c0: 7ee6 45bb 8eda 473c 9608 213d e414 e13c
000003d0: 0c20 e13c d6d7 bd3c 9b40 0fbd dbf9 60bc
000003e0: d7b8 2f3c a6d2 66bc 6a9b e13c b732 a4bc
000003f0: 142c f53a 5453 18bd 8622 06bd 8836 7738
