FederatedLLM/FT_lite/my_fl_model/peft_2/adapter_model.bin (torch, 791378 bytes, 12 tensors)

base_model.model.gpt_neox.layers.0.attention.query_key_value.lora_A.weight f4 [16, 512]
0	0xbb84339a	-0.0040344717
1	0x3c3d0766	0.011537408
2	0x3bad870d	0.0052956403
3	0x3bbf7038	0.005842235
4	0x3bd0e5c6	0.0063750474
5	0xbc4e7d16	-0.012603065
6	0xbd09ecc2	-0.033673055
7	0x3ced7bf6	0.028989773
8	0xbcae110a	-0.02124836
9	0x3c060665	0.0081802355
10	0xbd2cb038	-0.042160243
11	0xbce55fec	-0.02799984
12	0xbd35055c	-0.044194564
13	0x3c17ff39	0.009277158
14	0xbcd24712	-0.025668655
15	0x3d298969	0.04139081
16	0x3d2c1101	0.042008404
17	0x3cc71222	0.024300639
18	0x3d11b901	0.035576824
19	0xbd0abaf1	-0.033869687
20	0xbd26a852	-0.040687867
21	0xbceb10e6	-0.028694581
22	0x3c9ab1e7	0.018883659
23	0xbd20203c	-0.03909324
24	0x3d214533	0.039372634
25	0x3b31958c	0.0027097194
26	0x3c0c997a	0.008581514
27	0xbc8e9c62	-0.017408554
28	0xbce8abb4	-0.028402187
29	0xbcc43938	-0.023953065
30	0x3bbe16e1	0.005801067
31	0xbcd627f5	-0.0261421
32	0x3cc5d7f6	0.02415083
33	0xbca39c2c	-0.01997193
34	0xbd0e7de4	-0.034788027
35	0x3c937184	0.017998464
36	0x3d0e2b90	0.034709513
37	0xbd06f6ac	-0.03295009
38	0xbc4ddcbe	-0.012564836
39	0xbd31019c	-0.043214425
40	0x3ce45564	0.027872749
41	0xbc5ebfa4	-0.013595495
42	0xbce36efa	-0.027762879
43	0xbd1f69cc	-0.038919255
44	0x3c6dd6b6	0.014516523
45	0x3a136c53	0.00056237465
46	0xbc3ff688	-0.0117164925
47	0x3be22fe0	0.00690268
48	0x3c08b315	0.008343478
49	0xbce0cd95	-0.02744178
50	0x3ce37f92	0.027770791
51	0x3d2f5699	0.042807195
52	0x3c70928a	0.014683375
53	0x3c86f1ca	0.016472716
54	0x3ca0fc74	0.019651629
55	0x3cc0a0f2	0.023514245
56	0xbc9945f1	-0.018710108
57	0x3c327b5e	0.010893671
58	0x3d03d5db	0.03218637
59	0x3ce7fa5a	0.02831762
60	0x3bbb7cf5	0.005721683
61	0xbcbc03cf	-0.022951035
62	0x3bfbdd51	0.007686295
63	0x3cef7a70	0.029233187
64	0xbd17be5f	-0.037046786
65	0x3ca69cf1	0.020338507
66	0x3b3c68b6	0.0028748936
67	0x3c1b45a3	0.009477052
68	0x3d06e308	0.032931358
69	0xbc917020	-0.01775366
70	0x3d15e4f3	0.036595296
71	0x3d2ff699	0.042959783
72	0x3d16c7ac	0.036811516
73	0x3d30f5fa	0.04320333
74	0x3d079db3	0.033109378
75	0x3a06fb2e	0.0005149123
76	0xbd18860c	-0.037237212
77	0x3c8799c3	0.016552811
78	0xbc19caa6	-0.009386694
79	0xbcf06358	-0.029344246
80	0xbd2a546c	-0.041584417
81	0x3c85bfba	0.016326774
82	0xbcde3385	-0.027124176
83	0xbc51caf8	-0.012804739
84	0x3d0c3b43	0.034236204
85	0xbd1df24e	-0.038561158
86	0xbd275418	-0.040851682
87	0x3ca93ae7	0.02065797
88	0x3c696cfa	0.014247173
89	0xbc851b20	-0.016248286
90	0x3d14c83f	0.036323782
91	0xba04c2fb	-0.0005064455
92	0x3d2b11dd	0.041765083
93	0x3cb2b0c2	0.0218128
94	0xbd1eb454	-0.038746193
95	0x3cf40ece	0.029792216
96	0x3c7bdaf6	0.015372029
97	0xbb021343	-0.0019847907
98	0xbc92f8c4	-0.017940886
99	0x3bda06ea	0.0066536563
100	0xbcd9cabe	-0.026585933
101	0x3d14a31e	0.036288373
102	0xbab1de85	-0.0013570344
103	0x3ca349fa	0.019932736
104	0x3d27f165	0.041001696
105	0xbb901773	-0.0043973266
106	0xbc8d64d8	-0.01726
107	0x3d11942e	0.035541706
108	0x3cb6d975	0.022320488
109	0xba12e9a5	-0.0005604274
110	0x3d05d9d6	0.032678448
111	0xbc967467	-0.018366052
112	0x3d06bc32	0.03289432
113	0x3cd0e04a	0.025497574
114	0xbbf69131	-0.0075246324
115	0x3c941969	0.018078523
116	0x3c135503	0.008992436
117	0xbc08e696	-0.008355757
118	0x3cfc8fc2	0.030830268
119	0xbd16107e	-0.036636822
120	0x39988135	0.00029087966
121	0xbc6e2170	-0.014534339
122	0x3cd2aae6	0.025716256
123	0x3d2b6e55	0.041853268
124	0x3c841a3f	0.016125796
125	0x3c9090f0	0.017647237
126	0xbcd0eb14	-0.025502719
127	0x3cdb8d8d	0.026800895
128	0x3c9cb04a	0.01912703
129	0xbc7b6d6e	-0.015345914
130	0x3cc92042	0.024551515
131	0x3d0cb9ae	0.034356765
132	0xbc6a6962	-0.014307352
133	0xbd1ce252	-0.038301773
134	0x3c886292	0.016648564
135	0x3ca3a81f	0.019977627
136	0x3c3f5e83	0.011680248
137	0xbceb4841	-0.028720977
138	0x3d2d5480	0.042316914
139	0x3afcd5ad	0.0019289755
140	0x3cabafd8	0.020957872
141	0xbcdbdac1	-0.026837708
142	0xbd24b016	-0.04020699
143	0xbd2fe57b	-0.04294346
144	0x3c234759	0.009965741
145	0xbb881e76	-0.004154022
146	0xbd07b8ae	-0.03313511
147	0xbcc4c5d6	-0.024020117
148	0xbba99732	-0.0051754946
149	0x3c24390c	0.010023367
150	0x3b096a12	0.0020967764
151	0x3c9a07ac	0.018802486
152	0xbc88794c	-0.016659401
153	0x3d04e1af	0.03244179
154	0x3cf55d7b	0.029951802
155	0xbb4eec1e	-0.0031573842
156	0x3bbcd1bc	0.005762307
157	0x3ce4efa0	0.027946293
158	0x3bdba784	0.006703319
159	0xbd1fd192	-0.03901822
160	0x3d0bd57e	0.03413915
161	0xbb2f29c2	-0.002672777
162	0xbc4eee91	-0.012630121
163	0x3d225cbf	0.03963923
164	0x3c1a35c6	0.009412235
165	0xbd1a0a65	-0.03760757
166	0xbd0c6b13	-0.0342818
167	0xba46ed68	-0.0007588477
168	0xbc3e1a5a	-0.011602962
169	0xbc90cd59	-0.017676042
170	0x3b4ce332	0.0031263349
171	0xbc9d1a04	-0.019177444
172	0xbd078b45	-0.033091802
173	0xbca8a726	-0.020587515
174	0x3cad9085	0.021187076
175	0x3cb789aa	0.02240451
176	0xbcbd17d4	-0.023082651
177	0x3b8213c2	0.0039696405
178	0x3cb9e296	0.022691052
179	0xbd2276da	-0.039664127
180	0xbd27d658	-0.0409759
181	0xbb14aa41	-0.0022684487
182	0x3cf8b284	0.03035856
183	0xbb64a1d7	-0.0034886503
184	0xb8d163a4	-9.984456e-05
185	0x3c92fcc5	0.017942796
186	0x3c2a6d5a	0.010402048
187	0xbc509d23	-0.012732777
188	0xbcba7a53	-0.022763407
189	0xbcf5f732	-0.030025098
190	0xbbdd3f6a	-0.0067519443
191	0x3d1d04b1	0.038334552
192	0xbc51b8d3	-0.012800413
193	0x3b42cec0	0.0029725283
194	0x3c09767e	0.008390067
195	0xbcdc7045	-0.026909003
196	0xbccfdf96	-0.025375169
197	0x3d1a7e3b	0.03771804
198	0xbbbeaa63	-0.0058186515
199	0xbc876fdc	-0.01653283
200	0xbc635076	-0.013874164
201	0xbc7fa292	-0.015602725
202	0x3c6010ae	0.013675852
203	0xbb43ef5a	-0.0029897303
204	0x3d2fa693	0.042883467
205	0x3d118c78	0.035534352
206	0xbd04b0b2	-0.032395072
207	0x3c235457	0.009968839
208	0x3d1bdb6f	0.038051065
209	0x3ba2527e	0.0049536815
210	0x3c80dbc8	0.0157298
211	0x3ba493a0	0.005022481
212	0x3cb786f4	0.022403218
213	0xbcb934ab	-0.022608122
214	0x3bdad1bb	0.006677834
215	0x3cf90722	0.030398909
216	0xbbdf5989	-0.0068160933
217	0xbd2aab90	-0.04166752
218	0xbc1e6427	-0.009667433
219	0xbc130c7d	-0.008975145
220	0x3cae7420	0.021295607
221	0x3cc01686	0.02344824
222	0xbc5a493b	-0.013323124
223	0x3c954c80	0.018224955
224	0x3c7a2a0c	0.015268814
225	0xbd22dc52	-0.039760895
226	0x3d306d41	0.043072943
227	0xbd056fe4	-0.03257741
228	0x3d13a75d	0.036048282
229	0xbd03dfe6	-0.032195948
230	0xbcffc20b	-0.031220457
231	0xbc657c96	-0.014006754
232	0x3c3deae9	0.0115916515
233	0x3b710f46	0.0036782785
234	0xbd03a534	-0.03213997
235	0xbcb00ed0	-0.021491438
236	0x3cbf3b5a	0.02334373
237	0xbcd832e0	-0.026391447
238	0x3c308f4c	0.010776352
239	0x3c765732	0.015035437
240	0xbc869198	-0.016426846
241	0xbc5b16a9	-0.013372102
242	0xbb1b6c37	-0.0023715624
243	0x3baf35d6	0.005346994
244	0xbccf3d78	-0.025297865
245	0x3d1ba3b3	0.037997913
246	0x3d2a1061	0.041519526
247	0x3c9a01e6	0.018799733
248	0x3d2f83fd	0.042850483
249	0xbd186583	-0.037206184
250	0x3cb1ca8d	0.021703029
251	0x3b96127e	0.004579841
252	0x3b946276	0.004528339
253	0x3cfe9be8	0.031080201
254	0x3c628e54	0.013827879
255	0x3c3b8aff	0.0114467135

base_model.model.gpt_neox.layers.0.attention.query_key_value.lora_B.weight f4 [1536, 16]
0	0xb755e4d6	-1.2749069e-05
1	0xb755d58a	-1.2745508e-05
2	0x375e5b7d	1.3253532e-05
3	0xaf9ae400	-2.817444e-10
4	0xb7d5e6a5	-2.549898e-05
5	0xb74d75ca	-1.2246377e-05
6	0x37de4536	2.6496691e-05
7	0xb75e5ab4	-1.325335e-05
8	0xb766b4b8	-1.3751145e-05
9	0xb50289cd	-4.86293e-07
10	0x375ee0eb	1.3284599e-05
11	0x37d5e70a	2.5499165e-05
12	0xb20bd0c0	-8.138329e-09
13	0xb755db72	-1.2746883e-05
14	0x35895a01	1.023349e-06
15	0xb502fcd6	-4.87967e-07
16	0xb2018800	-7.539711e-09
17	0xb75e3831	-1.3245314e-05
18	0x3755da3b	1.27466e-05
19	0x3506637e	5.006367e-07
20	0xb506664c	-5.006775e-07
21	0x37da1938	2.5999369e-05
22	0xb75e39ab	-1.3245658e-05
23	0xb74d981c	-1.2254368e-05
24	0x375e5e84	1.3254237e-05
25	0x37450fc0	1.1745782e-05
26	0xb755f864	-1.2753622e-05
27	0x37da11b1	2.5995863e-05
28	0xb766bece	-1.37534935e-05
29	0x375e5b83	1.3253538e-05
30	0x374d7ed1	1.2248479e-05
31	0x375e3e8e	1.3246796e-05
32	0x37d1b6c4	2.4999848e-05
33	0x374d964a	1.2253944e-05
34	0x374d7376	1.2245835e-05
35	0x3508433e	5.07618e-07
36	0x3755f808	1.2753539e-05
37	0xb7d1b637	-2.4999592e-05
38	0xb5080ee2	-5.0685605e-07
39	0xb0c4f400	-1.4330226e-09
40	0x37d1b600	2.4999492e-05
41	0x374d76e8	1.2246637e-05
42	0x35083b1d	5.074997e-07
43	0xb74d9605	-1.2253881e-05
44	0xb7d5e855	-2.5499767e-05
45	0x37450d40	1.17452e-05
46	0x374d7427	1.2245996e-05
47	0xb505edf8	-4.989265e-07
48	0xb75e3ed7	-1.3246862e-05
49	0xb7da18ba	-2.599914e-05
50	0xb7da1a1c	-2.5999783e-05
51	0x37d1b582	2.4999263e-05
52	0xb1204300	-2.332115e-09
53	0x3755d879	1.2746191e-05
54	0x32023820	7.579757e-09
55	0xb7da19d4	-2.5999652e-05
56	0xb755fc68	-1.2754557e-05
57	0xb0c26800	-1.4144916e-09
58	0xb766c142	-1.3754065e-05
59	0x3755f7d4	1.2753491e-05
60	0x3755d7a8	1.2746001e-05
61	0x37da19fa	2.5999721e-05
62	0x350642b2	5.0015944e-07
63	0xb755d712	-1.2745864e-05
64	0x37da1996	2.599954e-05
65	0x37da1988	2.5999514e-05
66	0x3755f969	1.275386e-05
67	0xb7d1b6c4	-2.4999848e-05
68	0x374d953c	1.22536985e-05
69	0xb75e3b00	-1.3245968e-05
70	0x374d73e4	1.2245935e-05
71	0x37da1941	2.5999385e-05
72	0x37d1b4a4	2.4998859e-05
73	0x375e5b55	1.3253496e-05
74	0x37de4a78	2.649914e-05
75	0xb74d952f	-1.2253687e-05
76	0xb7d5e840	-2.5499729e-05
77	0xb5327c05	-6.649064e-07
78	0x374d94c0	1.2253586e-05
79	0x37d1b6ba	2.499983e-05
80	0x35061774	4.995302e-07
81	0xb755d74e	-1.2745919e-05
82	0x35862c6b	9.996705e-07
83	0xb4d02b03	-3.8774314e-07
84	0xb5087ee4	-5.08486e-07
85	0x37d1b38c	2.499835e-05
86	0xb7d5e7a3	-2.5499443e-05
87	0xb755f7f3	-1.27535195e-05
88	0x3755f7fd	1.2753529e-05
89	0xb7d1b630	-2.499958e-05
90	0x3505c118	4.982735e-07
91	0xb2079600	-7.89214e-09
92	0xb505a3c6	-4.978468e-07
93	0x3210e940	8.434938e-09
94	0xb7d1b688	-2.499974e-05
95	0xb74d9391	-1.225331e-05
96	0xb755d4b5	-1.2745314e-05
97	0xb7d5e70e	-2.5499172e-05
98	0xb7d1b7d4	-2.5000343e-05
99	0x37cd849f	2.449966e-05
100	0xb74d93b1	-1.2253339e-05
101	0x374d74f6	1.2246184e-05
102	0x31fa5400	7.2855073e-09
103	0xb7d5e45b	-2.5497915e-05
104	0x309c8900	1.1389432e-09
105	0xb7d1b5f2	-2.4999466e-05
106	0x3755c559	1.2741738e-05
107	0xb506361c	-4.999763e-07
108	0x374d7447	1.2246025e-05
109	0x37da15e8	2.5997826e-05
110	0xb74d9522	-1.2253675e-05
111	0xb74d98f7	-1.2254567e-05
112	0x3508a81a	5.090857e-07
113	0xb755d30c	-1.27449275e-05
114	0xb75e5b0a	-1.3253428e-05
115	0x3755f7b3	1.2753461e-05
116	0x2fb2cc00	3.2522962e-10
117	0xb74d968b	-1.2254003e-05
118	0x374d9485	1.2253532e-05
119	0xb766be03	-1.3753309e-05
120	0x350429e6	4.92348e-07
121	0x374d748a	1.2246086e-05
122	0xb755d88a	-1.2746206e-05
123	0xb75e3a65	-1.3245827e-05
124	0x31e9a3c0	6.7998087e-09
125	0xb11cad80	-2.279961e-09
126	0x374d74d6	1.2246155e-05
127	0xb1e5d240	-6.68868e-09
128	0x358633c0	9.998839e-07
129	0xb755fc03	-1.2754465e-05
130	0x350627e4	4.997694e-07
131	0x374da8d2	1.2258259e-05
132	0xb00c6e00	-5.108802e-10
133	0x37d1b65f	2.4999665e-05
134	0xb7d1b67e	-2.4999721e-05
135	0xb7452e51	-1.1752899e-05
136	0xb01ed000	-5.777565e-10
137	0xb7d1b6ad	-2.4999807e-05
138	0x3755f395	1.2752503e-05
139	0x3745324c	1.1753826e-05
140	0x339250e8	6.8133716e-08
141	0xb75e5a60	-1.3253273e-05
142	0xb7d1b6f6	-2.499994e-05
143	0xb7d1b02a	-2.4996774e-05
144	0x3505f8ef	4.9908607e-07
145	0xb74d75c8	-1.2246375e-05
146	0x3766be94	1.3753441e-05
147	0x2f01d800	1.180922e-10
148	0x375e5ef0	1.32543355e-05
149	0x37d1b509	2.4999043e-05
150	0xb7d5e775	-2.549936e-05
151	0x35063335	4.9993406e-07
152	0xb75e3ab1	-1.3245896e-05
153	0xb7d1b5b2	-2.499935e-05
154	0xb7d5e4a2	-2.5498044e-05
155	0xb766b62e	-1.3751485e-05
156	0x3755face	1.2754184e-05
157	0x3766be53	1.3753382e-05
158	0xb755f8f8	-1.2753757e-05
159	0x35062ff2	4.998866e-07
160	0x37452fc4	1.1753236e-05
161	0x3744f304	1.1739092e-05
162	0xb7da18a4	-2.59991e-05
163	0x2fb40000	3.274181e-10
164	0xb7d5e6fe	-2.5499143e-05
165	0xb7d1aec0	-2.4996116e-05
166	0x37d5e81a	2.549966e-05
167	0xb75e56bc	-1.3252426e-05
168	0x2f368000	1.6598278e-10
169	0x37d5e7ee	2.549958e-05
170	0x37452e37	1.1752875e-05
171	0x35871a7c	1.0065992e-06
172	0xb2863e10	-1.5627876e-08
173	0x375e3f3c	1.3246954e-05
174	0x37da18fc	2.599926e-05
175	0x374d7288	1.2245619e-05
176	0x37de481f	2.6498046e-05
177	0x3755f8f8	1.2753757e-05
178	0x2eaf7000	7.977974e-11
179	0xb7d1b55b	-2.4999192e-05
180	0x3766bb24	1.375264e-05
181	0xb74d7454	-1.2246037e-05
182	0xb5083ff6	-5.0757023e-07
183	0x320279e0	7.594707e-09
184	0x37d17cdc	2.4972884e-05
185	0x37d1b521	2.4999086e-05
186	0x35861aca	9.991575e-07
187	0xb75607f1	-1.2757243e-05
188	0xb7d1b6ac	-2.4999805e-05
189	0xb2bde990	-2.2108708e-08
190	0x374d9526	1.22536785e-05
191	0x37da17e1	2.5998745e-05
192	0x375e5c00	1.3253652e-05
193	0x323166e0	1.0326147e-08
194	0x375e37ec	1.32452515e-05
195	0xb10b6f80	-2.0290543e-09
196	0x375e5b6c	1.3253517e-05
197	0xaecae000	-9.225687e-11
198	0xb755f367	-1.2752461e-05
199	0xb74d737e	-1.2245842e-05
200	0x37d1b5fe	2.4999488e-05
201	0xb75e3759	-1.3245118e-05
202	0x3766bdbf	1.3753247e-05
203	0x35042aac	4.923593e-07
204	0xb03b3600	-6.810694e-10
205	0xb7da165f	-2.5998042e-05
206	0xb50644d2	-5.0019037e-07
207	0xb745336c	-1.1754088e-05
208	0xb755d846	-1.2746144e-05
209	0xb7d5d992	-2.5492893e-05
210	0xb7d5e8b4	-2.549994e-05
211	0x37d1b6d3	2.4999876e-05
212	0xb755f8c4	-1.275371e-05
213	0x3755d880	1.2746197e-05
214	0xb755d4e4	-1.2745357e-05
215	0xb7d5e878	-2.549983e-05
216	0x3755f8c1	1.2753707e-05
217	0xb7d1b6f0	-2.4999928e-05
218	0xb7da16b9	-2.5998206e-05
219	0xb5057e92	-4.9730545e-07
220	0x3755d8a2	1.2746228e-05
221	0x375e71df	1.3258744e-05
222	0x35063872	5.000103e-07
223	0xb7d5e833	-2.5499705e-05
224	0xb75e3bea	-1.3246181e-05
225	0xb7d5e861	-2.5499789e-05
226	0xb7d5e8b8	-2.5499947e-05
227	0x37d1b6f6	2.499994e-05
228	0xb74d9587	-1.2253767e-05
229	0x3755d88e	1.274621e-05
230	0x31ff19c0	7.424404e-09
231	0xb7d5e883	-2.549985e-05
232	0x3755f8f2	1.2753751e-05
233	0xb7d5e891	-2.5499876e-05
234	0xb50635c2	-4.999712e-07
235	0xb5063604	-4.9997493e-07
236	0x37d1b6ae	2.4999808e-05
237	0x375e5ce6	1.3253861e-05
238	0x35063400	4.999456e-07
239	0xb7d5e88f	-2.5499872e-05
240	0x374d744f	1.2246032e-05
241	0x374d7162	1.2245351e-05
242	0x3755d8de	1.2746283e-05
243	0xb7d5e858	-2.5499772e-05
244	0xb75e3716	-1.3245057e-05
245	0xb75e3c37	-1.3246251e-05
246	0x37d5e7dc	2.5499547e-05
247	0x37d1b6a8	2.4999797e-05
248	0xb74d96c6	-1.2254057e-05
249	0x2e2a6000	3.873879e-11
250	0x2f594800	1.9761615e-10
251	0x374d953c	1.22536985e-05
252	0x350649b8	5.0026165e-07
253	0xb7d5e855	-2.5499767e-05
254	0x3755f898	1.275367e-05
255	0x374d9417	1.2253432e-05

base_model.model.gpt_neox.layers.1.attention.query_key_value.lora_A.weight f4 [16, 512]
0	0xbc765d41	-0.015036882
1	0xbbe4b677	-0.0069797593
2	0x3ca7d2cf	0.020486264
3	0xbca9d9e4	-0.020733781
4	0xbd2fb96c	-0.04290144
5	0x3ce28d3d	0.027655238
6	0x3cbf2dd9	0.023337292
7	0xbc4244f5	-0.011857261
8	0x3cf8d552	0.030375157
9	0x3d1aeabc	0.037821516
10	0x3d094e0b	0.033521693
11	0x3bc21557	0.005922954
12	0x3d1b332a	0.03789059
13	0x3b94faae	0.004546485
14	0xbd2fa7fd	-0.042884815
15	0x3cfd7a69	0.030942159
16	0xbb869567	-0.0041071656
17	0x3d04d855	0.032432873
18	0xbc9485c6	-0.018130194
19	0x3c96cc23	0.018407887
20	0x3ce34d87	0.027746929
21	0xbbf97108	-0.0076123513
22	0xbd1ebb1a	-0.038752653
23	0x3bc45d71	0.0059925844
24	0x3c9c2ac4	0.019063361
25	0xbc8497fe	-0.016185757
26	0xbc26a420	-0.010170966
27	0x3cc7327a	0.024316061
28	0x3cbb29a1	0.022846999
29	0x3bb7e952	0.0056125307
30	0x3d32b6df	0.04363143
31	0x39d90930	0.0004139631
32	0xbd065a88	-0.03280118
33	0x3d2e8c89	0.042614494
34	0xbd26312e	-0.040574245
35	0x3ca1d117	0.019753022
36	0x39dd46bd	0.0004220511
37	0x3c9b2e6b	0.018943032
38	0xbd0980a7	-0.033569958
39	0xbc34edef	-0.011043056
40	0xbadf97aa	-0.0017058749
41	0xbd34fed0	-0.04418832
42	0xbcc9e7aa	-0.024646599
43	0x3ba50852	0.0050363922
44	0x3c697cec	0.014250975
45	0x3cd24521	0.025667729
46	0x3d03b3c9	0.03215388
47	0xbc3083b2	-0.010773586
48	0xbcf0ec0e	-0.029409435
49	0x3d083880	0.033257008
50	0x3cd78ff0	0.026313752
51	0xbc9fa650	-0.019488484
52	0xbb35c2df	-0.002773456
53	0xbc723b23	-0.014784607
54	0xbc1b8862	-0.009492965
55	0x3ce2718e	0.027642038
56	0xbcad9e17	-0.021193547
57	0xbca72900	-0.020405293
58	0xbd240a54	-0.040048912
59	0xbc1e5857	-0.009664617
60	0xbcb21c3d	-0.02174198
61	0xbbf13140	-0.0073606074
62	0xbd1b01ce	-0.037843518
63	0xbbe641d4	-0.0070268903
64	0xbd1ca63b	-0.038244467
65	0xbc071e94	-0.0082470365
66	0x3c3af58e	0.011411084
67	0x3c00b125	0.007854735
68	0xb917fcc4	-0.00014494645
69	0xbba69918	-0.005084168
70	0x3adecb94	0.0016997927
71	0x3caa4d86	0.02078892
72	0x3cdc4457	0.026888056
73	0x3bad33cb	0.005285715
74	0xbbf20bcc	-0.00738666
75	0xbd1e1c22	-0.03860105
76	0x3c31f363	0.010861251
77	0x3cc0fea9	0.023558931
78	0xbd0587f0	-0.032600343
79	0x3cad38cd	0.021145249
80	0xbcdc8d10	-0.026922733
81	0x3bebc450	0.007195033
82	0x3ce458b4	0.027874328
83	0xbc305a7a	-0.010763759
84	0x3cccda77	0.025006516
85	0x3cb1a5b2	0.021685455
86	0x3d2aad70	0.04166931
87	0x3cbc187c	0.022960894
88	0x3cff216b	0.031143865
89	0x3cf42c7f	0.029806374
90	0xbbedce24	-0.00725724
91	0xbd00d648	-0.031454355
92	0xbcf05474	-0.029337145
93	0x3bf18826	0.0073709665
94	0xbca044aa	-0.019563992
95	0xbc9595fc	-0.018259995
96	0xbc369dc2	-0.011146011
97	0x3c2ab76d	0.010419709
98	0x3d1a332e	0.037646465
99	0x3c982ea8	0.018576935
100	0x3cd0327f	0.025414703
101	0xbd336a9d	-0.043802846
102	0x3c977640	0.018489003
103	0xbd25ffad	-0.040527035
104	0xbcafb9ac	-0.02145084
105	0xbbf5f15c	-0.007505579
106	0x3c0671ae	0.008205814
107	0x3bb791c2	0.0056020925
108	0x3cace688	0.02110602
109	0xbc94a694	-0.018145837
110	0xbd1ad2d3	-0.037798714
111	0x3c0d3a3e	0.008619843
112	0xbced1d7c	-0.028944723
113	0xbd26c387	-0.040713813
114	0xbb9b8b38	-0.004746821
115	0x3d307d62	0.043088324
116	0xbd2fc3f3	-0.04291148
117	0x39cc9efa	0.0003902836
118	0xbbcb2e7c	-0.0062006097
119	0x3ce7da12	0.028302226
120	0xbb7de037	-0.0038738379
121	0x3bf44d75	0.0074555227
122	0x3cec33a0	0.02883321
123	0x3c7185c0	0.014741361
124	0x3c83109f	0.015999136
125	0x3d230576	0.03980013
126	0xbc4e15bd	-0.012578425
127	0x3d0f4dda	0.034986354
128	0x3c745296	0.014912268
129	0xbd2d9bba	-0.04238484
130	0x3d1c558e	0.03816753
131	0xbd06a95b	-0.032876354
132	0xbcfa7897	-0.03057508
133	0xbccf3e68	-0.025298312
134	0xbc814db6	-0.015784126
135	0xbbd8c95d	-0.0066158012
136	0xbb9bf876	-0.0047598435
137	0xbd2f3cf3	-0.042782735
138	0x3d0764a2	0.033054955
139	0x3ce594ec	0.028025113
140	0x3d2da37b	0.042392235
141	0xbcf33e48	-0.029692784
142	0xbc5c980a	-0.013463983
143	0xbc2b3fb5	-0.010452201
144	0x3c887b27	0.016660286
145	0xbcda4e22	-0.026648585
146	0x3ceb4bce	0.02872267
147	0xbcd7e892	-0.026356015
148	0xbd2d3f1c	-0.042296514
149	0xbc3de664	-0.011590574
150	0xbd2f66a4	-0.042822495
151	0xbcac0ac0	-0.02100122
152	0x3c500856	0.0126973
153	0xbb22a07b	-0.0024814892
154	0x3cfad5de	0.030619558
155	0xbd179024	-0.037002698
156	0x3cbb3f8e	0.022857454
157	0x3d1b011b	0.03784285
158	0x3d06cf57	0.03291258
159	0xbd02e2fd	-0.031954754
160	0xbc7fdc16	-0.015616437
161	0x3cab09d9	0.02087872
162	0xbc3bf1a9	-0.0114711905
163	0xbd29bada	-0.04143796
164	0x3b82dc81	0.0039935713
165	0x3d2edb5a	0.04268966
166	0x3c6f350b	0.014600049
167	0x3c894c67	0.016760064
168	0xbd06cf0d	-0.032912303
169	0x3d01c3bc	0.031680807
170	0x3bb12608	0.005406145
171	0xbc1b7cca	-0.009490201
172	0x3c1931da	0.009350264
173	0xbcf2938e	-0.029611375
174	0x3b99fa8f	0.0046990584
175	0xbc99f512	-0.018793616
176	0xbb2f128a	-0.002671393
177	0x3d33b415	0.04387291
178	0xbc265c51	-0.010153846
179	0x3d2fe990	0.042947352
180	0x3bd21461	0.0064111208
181	0x3c375c59	0.011191451
182	0xbc158632	-0.009126233
183	0x3b51ec74	0.0032031806
184	0xbcdd0f16	-0.026984733
185	0x3b914a28	0.004433889
186	0x3be6d97b	0.0070449687
187	0x3d126bd4	0.035747364
188	0xbc8c9c73	-0.017164445
189	0xbcc20936	-0.023686033
190	0xbcd5cac3	-0.02609766
191	0xbcd9b90d	-0.026577497
192	0x3cf88577	0.030337078
193	0x3d08d882	0.033409603
194	0x3d2fa074	0.04287763
195	0xbc7de5c5	-0.015496676
196	0x3d1a0ac8	0.037607938
197	0xbcbe9f12	-0.02326921
198	0x3c63f32a	0.013912955
199	0x3c6db048	0.014507361
200	0xbc97145e	-0.018442329
201	0x3ceff2bb	0.029290548
202	0xbc6c873e	-0.014436541
203	0xbc57737a	-0.01315009
204	0xbbb1f57c	-0.0054308753
205	0x3d3435c3	0.043996584
206	0xbd1b26a6	-0.037878655
207	0x3cfd68b1	0.03093371
208	0x3cd41be8	0.025892213
209	0x3ceac2ea	0.028657395
210	0x3bc8fa82	0.0061333785
211	0x3c901fde	0.01759332
212	0xbccbd978	-0.02488397
213	0xbb13cb1d	-0.0022551485
214	0xbb4f5e48	-0.003164189
215	0x3c19c156	0.009384474
216	0x3c53d576	0.012929311
217	0xbc0f5e2c	-0.00875048
218	0x3d25580c	0.04036717
219	0x3bbcdda2	0.0057637254
220	0x3ccee5c2	0.025256041
221	0x3d1ac811	0.037788454
222	0x3ccd13eb	0.025033912
223	0x3cce542c	0.02518662
224	0xba5aa9b6	-0.0008341329
225	0xbcdcf2e8	-0.026971295
226	0x3a9c9962	0.0011947567
227	0x3c9c4fae	0.019080963
228	0xbcd555b8	-0.02604185
229	0x3c9f4e8a	0.01944663
230	0xbc5f4e0c	-0.013629448
231	0x3cdfa9c1	0.027302625
232	0xbb063700	-0.002047956
233	0xbca724c8	-0.02040328
234	0x3b7fa62c	0.0039008958
235	0x3bddaf63	0.0067652925
236	0x3c216303	0.009850266
237	0x3c91e906	0.01781131
238	0x3d04fa00	0.03246498
239	0x3ce8afd4	0.028404154
240	0xbc47ea75	-0.012201895
241	0xbb98db1f	-0.004664793
242	0xbcc19624	-0.023631163
243	0x3cf00c2a	0.029302675
244	0xbd14a4ae	-0.036289863
245	0xbcd27b28	-0.025693491
246	0x3cb5cafa	0.022191513
247	0x3cb02b78	0.021505103
248	0xbcaf4951	-0.021397265
249	0x3d1126e0	0.035437465
250	0xbbce8918	-0.006302964
251	0x3c0c6aeb	0.008570413
252	0xbca0abcb	-0.019613167
253	0xbd2afad8	-0.04174313
254	0x3cd6b2ef	0.026208369
255	0xbbd6b9c0	-0.006552905

base_model.model.gpt_neox.layers.1.attention.query_key_value.lora_B.weight f4 [1536, 16]
0	0xb755f81a	-1.2753555e-05
1	0x3755d6f4	1.2745837e-05
2	0xb007e200	-4.943388e-10
3	0x3755fe50	1.2755001e-05
4	0xb75e383e	-1.3245326e-05
5	0xb755dc61	-1.27471e-05
6	0xb75e5a91	-1.3253318e-05
7	0xb5064036	-5.001233e-07
8	0xb755e424	-1.27489075e-05
9	0x32062020	7.807131e-09
10	0x35063ea5	5.001005e-07
11	0xafb50800	-3.2929393e-10
12	0xb75e599f	-1.3253098e-05
13	0xb50630f3	-4.999012e-07
14	0x32048aa0	7.714931e-09
15	0x350816a1	5.069688e-07
16	0xb7da193b	-2.5999374e-05
17	0xb5040235	-4.9177044e-07
18	0xb755e81a	-1.274983e-05
19	0xafe62800	-4.1865178e-10
20	0xaf5d3000	-2.0116886e-10
21	0xb21261c0	-8.520544e-09
22	0xb74d9870	-1.2254444e-05
23	0xb766bf8b	-1.3753665e-05
24	0xb74d9360	-1.2253266e-05
25	0x37da171c	2.5998386e-05
26	0x2e446000	4.4650506e-11
27	0xb7d5e7d2	-2.5499528e-05
28	0x3755f207	1.2752141e-05
29	0xb7d1b174	-2.4997375e-05
30	0x375e5d72	1.3253988e-05
31	0xb75e5c25	-1.3253685e-05
32	0xb0655000	-8.34234e-10
33	0x374d92ec	1.225316e-05
34	0x37da1978	2.5999485e-05
35	0xb7d1199e	-2.492667e-05
36	0xb74d5064	-1.223767e-05
37	0x35061eac	4.9963523e-07
38	0xb7d5e254	-2.5496971e-05
39	0x374d728c	1.2245622e-05
40	0xb74d724b	-1.2245563e-05
41	0x375e373a	1.324509e-05
42	0x3755d8ae	1.2746239e-05
43	0xb755d4bf	-1.2745323e-05
44	0x3755f855	1.2753609e-05
45	0x3506155a	4.994996e-07
46	0x374d9187	1.2252835e-05
47	0xb75e5ab9	-1.3253354e-05
48	0xb7d5e779	-2.5499367e-05
49	0xb503d256	-4.910738e-07
50	0x3755d4cc	1.2745335e-05
51	0xb755e196	-1.2748313e-05
52	0xb755f628	-1.2753102e-05
53	0x35062c83	4.9983663e-07
54	0xb7d5e66a	-2.5498874e-05
55	0xb75e5aea	-1.3253399e-05
56	0xb755f7c8	-1.275348e-05
57	0x37669d91	1.3745755e-05
58	0x3755d926	1.2746348e-05
59	0xb755d565	-1.2745474e-05
60	0x374d9537	1.2253694e-05
61	0xaef2c000	-1.1038992e-10
62	0x374d9523	1.2253676e-05
63	0xb5062993	-4.997939e-07
64	0xb74d7126	-1.2245297e-05
65	0x35068510	5.011252e-07
66	0x320db640	8.248719e-09
67	0x2fbf8400	3.483649e-10
68	0xafec1800	-4.2945203e-10
69	0xb7d5e622	-2.5498743e-05
70	0x35064929	5.002535e-07
71	0xb74d73f1	-1.2245947e-05
72	0x37d5e7e3	2.549956e-05
73	0xb5863399	-9.998795e-07
74	0xb504b5c9	-4.9438364e-07
75	0xb75e5b76	-1.3253526e-05
76	0xb74d919b	-1.2252854e-05
77	0x2fa1e000	2.944489e-10
78	0x37d5e6c7	2.5499043e-05
79	0x350634dc	4.999581e-07
80	0xb74c9c3c	-1.2195724e-05
81	0x2fbd1000	3.4390268e-10
82	0xb503f2b1	-4.9154465e-07
83	0xb74d9619	-1.22538995e-05
84	0xb755f7b2	-1.275346e-05
85	0xb5064f3e	-5.00342e-07
86	0x375e5882	1.32528385e-05
87	0xb7450bc6	-1.1744856e-05
88	0x37d1b5a2	2.499932e-05
89	0xb766a3df	-1.37472225e-05
90	0xb7da1492	-2.5997204e-05
91	0x2faa4800	3.097398e-10
92	0xafadf000	-3.1639047e-10
93	0xb508255e	-5.0718324e-07
94	0x3205f540	7.797382e-09
95	0x3505fb75	4.991228e-07
96	0xb7d1b5e6	-2.4999445e-05
97	0x32040d40	7.686424e-09
98	0x37d5e67c	2.5498906e-05
99	0xb7d1b583	-2.4999264e-05
100	0xb75e5888	-1.3252844e-05
101	0xb7d5e723	-2.549921e-05
102	0xb7d1b418	-2.4998604e-05
103	0xb766bfbd	-1.3753711e-05
104	0x37da18d4	2.5999187e-05
105	0x37d5e72d	2.5499228e-05
106	0x3755d884	1.2746201e-05
107	0xb7d1b2e2	-2.499804e-05
108	0x3755f5a2	1.275298e-05
109	0xb74d95b3	-1.2253807e-05
110	0x3755f932	1.275381e-05
111	0xb7d5e670	-2.5498884e-05
112	0xb75e38f2	-1.324549e-05
113	0x37669a33	1.3744971e-05
114	0x3766d4f3	1.3758649e-05
115	0x3506f920	5.0281415e-07
116	0x37d5e526	2.5498284e-05
117	0x35874a0f	1.0079838e-06
118	0x350842f8	5.07614e-07
119	0x35083b14	5.074992e-07
120	0xb02d9600	-6.3150196e-10
121	0xb5876524	-1.008772e-06
122	0xb74d9400	-1.2253411e-05
123	0xb584ceed	-9.89499e-07
124	0x375e1f9c	1.3239591e-05
125	0xb5042d4c	-4.923975e-07
126	0xb2014e00	-7.526523e-09
127	0x35084aef	5.077299e-07
128	0xb0744000	-8.885763e-10
129	0x3755e0c8	1.2748125e-05
130	0x33695a30	5.4331565e-08
131	0x35062a09	4.998006e-07
132	0x3755f569	1.2752928e-05
133	0x37d5e398	2.549756e-05
134	0xb17d8280	-3.6890526e-09
135	0x374d9501	1.2253645e-05
136	0xb755d7af	-1.2746007e-05
137	0x375e5cb8	1.3253819e-05
138	0xb505dd64	-4.9868527e-07
139	0xb2232fc0	-9.498706e-09
140	0x350855d8	5.0788867e-07
141	0x3505c218	4.9828805e-07
142	0x320ede40	8.316022e-09
143	0xb506279a	-4.997652e-07
144	0x37da0e60	2.5994319e-05
145	0xb7555c70	-1.2717312e-05
146	0xb755f881	-1.2753649e-05
147	0x374d94e3	1.2253618e-05
148	0x2ff41800	4.4400394e-10
149	0x37d1ab66	2.4994555e-05
150	0x3755f86f	1.2753632e-05
151	0x3766bbec	1.3752822e-05
152	0x374d6a84	1.2243752e-05
153	0xb755d864	-1.2746172e-05
154	0xb755d411	-1.2745165e-05
155	0x374d74fe	1.2246192e-05
156	0xb74d94bb	-1.2253581e-05
157	0x374c7f49	1.2188983e-05
158	0xb7d1b616	-2.4999532e-05
159	0x375e5a18	1.3253208e-05
160	0xb75e3adc	-1.3245935e-05
161	0xb7561cc2	-1.276209e-05
162	0x375e3b6c	1.3246066e-05
163	0x350618d2	4.995501e-07
164	0x37d5e5a8	2.549852e-05
165	0x375e562f	1.3252297e-05
166	0xb755d794	-1.27459825e-05
167	0x37453114	1.1753542e-05
168	0xb5085742	-5.0790925e-07
169	0x37da1938	2.5999369e-05
170	0xb74d8f6b	-1.2252344e-05
171	0x35870958	1.0061003e-06
172	0x37d1b4cc	2.4998932e-05
173	0xb755d501	-1.2745383e-05
174	0x375e38fc	1.3245499e-05
175	0xb75e3c08	-1.3246208e-05
176	0x3755d86c	1.2746179e-05
177	0x35042d90	4.9240134e-07
178	0xb75e39d0	-1.3245692e-05
179	0x3755de84	1.2747598e-05
180	0x375e46b3	1.3248692e-05
181	0x374db132	1.2260209e-05
182	0x37d9f6df	2.5983374e-05
183	0x37de4b4e	2.6499529e-05
184	0xb75e3be4	-1.32461755e-05
185	0xb7da1976	-2.5999481e-05
186	0xb74d74cd	-1.2246147e-05
187	0x3755da76	1.2746654e-05
188	0xb7d1b5ec	-2.4999455e-05
189	0x37d1b592	2.4999292e-05
190	0xb7d1b6ae	-2.4999808e-05
191	0x37da19e7	2.5999687e-05
192	0xb755cec4	-1.2743931e-05
193	0x2d340000	1.0231815e-11
194	0xb74d766a	-1.2246523e-05
195	0x3755f519	1.2752856e-05
196	0x375e5ae2	1.3253391e-05
197	0x323be240	1.0936276e-08
198	0x3755fc8d	1.2754591e-05
199	0x350aaccc	5.166046e-07
200	0xb13a5380	-2.7114027e-09
201	0xb7da18fb	-2.5999258e-05
202	0xb7d5e6a0	-2.5498972e-05
203	0x37d1b5e6	2.4999445e-05
204	0xb755f548	-1.2752898e-05
205	0xb5041d1b	-4.9216186e-07
206	0x35041987	4.921098e-07
207	0x3755eeb5	1.2751368e-05
208	0xb74d9524	-1.2253677e-05
209	0x3755f7bd	1.275347e-05
210	0x374d9546	1.2253708e-05
211	0xb7d1b3a4	-2.4998393e-05
212	0xb755f8bd	-1.2753703e-05
213	0xb74d91e1	-1.2252917e-05
214	0xaf2dc800	-1.5805313e-10
215	0xb74d9596	-1.225378e-05
216	0x37d1b6cd	2.4999865e-05
217	0xb58630ff	-9.998038e-07
218	0x375e3bc7	1.3246149e-05
219	0x2e294000	3.8482995e-11
220	0xae96a000	-6.849632e-11
221	0xb74d94d6	-1.2253606e-05
222	0x3745318a	1.1753649e-05
223	0xb74d9105	-1.2252717e-05
224	0xb507d90e	-5.0607275e-07
225	0xb504995c	-4.9397e-07
226	0x304acc00	7.3777073e-10
227	0xb74d9588	-1.2253768e-05
228	0x350625a4	4.9973664e-07
229	0xafa94400	-3.0789238e-10
230	0xb7da1955	-2.5999421e-05
231	0xb5063a4c	-5.0003723e-07
232	0xb2063920	-7.812815e-09
233	0x375e266c	1.3241177e-05
234	0x375e3bce	1.32461555e-05
235	0xb006c800	-4.9033133e-10
236	0x374d9437	1.2253461e-05
237	0xaed6c000	-9.7656994e-11
238	0x3755f7c6	1.2753479e-05
239	0xb75e5736	-1.32525365e-05
240	0xb74531a9	-1.1753677e-05
241	0x30f33300	1.7695072e-09
242	0x374d9539	1.2253696e-05
243	0xb7d1b539	-2.499913e-05
244	0xb7d5e845	-2.5499738e-05
245	0xb74d94a2	-1.2253558e-05
246	0xb74d9426	-1.2253446e-05
247	0xb74531ed	-1.1753739e-05
248	0x37d1b661	2.4999668e-05
249	0x37453062	1.175338e-05
250	0x374d936a	1.2253275e-05
251	0xb755f6d6	-1.275326e-05
252	0x320808e0	7.91826e-09
253	0xb745311a	-1.1753547e-05
254	0x374531bf	1.1753697e-05
255	0x37669a0c	1.3744935e-05

base_model.model.gpt_neox.layers.2.attention.query_key_value.lora_A.weight f4 [16, 512]
0	0x3d0f58cb	0.03499679
1	0x3c6449e4	0.0139336325
2	0x3c781d14	0.0151436515
3	0x3ce21c2b	0.027601322
4	0x3d1c5fa8	0.038177162
5	0xbce40946	-0.027836453
6	0x3a95aa36	0.0011418525
7	0xbc64614c	-0.013939213
8	0xbb3de6cf	-0.0028976684
9	0x3cdd4d0e	0.027014282
10	0x3c74a6b2	0.014932321
11	0x3b1ce56d	0.002394046
12	0x3d2358d1	0.039879624
13	0xbd04d8b3	-0.032433223
14	0x3cbfcca6	0.023413014
15	0x39992494	0.00029209687
16	0x3d2b5f2b	0.041838806
17	0x3d055042	0.032547243
18	0xbb8c4099	-0.0042801616
19	0xba8b8cc7	-0.0010646813
20	0xbcb5d30e	-0.022195365
21	0x3caa00a0	0.020752251
22	0x3c64367e	0.013929008
23	0x3cc1e936	0.023670774
24	0xbd23ca23	-0.039987694
25	0xbbbe6902	-0.0058108578
26	0xbd061d87	-0.032743003
27	0x3cdfe5cd	0.027331257
28	0x3c94f6f5	0.018184165
29	0xbbfcc85a	-0.0077143135
30	0xbca257fb	-0.019817343
31	0x3caa8f65	0.020820329
32	0x3d3242d4	0.043520764
33	0x3c48dc8b	0.012259613
34	0xbc65a521	-0.014016421
35	0xbcad5b94	-0.021161832
36	0xbd233196	-0.03984221
37	0x3d30912d	0.0431072
38	0x3d0b9406	0.034076713
39	0xbc18383c	-0.009290751
40	0xbd2daec8	-0.042403013
41	0xbc80cea4	-0.015723534
42	0xbcd2d2a4	-0.025735207
43	0x3ca28851	0.019840391
44	0xbd200625	-0.03906836
45	0xbd19de0f	-0.037565287
46	0xbcc3a97d	-0.02388453
47	0xbc8733f2	-0.016504262
48	0xbd0d992c	-0.034569904
49	0xbc93ae36	-0.018027406
50	0x3c87181a	0.016490985
51	0xbc0dd181	-0.008655907
52	0xbcc5311c	-0.024071269
53	0xbd33535f	-0.04378068
54	0xbd27c738	-0.040961474
55	0xbcdf5e69	-0.027266698
56	0x3cb1ea56	0.021718185
57	0xbcab247c	-0.02089142
58	0xbcd2dd96	-0.025740426
59	0xbd2274bf	-0.03966212
60	0xbc39adf3	-0.011332977
61	0xbd2b3b96	-0.041804872
62	0x3d150a6b	0.03638689
63	0x3caecb5b	0.021337202
64	0xba13e5a4	-0.0005641824
65	0x3d09c9d0	0.03363973
66	0x3c7d3788	0.015455134
67	0x3cb72b94	0.022359647
68	0x3d0a471a	0.033759214
69	0xbc33eed2	-0.010982232
70	0x3c86031c	0.016358905
71	0xbc6d91e9	-0.01450012
72	0xbcf55554	-0.029947914
73	0x3d072300	0.032992363
74	0x3d0d0c9a	0.034435846
75	0xb9ca3917	-0.00038570978
76	0xbced52f3	-0.028970217
77	0x3c007dfc	0.007842537
78	0x3caba496	0.020952504
79	0xbc0fb640	-0.008771479
80	0xbd063771	-0.032767717
81	0x3c1129fa	0.008860106
82	0x3b878dc6	0.0041367738
83	0x3d1ccdae	0.03828209
84	0xbd050502	-0.03247548
85	0xbc3c7bf7	-0.011504165
86	0x3bb4d140	0.0055181086
87	0xbcf49492	-0.029856
88	0x39dbf0d8	0.00041950378
89	0x3c9bc3ee	0.019014325
90	0x3bab18ac	0.005221447
91	0x3ceffea4	0.029296227
92	0x3cc72944	0.02431167
93	0x3d191015	0.037368853
94	0xbcd6666a	-0.026171882
95	0xbca13a51	-0.019681128
96	0x3c80bbea	0.015714604
97	0xbcf20fc2	-0.02954853
98	0xbc981984	-0.018566854
99	0x3d344130	0.04400748
100	0xbcd21b4c	-0.025647782
101	0x3d073235	0.033006866
102	0x3c6a9ca1	0.01431957
103	0x3cb11313	0.02161554
104	0xbbf2cc83	-0.0074096336
105	0xbcc0460d	-0.023470903
106	0x3c8721d0	0.016495615
107	0x3bb84ec2	0.005624623
108	0x3bc1a118	0.0059090964
109	0xbd06847c	-0.03284119
110	0xbbb1a66a	-0.0054214494
111	0x3d30edaf	0.043195423
112	0x3c98d94e	0.018658306
113	0xbb172b7d	-0.0023066693
114	0x3c56dc63	0.013114068
115	0x3c95b082	0.018272642
116	0x3c403923	0.011732372
117	0x3c9f075a	0.019412685
118	0x3c6d3904	0.014478926
119	0x3c5784eb	0.013154249
120	0xbd08d076	-0.03340193
121	0x3bf06158	0.007335823
122	0xbd183c33	-0.037166785
123	0x3b97c6e2	0.004631863
124	0xbd206f00	-0.039168358
125	0x3ce7e98a	0.028309602
126	0xbb2e24de	-0.0026572268
127	0xbbbbf400	-0.005735874
128	0x3bb78fa1	0.0056018387
129	0x3d16ec9a	0.036846735
130	0xbcd4ac31	-0.025961014
131	0xbd2a4938	-0.041573733
132	0xbc590e7b	-0.013248081
133	0x3c4cf276	0.012508979
134	0x3c7b86e4	0.015351985
135	0x3bef3800	0.007300377
136	0xbb1b43b1	-0.002369147
137	0xbca764a1	-0.020433726
138	0x3b646022	0.0034847339
139	0xbd26157a	-0.040547825
140	0x3bf5661b	0.0074889786
141	0xbca91e19	-0.020644234
142	0x3c034cc0	0.008013904
143	0xbc9736aa	-0.018458683
144	0xbb2ace08	-0.0026062746
145	0x3ce25251	0.027627142
146	0xbd2410ae	-0.04005497
147	0x3cbbd564	0.022928901
148	0x3c6661be	0.0140613895
149	0xbbed7eb5	-0.0072477707
150	0x3d10f0e4	0.03538598
151	0xbc2ddb07	-0.010611302
152	0xbd313532	-0.04326362
153	0xbc90306c	-0.017601214
154	0xbca106a2	-0.019656483
155	0x3d2ee560	0.042699218
156	0x3d2b363f	0.04179978
157	0x3d003f83	0.03131057
158	0x3d32e0e8	0.04367152
159	0xbb47cc96	-0.0030486933
160	0x3d0a2226	0.033723973
161	0x3ba0a63d	0.0049026296
162	0xbc27336a	-0.010205129
163	0x3c8e744e	0.017389443
164	0xbc425c8f	-0.011862888
165	0xbc3e2b91	-0.011607067
166	0xbc36a32d	-0.011147303
167	0xbcfd617f	-0.030930279
168	0xbc857036	-0.016288858
169	0x3c421255	0.011845191
170	0xbc907fa8	-0.017638996
171	0x3c2cee83	0.0105549125
172	0xbc99e744	-0.018787034
173	0x3bed587c	0.007243214
174	0x3ccef333	0.02526245
175	0x3cd067b4	0.025440075
176	0x3cde2884	0.027118929
177	0x3cb824fd	0.022478575
178	0x3c611354	0.013737518
179	0x3d1a5592	0.037679262
180	0xbcb898a7	-0.022533728
181	0x3d0b21bb	0.033967715
182	0xbd2e8f45	-0.0426171
183	0x3d06d3d0	0.032916844
184	0x3c237461	0.009976477
185	0x3afeef4f	0.0019449982
186	0xbccad58b	-0.024760028
187	0x3ca0e95f	0.01964253
188	0xbc3aa9d8	-0.011393033
189	0x3d01678b	0.031592887
190	0x3cef036f	0.029176442
191	0xbd34e0a9	-0.044159565
192	0x3d32fcd6	0.043698154
193	0x3cfceed0	0.030875593
194	0xbcb964e4	-0.022631116
195	0xbc461121	-0.012089045
196	0xbb91affe	-0.0044460287
197	0xbc5d1951	-0.013494805
198	0x3cf15e87	0.02946402
199	0xbcd9721e	-0.026543673
200	0x3d12a2c1	0.035799745
201	0xbc72bd22	-0.014815601
202	0x3bfac8ae	0.0076533174
203	0x3d2c2450	0.042026818
204	0xbd1a2569	-0.037633333
205	0x3bcea184	0.0063058753
206	0xbb081220	-0.0020762756
207	0xbce9543c	-0.028482549
208	0x3d0793fb	0.03310011
209	0xbd0dadf4	-0.034589723
210	0x3d162705	0.036658306
211	0xbd1ea963	-0.03873576
212	0x3d0eac50	0.0348323
213	0xbd285955	-0.04110082
214	0x3d2de0a9	0.04245058
215	0x3d34de5d	0.044157375
216	0xbccb0f5d	-0.0247876
217	0x3c8796b4	0.016551353
218	0x3ca59bd9	0.020215916
219	0x3cb230b8	0.021751747
220	0x3ca56b34	0.02019272
221	0xbd0960bc	-0.03353952
222	0xbd05792d	-0.032586265
223	0xbc260a2a	-0.010134259
224	0x3cd82791	0.026386054
225	0xbce72182	-0.02821422
226	0xbc70f31c	-0.014706399
227	0xbd1c86f0	-0.038214624
228	0xbc2ddb80	-0.010611415
229	0x3c9fccc1	0.019506814
230	0xbd0c4142	-0.034241922
231	0xbd23b8ae	-0.039971046
232	0xbd0f5296	-0.03499087
233	0xbbe4272f	-0.006962679
234	0xbb69e337	-0.003568841
235	0x3cfb7fb7	0.030700548
236	0xbc5b4228	-0.013382472
237	0xbca71042	-0.020393495
238	0xbd054e75	-0.032545526
239	0xbccf69a2	-0.025318924
240	0xbcabbc57	-0.02096383
241	0xbc510a0b	-0.012758742
242	0xbc8bb7fe	-0.017055508
243	0x3d1dcf52	0.038527794
244	0x3caddee0	0.02122444
245	0xbb76095e	-0.0037542204
246	0xbcad3940	-0.021145463
247	0x3d02740e	0.03184896
248	0x3cda5e6c	0.026656352
249	0x3c11a379	0.008889073
250	0xbb93c584	-0.0045096297
251	0x3c59e11b	0.013298298
252	0x3ce17116	0.027519744
253	0xbcb15687	-0.021647705
254	0xbd231e7e	-0.039824
255	0x3cfa9a2d	0.030591095

base_model.model.gpt_neox.layers.2.attention.query_key_value.lora_B.weight f4 [1536, 16]
0	0xb74d8c3e	-1.2251605e-05
1	0xafdf9400	-4.0668624e-10
2	0x3755d4d3	1.2745341e-05
3	0x37d5e27c	2.5497044e-05
4	0xb7da173c	-2.5998444e-05
5	0x375e0311	1.3232945e-05
6	0xb7da193c	-2.5999376e-05
7	0xb505a6ca	-4.978907e-07
8	0xb084ef00	-9.672192e-10
9	0xb5064b95	-5.0028876e-07
10	0x3755d69e	1.2745759e-05
11	0xb75e5561	-1.325211e-05
12	0xb755f712	-1.2753315e-05
13	0xb508efce	-5.101291e-07
14	0x37da0e14	2.599418e-05
15	0xb51cea00	-5.8455043e-07
16	0x374d71f9	1.22454885e-05
17	0x3587687e	1.0088695e-06
18	0xb089a600	-1.0015242e-09
19	0xb74d9faf	-1.2256131e-05
20	0x374d72bc	1.2245666e-05
21	0x35865daf	1.0011044e-06
22	0xb1fa8700	-7.2913053e-09
23	0xb755d946	-1.2746377e-05
24	0xb755fca8	-1.2754615e-05
25	0xb7d5e719	-2.5499192e-05
26	0x3755bc42	1.27396215e-05
27	0xb755f30a	-1.2752376e-05
28	0xb201a720	-7.546788e-09
29	0xb5080e7e	-5.0685037e-07
30	0xb755f5df	-1.2753036e-05
31	0x37d1b478	2.4998779e-05
32	0xb5045296	-4.929401e-07
33	0xb58676e6	-1.0018382e-06
34	0x375e3aba	1.32459045e-05
35	0x374d7343	1.2245789e-05
36	0xb75e3c93	-1.3246335e-05
37	0x374d72af	1.2245654e-05
38	0xb50444d8	-4.927401e-07
39	0x375e6d6e	1.325771e-05
40	0x350444ee	4.927414e-07
41	0x350429b2	4.9234507e-07
42	0x3504119b	4.919945e-07
43	0x3755fba1	1.2754376e-05
44	0xb75e36a8	-1.3244957e-05
45	0xb7452dca	-1.1752776e-05
46	0x375f12bc	1.3296198e-05
47	0x3148f300	2.924196e-09
48	0xb74d751d	-1.224622e-05
49	0x35140d43	5.5153595e-07
50	0x37cd854e	2.449998e-05
51	0xb5059598	-4.976405e-07
52	0xb74d8a84	-1.2251203e-05
53	0x3755f5db	1.2753032e-05
54	0xb755f735	-1.2753347e-05
55	0x37cd844a	2.4499506e-05
56	0xb505907b	-4.975661e-07
57	0xb755d835	-1.2746129e-05
58	0xb10be000	-2.0354491e-09
59	0x3755d5d2	1.2745573e-05
60	0xb7d5e756	-2.5499303e-05
61	0x3755caea	1.2743034e-05
62	0x3755f750	1.2753371e-05
63	0x3755f423	1.2752632e-05
64	0x3505aae6	4.979505e-07
65	0x37556aa8	1.2720622e-05
66	0x35864ae9	1.000558e-06
67	0x35065fa0	5.005804e-07
68	0xb766c2de	-1.3754439e-05
69	0x3755d610	1.274563e-05
70	0xb11f9780	-2.3223663e-09
71	0x3506324e	4.9992093e-07
72	0x35861a1b	9.991376e-07
73	0x374dcc36	1.2266499e-05
74	0xb4227836	-1.5131158e-07
75	0x375e1f3a	1.3239502e-05
76	0xb5062a99	-4.998088e-07
77	0xb50672ae	-5.008577e-07
78	0xb74d6f65	-1.2244888e-05
79	0xb75e37c5	-1.3245216e-05
80	0xaf471000	-1.8104629e-10
81	0x3755d572	1.2745486e-05
82	0xb5062e30	-4.99861e-07
83	0xb5874297	-1.0077664e-06
84	0xb74d72ef	-1.2245712e-05
85	0x375e2a33	1.3242056e-05
86	0xb755d594	-1.2745517e-05
87	0xadcec000	-2.3504754e-11
88	0xb5863ec1	-1.0002042e-06
89	0x3755f6e1	1.275327e-05
90	0xb766b176	-1.3750387e-05
91	0x374d8c78	1.2251658e-05
92	0x35064d12	5.003104e-07
93	0x37d1a92d	2.499352e-05
94	0xb585ec5d	-9.978063e-07
95	0x37d5e456	2.5497906e-05
96	0x3755e9b2	1.2750201e-05
97	0xb586b0ec	-1.0035269e-06
98	0xb7452f7a	-1.1753169e-05
99	0x3506747a	5.0088386e-07
100	0x3744f92a	1.1740523e-05
101	0x2fe5d400	4.1805492e-10
102	0x3755f719	1.2753321e-05
103	0x35063af8	5.00047e-07
104	0xb74d941d	-1.22534375e-05
105	0x35862e6d	9.99729e-07
106	0x35052bd5	4.9610145e-07
107	0x350847b2	5.076828e-07
108	0x37452b8a	1.1752252e-05
109	0xb7da1225	-2.5996074e-05
110	0xb7451242	-1.1746366e-05
111	0xb503e55d	-4.913507e-07
112	0xb755db07	-1.2746786e-05
113	0xb000b600	-4.6824766e-10
114	0x2daf4000	1.9923618e-11
115	0xb50678de	-5.0094775e-07
116	0xb5062960	-4.99791e-07
117	0x35082948	5.072402e-07
118	0xb5063c72	-5.000685e-07
119	0xafda3c00	-3.9696602e-10
120	0xb5063960	-5.000238e-07
121	0x3755f5de	1.2753035e-05
122	0x3755cb96	1.274319e-05
123	0x374d8526	1.2249953e-05
124	0xaeb16000	-8.066081e-11
125	0xb7663cb4	-1.3723202e-05
126	0xb75e5589	-1.3252146e-05
127	0xb754912c	-1.2669985e-05
128	0xb5863805	-1.0000082e-06
129	0xb505426a	-4.9643006e-07
130	0x37669b4e	1.3745228e-05
131	0xb755d33f	-1.2744974e-05
132	0xb7de490e	-2.6498481e-05
133	0xb1f67cc0	-7.1737247e-09
134	0xb7de3593	-2.648941e-05
135	0xb7451be1	-1.1748606e-05
136	0x35048ebd	4.9381543e-07
137	0x374da2dc	1.2256871e-05
138	0x37de468f	2.6497319e-05
139	0xb75e5488	-1.3251913e-05
140	0xb766befe	-1.3753537e-05
141	0x37cd80b8	2.4497844e-05
142	0xb7452c2a	-1.1752398e-05
143	0xb7669ddc	-1.3745823e-05
144	0xb7da1830	-2.5998888e-05
145	0xb5063cea	-5.000753e-07
146	0x37de4a1a	2.6498969e-05
147	0x374d47dc	1.2235683e-05
148	0xb585e16d	-9.97488e-07
149	0x3506cbf4	5.021568e-07
150	0xb755d87d	-1.2746194e-05
151	0x375e3c2a	1.3246239e-05
152	0x375e3ed9	1.3246864e-05
153	0x37de49f4	2.64989e-05
154	0x375e2b61	1.3242331e-05
155	0x350628b8	4.9978144e-07
156	0xb75e3b74	-1.3246074e-05
157	0x375e5a63	1.3253276e-05
158	0xb7d1a5d0	-2.4991954e-05
159	0xb7d5e741	-2.5499265e-05
160	0x3755df18	1.2747732e-05
161	0xb755d91f	-1.2746342e-05
162	0x3507e69e	5.062701e-07
163	0xb1809580	-3.7422865e-09
164	0x374d93fd	1.2253408e-05
165	0xb7d1b503	-2.4999032e-05
166	0x3766917f	1.3742944e-05
167	0xb7d1b329	-2.499817e-05
168	0x35067d18	5.0100925e-07
169	0x3755f313	1.27523845e-05
170	0x3755f654	1.2753142e-05
171	0x315e8180	3.2378864e-09
172	0x37669de2	1.3745828e-05
173	0xaf1e0800	-1.4372858e-10
174	0x3755f46d	1.2752699e-05
175	0xb75e5386	-1.3251678e-05
176	0xb0f8b100	-1.8094681e-09
177	0x3755cf74	1.2744091e-05
178	0xb1fd8440	-7.378304e-09
179	0x37450f34	1.1745655e-05
180	0x35054cd8	4.9658183e-07
181	0x375e3d91	1.3246566e-05
182	0x3507e99b	5.063136e-07
183	0x3755d72e	1.274589e-05
184	0xb1f8d380	-7.2417947e-09
185	0x324bbb00	1.1858674e-08
186	0xb508a2fc	-5.090112e-07
187	0xb0201c00	-5.824745e-10
188	0xb5045f76	-4.9312746e-07
189	0x3766b76a	1.3751773e-05
190	0xb755f3d5	-1.2752561e-05
191	0xb50438ca	-4.925647e-07
192	0x375e3af2	1.3245955e-05
193	0x3755d7de	1.274605e-05
194	0xb50633aa	-4.999407e-07
195	0x374d7107	1.2245268e-05
196	0xb7d1acb1	-2.4995157e-05
197	0x3755d3a7	1.27450685e-05
198	0xb755f5c4	-1.2753011e-05
199	0x3202d280	7.614858e-09
200	0xb5064757	-5.0022703e-07
201	0xb58648f0	-1.0005006e-06
202	0xb7d5e51c	-2.5498266e-05
203	0x374d5edc	1.2241038e-05
204	0x3755d588	1.2745506e-05
205	0x3755d952	1.2746388e-05
206	0x37d5e7a3	2.5499443e-05
207	0x3506de73	5.0242596e-07
208	0x31456580	2.872497e-09
209	0x37d1b0a8	2.4997003e-05
210	0x35063052	4.9989205e-07
211	0x3755f105	1.2751906e-05
212	0xb74d6d4b	-1.2244399e-05
213	0xafdfd400	-4.07141e-10
214	0x375e6987	1.3256801e-05
215	0x35065b68	5.0051904e-07
216	0x375e39a1	1.3245649e-05
217	0x375e3808	1.3245277e-05
218	0x3755f1f8	1.2752127e-05
219	0x37da10d7	2.5995467e-05
220	0x30ec1200	1.7176376e-09
221	0xafbc7800	-3.4282266e-10
222	0xb755f59f	-1.2752977e-05
223	0x375e2a01	1.3242011e-05
224	0xb5066606	-5.0067354e-07
225	0x3755f3f8	1.2752593e-05
226	0x37452f2f	1.1753101e-05
227	0xb5030980	-4.881513e-07
228	0x3503b536	4.9065e-07
229	0x37da118c	2.5995796e-05
230	0xb7d5e61d	-2.5498734e-05
231	0xb5062d6e	-4.9985e-07
232	0xb7669aac	-1.3745081e-05
233	0xb755d19b	-1.2744592e-05
234	0xb502523d	-4.8548446e-07
235	0xb7da1820	-2.599886e-05
236	0xb75e59df	-1.3253156e-05
237	0xb75e3838	-1.3245321e-05
238	0x374df599	1.2276135e-05
239	0x3755c44a	1.2741491e-05
240	0xb4bf8a75	-3.5677263e-07
241	0xb755ddb2	-1.2747407e-05
242	0xb745103e	-1.1745897e-05
243	0xb2197ba0	-8.933881e-09
244	0x374d9239	1.2252997e-05
245	0x3765e8aa	1.3703635e-05
246	0x3015d600	5.4509997e-10
247	0xb7cd7efe	-2.449704e-05
248	0x358618b8	9.990972e-07
249	0x37cd800f	2.4497536e-05
250	0xb7561390	-1.2759949e-05
251	0x35083b60	5.075035e-07
252	0x37d5e5d9	2.549861e-05
253	0x375e3ebe	1.3246839e-05
254	0x3586053a	9.985299e-07
255	0xb5860298	-9.984533e-07

base_model.model.gpt_neox.layers.3.attention.query_key_value.lora_A.weight f4 [16, 512]
0	0xbc2bd5ac	-0.010487955
1	0x3ba566bf	0.0050476487
2	0xbbde4959	-0.006783646
3	0xbc972e12	-0.018454585
4	0xbd2c6b3c	-0.042094454
5	0x3cb533d4	0.02211944
6	0x3c2ec1e0	0.010666341
7	0x3d0840db	0.033264976
8	0x3a619e3e	0.0008606649
9	0xbd01476c	-0.031562254
10	0xbcbc1e4d	-0.022963667
11	0x3ca6685a	0.02031343
12	0x3c525b04	0.012839083
13	0x3c9b1eaa	0.01893552
14	0xbcee5e3c	-0.029097669
15	0x3c3a9e3f	0.011390268
16	0x3d011e4f	0.031523045
17	0x3d27fe19	0.04101381
18	0x3ccd60f1	0.02507064
19	0x3c78e580	0.015191436
20	0x3cb17ffa	0.02166747
21	0xbd198a0f	-0.03748518
22	0x3cf6f945	0.030148158
23	0x3c0bfdc8	0.008544393
24	0x3cdaa1a7	0.02668841
25	0x3c0b668c	0.008508336
26	0x3c41d350	0.011830166
27	0xbcd37037	-0.025810344
28	0xbcf9fb3e	-0.03051531
29	0x3cfc789a	0.030819226
30	0x3c9077d4	0.017635264
31	0xbc08dc4d	-0.008353305
32	0x3bcb1fb3	0.006198847
33	0xbd33e892	-0.04392297
34	0x3c77ef6b	0.015132765
35	0xbd2d52db	-0.042315345
36	0xbcea073e	-0.028567906
37	0xbb6779a2	-0.0035320302
38	0xbcc512fc	-0.024056904
39	0x3b85d898	0.004084658
40	0x3c810d93	0.015753543
41	0xbc86d1e4	-0.016457506
42	0xbbc3fd19	-0.0059810993
43	0xbc231f57	-0.0099562025
44	0xbcf95f38	-0.030440912
45	0xbc9e2e88	-0.019309297
46	0xbcdf6812	-0.027271304
47	0xbd00192e	-0.031274013
48	0xbc4853f8	-0.012227051
49	0xbbb3e93f	-0.0054904516
50	0xbd1ac05c	-0.037781104
51	0xbd237b1b	-0.039912324
52	0x3c52dce3	0.012870046
53	0xbb24427f	-0.0025064049
54	0xbcbdd611	-0.023173364
55	0x3cfe37ba	0.031032432
56	0x3d1e2619	0.03861055
57	0x3bf1328e	0.007360763
58	0x3cad714e	0.021172192
59	0x3aba86fe	0.0014230905
60	0x3d302828	0.043007046
61	0xbd1f4c86	-0.038891338
62	0x3cb88711	0.022525342
63	0x3cb03585	0.021509895
64	0x3d2370df	0.039902564
65	0x3cea4132	0.02859554
66	0xbbcdb9e6	-0.0062782643
67	0xbd341378	-0.04396388
68	0xbd143e36	-0.03619214
69	0xbceeff14	-0.029174365
70	0xbcb03c5f	-0.021513162
71	0x3d145419	0.036213014
72	0x3c3f2a58	0.01166781
73	0x3ce32d02	0.027731422
74	0x3d263f0d	0.040587474
75	0xbcc41cec	-0.023939572
76	0xbc809c82	-0.015699629
77	0x3cc6e90b	0.024281045
78	0x3cbbbe2f	0.022917835
79	0xbca3d0fc	-0.019997112
80	0xbccafc04	-0.024778374
81	0xbd0ea3ba	-0.03482411
82	0xbd2a932a	-0.041644253
83	0x3bc2bd71	0.0059429933
84	0xbcad7ac1	-0.021176698
85	0x3aed2ffc	0.0018095965
86	0xbd23b508	-0.039967567
87	0x3c32cb54	0.010912735
88	0x3cf3ee0a	0.029776592
89	0xbbbffd0c	-0.005859023
90	0xbc01f2f1	-0.007931457
91	0xbc2f1d58	-0.010688148
92	0x3bd950a8	0.0066319294
93	0x3d0a31f7	0.033739056
94	0x3cbd2512	0.023088966
95	0x3c187af8	0.009306662
96	0xbd0cbdd2	-0.034360714
97	0x3c78d844	0.0151882805
98	0xbd220dcc	-0.03956394
99	0xbc61149a	-0.013737822
100	0x3b2ae46e	0.0026076096
101	0xbd07d130	-0.03315848
102	0xbcae270c	-0.021258853
103	0x3cd44bb2	0.025915
104	0x3d1d55d5	0.038411934
105	0x3c182517	0.009286187
106	0xbb3b212d	-0.002855371
107	0x3c63b0eb	0.013897161
108	0x3d26d2f7	0.040728536
109	0x3c9772de	0.01848739
110	0x3bb2f9c8	0.005461905
111	0x3b7392ff	0.0037166474
112	0xbca717c8	-0.020397082
113	0xbb44f352	-0.0030052257
114	0x3cf69d6b	0.03010436
115	0xbd0c0dc2	-0.034192808
116	0x3ca4d1b2	0.020119522
117	0xbc51d4a0	-0.012807041
118	0x3c7fd248	0.0156141
119	0xba9b7188	-0.0011859396
120	0xbd32913e	-0.043595545
121	0x3bb11f88	0.00540537
122	0x3d14d613	0.03633697
123	0xbd24f6c5	-0.0402744
124	0xbd065434	-0.032795146
125	0x3cb3e8a0	0.02196151
126	0xbd0ea82c	-0.03482835
127	0x3b23d3c2	0.0024998044
128	0x3cfa1cda	0.030531336
129	0xbd26e8cc	-0.040749356
130	0x3c0e4a30	0.00868468
131	0xbcde30e4	-0.027122922
132	0x3d2aabd2	0.041667767
133	0xbd0b07a8	-0.03394285
134	0x3d1bd073	0.03804059
135	0x3c719568	0.014745094
136	0x3c1248dc	0.008928504
137	0x3c7470bd	0.014919457
138	0xbd0f25cc	-0.034948155
139	0x3696bdcf	4.492445e-06
140	0x3cc59302	0.02411795
141	0x3c985887	0.0185969
142	0x3bf0b9c9	0.007346366
143	0x3d2d9102	0.04237462
144	0x3d22bbf3	0.039730024
145	0xbc9a1e26	-0.018813204
146	0x3b9f138e	0.004854626
147	0xbc9d9ed6	-0.019240778
148	0x3ce95d6a	0.028486926
149	0xbd2e1f00	-0.042510033
150	0x3b190792	0.002335046
151	0xbc83c6fc	-0.016086094
152	0xbd19847a	-0.037479855
153	0xbce4d9ee	-0.027935948
154	0x3cfbe98a	0.030751009
155	0xbc798cd3	-0.015231329
156	0xbc37ac65	-0.011210536
157	0xbce30350	-0.02771154
158	0xbcd53776	-0.026027422
159	0x3cec2546	0.028826367
160	0xbcce1e41	-0.02516091
161	0xbc9c5322	-0.01908261
162	0xbc26d72c	-0.010183137
163	0x3cdc01e9	0.02685638
164	0xbc774d4e	-0.0150941145
165	0x3c523ac0	0.01283139
166	0x3c8bcd82	0.017065767
167	0xbd2665e0	-0.0406245
168	0xbd232d4a	-0.039838113
169	0xbc068344	-0.008210007
170	0xbd040ba2	-0.032237656
171	0x3d00a0bd	0.031403292
172	0xbd0ec2bf	-0.034853693
173	0x3d0dfc32	0.03466434
174	0x3c8503ec	0.016237222
175	0xbba96bb0	-0.005170308
176	0xbc3967c8	-0.011316247
177	0xbc40a6a8	-0.011758484
178	0xbcd99a83	-0.026562935
179	0xbc2e3689	-0.010633119
180	0xbd1d9adb	-0.03847776
181	0xbcd7266c	-0.026263438
182	0xbb62a965	-0.003458583
183	0x3d336464	0.04379691
184	0xbcf18a6a	-0.029484946
185	0xbceddf82	-0.02903724
186	0x3d1ff59b	0.039052587
187	0x3c4867b8	0.01223176
188	0x3c2b78ef	0.0104658445
189	0x3cd09fb3	0.025466776
190	0xbc89d30a	-0.016824264
191	0x3d22ea5f	0.039774295
192	0x3c8a3bbb	0.016874185
193	0xbd15535e	-0.03645646
194	0xbc14308c	-0.009044778
195	0xbc04a180	-0.008095145
196	0x3d0a94ea	0.03383342
197	0xbd102999	-0.03519592
198	0xbd00b3d8	-0.031421512
199	0xbc82756c	-0.015925132
200	0x3c3d5328	0.0115554705
201	0x3cf8b327	0.030358864
202	0xbc0f010b	-0.008728276
203	0x3c8b78f4	0.017025448
204	0x3cd2f8db	0.02575343
205	0x3cb323e9	0.02186771
206	0xbcc295ff	-0.023753164
207	0x3a69bef6	0.00089167
208	0xbcdcebfe	-0.026967999
209	0x3d0c41d9	0.034242485
210	0x3cdef7d6	0.027217787
211	0xbc651030	-0.01398091
212	0xbcaacd62	-0.020849887
213	0x3b55647e	0.0032561119
214	0xbc9a99e4	-0.018872209
215	0xbc7f595e	-0.015585272
216	0xbd1d6191	-0.038423125
217	0xbc3b5550	-0.011433914
218	0x3b8e7009	0.0043468517
219	0x3d2ac614	0.04169281
220	0xbc45dc40	-0.0120764375
221	0x3cc8d3a1	0.024514975
222	0xbc3c7c60	-0.011504263
223	0x3caefc3a	0.021360505
224	0xbcb02f82	-0.021507028
225	0x3cbe3449	0.02321829
226	0x390722e7	0.00012887605
227	0xbd0ed199	-0.034867857
228	0x3cbfd785	0.023418197
229	0xbd185448	-0.037189752
230	0x3b7c67c2	0.0038513993
231	0x3c5bd5dc	0.013417687
232	0xbd150d08	-0.03638938
233	0x3c199204	0.009373192
234	0xbd0c18b8	-0.03420326
235	0xbcfad14b	-0.030617377
236	0xbbadc1c0	-0.005302638
237	0x3d0d343b	0.03447364
238	0xbc96c5c1	-0.018404843
239	0xbc4ee784	-0.01262844
240	0xbd21f33e	-0.039538614
241	0xbd1609fc	-0.036630616
242	0x3c0cb777	0.008588663
243	0xbc3553e8	-0.011067368
244	0x3d1aea76	0.037821256
245	0x3cee020a	0.029053707
246	0xbcb4cffa	-0.022071827
247	0xbaaba280	-0.0013094693
248	0xbbd27d2a	-0.006423612
249	0x3d10ad98	0.035321802
250	0xbbc8d6e1	-0.006129131
251	0x3cc19f51	0.023635538
252	0xba5911c1	-0.00082805386
253	0xbb9f48ce	-0.004860974
254	0x3d2256b9	0.039633486
255	0x3b615ab2	0.0034386334
