FederatedLLM/FT_lite/my_fl_model_test/peft_10/adapter_model.bin (torch, 791378 bytes, 12 tensors)

base_model.model.gpt_neox.layers.0.attention.query_key_value.lora_A.weight f4 [16, 512]
-0.029770853 -0.023252482 -0.024157083 0.0053164 0.027613003 -0.031518377 -0.04088094 0.034456167
-0.003384128 0.022812894 0.043739922 0.013748492 0.02367456 -0.0006427721 -0.017382797 0.04470011
0.0032878397 -0.041849263 -0.016125185 -0.035045 0.008416538 0.03566145 -0.0029953108 -0.01604209
0.032889724 -0.03971519 0.030899856 0.017821139 -0.02540143 -0.030763917 0.013856754 -0.036762733
-0.02697022 0.037883908 -0.019938512 -0.0013401881 -0.0013166169 -0.021712024 0.003333852 0.029288271
0.032667473 -0.038225055 0.014600474 0.031008817 -0.022051267 0.038905606 0.038050532 0.007971458
0.023129664 0.01627131 -0.025173329 0.013028806 -0.026321085 -0.018909477 -0.019628404 0.015174209
0.02479197 0.033915237 0.012815784 -0.029928803 0.032874197 -0.00381151 0.0006795285 -0.029417777
-0.011833105 0.024814345 -0.04475809 -0.0033521429 0.01370445 -0.031777672 -0.017300371 -0.04202754
-0.037337534 -0.024335824 -0.015407288 -0.03706697 0.019110586 -0.026693486 0.035195064 -0.012533184
0.01864637 -0.0021494958 -0.017352043 0.0025222653 -0.038551684 0.0007817238 0.03672739 -0.022540556
0.034973435 -0.042029627 -0.0050991103 0.014911319 -0.012395774 -0.02097941 0.012941073 -0.02171863
0.021829369 0.027635423 0.022600707 0.009578899 -0.036453884 -0.03656807 0.039808594 0.02326106
0.017511336 0.017516306 -0.007857641 0.019466398 0.014117642 -0.03073568 0.017384654 -0.016602503
-0.009841495 0.020328887 -0.007720208 0.013400559 0.01884671 -0.009184193 0.040393934 -0.03567068
0.026548777 0.038326226 0.013919309 -0.0406738 -0.013847615 -0.0066023134 0.022562554 0.027794106
0.039232258 0.03772657 -0.002562128 -0.024498036 0.011205164 -0.0074673565 -0.02736797 -0.026924647
-0.008823553 -0.0014721391 -0.01099922 -0.026704604 0.0027980541 -0.04783641 -0.034560237 0.037749484
-0.0527406 0.037385248 0.049186423 0.016789634 0.01862966 -0.014535828 0.02006045 -0.029158227
-0.044085313 -0.011242899 0.002290224 0.040791966 -0.0146020865 -0.049833216 0.03696032 -0.011309585
-0.024761671 0.036562912 -0.012118749 -0.00553073 -0.030900933 -0.04487281 -0.0030143424 -0.0015398111
-0.03835352 -0.030849013 0.030117348 0.0043948498 0.017062476 -0.0031935142 -0.0045582834 0.0009631775
0.017539727 0.008528419 0.016771032 0.027716802 0.024060493 -0.0015011393 0.043722782 0.041445587
0.030190447 -0.04260753 0.014503276 0.013043031 0.008439095 0.037131228 -0.04317486 -0.0033547904
-0.0018246407 -0.037524827 0.039941296 -0.029835626 -0.015175739 0.028961353 -0.0047381353 0.01725299
-0.0033178125 0.0020600474 -0.023408787 -0.03383868 0.05211683 0.036296554 -0.021185873 -0.006020543
-0.0027485355 -0.034266967 0.026685305 -0.047256336 0.03359919 0.024653828 0.014153094 -0.0027426877
-0.032481275 -0.0203753 0.034689255 0.006864612 -0.012550345 0.0030514882 -0.003694591 -0.021865338
0.0028206662 -0.013316357 -0.031264298 0.005697177 0.008616362 0.023217807 0.021221003 7.0284696e-05
0.04705656 -0.009177963 -0.05848015 -0.034603577 0.043332588 0.0090417545 0.008680881 -0.030436745
0.030501653 0.02711017 -0.01872143 0.015894206 -0.027892586 -0.0095688775 0.03405272 -0.01861618
-0.027551154 -0.027235832 -0.038937442 0.023449158 -0.013378561 -0.031668305 0.04302747 0.010689365
00000000: 01e2 f3bc fd7b bebc 13e5 c5bc 3235 ae3b
00000010: aa34 e23c 6a19 01bd c672 27bd e921 0d3d
00000020: 3fc8 5dbb 1be2 ba3c a228 333d 5b41 613c
00000030: 27f1 c13c b57f 28ba 5e66 8ebc 7617 373d
00000040: cc78 573b 226a 2bbd f718 84bc 598b 0fbd
00000050: 85e5 093c be11 123d fa4c 44bb b36a 83bc
00000060: 60b7 063d 65ac 22bd b221 fd3c a3fd 913c
00000070: a916 d0bc 9c04 fcbc 7007 633c 8594 16bd
00000080: a7f0 dcbc 282c 1b3d 1756 a3bc 40a9 afba
00000090: 5592 acba 6add b1bc c17c 5a3b f5ed ef3c
000000a0: 54ce 053d e091 1cbd d436 6f3c 3406 fe3c
000000b0: dca4 b4bc 7c5b 1f3d e0da 1b3d b89a 023c
000000c0: 6c7a bd3c 694b 853c 4c38 cebc c676 553c
000000d0: 519f d7bc 0ce8 9abc bfcb a0bc 3f9d 783c
000000e0: 8818 cb3c b4ea 0a3d 4bf9 513c 402d f5bc
000000f0: 18a7 063d 87ca 79bb 6322 323a 8dfd f0bc
00000100: a4df 41bc 7447 cb3c 4254 37bd a0af 5bbb
00000110: a188 603c 4e29 02bd 82b9 8dbc 1225 2cbd
00000120: 3eef 18bd ec5b c7bc da6e 7cbc 89d3 17bd
00000130: ce8d 9c3c 4cac dabc b328 103d fc57 4dbc
00000140: 46c0 983c 8ede 0cbb df25 8ebc 974c 253b
00000150: 5fe8 1dbd 99ec 4c3a 766f 163d f9a6 b8bc
00000160: 4e40 0f3d 4227 2cbd 7016 a7bb 9b4e 743c
00000170: a517 4bbc 03dd abbc cb06 543c 45eb b1bc
00000180: 81d3 b23c af63 e23c 1e25 b93c d0f0 1c3c
00000190: ab50 15bd 67c8 15bd 560e 233d fa8d be3c
000001a0: ef73 8f3c 5b7e 8f3c 56bd 00bc ff77 9f3c
000001b0: af4d 673c 65c9 fbbc 436a 8e3c f901 88bc
000001c0: 393e 21bc c488 a63c ccf9 fcbb 058e 5b3c
000001d0: 6a64 9a3c 4c79 16bc 1c74 253d 6b1b 12bd
000001e0: d27c d93c f6fb 1c3d d00d 643c 9299 26bd
000001f0: 1be1 62bc 3858 d8bb 1bd5 b83c 77b0 e33c
00000200: 01b2 203d 2d87 1a3d 60e9 27bb 1bb0 c8bc
00000210: dd95 373c bab0 f4bb cb32 e0bc 1491 dcbc
00000220: aa90 10bc cbf4 c0ba 1336 34bc 9dc3 dabc
00000230: 8f5f 373b 1df0 43bd 098f 0dbd 349f 1a3d
00000240: 8706 58bd 4621 193d b477 493d 6a8a 893c
00000250: 3b9d 983c ae27 6ebc d055 a43c 3cdd eebc
00000260: cd92 34bd 2334 38bc 9517 163b 7a15 273d
00000270: 973d 6fbc ea1d 4cbd b463 173d d64b 39bc
00000280: fdd8 cabc fec2 153d b88d 46bc 203b b5bb
00000290: f423 fdbc 8dcc 37bd 468c 45bb 7dd3 c9ba
000002a0: 9518 1dbd 12b7 fcbc a8b8 f63c ac02 903b
000002b0: 9bc6 8b3c 474a 51bb a75d 95bb bf7d 7c3a
000002c0: 79af 8f3c c8ba 0b3c 6763 893c 590e e33c
000002d0: 831a c53c e0c1 c4ba a916 333d d9c2 293d
000002e0: f551 f73c 3c85 2ebd 269f 6d3c 70b2 553c
000002f0: 2144 0a3c ea16 183d 1fd8 30bd 0bdc 5bbb
00000300: c828 efba a2b3 19bd 7c99 233d d869 f4bc
00000310: aaa3 78bc 5c40 ed3c 5c42 9bbb 2456 8d3c
00000320: a86f 59bb dc01 073b c9c3 bfbc 6d9a 0abd
00000330: 7578 553d b2ab 143d ff8d adbc fa47 c5bb
00000340: c620 34bb 855b 0cbd 249b da3c dc8f 41bd
00000350: 4e9f 093d d3f6 c93c 61e2 673c aabe 33bb
00000360: 160b 05bd 1aea a6bc 5216 0e3d 8af0 e03b
00000370: f69f 4dbc 7afb 473b f420 72bb f01e b3bc
00000380: edda 383b d92c 5abc fe0e 00bd 62af ba3b
00000390: a42b 0d3c 4533 be3c abd7 ad3c cf65 9338
000003a0: 61be 403d 2b5f 16bc e288 6fbd 7bbc 0dbd
000003b0: 837d 313d de23 143c 413a 0e3c 7b56 f9bc
000003c0: 9ade f93c 2616 de3c af5d 99bc 9134 823c
000003d0: fe7e e4bc c8c6 1cbc dd7a 0b3d f680 98bc
000003e0: f5b2 e1bc ae1d dfbc de7c 1fbd 7318 c03c
000003f0: c031 5bbc a0b6 01bd 933d 303d 7222 2f3c

base_model.model.gpt_neox.layers.0.attention.query_key_value.lora_B.weight f4 [1536, 16]
-0.0013796474 0.00048772665 0.008920309 0.006137668 0.006017013 0.00683283 -0.0053134407 -0.0037036408
0.003827169 0.004269264 0.008570775 0.013721529 -0.001255148 -0.0052408166 0.0051398724 -0.0019871662
0.006728147 -0.0020910196 -0.009412125 -0.0049967794 0.0046002907 -0.0055525764 0.003322539 0.0047789533
-0.002737933 -0.003181165 -0.013912425 0.0055660144 0.002797727 0.011423 0.006582182 0.007992343
0.0092377225 -0.010465944 0.01627892 0.0055739456 0.001182446 0.0026392338 0.0074205734 0.0032469125
0.009523286 0.006296624 0.0039481753 -0.004814609 0.0036195563 -0.011912954 -0.0024281351 -0.00587847
-0.003425599 0.004866034 -0.011069514 -0.011122996 0.0063203005 0.010156357 -0.00231711 -0.0008799583
0.010378126 -0.003436553 -0.0012442457 -0.015089946 -0.0016557887 -0.011585531 0.010348575 0.0027531928
-0.0065947776 -0.008029766 0.008951978 0.008376345 0.007490021 0.0015580766 -0.00020479139 -0.008280437
0.0031237397 0.018605644 -0.0035794314 0.008764278 -0.0074501596 0.011230163 0.003988445 -0.0017879053
-0.0018252312 -0.00019056408 -0.0020168945 0.0052717216 -0.002064436 -0.0071369056 -0.00032470466 -0.0059175887
0.012772546 -0.0003622428 0.008365961 -4.6512123e-06 0.0051687863 0.008084662 0.012664797 -0.0053132055
-0.012940277 -0.013484212 -0.004367549 -0.00468862 -0.015731951 -0.0017548811 -0.01851345 0.0077519747
-0.00035549316 0.008668166 -0.0039671934 0.004047191 0.0069732172 -0.0056244708 0.0065293275 -0.00014995424
-0.009150924 -0.00086623436 0.0013212499 -0.0029025031 -0.016275141 -0.0006233792 0.0014527483 -0.0016723882
0.009470318 -0.0008971411 -0.00644409 -0.0055088596 0.011319656 -0.0056192484 -0.0018622264 0.0016630199
-0.0013169117 0.0034888228 -0.010256145 -0.010802924 -0.0055963644 0.003792928 -0.0034284315 0.006073248
0.0032179644 0.0045621656 0.004546411 -0.0016196972 0.005603129 -0.0013061025 0.0037744988 -0.0071002673
0.018519938 -0.005384495 0.0057220375 0.002821963 0.0012333516 0.016350148 0.00071757264 -0.0010165534
-0.0033335327 -0.0018825147 -0.008019083 -0.0048395386 0.0061216685 0.009330709 -0.0015294241 0.009890594
0.004899253 0.00036486774 0.0025836548 0.0052522505 0.016984778 0.0047836746 -0.0076846 -0.010039167
0.0002911977 -0.0034030941 -0.020412382 0.009329408 -0.00032162073 -0.0015072825 -0.0056643854 0.0065623745
-0.0150430715 -0.0050687413 -0.0027352457 0.01548642 -0.0067768414 0.0029951057 -0.0020265174 0.0074199834
0.012693337 -0.009314815 -0.0024456473 0.0022610675 0.0061597084 -0.005818581 -0.006105411 -0.0015859783
0.0052372795 0.012372938 -0.007413717 -0.006367927 -0.008164871 -0.00045628994 0.0079601705 0.0018727526
-0.009336857 0.0047624055 -0.0017404812 -0.0059122825 -0.003363629 0.010245377 0.0033447836 -0.011830624
0.00587942 0.009018751 -0.010714811 -0.0101341335 0.013280085 -0.00018144699 -0.005066774 -0.010552521
0.00061046187 0.0060602594 0.009157379 -0.010960133 -0.005205305 -0.010339182 0.009224389 -0.014045241
0.011095677 -0.00031613908 -0.010641643 0.004380177 0.00011103269 0.0013221643 -0.00032989008 0.0064922837
-0.0069248215 0.01504958 0.007754119 0.006929449 -0.012999562 -0.0010686076 -0.0049878377 0.008136351
0.0022967788 -0.0025948978 0.017051848 -0.017490776 0.0130007155 0.0036641287 0.0015012227 0.010258253
-0.0017352966 0.0067554 0.008342801 -0.0030686231 -0.011907335 0.005437176 -0.00070319435 -0.00067962566
00000000: 49d5 b4ba 90b5 ff39 7d26 123c 7e1e c93b
00000010: 5d2a c53b efe5 df3b 5f1c aebb c8b8 72bb
00000020: 3ed1 7a3b 2fe5 8b3b 706c 0c3c 44d0 603c
00000030: c783 a4ba 28bb abbb 606c a83b 1e3b 02bb
00000040: ca77 dc3b 7d09 09bb 5035 1abc 06bc a3bb
00000050: 09be 963b 63f2 b5bb f4be 593b c498 9c3b
00000060: e56e 33bb 187b 50bb f1f0 63bc 1d63 b63b
00000070: 125a 373b 8927 3b3c 58af d73b 51f2 023c
00000080: d159 173c 5a79 2bbc 5f5b 853c a5a5 b63b
00000090: 4efc 9a3a fff6 2c3b 4828 f33b 27ca 543b
000000a0: 8e07 1c3c e953 ce3b b25f 813b dec3 9dbb
000000b0: 1436 6d3b 8d2e 43bc 5921 1fbb 2ea0 c0bb
000000c0: 0480 60bb 4073 9f3b e85c 35bc 3a3d 36bc
000000d0: 861a cf3b d966 263c a8da 17bb 00ad 66ba
000000e0: 0409 2a3c cb37 61bb f515 a3ba d23b 77bc
000000f0: 0d07 d9ba 3dd1 3dbc 128d 293c e96e 343b
00000100: 0119 d8bb 488f 03bc 51ab 123c f03c 093c
00000110: da6e f53b 6038 cc3a 45bd 56b9 acaa 07bc
00000120: a8b7 4c3b dd6a 983c e594 6abb 0c98 0f3c
00000130: 7820 f4bb b8fe 373c 80b1 823b 2658 eaba
00000140: 993c efba 28d2 47b9 e02d 04bb 68be ac3b
00000150: 7d4b 07bb b4dc e9bb 1f3d aab9 55e8 c1bb
00000160: f143 513c 68eb bdb9 6211 093c 9c11 9cb6
00000170: ec5e a93b 8875 043c 0280 4f3c 661a aebb
00000180: 7503 54bc e2ec 5cbc a81d 8fbb ffa2 99bb
00000190: 4be0 80bc 0a04 e6ba 85a9 97bc 4704 fe3b
000001a0: 7c61 bab9 ec04 0e3c 3bff 81bb 4c9e 843b
000001b0: 967f e43b 7b4d b8bb f8f3 d53b 093d 1db9
000001c0: c2ed 15bc 0114 63ba ca2d ad3a ec37 3ebb
000001d0: 7253 85bc 456a 23ba 256a be3a 0934 dbba
000001e0: 6529 1b3c 1f2e 6bba f228 d3bb aa83 b4bb
000001f0: 1476 393c ac21 b8bb f315 f4ba b0f9 d93a
00000200: 399c acba bca4 643b 6409 28bc bffe 30bc
00000210: b561 b7bb c692 783b 89af 60bb 1902 c73b
00000220: 7ce4 523b 387e 953b 0ffa 943b 054c d4ba
00000230: 749a b73b 8731 abba 955d 773b 5ca9 e8bb
00000240: 20b7 973c 6b70 b0bb ee7f bb3b aff0 383b
00000250: 6aa8 a13a bff0 853c 7c1b 3c3a df3d 85ba
00000260: 6677 5abb b6be f6ba 7962 03bc fe94 9ebb
00000270: 4798 c83b d5df 183c f576 c8ba 280c 223c
00000280: ea89 a03b b84b bf39 8952 293b 121b ac3b
00000290: a923 8b3c 5fc0 9c3b 19cf fbbb 517b 24bc
000002a0: e5ab 9839 7206 5fbb de37 a7bc 60da 183c
000002b0: 349f a8b9 0290 c5ba 4f9c b9bb 3009 d73b
000002c0: 3777 76bc af17 a6bb cf41 33bb c1ba 7d3c
000002d0: 4410 debb 8949 443b 52cf 04bb 5523 f33b
000002e0: b7f7 4f3c 2a9d 18bc 2747 20bb 6b2e 143b
000002f0: 61d7 c93b cca9 bebb e60f c8bb 9ae0 cfba
00000300: 7c9d ab3b ddb7 4a3c c4ee f2bb 0baa d0bb
00000310: f3c5 05bc 333a efb9 606b 023c 2677 f53a
00000320: 9ef9 18bc f40d 9c3b dc20 e4ba d2bb c1bb
00000330: 5570 5cbb 3adc 273c 2834 5b3b 3cd5 41bc
00000340: 26a8 c03b 62c3 133c 2d8d 2fbc a309 26bc
00000350: b794 593c ce42 3eb9 2e07 a6bb 7be4 2cbc
00000360: 6707 203a 2495 c63b d508 163c 2192 33bc
00000370: 4391 aabb ac65 29bc e421 173c 031e 66bc
00000380: a4ca 353c 78bf a5b9 495a 2ebc 9687 8f3b
00000390: 39da e838 794c ad3a 19f5 acb9 39bd d43b
000003a0: 9de9 e2bb 8392 763c 4416 fe3b 6e10 e33b
000003b0: 1dfc 54bc 8510 8cba 0471 a3bb 544e 053c
000003c0: 8e85 163b 290f 2abb 51b0 8b3c d148 8fbc
000003d0: f400 553c e121 703b adc4 c43a 3b12 283c
000003e0: e472 e3ba 675c dd3b 3eb0 083c f41a 49bb
000003f0: fc16 43bc 572a b23b 9356 38ba e828 32ba

base_model.model.gpt_neox.layers.1.attention.query_key_value.lora_A.weight f4 [16, 512]
0.008909552 -0.03180851 0.016739009 -0.037112508 -0.010912285 0.039565943 0.00063501095 0.0045156376
-0.02813297 0.019859497 -0.026161809 -0.003637112 0.021553718 0.028561642 -0.037813112 -0.05253559
0.035967045 0.011126634 0.018256962 -0.043731257 -0.008252264 -0.021651644 0.0395027 -0.02805501
0.013960054 -0.013809646 0.021816326 -0.041290406 0.015568463 0.020894976 0.008731847 0.010646177
-0.03671304 0.017113252 -0.046131816 0.022429144 -0.037420537 -0.021473292 -0.019512659 0.011976005
-0.005981178 -0.0009966091 0.015638366 0.026566816 -0.043973714 0.042522814 -0.0469234 0.0018429054
-0.0028922872 0.0033631963 0.051058043 0.02084607 0.044398576 0.012389086 0.0215519 -0.05600117
0.033027656 0.040095422 -0.031566206 0.024077674 0.009125059 -0.014491942 0.023045037 -0.025597442
-0.035602983 0.022281572 0.026990775 0.021250876 0.027426343 0.035597146 -0.03287238 0.004888645
0.033312522 0.035879668 0.03649838 -0.02493327 -0.011905671 -0.006098019 0.035429556 0.013756417
0.03375617 0.024036828 -0.013270187 -0.009985328 -0.020996092 0.043389782 -0.048657052 -0.044427194
-0.04385075 -0.043402907 0.007894554 -0.0096549485 -0.041053075 -0.0045048282 -0.008849416 -0.021532891
-0.03460867 -0.035241175 0.009144006 -0.0056254226 -0.01344112 -0.025274368 -0.005426236 0.017229596
-0.023815775 -0.010184048 0.0129177505 -0.034321796 -0.02287876 0.0091409385 -0.025415579 -0.026169248
-0.037982512 0.044106476 0.030711303 0.024512997 -0.015449993 0.0015157595 0.046419136 0.0015266524
-0.047793344 0.04072988 -0.02750872 -0.01871827 -0.009837792 -0.047719955 0.0038302776 0.04087443
0.016733363 0.032850012 -0.029785268 -0.0038253267 0.016948223 -0.037659675 0.015455068 0.032733344
-0.0284196 -0.03972727 0.02134599 -0.006654651 -0.018284757 -0.033554778 0.011853925 -0.05308221
0.0111804865 0.017400539 -0.0015941394 0.023343889 -0.0033787668 0.025330693 0.042274885 -0.04285418
-0.029708344 -0.027111959 -0.016488539 0.03744257 -0.016661398 -0.03626122 -0.001970388 -0.03055819
-0.00058290554 0.031856053 0.010789644 0.011554795 -0.019755598 -0.033403065 -0.041993804 0.023656797
0.033910837 -0.029550932 0.02982147 0.03908422 -0.030198617 -0.005811328 0.011756127 0.027365655
0.0016905232 -0.004037847 -0.019587334 0.02484892 0.034565 0.007704411 -0.02361404 -0.01791946
0.010129749 -0.04894063 -0.017887443 0.009604061 0.02937043 0.02599179 0.031683102 -0.028060129
-0.029127002 -0.032209534 -0.023405088 0.029247472 -0.004002713 -0.0073205424 -0.031333618 0.040299315
-0.02015634 0.015174859 0.018144183 -0.044065043 -0.035246477 -0.03723214 -0.0270554 0.04703906
-0.025406016 -0.008799617 0.0010704398 0.01680228 -0.022324959 -0.0015449647 0.0023388185 -0.031115234
0.027712023 0.028005112 0.045473583 0.01588604 -0.014845092 0.036181014 0.016895887 -0.010575354
-0.009339091 -0.009958205 0.017761152 0.04441465 -0.028280798 0.04383537 0.025614157 0.006363492
-0.011113613 -0.03309664 -0.0065301047 0.024913259 -0.015030116 0.015071452 0.0064718444 0.0032602
-0.04569503 -0.019174078 -0.035915524 0.03102579 0.038922742 0.0024103243 0.0068177576 -0.03143625
0.022767773 -0.008423836 0.02234849 0.038433798 0.022316942 -0.025382468 0.011132208 -0.042479765
00000000: 5ff9 113c a449 02bd 3f20 893c 4903 18bd
00000010: 71c9 32bc e60f 223d dd76 263a eaf7 933b
00000020: 1d77 e6bc 62b0 a23c 4a51 d6bc 9d5c 6ebb
00000030: 6c91 b03c 1bfa e93c ece1 1abd 8f2f 57bd
00000040: 2e52 133d 7c4c 363c a08f 953c 8c1f 33bd
00000050: 8134 07bc ca5e b1bc 95cd 213d 9fd3 e5bc
00000060: b6b8 643c da41 62bc 27b8 b23c 2120 29bd
00000070: de12 7f3c f12b ab3c 0510 0f3c 4e6d 2e3c
00000080: 6a60 16bd 1731 8c3c b7f4 3cbd 53bd b73c
00000090: 4746 19bd c2e8 afbc 03d9 9fbc 0137 443c
000000a0: c2fd c3bb a7a0 82ba 081c 803c a7a2 d93c
000000b0: c81d 34bd 672c 2e3d c032 40bd a58d f13a
000000c0: 878c 3dbb 1269 5c3b 3d22 513d 61c5 aa3c
000000d0: 48db 353d 98fb 4a3c 9c8d b03c 7c61 65bd
000000e0: 0248 073d 193b 243d 914b 01bd 8b3e c53c
000000f0: 4581 153c 9c6f 6dbc f2c8 bc3c bab1 d1bc
00000100: 6fd4 11bd d887 b63c c21b dd3c 5116 ae3c
00000110: 36ad e03c 50ce 113d 30a5 06bd ed30 a03b
00000120: b672 083d 8ff6 123d 537f 153d db40 ccbc
00000130: 0110 43bc e4d1 c7bb 951e 113d 9862 613c
00000140: e943 0a3d e2e8 c43c 336b 59bc 8099 23bc
00000150: ffff abbc 7cb9 313d 9e4c 47bd 4af9 35bd
00000160: d89c 33bd 3fc7 31bd 2958 013c ca2f 1ebc
00000170: 4527 28bd 3d9d 93bb 24fd 10bc bf65 b0bc
00000180: d2c1 0dbd 0d59 10bd bed0 153c 7755 b8bb
00000190: 2538 5cbc 310c cfbc 91ce b1bb 1525 8d3c
000001a0: 4d19 c3bc feda 26bc f9a4 533c 0395 0cbd
000001b0: 3d6c bbbc e0c3 153c 5534 d0bc e460 d6bc
000001c0: 8d93 1bbd fea8 343d 4596 fb3c 7bcf c83c
000001d0: f821 7dbc 73ac c63a fe21 3e3d f419 c83a
000001e0: f4c2 43bd 60d4 263d f859 e1bc 0f57 99bc
000001f0: b12e 21bc 0076 43bd 6505 7b3b f26b 273d
00000200: 6814 893c bc8d 063d 3c00 f4bc 55b2 7abb
00000210: 00d7 8a3c 0841 1abd 4137 7d3c 6613 063d
00000220: 39d0 e8bc 10b9 22bd c9dd ae3c 420f dabb
00000230: eac9 95bc bc70 09bd f736 423c bb6c 59bd
00000240: 5c2e 373c 938b 8e3c 71f2 d0ba af3b bf3c
00000250: 4d6e 5dbb 5082 cf3c 6e28 2d3d dd87 2fbd
00000260: ea5e f3bc e619 debc f912 87bc 615d 193d
00000270: 7c7d 88bc a586 14bd a021 01bb 2b55 fabc
00000280: 21ce 18ba 7e7b 023d 0cc7 303c 5350 3d3c
00000290: 7ed6 a1bc a7d1 08bd b201 2cbd e6cb c13c
000002a0: 17e6 0a3d cc14 f2bc 284c f43c c616 203d
000002b0: 1763 f7bc f46c bebb c59c 403c f02d e03c
000002c0: 8c94 dd3a ea4f 84bb 9e75 a0bc f68f cb3c
000002d0: 0894 0d3d 4975 fc3b 3b72 c1bc d5cb 92bc
000002e0: 3ff7 253c f875 48bd b088 92bc 5a5a 1d3c
000002f0: 429a f03c bcec d43c 24c6 013d 5bde e5bc
00000300: c09b eebc 25ee 03bd 07bc bfbc 6598 ef3c
00000310: 3129 83bb 29e1 efbb ae57 00bd e510 253d
00000320: e91e a5bc f99f 783c 1ca3 943c 8c7d 34bd
00000330: 9c5e 10bd ba80 18bd 49a3 ddbc 08ac 403d
00000340: 4720 d0bc 452c 10bc 004e 8c3a efa4 893c
00000350: d5e2 b6bc 6a80 caba dd46 193b 60e5 febc
00000360: 5304 e33c fa6a e53c 8242 3a3d 7123 823c
00000370: d438 73bc 8b32 143d 3e69 8a3c 4044 2dbc
00000380: fd02 19bc bd27 23bc d67f 913c 23ec 353d
00000390: 22ad e7bc b88c 333d c8d4 d13c d784 d03b
000003a0: df15 36bc 5890 07bd 7dfa d5bb e416 cc3c
000003b0: e040 76bc 40ee 763c c411 d43b 14a9 553b
000003c0: b62a 3bbd f512 9dbc 281c 13bd cc29 fe3c
000003d0: 746d 1f3d 88f6 1d3b 7f67 df3b 4cc3 00bd
000003e0: 7b83 ba3c 2104 0abc 2e14 b73c c26c 1d3d
000003f0: 05d2 b63c e5ee cfbc dd63 363c 43ff 2dbd

base_model.model.gpt_neox.layers.1.attention.query_key_value.lora_B.weight f4 [1536, 16]
0.007496037 0.0010708073 0.010260539 0.005169028 -0.00055969926 -0.00066741044 0.0012841385 -0.003310274
0.0024969473 -0.0070001846 0.004542711 0.011027687 0.0039309906 -0.008379582 0.0028750221 -0.0031684537
-0.00478624 0.004711766 0.014687398 0.0002009356 -0.0015988324 -0.008334752 -0.00070055405 0.01811107
0.0035742773 0.0016814328 0.00040635047 0.011326949 -0.008346338 -0.0029995379 -0.0044135004 -0.0069944435
0.0054008514 0.0060874503 -0.0015944899 0.0022336205 -0.005942511 -0.0002992877 -0.006092072 -0.0050179404
-0.012861561 0.01802337 0.0033255916 0.011822422 -0.0019993423 -0.0088664945 -0.0026085982 -0.0024973287
-0.0062551056 -0.010688848 -0.012096879 0.0011339427 0.0086564 4.173011e-05 -0.007894008 -0.012662721
-0.00038757085 -0.0072126887 0.006578614 0.0075300615 0.00897044 -0.0020815886 -0.013818869 0.012654002
0.010637088 -0.00086665625 -0.011290917 0.0062537673 0.00594425 -0.007361273 0.0062559857 -0.0005499848
-0.009644023 0.01283882 -0.0027746852 0.0003536006 -0.00491235 -0.001717687 -0.00011475403 0.0026743147
0.016693186 -0.0043249354 0.0041251755 -0.0041982937 -5.9053426e-05 -0.0020275812 -0.006137043 -0.0001449974
0.0065193647 0.003103467 0.007775829 0.010705368 -0.0049518486 0.0006682866 0.005075674 0.005217705
-0.0033784052 0.002542742 -0.010956042 0.002221647 0.013174753 -0.0074272556 0.00055093074 0.010008199
0.0002556684 -0.009862787 -0.01872555 -0.0008698588 -0.0026470071 -0.0011825745 -0.0096981805 -0.0066351793
-0.0028064544 0.0040423204 -0.009184552 0.011620174 0.0002923231 0.0019271229 -0.0071898988 0.010744081
0.012727275 -0.0045501716 -0.005825313 0.009924322 0.002508247 0.00049189356 -0.013830505 -0.012164825
-0.0052985484 -0.024771003 -0.009765257 0.010555947 0.002532374 0.0054226983 -0.002198258 -0.0013689146
0.0062151896 -0.00077911007 0.011756689 0.009469395 0.008585355 -0.0068199206 0.00016360526 -0.0026817885
-0.0019639293 -0.0013209896 0.006912125 -0.006687949 0.005372226 0.0103425495 0.0020124917 -0.0037651055
0.01512847 -0.0013740107 -0.007108485 -0.014341032 0.006466776 -0.006177251 0.0019577579 0.007366503
-0.009964728 0.0096499 0.00014253968 -0.006632732 0.0007009496 0.017330853 -0.0054233884 -0.0010749971
0.0068469793 -0.0058980025 -0.0031497695 0.0025325343 -0.0017925587 0.0028112656 -0.0009977556 0.022725346
0.0010209453 0.005640844 -0.0009949956 -0.00025949132 -0.0066891992 0.004837023 0.006643498 0.0048721465
-0.0064108623 -0.010335857 0.009401113 -0.0067491983 -0.0031407063 -0.008123485 0.0020228873 -0.0065286313
0.00055916025 0.013041703 -0.008462957 -0.021272067 -0.011303235 -0.0011934679 0.013112721 -0.0022953677
0.01579369 -0.0031454018 0.012491281 0.0060112 0.0024191884 -0.004003706 0.0005950768 -0.0029307595
-0.0005234198 -0.016384523 0.011062728 -0.004248132 0.014251671 0.00022125056 -0.0039849523 -0.0026408115
0.007055093 0.02323686 -0.014664505 0.011861118 0.010384383 0.0028397774 -0.0075122793 0.004938037
0.004746194 0.007650537 -0.0126266545 0.02457178 0.010762739 0.0100301765 -0.0024187823 -0.007347232
-0.0022266803 0.006281005 0.0042752433 0.00082500064 0.006251507 0.012449142 0.0052357106 0.00862028
-0.0059993803 0.014328464 0.010123866 -0.0072633494 -0.0057978723 0.003968654 -0.012175321 -0.007714044
-0.00022219964 0.015164344 0.012752679 -0.009631169 0.0031973885 -0.004328175 0.005171663 0.0024224592
00000000: 51a1 f53b 555a 8c3a d21b 283c f360 a93b
00000010: c8b8 12ba 28f5 2eba 8a50 a83a 2ff1 58bb
00000020: d3a3 233b ce61 e5bb 06db 943b 79ad 343c
00000030: 8acf 803b 844a 09bc de6a 3c3b d5a5 4fbb
00000040: e4d5 9cbb 2865 9a3b 6aa3 703c 3db2 5239
00000050: ea8f d1ba 7c8e 08bc 63a5 37ba ab5d 943c
00000060: 6c3e 6a3b 8663 dc3a 700b d539 ab94 393c
00000070: 14bf 08bc e593 44bb 209f 90bb a531 e5bb
00000080: a0f9 b03b 3c79 c73b 34fe d0ba ef61 123b
00000090: 65b9 c2bb b7e9 9cb9 01a0 c7bb 896d a4bb
000000a0: 4cb9 52bc bfa5 933c 2bf2 593b d5b2 413c
000000b0: 6607 03bb c644 11bc 04f5 2abb 39aa 23bb
000000c0: a1f7 ccbb 4720 2fbc fd31 46bc cea0 943a
000000d0: 93d3 0d3c 5d07 2f38 df55 01bc 4d77 4fbc
000000e0: e132 cbb9 6b58 ecbb 6a91 d73b bcbe f63b
000000f0: c1f8 123c 436b 08bb 8a68 62bc bb52 4f3c
00000100: 2e47 2e3c 5130 63ba 8afd 38bc 67ec cc3b
00000110: fcc7 c23b d536 f1bb 03ff cc3b db2c 10ba
00000120: f701 1ebc ea59 523c 7ed7 35bb 7863 b939
00000130: c7f7 a0bb 0324 e1ba 1aa8 f0b8 8e43 2f3b
00000140: 26c0 883c 30b8 8dbb 7b2c 873b d791 89bb
00000150: 22b0 77b8 2be1 04bb 3f19 c9bb 710a 18b9
00000160: 65a0 d53b 8963 4b3b 62cc fe3b 9165 2f3c
00000170: 1e43 a2bb f42f 2f3a d751 a63b 48f9 aa3b
00000180: 3c68 5dbb 22a4 263b f980 33bc 0d99 113b
00000190: ebda 573c 5660 f3bb 566c 103a 6ef9 233c
000001a0: 3b0b 8639 8797 21bc 5366 99bc 3c07 64ba
000001b0: 6979 2dbb 9e00 9bba 1ee5 1ebc eb6b d9bb
000001c0: 7eec 37bb 7175 843b ce7a 16bc 8b62 3e3c
000001d0: f142 9939 8497 fc3a 3e99 ebbb f107 303c
000001e0: 0f86 503c 9b19 95bb 44e2 bebb a099 223c
000001f0: 6761 243b 6bf2 003a 5899 62bc f94e 47bc
00000200: 729f adbb 8fec cabc 75fe 1fbc daf2 2c3c
00000210: 30f6 253b e4b0 b13b a610 10bb 276d b3ba
00000220: caa8 cb3b 313d 4cba 219f 403c 8525 1b3c
00000230: 97a9 0c3c a479 dfbb 748d 2b39 f2c0 2fbb
00000240: 44b5 00bb 0e25 adba 1b7f e23b 9526 dbbb
00000250: 7f09 b03b cc73 293c 02e4 033b fdbf 76bb
00000260: 67dd 773c 2618 b4ba 4bee e8bb a6f6 6abc
00000270: 40e7 d33b 8a6a cabb ba4d 003b b562 f13b
00000280: 1943 23bc 9d1a 1e3c b476 1539 6457 d9bb
00000290: eebf 373a 6ff9 8d3c aeb6 b1bb ebe6 8cba
000002a0: a05c e03b 0844 c1bb 5d6c 4ebb e0f8 253b
000002b0: 4af4 eaba 363d 383b 1fc7 82ba 812a ba3c
000002c0: 3dd1 853a d4d6 b83b 836a 82ba 560c 88b9
000002d0: 1231 dbbb e47f 9e3b b3b1 d93b 87a6 9f3b
000002e0: 3612 d2bb ba57 29bc 2007 1a3c 6128 ddbb
000002f0: 4fd4 4dbb 5e18 05bc 6b92 043b 21ee d5bb
00000300: 9c94 123a deac 553c 37a8 0abc c242 aebc
00000310: 3431 39bc 236e 9cba bdd6 563c e16d 16bb
00000320: c561 813c 1623 4ebb 3ba8 4c3c 9af9 c43b
00000330: 3f8b 1e3b 8531 83bb eefe 1b3a fc11 40bb
00000340: 1c36 09ba d638 86bc 7240 353c ea33 8bbb
00000350: d77f 693c 7fff 6739 3494 82bb 7711 2dbb
00000360: 692e e73b 3a5b be3c 6443 70bc 2255 423c
00000370: 4223 2a3c 8f1b 3a3b 9129 f6bb 42cf a13b
00000380: f685 9b3b 5bb1 fa3b 07e0 4ebc c24a c93c
00000390: 3356 303c 9c55 243c 6f84 1ebb 0dc1 f0bb
000003a0: 7fed 11bb e4d0 cd3b 5717 8c3b db44 583a
000003b0: 71d9 cc3b 7cf7 4b3c 5390 ab3b 133c 0d3c
000003c0: 7396 c4bb efc1 6a3c 92de 253c 6401 eebb
000003d0: 14fc bdbb 7c0b 823b ff7a 47bc 17c6 fcbb
000003e0: 43fe 68b9 de73 783c 9df0 503c 0dcc 1dbc
000003f0: 478b 513b 5dd3 8dbb 0e77 a93b 1fc2 1e3b

base_model.model.gpt_neox.layers.2.attention.query_key_value.lora_A.weight f4 [16, 512]
-0.01736508 -0.04378082 -0.03948881 0.023729727 0.033713173 0.003026277 0.00668298 0.009937395
0.026948266 0.050618015 -0.0182356 0.008924821 0.020125471 -0.033161916 -0.030111376 -0.020137774
-0.017141752 -0.038382728 0.008427727 0.0018377871 0.0012181074 -0.011607364 0.0463388 0.027636414
0.009886165 0.0072936765 0.052881006 -0.02313593 0.0390713 0.037697658 0.016671063 0.006885663
-0.033814628 0.024756847 -0.026230682 0.047257043 -0.02114433 -0.0336963 0.039902993 -0.004041888
-0.03993524 -0.04048081 -0.03341278 -0.041489113 0.0017138763 0.022493888 0.003559503 0.04307667
-0.00067618856 0.030398475 0.021371335 0.030060034 0.021402603 -0.007617833 -0.009697357 0.013255366
0.017177474 -0.017345408 0.037654568 0.016937876 -0.036031026 -0.0119197685 -0.028834358 0.008010972
-0.01106112 0.03663211 0.014710937 -0.03356696 -0.0384267 0.011996007 0.027716137 0.019345408
0.0137976175 -0.005584236 0.03318886 -0.017205188 -0.02002959 0.020792317 -0.022816692 -0.031197706
-0.017858593 -0.035222758 0.000592955 -0.016322482 -0.007154344 0.008253815 -0.014657803 -0.039665665
0.02891515 -0.018227635 -0.013028803 0.013291294 -0.052512404 0.0059072496 -0.015786234 0.035136472
-0.020210246 -0.00090806664 0.025261162 -0.017454378 0.027024938 -5.6317356e-05 0.014270174 -0.02916669
0.014696127 0.02532089 0.037131146 -0.01996653 -0.019876283 -0.0058329715 0.011590428 0.020781904
0.0407274 0.020926798 -0.04412337 -0.021766743 0.034428764 -0.0013246725 -0.016775267 -0.010954644
-0.030808387 0.047840215 -0.002056927 -0.008961892 -0.024999615 -0.022990074 -0.03367432 0.04464193
0.008779503 -0.0022554214 0.016531477 0.041891877 -0.056478877 -0.008707576 0.046477076 0.00022709175
-0.014885634 0.026026987 0.038946934 0.03718932 0.0050577894 -0.018856145 0.041415025 0.024631046
0.025019215 0.0074162576 -0.024493137 0.05249215 0.019681629 0.0356846 -0.011408176 -0.036025357
0.0029689092 -0.05187399 -0.02871142 0.011131058 0.021071907 -0.014746272 0.02482519 -0.037497144
0.030196473 0.0032104226 -0.021706091 0.016527798 0.008245935 0.0014835158 -0.023627466 0.012807682
-0.0069611613 0.01940489 0.01935724 0.028129615 -0.011796678 0.016581766 -0.03192034 -0.014141152
0.00037450175 -0.026758354 0.0041951053 -0.014129215 0.018374572 0.020901136 0.01846326 -0.00070627575
-0.0070425104 0.013659837 -0.0142643275 -0.00488967 0.028148104 -0.008929617 -0.023892269 -0.04397478
0.019083556 -0.021761823 0.009440563 0.0025668172 -0.0022138718 0.047750812 -0.01616273 -0.027723972
-0.008927879 0.0045759915 0.039529298 0.0074475277 -0.036001388 -0.015157214 -0.04118791 -0.01654617
-0.02955489 0.029357437 0.03140965 -0.026739445 -0.0026608065 0.009993335 0.022606583 -0.021645218
0.016712766 -0.02488612 -0.008862002 -0.01182488 -0.058622453 0.025370194 -0.014521452 -0.026437728
-0.009799951 -0.00975863 -0.021623703 -0.02183559 0.010611909 -0.017031295 0.021136064 -0.025923409
0.0061077094 -0.0041999756 0.018765414 0.02355175 0.028225347 0.039449878 0.0010442677 0.017569952
-0.0108652925 0.054555327 0.0124299275 -0.028951254 0.023885295 0.030625127 0.040153913 -0.018740382
0.0020384174 -0.046498556 -0.037617534 -0.018424192 0.0026872822 -0.027063403 -0.005652928 0.041267384
00000000: 3641 8ebc 8453 33bd 05bf 21bd d864 c23c
00000010: d316 0a3d 8154 463b e6fc da3b 75d0 223c
00000020: 9cc2 dc3c d654 4f3d d362 95bc 6a39 123c
00000030: 2cde a43c cad4 07bd 22ac f6bc f9f7 a4bc
00000040: dc6c 8cbc 3537 1dbd 7314 0a3c e7e1 f03a
00000050: e7a8 9f3a d02c 3ebc c1cd 3d3d c365 e23c
00000060: 95f9 213c cbff ee3b c199 583d 9087 bdbc
00000070: 3a09 203d dc68 1a3d c191 883c 21a1 e13b
00000080: 3581 0abd dfce ca3c bae1 d6bc 9a90 413d
00000090: e036 adbc 2205 0abd 5271 233d d071 84bb
000000a0: 2293 23bd 35cf 25bd d7db 08bd 7df0 29bd
000000b0: 25a4 e03a 1a45 b83c 8d46 693b 2a71 303d
000000c0: 3f42 31ba 3906 f93c f012 af3c 7640 f63c
000000d0: 8354 af3c 049f f9bb aae1 1ebc 092d 593c
000000e0: c6b7 8c3c f517 8ebc ad3b 1a3d 4dc1 8a3c
000000f0: 4595 13bd 224b 43bc 0836 ecbc 7440 033c
00000100: b339 35bc 8d0b 163d 2406 713c 827d 09bd
00000110: 5165 1dbd e68a 443c f40c e33c 437a 9e3c
00000120: 670f 623c f7fb b6bb 0bf1 073d e5f1 8cbc
00000130: 1815 a4bc a654 aa3c 12ea babc 5592 ffbc
00000140: 2f4c 92bc bd45 10bd 8970 1b3a bab6 85bc
00000150: fd6e eabb 023b 073c 4827 70bc 7778 22bd
00000160: 77df ec3c 1f52 95bc c376 55bc bac3 593c
00000170: 3f17 57bd 9a91 c13b 2252 81bc 43eb 0f3d
00000180: f58f a5bc 520b 6eba 7ff0 ce3c 7cfc 8ebc
00000190: 6763 dd3c 4d36 6cb8 73cd 693c fbee eebc
000001a0: 06c8 703c c16d cf3c d416 183d d990 a3bc
000001b0: 96d3 a2bc 8322 bfbb c7e5 3d3c d03e aa3c
000001c0: c6d1 263d ad6e ab3c b5ba 34bd 2b50 b2bc
000001d0: 2d05 0d3d a2a0 adba 496c 89bc 1b7b 33bc
000001e0: df61 fcbc 1af4 433d 82cd 06bb e6d4 12bc
000001f0: fecb ccbc ae55 bcbc 15ee 09bd 75da 363d
00000200: e8d7 0f3c b1cf 13bb 056d 873c d196 2b3d
00000210: 6556 67bd 39aa 0ebc bf5e 3e3d 7a1f 6e39
00000220: e0e2 73bc 8c36 d53c d286 1f3d d453 183d
00000230: d0bb a53b 3478 9abc cda2 293d 0cc7 c93c
00000240: 19f5 cc3c 1404 f33b d5a5 c8bc 0202 573d
00000250: 5e3b a13c 042a 123d 5ce9 3abc 538f 13bd
00000260: 0892 423b d279 54bd 3634 ebbc 0b5f 363c
00000270: fe9e ac3c 599a 71bc 325e cb3c 9b96 19bd
00000280: 985e f73c f465 523b f9d0 b1bc 4e65 873c
00000290: f519 073c 8872 c23a 638e c1bc 50d7 513c
000002a0: 741a e4bb 01f7 9e3c 1393 9e3c 1470 e63c
000002b0: db46 41bc 7cd6 873c e7be 02bd 4ab0 67bc
000002c0: c658 c439 5634 dbbc 1877 893b 397e 67bc
000002d0: 4586 963c dc38 ab3c 4340 973c 5d25 39ba
000002e0: dcc4 e6bb 82cd 5f3c edb4 69bc 8639 a0bb
000002f0: da96 e63c 874d 12bc b8b9 c3bc e61e 34bd
00000300: 1e55 9c3c da45 b2bc 97ac 1a3c 0c38 283b
00000310: 9b16 11bb 5b96 433d b467 84bc 621d e3bc
00000320: 3d46 12bc 33f2 953b 79e9 213d 640a f43b
00000330: 3176 13bd f755 78bc a7b4 28bd d58b 87bc
00000340: 191d f2bc 027f f03c 68a7 003d ae0c dbbc
00000350: ed60 2ebb 16bb 233c 7131 b93c 5051 b1bc
00000360: 36e9 883c fadd cbbc ee31 11bc 24bd 41bc
00000370: 191e 70bd 27d5 cf3c 62eb 6dbc ef93 d8bc
00000380: f98f 20bc a9e2 1fbc 3124 b1bc 8de0 b2bc
00000390: 93dd 2d3c 3785 8bbc 8a25 ad3c 545d d4bc
000003a0: 2e23 c83b f39f 89bb edb9 993c 9aef c03c
000003b0: d838 e73c 3296 213d cfdf 883a dcee 8f3c
000003c0: 5704 32bc 6875 5f3d e5a6 4b3c 2e2b edbc
000003d0: 18ab c33c 8ce1 fa3c 6e78 243d 6e85 99bc
000003e0: f896 053b 4575 3ebd d814 1abd 55ee 96bc
000003f0: 1d1d 303b 12b4 ddbc 323c b9bb fd07 293d

base_model.model.gpt_neox.layers.2.attention.query_key_value.lora_B.weight f4 [1536, 16]
0.0019206627 -0.012453316 0.005185817 -0.01239539 -0.0093568135 0.003819034 -0.008285711 0.0042739627
-0.0034436237 0.01360109 -0.008368757 -0.0018704938 0.0010564476 -0.0048669237 0.010937826 -0.008910732
0.013024345 -0.0017549163 0.0023492863 -0.0044858884 -0.0058166087 -0.0021872595 -0.007849863 0.005320118
-0.0053931084 0.00029653768 0.008361268 -0.015131922 -0.004010155 -0.008247672 0.006590192 -0.0013129009
-0.0044596675 0.0051013324 0.0025400587 0.010399982 0.006646836 0.006078567 0.019242834 -0.0046449704
-0.006588559 -0.00642022 -0.00455254 -0.006262175 -0.0038181553 -0.0017379113 0.008207684 0.012198437
0.0061102393 -0.006857182 0.0005938487 0.006946158 -0.00532718 -0.0056494744 0.007160978 0.0063423566
-0.013296524 -0.0067252507 -0.007959525 0.0014921164 0.0019204041 -0.008739634 -0.009015576 -0.004440454
0.00017947912 -0.0024488682 8.2389386e-05 -0.0028146978 -0.0012050956 -0.013539187 -0.005395377 -0.004505292
0.008336241 0.0002267679 0.0033181324 -0.005236476 -0.006851601 -0.01457913 -0.00012717734 0.005396271
-0.0026246177 -0.0077078324 -0.011486192 0.0030448893 -0.008157202 0.0070164693 -0.0018654806 0.005183129
-0.008220836 -0.0021649017 -0.006528224 0.002274994 -0.00023432107 0.004990345 -0.004275339 -0.006788377
0.006839412 -0.0010524318 0.005015116 0.00049619604 0.016906058 0.004841675 -1.6116215e-05 -0.0037725524
0.01256125 -0.0021160466 -0.012031532 -0.0087066265 -0.008265648 -0.012211018 -0.0060907896 -0.0060265795
-0.005944505 0.0063153137 0.011366868 -0.0010967448 0.0058524855 -0.006275671 -0.0032705069 -0.0014650607
0.0037631032 -0.010623559 0.002712892 0.00253861 0.007778754 0.0027043915 0.0014977332 -0.0013926347
-0.0035120714 0.011926287 -0.0015003299 0.02178075 -0.00018997809 0.004930347 -0.0031007675 -0.008219546
0.0070114853 0.0035279533 0.011971178 0.011279982 -0.0019490272 -0.0016798431 0.000491361 -0.0049885726
0.0009321791 -0.0013526723 -0.0050066533 -0.0032918376 -0.0005841184 0.0017478261 -0.000459762 0.00035171985
0.003556322 -0.001301578 -0.013304473 -0.011147568 0.006481344 -0.008961063 -0.009345401 0.00056947337
0.0021628104 0.0033059735 0.003563897 0.015908051 0.005689433 0.0104915835 0.0026845364 0.009463552
0.0039598686 -0.0029856905 -0.008079334 -0.0016452603 0.011874934 -0.018121842 0.0024637356 -0.0035873689
-0.0027266836 0.004018107 0.005525817 -0.009254921 0.0034795161 0.0019105244 0.0064679305 -0.0057799225
-0.0046342374 0.0027063158 0.010866404 0.003945322 -0.015255676 2.7662885e-05 -0.009960622 0.0009024502
0.006002445 0.01326699 -0.008903432 0.0068387436 -0.0039435127 0.0017257135 0.007164208 -0.001945946
-0.0120920865 0.0036509049 0.0033184139 0.00595993 -0.0067124604 0.024227228 0.011884332 0.0031341615
-0.009723334 -0.019670183 -0.00021640696 0.014855766 -0.00715423 -0.00242758 -0.0007358958 -0.005864821
-0.00844329 -0.0025010225 0.0030912573 -0.013437462 0.0064068236 0.004551915 0.010652272 0.0024483025
-0.01719306 -0.0052002585 0.0012701004 0.014066514 -0.014703155 -0.007889122 0.0031449012 0.008612461
0.0011808049 0.0023958615 0.007524381 -4.3848115e-05 0.004129979 0.01514591 -0.0049996767 -0.0072125206
-0.004500376 0.0008452054 0.0030011788 -0.006236723 0.0070589934 -0.0009088893 -0.008971134 0.0053228363
-0.016312217 -0.005330227 0.0044595534 -0.009206969 0.0051024808 0.006972846 -0.0040734075 0.00800276
00000000: bfbe fb3a fe08 4cbc c9ed a93b 0916 4bbc
00000010: 524d 19bc c248 7a3b cac0 07bc 990c 8c3b
00000020: 6bae 61bb 1bd7 5e3c 1c1d 09bc 5b2b f5ba
00000030: 8078 8a3a b77a 9fbb 9134 333c 52fe 11bc
00000040: 1064 553c 3805 e6ba 7cf6 193b 5cfe 92bb
00000050: 4099 bebb 2058 0fbb b69c 00bc 6254 ae3b
00000060: acb8 b0bb 9d78 9b39 b3fd 083c e2eb 77bc
00000070: 9e67 83bb 3e21 07bc 8af2 d73b a515 acba
00000080: 6722 92bb 1429 a73b 1d77 263b b064 2a3c
00000090: b4cd d93b b72e c73b 26a3 9d3c d634 98bb
000000a0: d7e4 d7bb b560 d2bb 792d 95bb ee32 cdbb
000000b0: 043a 7abb a0ca e3ba 8679 063c f4db 473c
000000c0: 6738 c83b 36b2 e0bb 83ac 1b3a 999c e33b
000000d0: a08f aebb 3a1f b9bb a3a6 ea3b 8bd3 cf3b
000000e0: aad9 59bc 7e5f dcbb ab68 02bc 1e93 c33a
000000f0: 12b6 fb3a af30 0fbc 11b6 13bc 3a81 91bb
00000100: 8f32 3c39 317d 20bb 77c8 ac38 cb76 38bb
00000110: 4cf4 9dba 77d3 5dbc b4cb b0bb 21a1 93bb
00000120: bb94 083c 8bc8 6d39 0675 593b bf96 abbb
00000130: 6583 e0bb 4edd 6ebc e85a 05b9 34d3 b03b
00000140: c701 2cbb fc91 fcbb 9530 3cbc c48c 473b
00000150: c9a5 05bc 69ea e53b 2483 f4ba 3dd7 a93b
00000160: afb0 06bc 06e1 0dbb b6ea d5bb 1118 153b
00000170: 15b4 75b9 0c86 a33b 2518 8cbb 0971 debb
00000180: 251d e03b c0f1 89ba d855 a43b 2713 023a
00000190: 937e 8a3c eaa6 9e3b 4f31 87b7 ed3c 77bb
000001a0: b3cd 4d3c 5fad 0abb e71f 45bc 3da6 0ebc
000001b0: a46c 07bc b910 48bc 3f95 c7bb 9d7a c5bb
000001c0: 1fca c2bb b1f0 ce3b 1a3c 3a3c a6c0 8fba
000001d0: 35c6 bf3b 25a4 cdbb 0056 56bb 4807 c0ba
000001e0: 659e 763b 700e 2ebc c6ca 313b cf5e 263b
000001f0: ebe4 fe3b 293c 313b 964f c43a 1189 b6ba
00000200: c82a 66bb 7966 433c b8a6 c4ba 8b6d b23c
00000210: db34 47b9 c08e a13b 3f36 4bbb 46ab 06bc
00000220: 9ac0 e53b 3c35 673b c322 443c accf 383c
00000230: 8076 ffba 2e2e dcba aece 003a 2e77 a3bb
00000240: 7b5d 743a 274c b1ba da0e a4bb dfbb 57bb
00000250: 861f 19ba 5017 e53a 360c f1b9 0a67 b839
00000260: 2f11 693b b699 aaba 01fb 59bc 4aa4 36bc
00000270: 7461 d43b 6cd1 12bc 741d 19bc b648 153a
00000280: f0bd 0d3b 08a9 583b 4590 693b 9a51 823c
00000290: 6c6e ba3b e4e4 2b3c 0cef 2f3b 040d 1b3c
000002a0: c9c1 813b 93ab 43bb 2f5f 04bc c6a5 d7ba
000002b0: 158f 423c 4274 94bc a076 213b 101a 6bbb
000002c0: 29b2 32bb 53aa 833b ea11 b53b f4a1 17bc
000002d0: 9808 643b 906a fa3a eff0 d33b 8165 bdbb
000002e0: cdda 97bb 725c 313b 0009 323c c247 813b
000002f0: f1f2 79bc 980d e837 e031 23bc 6892 6c3a
00000300: 28b0 c43b ca5d 593c b3df 11bc 8a17 e03b
00000310: 9538 81bb 5631 e23a bcc1 ea3b 1d0f ffba
00000320: e31d 46bc 0544 6f3b bf79 593b 844b c33b
00000330: 33f4 dbbb 2e78 c63c 80b6 423c 8166 4d3b
00000340: 9e4e 1fbc 5d23 a1bc 4deb 62b9 9965 733c
00000350: 086e eabb 0918 1fbb 22e9 40ba af2d c0bb
00000360: ba55 0abc 32e8 23bb b196 4a3b cd28 5cbc
00000370: 55f0 d13b 3b28 953b de86 2e3c b373 203b
00000380: 76d8 8cbc ee66 aabb 7f79 a63a 3c77 663c
00000390: 80e5 70bc 6041 01bc b01a 4e3b 481b 0d3c
000003a0: 3dc5 9a3a e303 1d3b 158f f63b 8ee9 37b8
000003b0: c654 873b 8d26 783c 54d4 a3bb 0257 ecbb
000003c0: e477 93bb c690 5d3a 6daf 443b 6d5d ccbb
000003d0: 214f e73b 8742 6eba aafb 12bc 306b ae3b
000003e0: 33a1 85bc 2fa9 aebb 7221 923b d4d8 16bc
000003f0: b632 a73b 797c e43b 387a 85bb 021e 033c

base_model.model.gpt_neox.layers.3.attention.query_key_value.lora_A.weight f4 [16, 512]
-0.006587511 0.043584995 0.03945663 -0.036251266 -0.023152119 -0.018699825 -0.015422428 0.0012586928
0.01991634 0.02037372 0.034274086 -0.027212774 -0.0075503765 0.020226177 0.03515169 -0.041975457
-0.0075640003 0.009519942 0.02594333 0.0006483897 0.03914218 0.0064250696 -0.030660557 0.0064394497
0.017576149 0.01725627 -0.0055945083 0.012879003 0.010079246 0.045390826 0.026442353 -0.04621875
-0.04573739 0.026812524 0.0001757101 -0.0019124874 0.01761911 -0.007187922 -0.012693893 0.03647094
0.052257482 -0.011813804 -0.022774369 0.0060727755 0.021969566 0.048972327 0.00038031334 -0.033729866
-0.0016912537 -0.001974641 0.008368075 -0.02468094 -0.036910694 -0.0032549747 0.01160124 0.0025428403
0.036407832 -0.004915199 -0.027928505 -0.022936845 0.05497074 0.018234735 -0.0017519102 -0.008676605
-0.016818456 -0.008978935 -0.015553067 -0.04572144 0.01764146 0.010130016 -0.008317189 0.031762958
0.013243794 0.0052806744 0.018600933 -0.023767283 -0.050123695 -0.01765825 0.006558366 0.028488457
0.019135315 0.028192423 -0.011350514 0.0557824 -0.024833528 0.019486368 0.02655693 0.013083146
-0.0037042592 0.014941319 -0.017295396 0.002160301 -0.027346456 -0.015419017 -0.00769944 -0.0051961783
-0.0009006036 -0.01576195 -0.01438566 -0.03288271 -0.00054572744 0.018110909 0.035081152 0.031660467
0.026355851 -0.00045420445 -0.01472138 0.028268183 0.004748869 -0.024565982 -0.009114773 -0.013007568
-0.03305484 -0.016729672 0.0058634095 0.028295126 -0.025453402 -0.041504264 -0.015027317 0.035873152
-0.02343493 -0.0046781553 0.031103231 0.011407698 -0.0064280964 -0.004223721 0.024330849 -0.04187142
-0.023655321 -0.020326331 0.037738025 -0.017284274 0.039314345 0.017611219 -0.018057019 0.008424778
0.018907065 0.043772843 0.008655451 -0.02406475 -0.03301963 -0.0181101 0.037404258 0.03156
0.0076348586 0.013648581 -0.012731085 0.0124236625 -0.019516906 -0.012399451 0.029305743 0.034141544
0.04892926 -0.021013195 0.0092856875 -0.02597302 -0.006824072 0.025791377 -8.6817025e-05 -0.012547826
0.024105024 0.007654323 0.03035294 -0.056619417 0.004762808 -0.024075832 -0.017501736 0.018942866
0.030111976 -0.003916073 0.0075946623 -0.03416115 0.027426729 0.022609483 -0.016825065 0.031189326
-0.032287963 0.0030784816 0.015060422 0.00046602238 -0.017176464 0.014564675 0.009348936 0.017225035
0.04155068 0.023214083 0.010460801 -0.035028525 0.032950494 0.020422513 0.012497583 0.029902378
-0.04077971 0.027259246 0.023765234 -0.008318725 0.02584964 0.016455729 0.019285614 -0.041933015
-0.002467301 -0.016382553 0.030604195 -0.03423892 0.025285661 -0.0350115 -0.020827424 -0.035202414
0.023541346 0.019796832 0.024057629 0.010657673 -0.020393526 0.022746893 0.0029456096 -0.0014552207
0.046073165 0.04869313 -0.010209999 -0.02607657 0.009350402 0.013039242 -0.010658753 0.010790021
-0.017413957 0.022855595 0.0052820053 -0.021369355 0.043185312 -0.015064721 0.026579903 0.010737866
0.045946676 -0.036798287 -0.022757981 -0.038371388 -0.009251334 0.043753214 -0.034986693 0.018476631
0.012148265 -0.014950183 0.045045074 0.010617527 -0.011542531 -0.010510173 -0.025386037 0.013408665
-0.026630227 -0.011241352 0.0070444336 -0.04221172 0.0046628714 -0.017449632 0.015133771 -0.051137954
00000000: 0cdc d7bb 2e86 323d 469d 213d 357c 14bd
00000010: 83a9 bdbc 6030 99bc 5aae 7cbc b9fa a43a
00000020: 9827 a33c cae6 a63c fc62 0c3d 53ed debc
00000030: 2669 f7bb 5eb1 a53c 38fb 0f3d 75ee 2bbd
00000040: 6fdb f7bb 88f9 1b3c 1b87 d43c b2f8 293a
00000050: 8d53 203d 6489 d23b d92b fbbc 0502 d33b
00000060: dbfb 8f3c 055d 8d3c 2352 b7bb 7402 533c
00000070: 6c23 253c bbeb 393d a29d d83c df4f 3dbd
00000080: 2157 3bbd f0a5 db3c d23e 3839 6eac faba
00000090: f455 903c a988 ebbb 0cfa 4fbc 8d62 153d
000000a0: f10b 563d af8e 41bc 5091 babc 22fe c63b
000000b0: 85f9 b33c 3597 483d cb64 c739 5428 0abd
000000c0: 0fad ddba fb68 01bb 401a 093c af2f cabc
000000d0: ab2f 17bd 6a51 55bb 2113 3e3c c8a5 263b
000000e0: 6120 153d ad0f a1bb 52ca e4bc 0de6 bbbc
000000f0: 0029 613d 0361 953c 5aa0 e5ba 5228 0ebc
00000100: dcc6 89bc 621c 13bc 4bd2 7ebc 6846 3bbd
00000110: d384 903c 5ef8 253c d244 08bc e019 023d
00000120: 80fc 583c 8209 ad3b fc60 983c 9bb3 c2bc
00000130: 814e 4dbd 09a8 90bc 90e7 d63b a060 e93c
00000140: aac1 9c3c ccf3 e63c 82f7 39bc 167c 643d
00000150: af6f cbbc e0a1 9f3c eb8d d93c b15a 563c
00000160: 28c3 72bb 6fcc 743c 13af 8dbc d693 0d3b
00000170: ad05 e0bc 0ba0 7cbc 954b fcbb b444 aabb
00000180: 7c16 6cba 341f 81bc d5b1 6bbc 05b0 06bd
00000190: 260f 0fba 545d 943c 41b1 0f3d 68ae 013d
000001a0: 3ae8 d73c 4a22 eeb9 f131 71bc ad92 e73c
000001b0: 679c 9b3b 993e c9bc 2156 15bc b21d 55bc
000001c0: 8364 07bd aa0c 89bc d821 c03b 2ecb e73c
000001d0: a783 d0bc 6000 2abd 2335 76bc baef 123d
000001e0: 9cfa bfbc 364b 99bb 34cc fe3c 5ae7 3a3c
000001f0: c8a2 d2bb 2467 8abb 7d51 c73c 5e81 2bbd
00000200: cec8 c1bc 6883 a6bc 3093 1a3d c097 8dbc
00000210: 1408 213d 6745 903c 50ec 93bc 1408 0a3c
00000220: fde2 9a3c 274b 333d 98cf 0d3c 7023 c5bc
00000230: 973f 07bd a25b 94bc 3535 193d 0f45 013d
00000240: d62d fa3b 4c9e 5f3c 0a96 50bc 9e8c 4b3c
00000250: ebe1 9fbc 1127 4bbc 9912 f03c 01d8 0b3d
00000260: 0c6a 483d dd23 acbc ff22 183c 5fc5 d4bc
00000270: 779c dfbb 7048 d33c 8911 b6b8 6695 4dbc
00000280: e677 c53c 1dd1 fa3b bba6 f83c c3e9 67bd
00000290: 5411 9c3b ae3a c5bc cd5f 8fbc 122e 9b3c
000002a0: 64ad f63c 6752 80bb a5dc f83b 90ec 0bbd
000002b0: 05ae e03c 8637 b93c b8d4 89bc c280 ff3c
000002c0: 6240 04bd 5ac0 493b fdbf 763c 7754 f439
000002d0: a8b5 8cbc ada0 6e3c 482c 193c 841b 8d3c
000002e0: 0c31 2a3d 762b be3c c863 2b3c 127a 0fbd
000002f0: 19f7 063d 1d4d a73c aac2 4c3c d5f5 f43c
00000300: a008 27bd c84e df3c 4faf c23c 434b 08bc
00000310: a0c2 d33c 2ace 863c ddfc 9d3c f4c1 2bbd
00000320: 71b2 21bb b434 86bc a6b5 fa3c 1c3e 0cbd
00000330: e023 cf3c 3868 0fbd 469e aabc 6830 10bd
00000340: c8d9 c03c f72c a23c 8114 c53c 859d 2e3c
00000350: 5310 a7bc b157 ba3c 210b 413b 1bbd beba
00000360: 37b7 3c3d 7372 473d d747 27bc 889e d5bc
00000370: 6e32 193c 8ba2 553c 0da2 2ebc a1c8 303c
00000380: b7a7 8ebc a83b bb3c ac14 ad3b c90e afbc
00000390: 15e3 303d 05d2 76bc 19be d93c e0ed 2f3c
000003a0: 9532 3c3d cdb9 16bd f26e babc 512b 1dbd
000003b0: e892 17bc 9236 333d 354e 0fbd 4e5c 973c
000003c0: 8409 473c 9df1 74bc 2f81 383d 23f5 2d3c
000003d0: e21c 3dbc dc32 2cbc 61f6 cfbc 04b0 5b3c
000003e0: a227 dabc a62d 38bc fed4 e63b 32e6 2cbd
000003f0: 00cb 983b 88f2 8ebc a3f3 773c 0876 51bd
