FederatedLLM/FT_lite/my_fl_model/checkpoint-1/adapter_model.safetensors (safetensors, 788168 bytes, 12 tensors)

base_model.model.gpt_neox.layers.0.attention.query_key_value.lora_A.weight f4 [16, 512]
-0.041074958 -0.01873019 -0.019707458 0.03610572 0.031807162 0.030261328 -0.014870926 -0.008411959
-0.043944232 0.030697515 -0.019295948 0.039792046 0.011911083 0.012582551 0.04060501 -0.01261891
-0.01176874 -0.013028065 0.043807767 -0.026471734 0.02510066 0.0024919217 -0.034730222 0.0036306062
-0.031424895 -0.0061054653 0.04238523 -0.0084693525 -0.03518996 -0.041479632 -0.00084151793 -0.00853002
-0.037515674 0.029184502 -0.03703854 -0.012998859 -0.03295432 0.006560006 0.027393606 -0.0165755
-0.037594687 -0.026093083 0.03566134 0.031284895 0.037622184 0.03234284 0.0025832688 -0.026320798
-0.02295603 0.038080163 0.024768542 0.019692414 -0.008386855 0.006944598 0.038370956 -0.00062958564
-0.01872893 -0.012733113 0.018876772 0.013291027 0.0061029885 0.02992698 -0.02643228 -0.029708387
0.042361252 0.023374248 -0.000981615 0.02216024 0.01739584 0.010930911 -0.0019366667 0.006360183
0.013872295 0.024578981 -0.013478819 0.024881698 -0.02002926 -0.03172083 -0.029364735 0.042343814
0.03885881 -0.04332212 0.03590683 -0.038762428 -0.0016002964 0.032227024 -0.017251372 0.03416359
-0.0011657368 -0.009729693 0.03686065 -0.021175552 -0.01484223 -0.032661863 0.03218614 0.0259303
-0.037335545 -0.00090035633 0.028026212 -0.02712164 -0.017222883 -0.010491425 0.03476903 -0.022634896
0.013098474 0.034497835 0.015051843 -0.010909284 0.040366627 0.015163341 0.0007991666 -0.030722234
-0.023242002 0.02078091 -0.03086285 -0.040941525 0.0110182995 0.009880688 -0.009972237 -0.02226723
0.035869285 -0.04287272 -0.043550488 -0.0044480986 0.017039519 -0.008646275 0.018057892 0.01970273
0.006100799 -0.032069236 -0.009474666 0.0008598541 -0.029153436 -0.0234324 0.029824154 0.005572844
-0.012195059 -0.017319724 -0.026763897 0.03249296 -0.04219238 0.022304967 0.035106584 -0.0438949
0.011400262 0.019030254 -0.009889601 0.0036416585 -0.029147986 -0.013299358 -0.010342432 0.009043601
0.04335372 0.021965144 0.041140012 -0.02368529 0.01001465 0.016227886 0.03427107 -0.018608427
-0.04260934 0.026708918 0.022352403 -0.010233643 0.026599173 -0.012658631 0.018172938 -0.008055321
0.00165066 0.021832198 0.020968499 -0.043151718 0.03192995 0.027182478 0.016782112 -0.024538301
-0.011593994 0.0016798119 0.03879422 -0.013765485 0.024309816 -0.004304391 0.015577098 0.00019275247
-0.03026644 0.041786637 0.026558721 0.021413863 -0.011757045 -0.026882404 0.018254241 0.031947676
0.00121429 -0.013293123 0.031487677 -0.011577931 0.028603468 -0.03160509 -0.03494097 -0.007631844
-0.03326046 -0.003641865 0.013160161 0.001967843 -6.748108e-05 -0.019989152 0.02898622 0.0301146
-0.02196436 -0.037491735 0.028666548 0.02243055 0.028208928 0.008558166 0.006447085 0.015142956
-0.019560857 -0.031974424 -0.043918386 -0.0059323474 -0.014488264 -0.035430994 -0.005019725 -0.031200709
0.0191396 0.025026921 -0.011985095 0.04360566 -0.020756284 -0.017547937 -0.011802354 -0.04320829
0.009010855 0.006588267 -0.0031990907 0.008015744 -0.010537659 -0.032444097 0.00020244664 0.011984265
-0.007682974 0.01034115 -0.020805 -0.042415522 -0.022735614 -0.011179249 0.033563424 0.033686496
0.04172087 -0.018792078 0.01598706 0.0012318961 0.0005691757 0.042195376 0.0029028223 -0.010279903
00000000: 373e 28bd 0e70 99bc 8971 a1bc 97e3 133d
00000010: 3a48 023d 9be6 f73c 2fa5 73bc 50d2 09bc
00000020: defe 33bd 5b79 fb3c 8912 9ebc fcfc 223d
00000030: b426 433c 0b27 4e3c 7051 263d 8bbf 4ebc
00000040: acd1 40bc aa73 55bc c66f 333d 40db d8bc
00000050: e69f cd3c 824f 233b 4741 0ebd 77ef 6d3b
00000060: 64b7 00bd 5b10 c8bb 239c 2d3d 0ac3 0abc
00000070: 5923 10bd 8ce6 29bd 5099 5cba 7fc1 0bbc
00000080: 09aa 19bd 5614 ef3c b9b5 17bd 2bf9 54bc
00000090: 1cfb 06bd 52f5 d63b 8e68 e03c 58c9 87bc
000000a0: e3fc 19bd 29c1 d5bc a011 123d 9724 003d
000000b0: b819 1a3d ed79 043d 0f4c 293b b79e d7bc
000000c0: 490e bcbc f2f9 1b3d 66e7 ca3c fc51 a13c
000000d0: 0569 09bc 838f e33b dd2a 1d3d c70a 25ba
000000e0: 6a6d 99bc 8c9e 50bc 76a3 9a3c 9cc2 593c
000000f0: 94fb c73b 6d29 f53c 8288 d8bc 015f f3bc
00000100: fe82 2d3d 5a7b bf3c 89a9 80ba 6489 b53c
00000110: b881 8e3c 9017 333c c0d7 fdba 1569 d03b
00000120: 9f48 633c dc59 c93c 44d6 5cbc b4d4 cb3c
00000130: 6714 a4bc b3ed 01bd 508e f0bc b570 2d3d
00000140: 6a2a 1f3d 8972 31bd 0a13 133d 5ac5 1ebd
00000150: 09c1 d1ba 7c00 043d c052 8dbc 1fef 0b3d
00000160: a3cb 98ba 4a69 1fbc 31fb 163d 5a78 adbc
00000170: d32c 73bc 72c8 05bd 9dd5 033d c86b d43c
00000180: 28ed 18bd e405 6cba 3a97 e53c 342e debc
00000190: 0117 8dbc 3ae4 2bbc f869 0e3d d16c b9bc
000001a0: fb9a 563c 9a4d 0d3d 019c 763c dbbc 32bc
000001b0: 7a57 253d a96f 783c 2a7f 513a 32ad fbbc
000001c0: 0366 bebc ba3c aa3c 16d4 fcbc 4db2 27bd
000001d0: 1986 343c 9ce2 213c 9862 23bc c469 b6bc
000001e0: aceb 123d 4e9b 2fbd ff61 32bd 5bc1 91bb
000001f0: 7696 8b3c 1ba9 0dbc 25ee 933c 9f67 a13c
00000200: 36e9 c73b 085b 03bd a13b 1bbc d567 613a
00000210: 30d3 eebc 4ef5 bfbc c951 f43c 679c b63b
00000220: c9cd 47bc 18e2 8dbc f63f dbbc 5717 053d
00000230: ebd1 2cbd e8b8 b63c eccb 0f3d 23cb 33bd
00000240: 2ac8 3a3c 56e5 9b3c fe07 22bc e4a8 6e3b
00000250: c2c7 eebc 8de5 59bc 4e73 29bc 9d2b 143c
00000260: ac93 313d 3ff0 b33c 6e82 283d a707 c2bc
00000270: 7d14 243c 58f0 843c d25f 0c3d b370 98bc
00000280: 2287 2ebd a9cc da3c 631c b73c 03ab 27bc
00000290: 82e6 d93c 2666 4fbc 6adf 943c 77fa 03bc
000002a0: f55a d83a 70d9 b23c 21c6 ab3c dbbf 30bd
000002b0: fbc8 023d caad de3c a47a 893c 8c04 c9bc
000002c0: bcf4 3dbc 222d dc3a b0e6 1e3d a188 61bc
000002d0: 6125 c73c d90b 8dbb 1637 7f3c 991d 4a39
000002e0: 53f1 f7bc 7728 2b3d ad91 d93c 206c af3c
000002f0: 9fa0 40bc 7d38 dcbc eb89 953c 91db 023d
00000300: d028 9f3a 66cb 59bc 39f9 003d 5db1 3dbc
00000310: d251 ea3c 5774 01bd 431e 0fbd 8c14 fabb
00000320: 1f3c 08bd 5bac 6ebb b79d 573c edf6 003b
00000330: a184 8db8 4ac0 a3bc 8274 ed3c e5b2 f63c
00000340: 9aee b3bc ef90 19bd 1cd6 ea3c 46c0 b73c
00000350: 6916 e73c 8d37 0c3c 1242 d33b 291a 783c
00000360: 173e a0bc 9df7 02bd c4e3 33bd 2364 c2bb
00000370: 2f60 6dbc 1720 11bd 817c a4bb a198 ffbc
00000380: a7ca 9c3c 4205 cd3c 225d 44bc d99b 323d
00000390: 1509 aabc b1c0 8fbc a95e 41bc 2dfb 30bd
000003a0: 44a2 133c 64e2 d73b d6a7 51bb 7854 033c
000003b0: 25a6 2cbc 1ae4 04bd db47 5439 a759 443c
000003c0: 75c1 fbbb ed6d 293c 3f6f aabc e6bb 2dbd
000003d0: 0a40 babc 2b29 37bc cd79 093d dafa 093d
000003e0: 81e3 2a3d d8f1 99bc 4bf7 823c 9377 a13a
000003f0: bc34 153a 0fd5 2c3d 473d 3e3b 0a6d 28bc

base_model.model.gpt_neox.layers.0.attention.query_key_value.lora_B.weight f4 [1536, 16]
-4.4877714e-05 -3.67446e-05 1.5387403e-05 9.956565e-07 2.980039e-06 -1.160702e-05 1.175277e-05 -3.3118584e-05
-3.6942132e-05 -5.4078346e-06 -3.4810982e-05 3.51131e-05 -3.3112618e-05 -1.3771602e-05 1.8331999e-05 -5.4477496e-05
-3.262105e-05 3.1125866e-05 -8.970978e-06 2.8138862e-05 3.6615605e-05 3.078804e-05 3.0618085e-05 4.7787044e-06
-1.1246728e-05 -4.9662376e-05 4.501194e-05 9.452169e-06 8.117491e-06 -2.172103e-05 -6.0258084e-05 -5.767195e-06
-6.122342e-06 7.121133e-05 -3.2625805e-05 1.1318799e-06 5.131539e-06 2.8836466e-05 1.4384976e-05 3.262738e-05
-2.5835425e-05 -5.2753303e-06 2.990581e-06 9.458782e-06 3.761219e-05 2.0223104e-05 -2.8837841e-05 -7.131357e-06
-4.7211946e-05 5.598384e-05 2.4815306e-05 1.5588917e-05 7.1527847e-06 2.1853391e-05 -9.765285e-06 -1.3251486e-05
3.93877e-05 -5.019212e-05 5.430886e-05 -1.5581667e-05 3.0977626e-05 -2.784268e-06 3.1432355e-06 -3.1113606e-05
7.127496e-06 -6.2313826e-05 2.6141015e-05 -7.1198147e-06 -2.863655e-05 -1.1109001e-05 -3.4604298e-05 -2.2647642e-05
1.2108139e-05 3.5102024e-05 -1.1597075e-05 6.8739675e-05 4.5723857e-05 6.765109e-06 1.7731194e-05 2.8636507e-05
3.2963082e-05 -1.1323192e-06 7.6194406e-06 -9.926935e-07 -1.5380097e-05 9.270542e-06 2.0866253e-05 5.4772954e-06
-5.0206123e-05 4.356688e-05 9.923895e-07 -9.65616e-05 -1.3522055e-06 5.286287e-06 -1.37371235e-05 3.5601195e-05
1.010452e-05 4.2861924e-05 1.37508e-05 -3.1320917e-06 1.1468858e-06 -3.4787831e-06 1.7870036e-05 -1.788608e-05
-2.071946e-05 -3.6301494e-06 1.1619543e-05 -2.6001017e-05 -2.635066e-05 7.62683e-06 2.0373433e-05 3.0623705e-05
-6.256723e-05 6.0465987e-05 1.1456496e-05 -3.9257317e-05 5.6157e-06 5.383577e-05 5.1285065e-06 -8.117663e-06
2.215741e-05 -5.1637824e-05 1.1111857e-05 -4.058809e-05 1.8447572e-06 2.172649e-05 -4.7190595e-05 -3.9239327e-05
5.620262e-06 3.711628e-05 -1.788271e-05 -3.4791497e-06 -1.3927901e-05 7.135522e-06 2.0367133e-05 3.4794284e-06
-3.5104807e-05 7.2667794e-06 3.4797e-06 -2.0365793e-05 1.538447e-05 -1.7881886e-05 9.599162e-06 3.5613797e-05
-1.3253867e-05 -1.00225625e-05 1.3947596e-05 2.3871613e-05 -2.8478582e-05 1.9881849e-05 1.6736203e-05 -7.136434e-06
1.9864448e-05 1.0069542e-06 3.3115673e-05 2.9969808e-06 -1.8375746e-05 1.16022275e-05 -1.3546327e-05 7.654833e-06
-1.6028156e-05 2.928224e-05 5.1323473e-06 9.7625825e-06 2.6493146e-05 -7.1365184e-06 6.181062e-05 9.268633e-06
0.00010667784 -2.8491502e-05 -7.617377e-06 -4.509802e-05 -6.636774e-07 -3.132324e-06 7.271658e-05 -5.4784437e-06
4.9897676e-06 -4.786519e-05 -5.6247472e-06 1.1748353e-05 3.296633e-05 2.6496316e-05 -6.6082626e-05 -2.0506079e-05
-6.873402e-05 -7.6253264e-06 -1.5888956e-05 7.760002e-06 3.7256283e-05 7.1352315e-06 -2.2353499e-05 -2.9926841e-06
5.7622492e-05 -1.6030914e-05 -7.765101e-06 -4.7710575e-05 2.8981292e-05 9.999766e-07 -1.0636474e-05 -1.2245238e-05
-9.8215816e-05 3.0812695e-05 1.140472e-06 -2.2168522e-05 -9.453956e-06 -1.224784e-05 -1.8030189e-05 1.6318264e-06
-1.9372073e-05 1.149587e-06 -3.461392e-05 3.8737326e-05 3.0480567e-05 2.151736e-05 6.608754e-05 -1.5734664e-05
9.393061e-05 -4.999594e-05 9.762277e-06 -5.861719e-05 -1.1263286e-05 -6.970022e-06 2.6498163e-05 4.5719367e-05
-1.9372132e-05 -1.1597415e-05 -4.123585e-05 -5.6259632e-06 2.2010927e-05 2.1465044e-05 4.273114e-05 -3.048314e-05
5.1498977e-05 -4.7854395e-05 2.0365107e-05 -4.586793e-05 -1.3403341e-05 -2.3999452e-05 -1.7877566e-05 4.5720288e-05
4.9806713e-06 -2.202807e-05 3.959298e-05 -1.12469515e-05 -5.233933e-05 -2.6003243e-05 -9.932369e-07 5.762348e-05
9.96959e-06 2.8636758e-05 -1.1599193e-05 4.272933e-05 1.7734532e-05 -4.9354185e-05 -3.0483567e-05 -7.622179e-06
00000000: 143b 3cb8 371e 1ab8 3214 8137 7fa2 8535
00000010: aefc 4736 c5bb 42b7 c32d 4537 cfe8 0ab8
00000020: 50f2 1ab8 f274 b5b6 0202 12b8 6746 1338
00000030: 67e2 0ab8 950c 67b7 abc7 9937 c47e 64b8
00000040: 96d2 08b8 258d 0238 0f82 16b7 bf0b ec37
00000050: b593 1938 6822 0138 eb6b 0038 c258 a036
00000060: 54b0 3cb7 924c 50b8 34cb 3c38 c294 1e37
00000070: 5c30 0837 8f35 b6b7 a0bd 7cb8 d483 c1b6
00000080: 846e cdb6 4b57 9538 b1d7 08b8 19eb 9735
00000090: 962f ac36 d7e5 f137 0057 7137 62d9 0838
000000a0: 27b9 d8b7 be02 b1b6 cab1 4836 29b1 1e37
000000b0: c8c1 1d38 c9a4 a937 cbe8 f1b7 e449 efb6
000000c0: 7105 46b8 31d0 6a38 772a d037 f2c4 8237
000000d0: f401 f036 cd51 b737 94d5 23b7 b352 5eb7
000000e0: 3934 2538 6185 52b8 b2c9 6338 60b5 82b7
000000f0: f9ed 0138 5cd9 3ab6 60f0 5236 fb7f 02b8
00000100: b928 ef36 7bae 82b8 6749 db37 bee6 eeb6
00000110: 8638 f0b7 cc60 3ab7 1524 11b8 71fb bdb7
00000120: 1024 4b37 833a 1338 0f91 42b7 5528 9038
00000130: 9ec7 3f38 d8ff e236 73bd 9437 6e38 f037
00000140: d741 0a38 31fa 97b5 7faa ff36 b03c 85b5
00000150: 8204 81b7 ad88 1b37 f009 af37 9cc9 b736
00000160: 6a94 52b8 95bb 3638 3e32 8535 1d81 cab8
00000170: 6d7d b5b5 dc60 b136 7f78 66b7 7e52 1538
00000180: 9586 2937 a4c6 3338 3cb3 6637 ed30 52b6
00000190: b2ee 9935 0a75 69b6 9ce7 9537 100a 96b7
000001a0: b4ce adb7 7e9d 73b6 8ff1 4237 c21c dab7
000001b0: 9d0b ddb7 f9e9 ff36 9de7 aa37 f471 0038
000001c0: 8736 83b8 dc9c 7d38 4735 4037 39a8 24b8
000001d0: 7f6e bc36 b8cd 6138 8915 ac36 1931 08b7
000001e0: adde b937 b195 58b8 106d 3a37 213d 2ab8
000001f0: 6099 f735 4841 b637 84ee 45b8 e894 24b8
00000200: af95 bc36 4dad 1b38 d402 96b7 567b 69b6
00000210: e1ab 69b7 ab6d ef36 16da aa37 2080 6936
00000220: 803d 13b8 29d5 f336 ca84 6936 35d7 aab7
00000230: e60d 8137 0f01 96b7 160c 2137 0660 1538
00000240: ed5c 5eb7 9426 28b7 7800 6a37 e63f c837
00000250: 4ae5 eeb7 f2c7 a637 b964 8c37 8075 efb6
00000260: 94a2 a637 af26 8735 afe5 0a38 bd1f 4936
00000270: 9d25 9ab7 30a7 4237 0845 63b7 426d 0037
00000280: 3474 86b7 22a3 f537 8736 ac36 f9c9 2337
00000290: 993d de37 3a76 efb6 53a0 8138 7a80 1b37
000002a0: 3bb8 df38 0901 efb7 c598 ffb6 a127 3db8
000002b0: 9027 32b5 eb34 52b6 6b7f 9838 79d3 b7b6
000002c0: c76d a736 dbc2 48b8 36bc bcb6 cb1a 4537
000002d0: 5445 0a38 6844 de37 d795 8ab8 7804 acb7
000002e0: 4c25 90b8 0edd ffb6 4649 85b7 f430 0237
000002f0: a143 1c38 2c6b ef36 c683 bbb7 ecd5 48b6
00000300: aeaf 7138 207a 86b7 db46 02b7 d71c 48b8
00000310: da1c f337 ef36 8635 4f73 32b7 e670 4db7
00000320: 37f9 cdb8 e13c 0138 5212 9935 8af6 b9b7
00000330: 6f9c 1eb7 127c 4db7 893f 97b7 2105 db35
00000340: 3681 a2b7 824b 9a35 6a2e 11b8 e379 2238
00000350: 85b0 ff37 2e80 b437 7a98 8a38 effd 83b7
00000360: 9dfc c438 bbb2 51b8 a9c8 2337 badb 75b8
00000370: 72f7 3cb7 08e0 e9b6 5f48 de37 ccc2 3f38
00000380: 5681 a2b7 8592 42b7 a8f4 2cb8 a8c6 bcb6
00000390: 1ba4 b837 d50f b437 363a 3338 0bb6 ffb7
000003a0: 9b00 5838 44b7 48b8 bcd5 aa37 5162 40b8
000003b0: e9de 60b7 6e52 c9b7 c8f7 95b7 c9c3 3f38
000003c0: a41f a736 ecc8 b8b7 a310 2638 4ab1 3cb7
000003d0: ed86 5bb8 8a21 dab7 5c4f 85b5 beb0 7138
000003e0: 1043 2737 f838 f037 289a 42b7 4538 3338
000003f0: 9ec4 9437 a701 4fb8 f6b6 ffb7 05c2 ffb6

base_model.model.gpt_neox.layers.1.attention.query_key_value.lora_A.weight f4 [16, 512]
0.019794166 -0.035859287 0.033639178 0.03198832 0.02800958 0.002568284 0.033395134 0.033324018
-0.039788503 -0.021226639 0.01678451 -0.012170199 0.020847768 -0.013721821 -0.011949577 -0.02860699
0.043488175 0.03390754 0.0046747364 -0.009670853 -0.023916874 0.008446084 0.028135242 -0.038775407
-0.031465393 0.011087407 -0.02911634 0.030931575 -0.016096376 -0.024932483 -0.03281579 0.02946976
-0.039221875 -0.0005933035 0.03483295 -0.01929633 -0.032123853 0.0144733135 -0.019928172 -0.026852043
-0.021850625 0.04299949 0.019790914 0.028758822 -0.0044452837 0.01898608 0.0013693376 -0.03386031
0.034541115 0.035834238 -0.03423231 0.044130925 0.02616357 -0.011829731 -0.023541162 -0.029673364
-0.030408135 -0.026674565 0.0012953756 -0.022261009 -0.03502366 0.0438114 -0.027084438 -0.030063327
0.008424127 -0.022575846 0.043281715 -0.024492733 0.00092523673 -0.004910876 -0.0036473132 0.003773137
0.029717088 0.039910845 0.013735077 -0.009711644 0.03875456 0.035207625 0.0080753025 -0.020128706
-0.019692939 -0.04046974 -0.035969924 -0.012030884 0.015933316 -0.030754765 -0.027447632 0.04310832
0.01950275 -0.010140941 -0.027310466 0.035960007 0.016329361 -0.01883493 -0.024129372 0.026901893
0.027838435 -0.030531919 0.022976683 0.017577717 0.033946324 -0.008233475 0.005885296 -0.039138924
0.03653621 0.0075169755 0.032348145 0.006583101 -0.0037782989 0.012753932 0.035671707 0.010385327
0.033269703 0.024249917 0.0144749945 -0.0020249079 0.0044467556 0.03977602 0.015775828 0.012092495
-0.0122222835 -0.006720215 0.010811515 0.009108113 -0.03393931 0.04384935 0.030142348 0.004617179
0.008959619 0.0040242183 0.03030774 0.037973214 -0.04293643 -0.024276042 -0.00501302 -0.04079835
0.028911326 -0.0118406685 0.024219163 -0.029692806 -0.029134665 0.014662515 0.0008840581 -0.00396324
-0.021351598 0.043890722 0.020489423 0.023059027 -0.0106451325 -0.03257077 0.029485118 -0.006683776
0.011883627 0.02586447 -0.0031500787 -0.0068073594 -0.0372208 -0.025608119 0.020285103 0.024015818
-0.027595287 -0.039649475 -0.009518017 0.026243355 0.043976653 0.0006870774 -0.001509148 0.03185333
-0.03584642 -0.03337422 0.006922044 0.0155842425 -0.03229381 0.00865523 0.042630088 -0.009477385
-0.026413921 0.021034941 -0.008090159 -0.037619866 -0.0023566156 -0.03641694 0.010903567 0.040403694
-0.006882421 -0.018055936 0.00031397425 -0.026564438 0.009535223 0.0387698 0.034267507 0.013128311
0.03714656 0.018037045 -0.023626817 -0.043167196 -0.019718284 -0.0051477463 -0.040566843 -0.027948745
-0.025970152 0.023674583 -0.03710738 0.03269329 -0.014771158 0.0383625 0.017966988 -0.0073462026
0.010496943 0.010331818 0.005872321 0.026701517 0.019462124 -0.030153954 -0.03068783 -0.005917823
-0.028815463 -0.03892565 0.012102511 -0.016024804 0.012343593 0.036825858 -0.0043216925 -0.0023872855
0.039614424 0.0018161971 -0.0037187939 0.019567052 0.013272004 -0.033221297 0.0072643417 0.01833345
-0.0029919595 -0.027218139 0.040495295 0.0149914175 -0.0243546 -0.016946202 0.012245007 0.032872748
-0.021029968 -0.007266604 -0.027864218 0.031265218 -0.029664222 -0.041520003 0.033497468 -0.035519134
0.024640245 -0.029002618 -0.035598457 -0.030631343 0.018358314 -0.015696242 -0.0012432302 -0.012185689
00000000: 6027 a23c 30e1 12bd 3cc9 093d 2f06 033d
00000010: 5974 e53c a850 283b 56c9 083d c47e 083d
00000020: 45f9 22bd 7de3 adbc ab7f 893c 8465 47bc
00000030: f0c8 aa3c 7dd1 60bc 29c8 43bc 3559 eabc
00000040: a820 323d a2e2 0a3d 882e 993b 7f72 1ebc
00000050: 52ed c3bc 7261 0a3c e17b e63c f6d2 1ebd
00000060: dbe1 00bd f5a7 353c 6485 eebc 3764 fd3c
00000070: 8cdc 83bc 353f ccbc da69 06bd 916a f13c
00000080: 1ea7 20bd ed87 1bba ffac 0e3d 5613 9ebc
00000090: 4d94 03bd 7a21 6d3c 6840 a3bc d1f8 dbbc
000000a0: 1500 b3bc 3c20 303d 8e20 a23c 9f97 eb3c
000000b0: bea9 91bb b288 9b3c 587b b33a 1cb1 0abd
000000c0: fc7a 0d3d ecc6 123d 2e37 0cbd a1c2 343d
000000d0: fc54 d63c 7dd1 41bc 65d9 c0bc 8e15 f3bc
000000e0: 7b1a f9bc 9e84 dabc 98c9 a93a b85c b6bc
000000f0: f874 0fbd 9573 333d 2fe0 ddbc 5e47 f6bc
00000100: 5905 0a3c fbf0 b8bc 2b48 313d fca4 c8bc
00000110: 968b 723a 6aeb a0bb c307 6fbb bc46 773b
00000120: 4071 f33c 8e79 233d 1709 613c 961d 1fbc
00000130: 1abd 1e3d df35 103d 464e 043c f5e4 a4bc
00000140: 1653 a1bc 99c3 25bd 3355 13bd 2f1d 45bc
00000150: 9686 823c 6bf1 fbbc dbd9 e0bc 5a92 303d
00000160: 3bc4 9f3c 3026 26bc 33ba dfbc cd4a 133d
00000170: 27c5 853c b64b 9abc f6aa c5bc 5c61 dc3c
00000180: 6e0d e43c 131e fabc 9939 bc3c 25ff 8f3c
00000190: 4d0b 0b3d b2e5 06bc 71d9 c03b 2350 20bd
000001a0: fea6 153d f650 f63b 7d7f 043d 0eb7 d73b
000001b0: 569d 77bb def5 503c 7f1c 123d 3827 2a3c
000001c0: d045 083d c3a7 c63c 8728 6d3c 51b4 04bb
000001d0: 17b6 913b 2eec 223d 4f3c 813c 9a1f 463c
000001e0: f93f 48bc 4035 dcbb c822 313c 323a 153c
000001f0: f203 0bbd 609b 333d 16ed f63c b44b 973b
00000200: 5ecb 123c 97dd 833b f047 f83c cd89 1b3d
00000210: 1cde 2fbd 8dde c6bc 4244 a4bb 2c1c 27bd
00000220: 72d7 ec3c 5dff 41bc 4467 c63c 543e f3bc
00000230: d2ab eebc 0c3b 703c 23c0 673a 11de 81bb
00000240: 8ce9 aebc c2c6 333d 6fd9 a73c 49e6 bc3c
00000250: ec68 2ebc ed68 05bd c68a f13c 9403 dbbb
00000260: 8bb3 423c bae1 d33c 8d71 4ebb 4510 dfbb
00000270: d674 18bd 1ec8 d1bc f22c a63c d2bc c43c
00000280: 830f e2bc 7d67 22bd 75f1 1bbc 4efc d63c
00000290: dd20 343d fc1c 343a 9bce c5ba a378 023d
000002a0: b2d3 12bd 68b3 08bd 50d2 e23b 0d55 7f3c
000002b0: 8446 04bd aace 0d3c e39c 2e3d 0947 1bbc
000002c0: 0262 d8bc 7851 ac3c 968c 04bc 4a17 1abd
000002d0: 7371 1abb ee29 15bd e0a4 323c 587e 253d
000002e0: ef85 e1bb 0bea 93bc e99c a439 aa9d d9bc
000002f0: a039 1c3c 15cd 1e3d 165c 0c3d 2118 573c
00000300: fe26 183d 6dc2 933c 078d c1bc 16d0 30bd
00000310: 3d88 a1bc 6dae a8bb 6b29 26bd c4f4 e4bc
00000320: 5bbf d4bc 33f1 c13c e8fd 17bd 66e9 053d
00000330: ba02 72bc ff21 1d3d 812f 933c 6ab8 f0bb
00000340: 5ffb 2b3c c946 293c 996c c03b 24bd da3c
00000350: 086f 9f3c 6d05 f7bc 0b65 fbbc 4cea c1bb
00000360: 680e ecbc 8170 1fbd 9c49 463c 7346 83bc
00000370: c83c 4a3c b6d6 163d fc9c 8dbb 0174 1cbb
00000380: bc42 223d 760d ee3a 02b7 73bb 154b a03c
00000390: d272 593c 0e13 08bd b709 ee3b 0830 963c
000003a0: c014 44bb 93f8 debc 65de 253d 909e 753c
000003b0: 4c83 c7bc c3d2 8abc 489f 483c 93a5 063d
000003c0: 0a47 acbc b11c eebb 8043 e4bc f50f 003d
000003d0: 6202 f3bc e110 2abd a434 093d 837c 11bd
000003e0: 57da c93c e696 edbc b0cf 11bd 95ee fabc
000003f0: 2d64 963c 6895 80bc e2f3 a2ba 7ca6 47bc

base_model.model.gpt_neox.layers.1.attention.query_key_value.lora_B.weight f4 [1536, 16]
1.573147e-05 2.0373005e-05 -3.724307e-05 -4.979347e-06 4.0890623e-05 2.8637105e-05 6.294208e-05 -4.8164748e-05
-3.2627904e-05 2.84859e-05 -5.621849e-06 -2.2850712e-05 4.3222783e-05 3.0614254e-05 -2.4347577e-05 3.9244667e-05
-3.0984498e-05 -2.6405162e-06 2.9868595e-06 -4.5714394e-05 1.787715e-05 1.134487e-06 1.6020958e-05 1.6231394e-05
2.3858054e-05 9.264299e-06 -3.2825737e-05 -2.3854247e-05 2.2362114e-05 -1.3924244e-05 7.264724e-06 3.6744128e-05
-1.7872568e-05 -3.2623335e-05 6.9701327e-06 -5.117559e-06 8.9744586e-05 1.2260046e-05 1.2251836e-05 -2.2219865e-05
-5.6356213e-05 7.535835e-05 3.6945086e-05 7.7563545e-06 2.4007111e-05 3.9258473e-05 5.397864e-05 8.3967156e-05
-4.5220095e-05 -2.6496593e-05 -9.265298e-06 -6.4979906e-07 4.7524194e-05 3.5113353e-05 2.451069e-05 -3.874719e-05
-1.3440012e-05 3.7612685e-05 -1.951313e-05 -3.4967816e-05 6.009657e-05 2.4366087e-05 2.0718779e-05 8.3975465e-05
-2.6998383e-05 2.6638603e-05 1.6348034e-05 -1.823298e-05 -3.262478e-05 -3.7614078e-05 -3.5115932e-05 3.695737e-05
6.890548e-05 -2.0726682e-05 -8.975016e-05 -1.3891227e-05 2.2519604e-05 -5.862692e-05 1.1411741e-05 -4.9705588e-05
3.725855e-05 9.897602e-07 7.60726e-06 4.1740084e-05 1.010228e-05 -1.7886252e-05 2.267429e-05 3.709923e-05
2.6297535e-05 -4.786533e-05 -3.4741704e-05 -4.5692417e-05 1.8027195e-05 -1.6025286e-05 3.2125292e-05 -4.3450662e-05
5.169543e-05 -3.0490599e-05 -2.8141143e-05 5.648869e-05 3.5264253e-05 4.139525e-05 7.349862e-05 -1.5741398e-05
1.1609986e-05 3.9251445e-05 1.37420475e-05 1.1394935e-06 -3.053867e-05 3.497132e-05 7.620556e-06 2.8980956e-05
-3.4915935e-05 -9.274375e-06 -3.0612366e-05 -3.74093e-05 -9.654238e-06 -1.4257951e-05 1.5527216e-05 1.0285016e-05
8.596075e-05 -4.964753e-05 -5.8107515e-05 -5.117246e-06 6.474467e-05 -7.301297e-05 6.425044e-05 -1.4092684e-05
-7.123049e-06 2.6842219e-05 9.460657e-06 -1.16044e-05 3.4914265e-06 2.0381367e-05 4.3731616e-05 4.954785e-07
-9.775223e-06 1.6238202e-05 -1.1604339e-05 -2.6695527e-05 5.3843734e-05 3.112957e-05 6.4085456e-05 7.122275e-05
4.722315e-05 -4.621992e-05 3.1133633e-05 5.3841995e-05 -5.6123496e-05 -1.1754306e-05 -2.8145725e-05 9.1130405e-06
3.9887324e-05 2.8244187e-06 7.0569346e-05 -3.5314124e-06 -3.0489751e-05 -3.2776447e-06 -7.472444e-06 -3.247865e-05
-4.9503546e-05 -1.1614662e-05 -3.0486923e-05 -5.1499916e-05 6.0469425e-05 3.7109116e-05 1.6395103e-05 7.261927e-06
-5.619239e-06 1.5021773e-06 -2.1853155e-05 -1.6091466e-05 -1.4252895e-05 -1.9514782e-05 1.1605833e-05 3.959546e-05
4.7884092e-05 -2.2861215e-05 3.5269004e-05 3.0825497e-05 -2.4371138e-05 -1.8378898e-05 -3.0628416e-05 -1.4966381e-06
1.602988e-05 1.5739317e-05 -1.9671192e-05 -2.898383e-05 -3.2971948e-05 2.6820113e-05 1.5900192e-05 -4.7357586e-05
-5.3828517e-05 3.262832e-05 -2.0710673e-05 -3.145855e-06 -2.3986579e-05 4.7913863e-06 -9.47267e-05 2.4500696e-05
3.1865948e-06 9.613388e-06 3.2470503e-05 9.47226e-06 2.2509092e-05 -2.039321e-05 -7.965969e-06 -5.319567e-06
7.984636e-05 -4.1395306e-05 2.44957e-05 4.3735363e-05 2.8844566e-05 3.6976286e-05 5.2499912e-05 1.3742385e-05
7.321905e-05 3.2608932e-05 2.0564554e-05 -3.9593608e-05 2.7770238e-06 5.220159e-05 1.161078e-05 1.837254e-05
-3.2468623e-05 -2.0380276e-05 -1.6368336e-05 2.650588e-05 5.6485318e-05 5.638557e-06 5.2345666e-05 -2.8352604e-05
-6.2753104e-05 4.9859642e-05 7.30131e-05 3.938824e-05 -3.92538e-05 5.2005897e-05 2.4200815e-05 8.3966086e-05
2.4357034e-05 -1.1612079e-05 4.373051e-05 3.87476e-05 -1.002446e-06 -7.334883e-05 4.1385145e-05 6.711788e-05
6.475721e-05 -3.3469594e-05 -3.51113e-05 7.115454e-06 1.439404e-05 -5.629086e-06 4.984603e-06 -5.4342778e-05
00000000: 13f7 8337 b2e6 aa37 7135 1cb8 4414 a7b6
00000010: f981 2b38 b739 f037 c6ff 8338 8104 4ab8
00000020: f2d9 08b8 01f5 ee37 51a3 bcb6 88af bfb7
00000030: 1c4a 3538 ce67 0038 063e ccb7 a49a 2438
00000040: 5af5 01b8 b933 31b6 db71 4836 75bd 3fb8
00000050: e3f6 9537 ad44 9835 bf64 8637 a728 8837
00000060: c822 c837 dc6d 1b37 5eae 09b8 9b1a c8b7
00000070: 4696 bb37 2c9c 69b7 81c3 f336 b51d 1a38
00000080: 0ced 95b7 0ad5 08b8 fce0 e936 7fb7 abb6
00000090: 4235 bc38 7fb0 4d37 3c8d 4d37 cc64 bab7
000000a0: 0660 6cb8 b509 9e38 7cf5 1a38 4a21 0237
000000b0: e162 c937 77a9 2438 2067 6238 8617 b038
000000c0: b5aa 3db8 0045 deb7 2772 1bb7 da6d 2eb5
000000d0: b754 4738 ad46 1338 4e9c cd37 7a84 22b8
000000e0: 697c 61b7 50c2 1d38 21b0 a3b7 68aa 12b8
000000f0: 3310 7c38 c665 cc37 3dcd ad37 fc1b b038
00000100: 967a e2b7 f775 df37 2323 8937 07f3 98b7
00000110: 97d6 08b8 cfc3 1db8 7249 13b8 ad02 1b38
00000120: 5981 9038 36de adb7 4038 bcb8 5e0e 69b7
00000130: 7be8 bc37 2de6 75b8 0e75 3f37 f87a 50b8
00000140: 1046 1c38 e7d7 8435 de41 ff36 1312 2f38
00000150: f67c 2937 6f0a 96b7 ab34 be37 ff9a 1b38
00000160: 8799 dc37 02c3 48b8 9fb7 11b8 dca5 3fb8
00000170: 1b39 9737 0a6e 86b7 45be 0638 cb3e 36b8
00000180: 8cd3 5838 10c6 ffb7 a510 ecb7 45ee 6c38
00000190: b4e8 1338 d09f 2d38 4523 9a38 650c 84b7
000001a0: 83c8 4237 eba1 2438 a58d 6637 b3f0 9835
000001b0: a616 00b8 2bae 1238 14b4 ff36 211c f337
000001c0: b372 12b8 2399 1bb7 c765 00b8 eee7 1cb8
000001d0: a3f8 21b7 6f35 6fb7 7140 8237 cf8d 2c37
000001e0: d445 b438 a13c 50b8 78b8 73b8 cfb4 abb6
000001f0: 88c7 8738 8a1e 99b8 31be 8638 9e6f 6cb7
00000200: 8602 efb6 3a2b e137 36b9 1e37 85b0 42b7
00000210: 404e 6a36 a7f8 aa37 776c 3738 0601 0535
00000220: 4300 24b7 4637 8837 42b0 42b7 35f0 dfb7
00000230: 45d6 6138 1f91 0238 9e65 8638 6c5d 9538
00000240: 7911 4638 43dc 41b8 7c95 0238 67d4 6138
00000250: 2566 6bb8 5c34 45b7 7c1a ecb7 36e4 1837
00000260: b04c 2738 258b 3d36 a1fe 9338 34fd 6cb6
00000270: 3ec4 ffb7 82f5 5bb6 cebb fab6 af39 08b8
00000280: 07a2 4fb8 98dc 42b7 2bbe ffb7 9d01 58b8
00000290: 8da0 7d38 9ca5 1b38 3788 8937 7aab f336
000002a0: e58c bcb6 6b9e c935 4b51 b7b7 29fc 86b7
000002b0: b81f 6fb7 adb3 a3b7 acb6 4237 4d13 2638
000002c0: 27d7 4838 16c6 bfb7 ceed 1338 a04a 0138
000002d0: 9f70 ccb7 622c 9ab7 0377 00b8 18e0 c8b5
000002e0: e877 8637 ed07 8437 9003 a5b7 4d22 f3b7
000002f0: 5c4b 0ab8 c1fb e037 6761 8537 d2a1 46b8
00000300: eec5 61b8 64da 0838 d5bb adb7 611d 53b6
00000310: c936 c9b7 b2c5 a036 03a8 c6b8 d886 cd37
00000320: 48d9 5536 3049 2137 f030 0838 0ceb 1e37
00000330: e8d1 bc37 1612 abb7 94a5 05b7 bc7e b2b6
00000340: 3073 a738 df9f 2db8 1d7c cd37 7d70 3738
00000350: 3cf7 f137 fc16 1b38 5a33 5c38 188f 6637
00000360: 2e8d 9938 93c5 0838 0b82 ac37 5011 26b8
00000370: e85c 3a36 08f3 5a38 eccb 4237 bb1e 9a37
00000380: eb2e 08b8 4ff6 aab7 bc4e 89b7 f258 de37
00000390: a6ea 6c38 d632 bd36 bb8d 5b38 c1d6 edb7
000003a0: 519a 83b8 6220 5138 9c1e 9938 cd34 2538
000003b0: 72a4 24b8 e820 5a38 db02 cb37 f316 b038
000003c0: 5552 cc37 80d1 42b7 476b 3738 eb84 2238
000003d0: c88b 86b5 dad2 99b8 f694 2d38 a3c1 8c38
000003e0: 43ce 8738 b461 0cb8 7944 13b8 49c1 ee36
000003f0: ee7d 7137 7be1 bcb6 6a41 a736 1dee 63b8

base_model.model.gpt_neox.layers.2.attention.query_key_value.lora_A.weight f4 [16, 512]
0.014493848 -0.03491282 -0.016574856 0.024002766 0.017134614 -0.021193366 -0.04411262 -0.042308126
-0.01664766 -0.023635874 0.043288663 0.043600794 -0.0045244526 -0.005587214 0.015439251 0.021745421
0.019763201 0.015063318 -0.018922793 0.00028720874 -0.03369127 -0.03323269 -0.02801451 0.02093375
-0.011942917 0.034796853 0.013753745 -0.018185908 0.0024579326 0.00499665 0.035094727 0.019082407
0.037528347 0.020625746 -0.01591033 0.031964768 -0.01901826 -0.014394923 0.03833302 0.012558181
0.018991096 -0.020860493 0.038061988 0.042778857 -0.025579525 0.03466087 0.03518527 -0.02137436
0.038847018 0.021379357 -0.014718517 0.043306 -0.028806899 0.006911485 0.039558828 -0.013900399
-0.030698076 0.038597845 -0.037784085 0.04386361 -0.010502274 0.0427319 0.0086966185 0.03079582
-0.042630773 -0.036540937 0.013944753 0.0051843873 -0.033608384 0.0441254 0.016330564 0.0046449876
0.041229513 0.010155461 0.02625936 -0.027499953 0.03974858 -0.016786445 -0.034833267 0.004721569
0.02636165 0.019040795 0.03607808 -0.037061702 -0.035462532 0.0008370899 -0.036735743 0.03765866
-0.0060760737 0.026851192 0.025079131 -0.033769257 -0.01843011 0.03926592 -0.035578735 -0.010340887
-0.014489427 0.023415575 0.023098176 -0.0027450235 0.042560883 -0.03539306 0.042709626 -0.042050906
-0.028781533 -0.016249226 0.026092079 0.03891894 0.037885964 -0.038979597 0.02949134 -0.038241997
0.029068664 0.0056780404 -0.01785313 0.0052127903 0.035679545 -0.03481976 0.008843324 -0.008050467
-0.013505059 -0.042116333 0.020019412 0.024641745 0.03919457 -0.003839297 0.043223586 0.000100643614
-0.009432389 -0.025542732 0.039419547 0.037758097 0.004769143 0.025431 -0.0392097 0.015852282
-0.003139815 -0.0014268646 -0.003996259 -0.008891785 0.0047850865 0.038758945 -0.009258804 -0.00997197
-0.03453354 0.043790527 0.011793608 -0.015459249 0.0019174071 -0.020701671 -0.029639088 -0.0043074577
-0.036052134 -0.026770195 0.029613795 0.012840103 -0.014681169 0.023539951 -0.029974326 -0.031931613
0.041440535 -0.029407801 0.03870745 -0.035789702 -0.022664594 -0.013904087 -0.030417271 -0.03310231
0.020369368 -0.013870834 -0.0004313548 0.010326443 -0.011342961 -0.033198528 -0.0112325745 -0.038767267
-0.007036312 0.018380444 -0.03270179 -0.026687002 0.041114654 0.024490204 -0.040781748 -0.03725316
-0.043982953 -0.01583225 0.008084799 -0.035838768 0.03519193 0.03738764 -0.002059022 -0.028275609
0.042578246 0.004347978 -0.0031862406 -0.014055917 0.013738457 0.04017266 0.040800724 -0.004967583
-0.010057005 0.024508044 0.018562293 -0.0139613515 -0.0053812927 -0.03563679 0.021093886 0.04061958
0.0012552402 0.02622937 0.017852362 0.03951708 0.022703508 0.0004105432 -0.0302657 -0.008772494
0.040462974 -0.005344203 -0.010846205 -0.042342708 -0.008683328 -0.035687692 0.002358376 0.019391872
0.033049226 -0.004633788 -0.03735242 -0.017026355 -0.012576383 -0.02713052 0.034346998 0.010416684
0.0068233223 -0.01998602 -0.012888768 0.020466974 0.026348641 0.040057193 -0.008841146 0.021620315
0.03217663 0.018683746 -0.0040206467 0.006043304 0.03817731 -0.017073615 0.0014547228 -0.029888667
-0.012194287 0.033503383 0.02688656 -0.026698584 -0.031571735 0.029685125 0.011113024 0.017633466
00000000: 9b77 6d3c bf00 0fbd fec7 87bc 73a1 c43c
00000010: e45d 8c3c b69d adbc 6faf 34bd 494b 2dbd
00000020: ac60 88bc 05a0 c1bc 744f 313d bf96 323d
00000030: dc41 94bb f314 b7bb eaf4 7c3c 7423 b23c
00000040: 70e6 a13c 23cc 763c f903 9bbc 8194 9639
00000050: dbff 09bd 001f 08bd b07e e5bc 417d ab3c
00000060: 39ac 43bc 2587 0e3d 6357 613c 9dfa 94bc
00000070: 4415 213b f0ba a33b 7dbf 0f3d b552 9c3c
00000080: 53b7 193d 53f7 a83c 6156 82bc 7ded 023d
00000090: 2fcc 9bbc afd8 6bbc 1603 1d3d d4c0 4d3c
000000a0: 3793 9b3c a0e3 aabc e3e6 1b3d e238 2f3d
000000b0: 278c d1bc 8ef8 0d3d 6e1e 103d 4819 afbc
000000c0: 0d1e 1f3d c323 af3c ef25 71bc a261 313d
000000d0: 72fc ebbc bd79 e23b 7008 223d 80be 63bc
000000e0: 887a fbbc c618 1e3d 7cc3 1abd 54aa 333d
000000f0: bb11 2cbc a507 2f3d 437c 0e3c 8447 fc3c
00000100: 9b9d 2ebd f3ab 15bd 8978 643c cbe1 a93b
00000110: f2a8 09bd d6bc 343d adc7 853c fb34 983b
00000120: 47e0 283d 1763 263c df1d d73c 9547 e1bc
00000130: 68cf 223d ba83 89bc 54ad 0ebd 64b7 9a3b
00000140: 63f4 d73c 71fb 9b3c 9cc6 133d 03ce 17bd
00000150: 2941 11bd 2770 5b3a 3878 16bd f83f 1a3d
00000160: cd19 c7bb 08f7 db3c c072 cd3c a251 0abd
00000170: befa 96bc 4dd5 203d 02bb 11bd d36c 29bc
00000180: 1065 6dbc 05d2 bf3c 6338 bd3c dae5 33bb
00000190: 5254 2e3d 50f8 10bd 4af0 2e3d 923d 2cbd
000001a0: 40c7 ebbc 191d 85bc 0ebf d53c 7769 1f3d
000001b0: 502e 1b3d 12a9 1fbd d397 f13c a4a3 1cbd
000001c0: 6821 ee3c db0e ba3b ba40 92bc 0ed0 aa3b
000001d0: b724 123d 2a9f 0ebd 97e3 103c 1be6 03bc
000001e0: 5344 5dbc 2d82 2cbd c0ff a33c 7cdd c93c
000001f0: 7c8a 203d b79c 7bbb 370b 313d a110 d338
00000200: 4f8a 1abc fe3e d1bc 6476 213d 3ca8 1a3d
00000210: 7946 9c3b ac54 d03c 5a9a 20bd a5dc 813c
00000220: 5bc5 4dbb a205 bbba 0df3 82bb d9ae 11bc
00000230: 37cc 9c3b b3c1 1e3d 3db2 17bc 7961 23bc
00000240: 0b73 0dbd b25d 333d fa39 413c ca48 7dbc
00000250: 8251 fb3a 8d96 a9bc accd f2bc 9325 8dbb
00000260: 67ab 13bd 2b4d dbbc a198 f23c 4c5f 523c
00000270: 4989 70bc dbd6 c03c b88c f5bc b9ca 02bd
00000280: 8dbd 293d a1e8 f0bc b48b 1e3d 3998 12bd
00000290: 19ab b9bc f8cd 63bc a42d f9bc 4a96 07bd
000002a0: a9dd a63c 7f42 63bc 7627 e2b9 3e30 293c
000002b0: d4d7 39bc 2efb 07bd d508 38bc 6dca 1ebd
000002c0: dd90 e6bb 9692 963c 50f2 05bd b39e dabc
000002d0: d767 283d ae9f c83c c30a 27bd c596 18bd
000002e0: 7827 34bd a2b2 81bc 1b76 043c accb 12bd
000002f0: 6a25 103d c823 193d a8f0 06bb 40a2 e7bc
00000300: 8766 2e3d 7c79 8e3b 3fd0 50bb ca4a 66bc
00000310: 4417 613c 168c 243d a91e 273d 1bc7 a2bb
00000320: 23c6 24bc 18c5 c83c f30f 983c 27be 64bc
00000330: 8e55 b0bb e2f7 11bd 16cd ac3c b760 263d
00000340: df86 a43a fade d63c 1e3f 923c a9dc 213d
00000350: b5fc b93c 2d3e d739 c6ef f7bc 82ba 0fbc
00000360: 81bc 253d 6d1e afbb 48b4 31bc 8c6f 2dbd
00000370: 8444 0ebc 422d 12bd fc8e 1a3b b4db 9e3c
00000380: a05e 073d 08d7 97bb dafe 18bd db7a 8bbc
00000390: 2c0d 4ebc d340 debc 70af 0c3d bdaa 2a3c
000003a0: 2d96 df3b b9b9 a3bc 692b 53bc 5baa a73c
000003b0: 1bd9 d73c 0313 243d 74da 10bc 161d b13c
000003c0: a4cb 033d a80e 993c a1bf 83bb e906 c63b
000003d0: d05f 1c3d f7dd 8bbc 66ac be3a 14d9 f4bc
000003e0: 8cca 47bc d83a 093d 3441 dc3c fdb6 dabc
000003f0: 5d51 01bd 382e f33c 6713 363c 0f74 903c

base_model.model.gpt_neox.layers.2.attention.query_key_value.lora_B.weight f4 [1536, 16]
-1.8232131e-05 4.1222367e-05 -9.765872e-06 2.681321e-05 3.48797e-06 -1.5725833e-05 9.274004e-06 2.2213337e-05
-1.638319e-05 3.475131e-05 -7.1118325e-06 9.758229e-06 2.1849635e-05 1.426356e-05 2.5839443e-05 -1.5731424e-05
1.1644247e-05 -7.6244e-06 3.4854525e-06 -1.0107637e-05 1.1600711e-05 -5.9964408e-05 -8.4613123e-07 1.0130957e-05
-3.1399193e-06 4.3500004e-05 -3.724257e-05 -1.3595636e-05 1.5385618e-05 3.144526e-06 9.607118e-06 -1.987016e-05
2.2363623e-05 -3.5110847e-05 -1.1446858e-06 -2.6627247e-05 -5.1989937e-05 3.2750107e-05 -2.2365388e-05 2.4487012e-05
3.7105558e-05 -2.6838912e-05 -3.4466724e-05 3.0618223e-05 -3.4759523e-05 4.7763833e-06 -1.9874744e-05 7.419047e-06
-2.1854663e-05 4.3433312e-05 -6.82316e-05 2.1653623e-05 -1.539636e-05 3.7104423e-05 -1.6229018e-05 -2.6640662e-05
-8.90582e-06 4.720131e-05 -2.2356315e-05 1.3751529e-05 -1.1610019e-05 1.5738522e-05 1.1605998e-05 6.0456325e-05
-2.2855262e-05 -5.9914226e-05 2.6500868e-05 6.872122e-05 6.443338e-05 -3.333194e-05 -2.433657e-05 -5.4882717e-06
-1.0727051e-06 -3.888055e-05 -2.200011e-05 -6.259836e-05 6.892628e-05 1.3389994e-05 1.6225893e-05 -5.020275e-05
7.911398e-06 3.8603754e-05 -1.5740534e-05 -3.959266e-05 -5.465161e-06 2.634067e-05 1.35940745e-05 -3.0478901e-05
4.8352977e-05 1.971654e-05 -3.326512e-05 -1.339261e-05 -3.908916e-05 -1.5888345e-05 1.9869145e-05 3.2958866e-05
-1.2780918e-05 3.3390515e-06 3.7101578e-05 6.922491e-05 3.7603746e-05 -2.669739e-05 -4.15936e-05 1.3214966e-05
-2.4502335e-05 -1.17142245e-05 -9.812271e-06 -5.476112e-06 1.224972e-05 -1.0112213e-05 3.958231e-05 -5.895676e-05
-3.894196e-05 3.06185e-05 -2.6645148e-05 6.4134736e-07 2.3848317e-05 -1.3747395e-05 -2.3361343e-05 -2.8975915e-05
5.827383e-06 1.623675e-05 -1.5387146e-05 -5.811623e-05 9.1123475e-06 2.0983272e-05 4.567859e-05 -3.445344e-05
-2.6700418e-05 -2.6000982e-05 -5.7630237e-05 5.6347826e-06 1.6095639e-05 -1.4895447e-06 3.8760438e-05 -5.0497238e-05
-1.1256181e-05 6.2104256e-05 4.7336016e-05 2.002547e-05 1.37344905e-05 4.5372675e-05 3.546257e-05 -7.6102224e-06
-7.767534e-06 -1.8363286e-05 -1.7878854e-05 5.2000218e-05 -5.0325675e-06 1.3247201e-06 7.1260683e-06 -1.1758026e-05
3.7077403e-05 5.2903715e-06 -3.4611163e-05 4.5865843e-05 -1.774337e-05 5.125898e-06 5.616601e-06 3.139955e-06
9.970541e-07 2.265581e-05 1.1752522e-05 -2.716125e-05 3.21242e-05 -2.5997026e-05 -1.5733282e-05 3.058988e-05
2.2141006e-05 -1.374178e-05 3.9582206e-05 -2.4998226e-05 2.8484565e-05 -1.3389354e-05 -2.6697175e-05 -1.6244849e-05
-9.255393e-06 2.6202904e-05 -6.225396e-05 -1.359256e-05 -4.2732485e-05 7.7343655e-05 2.6002945e-05 -2.6497939e-05
5.9784516e-06 -1.0093121e-05 2.251647e-05 5.598139e-05 -7.7210636e-05 1.7873685e-05 2.6487878e-05 4.540269e-05
-4.481515e-06 -1.34441225e-05 2.5998992e-05 4.089266e-05 5.597776e-05 -2.8139402e-05 -1.0947323e-05 -3.2119504e-05
-6.9223393e-06 -4.9204978e-06 -7.96392e-05 -3.4648026e-05 1.32458545e-05 -3.2620475e-05 1.573552e-05 -5.1494782e-05
-2.232714e-05 3.5253604e-05 5.1506373e-05 2.008234e-05 3.662144e-05 -1.7736715e-05 -2.2215338e-05 3.2961445e-05
2.788318e-06 -4.935786e-05 -7.630323e-06 -6.2101135e-05 2.8383984e-06 -4.9859e-05 4.7854384e-05 -2.6342892e-05
7.761773e-06 5.84891e-05 -2.2356571e-05 -3.9449653e-05 3.7242193e-05 -7.262159e-06 -9.270317e-06 -2.8456756e-05
-2.786906e-06 -1.1482e-06 5.1223446e-06 1.8238257e-05 3.1393477e-06 2.0377316e-05 3.6594018e-05 4.5713758e-05
2.8800012e-05 -2.8480294e-05 -2.6789512e-05 1.5728841e-05 -2.266009e-05 7.632188e-06 1.6389831e-05 1.7735769e-05
3.4962464e-05 -3.0485391e-05 9.608966e-06 -2.4510193e-05 -2.6495341e-05 3.7401987e-05 -2.9278302e-05 -1.1348803e-06
00000000: 34f1 98b7 2ee6 2c38 1ad8 23b7 eeec e037
00000010: de12 6a36 f8ea 83b7 8b97 1b37 c756 ba37
00000020: a26e 89b7 efc1 1138 2da2 eeb6 46b7 2337
00000030: bc49 b737 864d 6f37 c8c1 d837 faf6 83b7
00000040: a95b 4337 19d5 ffb6 9ee7 6936 f893 29b7
00000050: ada0 4237 4b82 7bb8 b221 63b5 21f8 2937
00000060: 67b7 52b6 c673 3638 e834 1cb8 d018 64b7
00000070: 5d10 8137 8c06 5336 422e 2137 d8ae a6b7
00000080: 8499 bb37 fc43 13b8 1ba3 99b5 945d dfb7
00000090: c50f 5ab8 295d 0938 4e9d bbb7 7569 cd37
000000a0: caa1 1b38 2024 e1b7 5d90 10b8 116c 0038
000000b0: c1ca 11b8 d244 a036 b0b8 a6b7 21f1 f836
000000c0: 8854 b7b7 2a2c 3638 9017 8fb8 cda4 b537
000000d0: 6e27 81b7 92a0 1b38 8d23 88b7 637a dfb7
000000e0: 356a 15b7 05fa 4538 d289 bbb7 5eb6 6637
000000f0: a7c8 42b7 3806 8437 62b7 4237 7c92 7d38
00000100: 4db9 bfb7 694c 7bb8 2e4e de37 6d1e 9038
00000110: 6820 8738 e6cd 0bb8 6326 ccb7 e527 b8b6
00000120: def9 8fb5 ac13 23b8 e08c b8b7 3d47 83b8
00000130: 848c 9038 96a5 6037 d71c 8837 cb90 52b8
00000140: 32bb 0437 77ea 2138 8a0a 84b7 4c10 26b8
00000150: 6061 b7b6 28f6 dc37 1b12 6437 f1ac ffb7
00000160: 9dce 4a38 f264 a537 2786 0bb8 d2b0 60b7
00000170: aaf3 23b8 f647 85b7 aaac a637 503d 0a38
00000180: a06d 56b7 7814 6036 849d 1b38 d72c 9138
00000190: b7b8 1d38 35f4 dfb7 ca74 2eb8 d9b5 5d37
000001a0: 5d8a cdb7 3688 44b7 629f 24b7 72bf b7b6
000001b0: 2684 4d37 a0a7 29b7 2f05 2638 5748 77b8
000001c0: 9c55 23b8 5d6c 0038 0584 dfb7 0e29 2c35
000001d0: df0d c837 9da4 66b7 1af8 c3b7 4e11 f3b7
000001e0: d788 c336 2834 8837 a513 81b7 d4c1 73b8
000001f0: 3ce1 1837 3c05 b037 0397 3f38 1982 10b8
00000200: b6fa dfb7 af1c dab7 ffb7 71b8 6a12 bd36
00000210: 1f05 8737 5eec c7b5 b492 2238 ffcc 53b8
00000220: eed8 3cb7 f83d 8238 a98a 4638 5ffc a737
00000230: 306d 6637 8a4e 3e38 a5bd 1438 505b ffb6
00000240: 4e51 02b7 db0a 9ab7 8cfa 95b7 cf1a 5a38
00000250: 6ddd a8b6 09cd b135 761c ef36 5644 45b7
00000260: 8f83 1b38 f283 b136 742b 11b8 1360 4038
00000270: 99d7 94b7 21ff ab36 3c76 bc36 04b8 5236
00000280: 85d2 8535 fb0c be37 b32c 4537 57d8 e3b7
00000290: 19bd 0638 3014 dab7 f7fa 83b7 a24d 0038
000002a0: 73bb b937 7f8c 66b7 1205 2638 48b3 d1b7
000002b0: 23f2 ee37 d6a2 60b7 bff3 dfb7 8c45 88b7
000002c0: 9c47 1bb7 4fce db37 578e 82b8 9a0b 64b7
000002d0: a83b 33b8 8f33 a238 e620 da37 e447 deb7
000002e0: 829a c836 a055 29b7 c0e1 bc37 8fcd 6a38
000002f0: 25ec a1b8 72ef 9537 4932 de37 c46e 3e38
00000300: ec5f 96b6 118e 61b7 6918 da37 2984 2b38
00000310: aac9 6a38 e80c ecb7 65aa 37b7 0eb8 06b8
00000320: 7146 e8b6 c11a a5b6 f803 a7b8 0953 11b8
00000330: 833a 5e37 f8d1 08b8 c6ff 8337 1afc 57b8
00000340: 2b4b bbb7 45dd 1338 8c08 5838 7f76 a837
00000350: f999 1938 4ec9 94b7 135b bab7 1540 0a38
00000360: f01e 3b36 9905 4fb8 fd03 00b7 4b3c 82b8
00000370: 507b 3e36 b21f 51b8 41b7 4838 eefa dcb7
00000380: 9038 0237 3152 7538 5f8a bbb7 be76 25b8
00000390: 8034 1c38 79ad f3b6 b587 1bb7 6bb6 eeb7
000003a0: ae06 3bb6 da1b 9ab5 9be0 ab36 5cfe 9837
000003b0: 95ad 5236 f4ef aa37 877c 1938 c6bc 3f38
000003c0: 8e97 f137 f7e8 eeb7 0aba e0b7 6ef1 8337
000003d0: 2c16 beb7 ff0b 0037 e57c 8937 46c7 9437
000003e0: a9a4 1238 e1ba ffb7 3236 2137 3d9b cdb7
000003f0: 5042 deb7 14e0 1c38 ad9a f5b7 3152 98b5

base_model.model.gpt_neox.layers.3.attention.query_key_value.lora_A.weight f4 [16, 512]
-0.0027995666 0.011965006 -0.0077329515 -0.03696038 -0.012387226 -0.038218893 -0.0005363677 0.03593569
0.0058521056 -0.011758928 0.008005134 0.016748963 0.016371356 0.038674925 0.034052476 -0.004899001
0.025432743 0.03654919 -0.039647214 -0.0387013 -0.016501125 0.0057453536 0.02565475 0.04318344
-0.0030289036 0.02112365 0.027526297 0.016331233 -0.00065128494 -0.031215383 -0.005856502 0.03257104
-0.04088308 -0.019065585 0.021345679 0.03413163 0.009454536 0.039119344 -0.04308585 0.02310604
-0.042750634 0.0010465665 -0.004220167 -0.0055011115 -0.0076591666 0.024832657 0.00467563 -0.02067802
-0.040955365 -0.004397058 -0.0043361443 -0.010243699 0.000740405 0.0059970324 -0.022795258 -0.007859672
-0.017260963 -0.029811056 -0.0033982396 0.043943834 0.042013325 -0.031074991 0.03621252 -0.021533178
0.026041027 -0.02237574 0.027661996 0.008867791 0.020379288 0.020970346 -0.04186865 -0.009134632
0.032536544 0.0020385429 0.041601993 0.020472717 -0.03162173 0.023352776 0.0047775884 0.026782166
-0.042608228 0.0056030843 0.020700378 -0.0338023 0.02080317 -0.043450493 0.014376762 -0.042627446
0.023154635 0.010942885 0.029693993 -0.019703101 0.006320161 -0.033391334 -0.02854121 -0.032153647
0.036734916 0.018559698 0.033139057 -0.035659403 0.037692808 -0.03529913 -0.0042564166 0.040296376
-0.016446231 -0.041934006 0.024286991 -0.0145360585 0.039169483 -0.018409587 0.032537416 -0.020397885
0.00914694 0.030673763 0.0013834838 0.0032917813 0.035747252 0.035117432 0.028974414 0.035771027
-0.039216638 0.022838978 -0.028158588 -0.0053485893 0.040332887 0.010070581 0.02810634 -0.008327221
0.027233414 -0.024274418 -0.0026315833 0.042527255 0.03424869 0.01692517 -0.017343374 0.03271698
0.01898944 -0.03400881 0.004074305 0.025720026 0.023682319 -0.0065419287 0.032827277 0.019203536
-0.025357213 0.0013933191 0.0145871015 0.023937156 0.035039596 0.014581148 0.009601906 0.023274587
-0.03566378 -0.002503354 -0.0006824868 -0.0100715095 0.010864152 -0.042455785 -0.011782763 -0.0034982048
0.030612465 -0.010479743 -0.04415985 -0.020843351 -0.008091101 -0.0046808445 0.020955289 0.03143212
-0.0031007435 -0.010370283 0.029374594 0.027099885 -0.013447215 0.02254368 0.022791024 -0.018516015
0.005735515 -0.008761619 0.028054597 0.021913378 0.033160567 0.0025062396 -0.03428391 -0.041891225
0.04103072 0.007410902 -0.01813938 0.004112803 -0.037160516 0.001368777 0.04357653 -0.04066901
0.04090628 0.010808811 0.03417596 0.019655226 0.01354706 0.004766901 0.023390396 0.023407798
0.019568091 -0.03300216 -0.009193789 0.021434627 0.030094804 0.03082171 -0.0050189076 0.042794086
0.0050779986 0.0029555256 -0.036171384 -0.0394033 0.044106893 0.0058254222 0.00730964 0.0025452634
-0.028271576 0.033592407 -0.042355575 0.00052718975 -0.015655713 0.016922995 0.038417198 0.016195893
-0.014821084 0.008488095 0.010812648 0.033382725 0.0042551504 0.02446254 -0.011773993 -0.030899096
0.0061914306 0.0030594536 -0.017149715 0.03263808 0.020160496 0.026252339 0.027704883 -0.029013744
-0.037629366 -0.03337831 -0.03415785 -0.016935334 -0.02200712 -0.01731265 0.019093208 0.03760508
-0.010451977 -0.020164607 0.022283081 -0.0076656505 -0.02513661 0.035915107 -0.0049724216 0.041807365
00000000: ef78 37bb df08 443c b364 fdbb c463 17bd
00000010: cbf3 4abc 6a8b 1cbd 079b 0cba 4d31 133d
00000020: 05c3 bf3b 85a8 40bc f727 033c 1f35 893c
00000030: 391d 863c 9969 1e3d 9c7a 0b3d cd87 a0bb
00000040: 5458 d03c 9ab4 153d 1e65 22bd 4185 1ebd
00000050: 5e2d 87bc 8543 bc3b e929 d23c 1ee1 303d
00000060: 9280 46bb 810b ad3c d47e e13c 14c9 853c
00000070: feba 2aba 67b7 ffbc e6e7 bfbb 3669 053d
00000080: 0475 27bd 6e2f 9cbc 22dd ae3c 9ccd 0b3d
00000090: 33e7 1a3c 9b3b 203d ca7a 30bd e148 bd3c
000000a0: 4a1b 2fbd f22c 893a 5449 8abb ab42 b4bb
000000b0: bff9 fabb db6d cb3c 0736 993b f364 a9bc
000000c0: d0c0 27bd 3215 90bb 3716 8ebb 30d5 27bc
000000d0: bd17 423a c182 c43b 1fbd babc dbc5 00bc
000000e0: dd66 8dbc 5136 f4bc 00b5 5ebb 73fe 333d
000000f0: 2a16 2c3d fb90 febc 9453 143d 5966 b0bc
00000100: fe53 d53c 544d b7bc 699b e23c 364a 113c
00000110: 77f2 a63c 01ca ab3c 767e 2bbd 6ca9 15bc
00000120: 0a45 053d 1399 053b da66 2a3d 66b6 a73c
00000130: ca85 01bd 524e bf3c 518d 9c3b 4666 db3c
00000140: f785 2ebd 149a b73b d793 a93c 4874 0abd
00000150: 696b aa3c 25f9 31bd 838c 6b3c 1e9a 2ebd
00000160: caae bd3c c949 333c d140 f33c 6668 a1bc
00000170: 5a19 cf3b 5ac5 08bd 41cf e9bc 8bb3 03bd
00000180: 5a77 163d 820a 983c d2bc 073d 980f 12bd
00000190: c663 1a3d d295 10bd 6979 8bbb d00d 253d
000001a0: 3fba 86bc fec2 2bbd 83f5 c63c a628 6ebc
000001b0: 2e70 203d b4cf 96bc f445 053d 7719 a7bc
000001c0: 0cdd 153c 8b47 fb3c 0356 b53a edba 573b
000001d0: b66b 123d 4cd7 0f3d c05b ed3c a484 123d
000001e0: a0a1 20bd cf18 bb3c d7ac e6bc 3843 afbb
000001f0: 1934 253d 14ff 243c 443f e63c e56e 08bc
00000200: 9c18 df3c 25db c6bc a476 2cbb 0f31 2e3d
00000210: 5b48 0c3d a7a6 8a3c b113 8ebc 3d02 063d
00000220: be8f 9b3c d24c 0bbd bf81 853b ceb2 d23c
00000230: 6c01 c23c ad5d d6bb e575 063d bc50 9d3c
00000240: eeb9 cfbc 08a0 b63a bdfe 6e3c db17 c43c
00000250: ae85 0f3d c4e5 6e3c 5051 1d3c 59aa be3c
00000260: 2f14 12bd 500f 24bb eae8 32ba f902 25bc
00000270: 8eff 313c 1ee6 2dbd 7d0c 41bc 2342 65bb
00000280: fec6 fa3c 3ab3 2bbc f5e0 34bd adbf aabc
00000290: 8a90 04bc c561 99bb 6daa ab3c f7be 003d
000002a0: d835 4bbb 1fe8 29bc fda2 f03c 9400 de3c
000002b0: b551 5cbc 86ad b83c 3eb4 ba3c e6ae 97bc
000002c0: fdf0 bb3b e58c 0fbc c1d2 e53c af83 b33c
000002d0: 60d3 073d b93f 243b 496d 0cbd 2296 2bbd
000002e0: d40f 283d 27d7 f23b 0999 94bc b1c4 863b
000002f0: a035 18bd 8968 b33a 4e7d 323d 8c94 26bd
00000300: 588d 273d 7017 313c 17fc 0b3d ff03 a13c
00000310: 7df4 5d3c aa33 9c3b 379d bf3c b6c1 bf3c
00000320: 434d a03c 462d 07bd 8ca1 16bc ac97 af3c
00000330: 6189 f63c d07d fc3c a675 a4bb da48 2f3d
00000340: 5765 a63b 7eb1 413b 7228 14bd 5b65 21bd
00000350: 6ea9 343d 2fe3 be3b b485 ef3b 6fce 263b
00000360: cb99 e7bc 3198 093d 0a7d 2dbd 1b33 0a3a
00000370: 6940 80bc 18a2 8a3c 5a5b 1d3d 40ad 843c
00000380: 22d4 72bc a711 0b3c 8827 313c 53bc 083d
00000390: ca6e 8b3b aa65 c83c b5e7 40bc 1a20 fdbc
000003a0: 7ce1 ca3b 1d81 483b 8f7d 8cbc 82af 053d
000003b0: a027 a53c 250f d73c 5af5 e23c 3bae edbc
000003c0: 4021 1abd b2b7 08bd 1ae9 0bbd f8bb 8abc
000003d0: 4748 b4bc 42d3 8dbc 5c69 9c3c c907 1a3d
000003e0: c53e 2bbc 3f30 a5bc 028b b63c 2330 fbbb
000003f0: 4beb cdbc b81b 133d b2ef a2bb 333e 2b3d
