FederatedLLM/FT_lite/my_fl_model/checkpoint-1/adapter_model.safetensors (safetensors, 788168 bytes, 12 tensors)

base_model.model.gpt_neox.layers.0.attention.query_key_value.lora_A.weight f4 [16, 512]
00000000: 9b5e 28bd ca5c 99bc 9d37 a1bc 0df2 133d
00000010: 5f52 023d d4a9 f73c 25aa 73bc 3b6d 09bc
00000020: faf8 33bd b190 fb3c 82ff 9dbc 68da 223d
00000030: f1d0 423c d2cb 4d3c f067 263d b23b 4fbc
00000040: 5d50 40bc 05af 55bc ee86 333d c98d d8bc
00000050: c2d6 cd3c e430 253b 6613 0ebd 1590 6e3b
00000060: be94 00bd ab36 c9bb 91c7 2d3d a37f 0abc
00000070: 562b 10bd 92e2 29bd b1d1 61ba 3e6c 0bbc
00000080: f379 19bd 8709 ef3c 64be 17bd d73b 55bc
00000090: 282b 07bd d9f8 d73b 0aa0 e03c 428d 87bc
000000a0: 04f3 19bd 85f1 d5bc a124 123d b64d 003d
000000b0: 0914 1a3d a295 043d e371 2a3b 4b8a d7bc
000000c0: e037 bcbc 99e2 1b3d 85a6 ca3c 5a85 a13c
000000d0: 9b00 09bc e46a e23b 3037 1d3d 36fc 1cba
000000e0: 0693 99bc d738 50bc bbb9 9a3c 0181 593c
000000f0: b92f c73b f4f5 f43c f84c d8bc fe6e f3bc
00000100: eb85 2d3d aabf bf3c 44f8 81ba 8973 b53c
00000110: 3252 8e3c 3ea8 323c 9b12 00bb fea5 d03b
00000120: 49ae 633c aa6d c93c e3ed 5cbc 06e3 cb3c
00000130: a839 a4bc 1415 02bd 5669 f0bc 6c83 2d3d
00000140: 0256 1f3d 9679 31bd 3a04 133d 6e95 1ebd
00000150: 4c5d cfba 3601 043d 7a23 8dbc 81fb 0b3d
00000160: db24 96ba 16de 1fbc 4205 173d 2395 adbc
00000170: c8fb 72bc 59d6 05bd 71fc 033d 5371 d43c
00000180: bdce 18bd 7b99 64ba d0af e53c 96fa ddbc
00000190: af3c 8dbc 0705 2cbc 7b45 0e3d eda8 b9bc
000001a0: 40f9 563c c25d 0d3d bb02 773c 20d4 32bc
000001b0: e67b 253d c7d5 783c d5a9 4c3a 29cd fbbc
000001c0: 4e18 bebc b27d aa3c feef fcbc 28ba 27bd
000001d0: 40ea 333c 73d5 213c 10d6 23bc 243f b6bc
000001e0: e902 133d e1a0 2fbd 7141 32bd bf24 92bb
000001f0: 6fbc 8b3c ebf1 0cbc 11fe 933c 92b0 a13c
00000200: bbbb c83b d93f 03bd 0cea 1bbc 40fc 693a
00000210: a177 eebc 7ef7 bfbc 3b4b f43c 89d2 b73b
00000220: 16a8 47bc 9fbb 8dbc 3834 dbbc e0f2 043d
00000230: b9bc 2cbd 2ba9 b63c 03ee 0f3d 3ace 33bd
00000240: 9141 3b3c efda 9b3c eccc 21bc 5050 6e3b
00000250: 78b8 eebc 3293 5abc 2de8 28bc e178 143c
00000260: d865 313d 61e0 b33c cda5 283d 3e06 c2bc
00000270: 669f 243c 062d 853c 3c80 0c3d 7438 98bc
00000280: d09c 2ebd 3336 db3c 223d b73c 9e23 28bc
00000290: 4415 da3c 78e4 4ebc de09 953c 45a0 03bc
000002a0: a9c4 d83a f4b3 b23c 3d07 ac3c b3c9 30bd
000002b0: 9ce9 023d fed3 de3c 9cbb 893c e6ac c8bc
000002c0: c1f8 3dbc ba30 d93a 6d12 1f3d 46d3 61bc
000002d0: d104 c73c e180 8dbb fed0 7e3c db7e 6a39
000002e0: 9651 f8bc 5932 2b3d 95e0 d93c 9614 af3c
000002f0: d1b5 40bc 6e42 dcbc ddab 953c 72bd 023d
00000300: 3b7f 9e3a b6b3 59bc 91df 003d 4e16 3ebc
00000310: dc97 ea3c 1561 01bd 7f0b 0fbd 146e fabb
00000320: 205e 08bd e1dd 6ebb 090f 583c 73e8 013b
00000330: 9ac5 a6b8 0ceb a3bc f99d ed3c 66d4 f63c
00000340: e6a0 b3bc 0e89 19bd 872d eb3c c0cb b73c
00000350: 8dd5 e63c 5baf 0b3c db67 d43b b4aa 783c
00000360: 428c a0bc 50c3 02bd 6ae0 33bd 0685 c1bb
00000370: 6f67 6dbc 0cfe 10bd d5ac a3bb 1fbf ffbc
00000380: bcb2 9c3c 7458 cd3c cbef 44bc df6b 323d
00000390: cbe6 a9bc dcb5 8fbc bf35 41bc 59ef 30bd
000003a0: 2959 143c b3c9 d73b cc0e 50bb af99 033c
000003b0: 1b0c 2dbc 82d1 04bd 5567 5739 f8bd 433c
000003c0: 3b02 fcbb 8509 2a3c 4b26 aabc 06b4 2dbd
000003d0: 089b babc afae 36bc 4694 093d c9d1 093d
000003e0: 9fff 2a3d 2596 99bc d420 833c 1e00 9e3a
000003f0: 9cb8 1b3a 58a0 2c3d 005e 3f3b 8007 28bc
-0.041105848 -0.018721003 -0.019679839 0.03611951 0.031816836 0.030232348 -0.014872109 -0.008387859
-0.043938614 0.030708643 -0.019286875 0.03975907 0.011890636 0.012560802 0.040626466 -0.01264851
-0.01173791 -0.013042216 0.04382985 -0.026434796 0.025126819 0.0025206143 -0.03468647 0.0036401798
-0.03139185 -0.00614055 0.04242665 -0.0084532825 -0.03519758 -0.04147584 -0.00086143153 -0.008509694
-0.037469815 0.029179348 -0.037046805 -0.013014755 -0.03300014 0.0065909442 0.027420063 -0.01654685
-0.037585273 -0.026116142 0.035679463 0.03132411 0.037616763 0.032369263 0.0026007823 -0.02631106
-0.022975862 0.038057897 0.024737606 0.019716907 -0.008361961 0.006909715 0.03838271 -0.000598851
-0.018746864 -0.012708864 0.018887391 0.013275386 0.006078687 0.029902436 -0.026403889 -0.029716011
0.042364042 0.023406822 -0.0009915908 0.022149818 0.017373178 0.01090437 -0.001954234 0.006367444
0.013896533 0.024588425 -0.013484451 0.024888527 -0.020047024 -0.031758383 -0.029347103 0.04236166
0.038900383 -0.043328844 0.035892703 -0.038716726 -0.0015820651 0.032227717 -0.01722883 0.0341754
-0.0011455076 -0.009757539 0.03687025 -0.021189278 -0.014830537 -0.03267512 0.03222317 0.025932943
-0.037306536 -0.000872038 0.028037935 -0.027097028 -0.01724085 -0.0104992455 0.03473423 -0.022663558
0.013120949 0.034513243 0.015076335 -0.010914832 0.040401362 0.015187687 0.00078072894 -0.030737476
-0.023204949 0.02081189 -0.030876156 -0.040949017 0.0109811425 0.00987755 -0.009999767 -0.022246905
0.035891447 -0.042878035 -0.04351944 -0.004459947 0.017057626 -0.0086026 0.018065484 0.019737516
0.006125895 -0.03204331 -0.00951625 0.0008925833 -0.029109778 -0.023433443 0.029821029 0.0056098145
-0.012186071 -0.017301379 -0.026758298 0.032458186 -0.042172167 0.022297462 0.035139095 -0.043897845
0.0114292065 0.019025294 -0.009875517 0.0036363788 -0.029140696 -0.013340758 -0.010309261 0.009062023
0.043310016 0.021957578 0.041173745 -0.023684617 0.010047769 0.01625682 0.03430198 -0.018581606
-0.042630017 0.026759243 0.022368018 -0.010262398 0.026621468 -0.012627713 0.018193182 -0.008033817
0.0016538101 0.021814324 0.020999545 -0.043161105 0.03196107 0.027200695 0.016813092 -0.024496507
-0.011594952 0.0016570308 0.03883593 -0.013783282 0.024294289 -0.004318342 0.015552757 0.00022363236
-0.03031234 0.041796062 0.026596347 0.02137212 -0.011762098 -0.026887145 0.018270427 0.03191895
0.0012092361 -0.013287475 0.03146321 -0.011601998 0.028636865 -0.031586725 -0.034923073 -0.007642517
-0.03329289 -0.0036448168 0.013187178 0.0019822388 -7.952303e-05 -0.02000954 0.029005991 0.030130576
-0.021927308 -0.03748422 0.028708233 0.022436023 0.028178 0.008525695 0.006482107 0.015177418
-0.01959813 -0.031924546 -0.04391519 -0.00590575 -0.0144899925 -0.035398528 -0.0049949684 -0.031219063
0.019128196 0.025066592 -0.012020062 0.043559905 -0.020739933 -0.017542772 -0.011792599 -0.04319701
0.009054461 0.0065853237 -0.00317471 0.0080322465 -0.010561968 -0.032426365 0.00020542492 0.011947148
-0.0076906956 0.010378246 -0.020770213 -0.04240801 -0.022779003 -0.011150046 0.03358867 0.033647332
0.041747686 -0.018748352 0.016006865 0.0012054478 0.00059402897 0.042145103 0.0029200315 -0.010255694

base_model.model.gpt_neox.layers.0.attention.query_key_value.lora_B.weight f4 [1536, 16]
00000000: 68a5 84b8 b652 8cb7 476a 3ab7 8dd4 d537
00000010: 7be5 4c38 12e8 4cb8 d0e8 d537 18e8 4cb8
00000020: e0ea b1b7 c874 1d36 f4fd b1b7 3057 0fb6
00000030: 1056 1036 09b2 d537 403b d6b7 9dd0 4cb8
00000040: b868 3a37 cee9 4c38 a1ef 4cb8 ce60 3ab7
00000050: ca84 4d37 4e54 b037 1875 deb6 8a64 3ab7
00000060: 4c6f de36 34a6 84b8 7c53 1538 d08e 10b6
00000070: 34f8 dd36 c018 3ab8 5689 4db7 e0a6 0fb6
00000080: 1f7d fbb7 610a 8e38 1e19 3ab8 d0da d537
00000090: fc26 deb6 c4ea 4c38 a551 b0b7 0c5d 8c37
000000a0: ce69 4db7 bef9 d537 606c 0fb6 d672 fb37
000000b0: 86f1 4c38 2872 0fb6 88be 0f36 15f3 d5b7
000000c0: ea76 4db7 205c 1538 8e8b fb37 ec7b deb6
000000d0: f5e0 d537 a074 deb6 27e8 d537 795f 8cb7
000000e0: 00ec 4c38 a2e4 4cb8 a2eb 4c38 00a7 d5b7
000000f0: 50be 0fb6 3980 fb37 2887 fb37 72b4 d5b7
00000100: 2c7f fbb7 bf2d 28b8 d840 deb6 ec8b fb37
00000110: 2c72 de36 f266 3a37 8aa2 84b8 f4da d5b7
00000120: c5e9 d5b7 a6e8 4c38 a8d8 d5b7 9c0f 8e38
00000130: f46d 8c37 c868 3ab7 7872 deb6 cc77 deb6
00000140: caeb 4c38 48d4 d5b7 74d9 d537 f6da d5b7
00000150: 3ca8 de36 2012 deb6 d41d de36 8470 fb37
00000160: 5074 97b8 d7e5 4c38 d6d9 d537 4802 bfb8
00000170: e0f7 d5b7 c7f3 d537 289e 1036 bebd d537
00000180: 127f fb37 049b 8438 02ed d537 ecd7 d5b7
00000190: 24f3 d537 e17d fbb7 971b 3a38 30fd dd36
000001a0: c84b 1db6 2867 0fb6 c807 d637 a007 de36
000001b0: 8e0d 8eb8 aff3 d537 e386 fb37 481d 3a38
000001c0: 540b 8eb8 580b 8e38 e75d 8c37 eef0 4cb8
000001d0: 1a5f b0b7 bd09 8e38 f0ea 4c38 5812 deb6
000001e0: a41f 3a38 e0a0 84b8 f441 deb6 ee75 4db7
000001f0: 8943 b0b7 396c 8c37 9674 4db7 c46d de36
00000200: 0680 fb37 d01d 0fb6 b412 de36 2680 fbb7
00000210: a856 dd36 5810 deb6 84d7 d537 cf7f fb37
00000220: 4718 3ab8 e882 fbb7 3a80 fb37 43d5 d5b7
00000230: a318 3a38 8c1e de36 dcda d537 c016 0fb6
00000240: a42f de36 658a fbb7 247d fb37 98d7 ddb6
00000250: cc50 8cb7 ac0b deb6 0d85 fb37 e80c de36
00000260: b861 10b6 0adc d5b7 7eda d537 37f7 4c38
00000270: 49e7 d5b7 9bdb d537 9441 b0b7 08af d5b7
00000280: e8dd d5b7 1ae6 d537 6433 deb6 02e5 d537
00000290: 5875 deb6 2007 de36 7e52 7738 c27d fbb7
000002a0: d39c e638 9807 de36 bada d5b7 3cf4 51b8
000002b0: 5916 d6b7 f2da d5b7 a64f 7738 08e7 d537
000002c0: de74 fbb7 2b6c 8cb7 12ea d5b7 6eeb 4c38
000002d0: 1bea 4c38 3cec 4c38 ca9b b5b8 f0da d5b7
000002e0: 12a2 b5b8 a0e9 d537 46e9 d5b7 003f de36
000002f0: 4512 3a38 cc12 deb6 55e7 4cb8 16f2 d5b7
00000300: 02a3 8438 404c de36 2ee9 d5b7 c050 8cb7
00000310: 70eb 4c38 64e9 d537 7c6c 27b8 a03a deb6
00000320: 529d e6b8 9edf 4c38 f3e9 d5b7 9625 3ab8
00000330: 1864 1036 78e8 d5b7 4ce6 d537 c2f1 4cb8
00000340: 8c66 3a37 9cf6 d537 5768 8cb7 de49 4d37
00000350: b419 3a38 864e 2738 949e b538 c65f 8cb7
00000360: fc9d e638 fa19 3ab8 708e 0f36 8ee4 4cb8
00000370: 1327 3ab8 2846 de36 7cea 4c38 8f74 9738
00000380: cb66 3a37 80f6 d537 0b61 8cb7 808b fbb7
00000390: f874 deb6 0f67 3ab7 4ea3 8438 6f60 8cb7
000003a0: dea6 8438 f819 3ab8 8ddb d537 4804 1036
000003b0: 4826 3ab8 fc47 de36 3068 3a37 cf74 9738
000003c0: f875 deb6 162c 3ab8 2571 9738 0232 27b8
000003d0: 8671 97b8 0020 3ab8 07db d5b7 1da0 b538
000003e0: 6243 b0b7 e476 deb6 e5f5 d537 de78 4d37
000003f0: 5f1c 3a38 a625 28b8 4f5f 8cb7 edeb d537
-6.32506e-05 -1.6727816e-05 -1.1111209e-05 2.5490555e-05 4.885111e-05 -4.8853522e-05 2.549999e-05 -4.8853544e-05
-2.1209416e-05 2.3462799e-06 -2.12183e-05 -2.135941e-06 2.1507767e-06 2.5474483e-05 -2.5538378e-05 -4.8831676e-05
1.1110846e-05 4.8855138e-05 -4.8860562e-05 -1.1109003e-05 1.22498695e-05 2.1020092e-05 -6.629747e-06 -1.11098725e-05
6.6290722e-06 -6.325208e-05 3.560212e-05 -2.15408e-06 6.615208e-06 -4.4368906e-05 -1.2250928e-05 -2.1405795e-06
-2.9979796e-05 6.773021e-05 -4.4369248e-05 2.5493471e-05 -6.620654e-06 4.8856033e-05 -2.1018854e-05 1.6732629e-05
-1.2243587e-05 2.5507874e-05 -2.1371743e-06 2.9975006e-05 4.8862326e-05 -2.1375108e-06 2.1419564e-06 -2.5504773e-05
-1.2246639e-05 3.5610166e-05 2.9986517e-05 -6.630542e-06 2.5496332e-05 -6.6296925e-06 2.5499683e-05 -1.6733758e-05
4.8857182e-05 -4.885032e-05 4.885684e-05 -2.5469344e-05 -2.1419437e-06 2.998124e-05 2.9984469e-05 -2.5475605e-05
-2.998075e-05 -4.0096926e-05 -6.6236644e-06 2.9986688e-05 6.629407e-06 1.1110433e-05 -6.324526e-05 -2.5493537e-05
-2.5500436e-05 4.885406e-05 -2.5492467e-05 6.773995e-05 1.6740501e-05 -1.111086e-05 -6.6294415e-06 -6.6300618e-06
4.8856986e-05 -2.549043e-05 2.5492838e-05 -2.549354e-05 6.6357006e-06 -6.6182256e-06 6.619588e-06 2.9973926e-05
-7.221906e-05 4.8851445e-05 2.5493016e-05 -9.108015e-05 -2.5507004e-05 2.5505096e-05 2.1549731e-06 2.5479934e-05
2.9980703e-05 6.3231244e-05 2.5501944e-05 -2.5492125e-05 2.55048e-05 -2.9980149e-05 4.437155e-05 6.615788e-06
-2.3438934e-06 -2.1368705e-06 2.5514411e-05 6.6170032e-06 -6.7736124e-05 2.5505053e-05 2.9984343e-05 4.4373126e-05
-6.773198e-05 6.7732006e-05 1.6733027e-05 -4.8861773e-05 -2.102512e-05 6.7729015e-05 4.8856193e-05 -6.618251e-06
4.4375323e-05 -6.324216e-05 -6.6237935e-06 -1.224641e-05 -2.1012283e-05 1.6739696e-05 -1.2246097e-05 6.628894e-06
2.9981147e-05 -2.1326014e-06 6.618293e-06 -2.9981205e-05 6.5964014e-06 -6.6180182e-06 2.5491936e-05 2.9981047e-05
-4.4368466e-05 -2.998249e-05 2.9981242e-05 -2.5490886e-05 4.43688e-05 6.6196717e-06 2.5493493e-05 -2.1321903e-06
6.6216617e-06 -2.9985977e-05 2.9979805e-05 -6.6114117e-06 -1.6726925e-05 -6.6174744e-06 2.9983488e-05 6.617618e-06
-2.1514552e-06 -2.5494042e-05 2.5493322e-05 4.8867627e-05 -2.549928e-05 2.549384e-05 -2.1011372e-05 -2.5473084e-05
-2.5494912e-05 2.5498728e-05 -6.622098e-06 2.5498219e-05 -6.629776e-06 6.616945e-06 5.8966216e-05 -2.9980092e-05
0.000109964654 6.6169996e-06 -2.5493431e-05 -5.0056944e-05 -2.5521194e-05 -2.5493533e-05 5.8963567e-05 2.5499161e-05
-2.9975952e-05 -1.673967e-05 -2.5500576e-05 4.885665e-05 4.8855418e-05 4.88574e-05 -8.6597705e-05 -2.549353e-05
-8.6609405e-05 2.5500369e-05 -2.5500205e-05 6.6234497e-06 4.436287e-05 -6.618304e-06 -4.8852835e-05 -2.5504309e-05
6.324613e-05 6.6249922e-06 -2.5500161e-05 -1.6726903e-05 4.885666e-05 2.550026e-05 -3.9916937e-05 -6.6229404e-06
-0.00010996558 4.884565e-05 -2.550052e-05 -4.438086e-05 2.1515934e-06 -2.549983e-05 2.5498819e-05 -4.8862545e-05
1.111034e-05 2.5506415e-05 -1.6737888e-05 1.2236151e-05 4.4369794e-05 3.9889033e-05 8.66029e-05 -1.6733899e-05
0.000109966815 -4.437005e-05 2.139157e-06 -4.885025e-05 -4.4382246e-05 6.624283e-06 4.885577e-05 7.221952e-05
1.1110397e-05 2.5506364e-05 -1.673449e-05 -2.9986491e-05 -6.6297325e-06 -1.1110459e-05 6.324668e-05 -1.6734206e-05
6.325332e-05 -4.437004e-05 2.5493815e-05 2.1460164e-06 -4.4381508e-05 6.6244957e-06 1.1110722e-05 7.2219984e-05
-6.629849e-06 -4.4386914e-05 7.221316e-05 -3.9862476e-05 -7.2213865e-05 -4.4375658e-05 -2.5493571e-05 8.660576e-05
-2.1012213e-05 -6.6299563e-06 2.5506082e-05 1.2247094e-05 4.437228e-05 -4.0089384e-05 -1.6733682e-05 2.550144e-05

base_model.model.gpt_neox.layers.1.attention.query_key_value.lora_A.weight f4 [16, 512]
00000000: cbf8 a13c 39d7 12bd 01e5 093d 77d8 023d
00000010: dd26 e53c 2af8 263b 58c1 083d f45c 083d
00000020: b809 23bd 2eb0 adbc 9a6b 893c 4203 48bc
00000030: 1a88 aa3c 41df 60bc ad65 44bc a10b eabc
00000040: 2f24 323d 0ad4 0a3d cd69 993b 0a49 1ebc
00000050: cf17 c4bc eb06 0b3c 05a1 e63c 5bb9 1ebd
00000060: 4cf0 00bd 4652 353c 125f eebc 3528 fd3c
00000070: 1fd1 83bc 20e8 cbbc 9a90 06bd 768b f13c
00000080: cc8b 20bd 723e 25ba 6da5 0e3d dde9 9dbc
00000090: e674 03bd f862 6d3c 7d1f a3bc e519 dcbc
000000a0: 7637 b3bc 5402 303d 0427 a23c 3edd eb3c
000000b0: dc8b 91bb 0070 9b3c 4a56 b33a a98b 0abd
000000c0: b873 0d3d 68f0 123d 435c 0cbd 16ea 343d
000000d0: 797a d63c 9846 42bc 27fe c0bc c3d0 f2bc
000000e0: 0484 f9bc edbb dabc 95e4 ac3a b1b3 b6bc
000000f0: a36a 0fbd 0680 333d 632a debc cc5f f6bc
00000100: 236a 093c 0900 b9bc 6856 313d 4bb0 c8bc
00000110: 3d5f 7d3a 405a a2bb d418 6dbb ec51 793b
00000120: 434c f33c f85f 233d 67bd 613c 7566 1ebc
00000130: 7abd 1e3d 6b1c 103d 11aa 033c 7ec4 a4bc
00000140: a7f7 a0bc 31a3 25bd 314f 13bd 4add 45bc
00000150: 3fd4 823c e0d0 fbbc fda1 e0bc 1393 303d
00000160: 1908 a03c 9ed5 25bc eeda dfbc 1e4a 133d
00000170: 6bf9 853c 0b31 9abc 86e2 c5bc 7a85 dc3c
00000180: 66cd e33c f03d fabc c232 bc3c 1340 903c
00000190: f6f1 0a3d 579b 06bc 3652 c13b 9072 20bd
000001a0: dfa3 153d 765b f63b 1385 043d 2f74 d83b
000001b0: 2aab 78bb 4ec6 503c 4c02 123d 6dde 2a3c
000001c0: 6725 083d efbc c63c 769f 6c3c 9de1 06bb
000001d0: b54a 923b c6e8 223d 173f 813c 88bb 453c
000001e0: 9e22 48bc 696a ddbb 0a16 313c 0ba0 153c
000001f0: 54da 0abd c0b0 333d 11d3 f63c 4307 983b
00000200: 369e 133c 6cf9 833b 91e2 f73c 09ba 1b3d
00000210: 97e5 2fbd 6395 c6bc 8f3e a4bb 1a00 27bd
00000220: 81a8 ec3c b0ce 41bc d244 c63c 0f56 f3bc
00000230: fab6 eebc f5dd 6f3c 4c4c 663a aac0 82bb
00000240: 0b17 afbc b3af 333d 4382 a73c c91d bd3c
00000250: 5136 2ebc c946 05bd 9d4e f13c a226 dcbb
00000260: 0e34 423c b80b d43c aaf2 4ebb 9dc0 debb
00000270: 1740 18bd 516c d1bc 8a41 a63c 7161 c43c
00000280: 09c2 e1bc ea61 22bd 10b0 1bbc 7f08 d73c
00000290: f152 343d 2d23 283a edb4 c3ba 61a4 023d
000002a0: e4e1 12bd 7ce3 08bd 889e e33b 3b4f 7f3c
000002b0: 434c 04bd 00a8 0d3c 80b6 2e3d 88ab 1abc
000002c0: c319 d8bc bc22 ac3c 0fa5 04bc 2625 1abd
000002d0: c1e6 1cbb 123f 15bd ed3a 333c 7962 253d
000002e0: 4050 e0bb 77bb 93bc 9fe4 9039 b4d0 d9bc
000002f0: 701b 1c3c 4fad 1e3d a37c 0c3d 927a 563c
00000300: 8921 183d 481d 943c 56c0 c1bc 74f0 30bd
00000310: 1067 a1bc f040 a7bb 4c21 26bd df23 e5bc
00000320: 8a9a d4bc 3ce2 c13c aa1b 18bd 40e8 053d
00000330: 0a7d 71bc 1d2d 1d3d 1c50 933c c9d8 efbb
00000340: 95e4 2b3c acd4 293c 88b4 c13b f7ef da3c
00000350: 7056 9f3c 5936 f7bc 3e56 fbbc f02d c1bb
00000360: 061a ecbc 8556 1fbd 8b32 463c 0775 83bc
00000370: cdf2 493c 53e9 163d 7999 8cbb e63f 1cbb
00000380: 2a20 223d c40d f43a b324 76bb 2d3c a03c
00000390: b853 593c aa04 08bd 52e5 ec3b 7a55 963c
000003a0: cab4 43bb 86ff debc 3cbc 253d 39a3 753c
000003b0: 9259 c7bc b8d9 8abc d103 483c e9ce 063d
000003c0: d3ef abbc 23b8 eebb 159f e4bc 9619 003d
000003d0: 5eb0 f2bc 6e0f 2abd b24d 093d 9760 11bd
000003e0: 10e6 c93c 19ce edbc d0e7 11bd e3e7 fabc
000003f0: 4582 963c cf81 80bc a75f 9eba 217f 47bc
0.019771954 -0.035849784 0.03366566 0.03194472 0.027972633 0.0025477507 0.033387512 0.033291772
-0.03980419 -0.021202173 0.016774941 -0.012207808 0.020816851 -0.013725103 -0.011987132 -0.028569998
0.04349154 0.033893622 0.004681802 -0.009660969 -0.023937134 0.008485536 0.028152952 -0.038750987
-0.031479165 0.011066979 -0.029098067 0.030902961 -0.016090928 -0.02489096 -0.032852747 0.029485445
-0.03919582 -0.00063035556 0.03482573 -0.019276554 -0.032093905 0.014488928 -0.019912476 -0.026867816
-0.021877032 0.04297097 0.019793995 0.02879202 -0.0044417214 0.018974304 0.0013682332 -0.033824597
0.034534186 0.0358738 -0.034267675 0.044168554 0.026181446 -0.011857651 -0.02355869 -0.029640561
-0.030458458 -0.026700938 0.0013190681 -0.02230248 -0.035013806 0.043823265 -0.027119821 -0.030074976
0.008387121 -0.022583025 0.043295294 -0.024498126 0.00096653757 -0.0049546063 -0.0036178129 0.0038043214
0.02969945 0.039886445 0.013778067 -0.009667982 0.038754918 0.03518335 0.008036152 -0.020113226
-0.01964934 -0.040438835 -0.035964195 -0.012076685 0.015970347 -0.030739248 -0.027420992 0.04310901
0.019535111 -0.010121731 -0.027326073 0.035959356 0.016354283 -0.018822214 -0.024155866 0.026919115
0.027807903 -0.030547112 0.022973422 0.017608678 0.03392216 -0.008215747 0.005899693 -0.039171755
0.036533233 0.007518227 0.032353472 0.006605647 -0.0037943819 0.012742592 0.03564672 0.010429007
0.033238795 0.024260012 0.014442315 -0.0020581253 0.004464472 0.03977277 0.015777154 0.012068637
-0.012215285 -0.00675707 0.010808477 0.0091323955 -0.03389962 0.043869734 0.030129941 0.0046395375
0.009009888 0.004027536 0.030259402 0.038019214 -0.042943563 -0.024241155 -0.0050123404 -0.04077158
0.028888943 -0.011829063 0.024202738 -0.029704122 -0.029139984 0.014640321 0.0008785173 -0.0039902525
-0.021373292 0.04386873 0.020447856 0.023085492 -0.010633067 -0.03253821 0.029456431 -0.0067184726
0.011853231 0.025884494 -0.0031577745 -0.0067978636 -0.037170496 -0.025564345 0.020294923 0.023972245
-0.027558343 -0.03964416 -0.009502426 0.026249168 0.04402441 0.0006413933 -0.001493124 0.031895045
-0.035859957 -0.03342007 0.0069463886 0.015582855 -0.03229929 0.008646011 0.042654514 -0.00944031
-0.026379472 0.021012656 -0.008095994 -0.037633084 -0.002394125 -0.0364371 0.010939342 0.040377114
-0.006845504 -0.018033726 0.00027636156 -0.026588775 0.009528026 0.0387395 0.03429855 0.0130907465
0.037141357 0.018080369 -0.023651283 -0.043198064 -0.019702464 -0.0051041767 -0.040559098 -0.027971206
-0.025952596 0.023667447 -0.037135758 0.032692194 -0.014739284 0.0383731 0.017982535 -0.007319544
0.01049151 0.010365646 0.0059114136 0.026725752 0.019450396 -0.030177282 -0.030680772 -0.0058953688
-0.028821003 -0.03890087 0.012097011 -0.016047014 0.012325955 0.03684361 -0.0042907563 -0.0023841797
0.039581455 0.0018619825 -0.0037558496 0.019559944 0.013264589 -0.033207573 0.0072294855 0.018351305
-0.0029862397 -0.027221452 0.040462717 0.014992529 -0.024334703 -0.01694952 0.012207941 0.03291217
-0.02098838 -0.0072851344 -0.027907887 0.0312744 -0.029625114 -0.04151862 0.03352136 -0.035492506
0.024645835 -0.02902894 -0.035621464 -0.03062815 0.018372664 -0.015686898 -0.001208295 -0.012176306

base_model.model.gpt_neox.layers.1.attention.query_key_value.lora_B.weight f4 [1536, 16]
00000000: e6eb 4c38 0fe3 d537 f9e8 4cb8 18ea d537
00000010: d41f 3a38 00cd 0fb6 1d6c 9738 e720 3ab8
00000020: 2e1f 3ab8 790b 8e38 47ea d537 7ae4 4cb8
00000030: d548 8c37 79e3 4c38 a275 39b8 75e6 4c38
00000040: cebd 5fb8 b24f b0b7 62de d537 9471 97b8
00000050: 425e 8c37 4049 de36 94f4 d5b7 537c fb37
00000060: e21c 3a38 1448 deb6 f6f9 b1b7 344b de36
00000070: dcf0 4c38 7c7c fbb7 0b4e 2738 b48e 4d37
00000080: c448 de36 1ae3 4cb8 78e7 0fb6 9a8a fb37
00000090: 6456 7738 8497 fb37 7c88 fb37 43be 5fb8
000000a0: 7c7b 8db8 0d07 bf38 4278 2738 5433 b037
000000b0: 4e26 3a38 12f1 4c38 7105 bf38 3e0a bf38
000000c0: 62a6 84b8 a041 1db6 4a17 3ab8 115b b0b7
000000d0: 280f 8e38 d2ee 4c38 f6ef 4c38 c909 8eb8
000000e0: 4a5f 3637 e881 1d36 3ea2 84b8 88bb 5fb8
000000f0: c69b b538 984e 0fb6 d4bb 5f38 de09 bf38
00000100: 5d90 10b8 f8cd 0fb6 081a 0d36 8c80 fbb7
00000110: 90dc 4cb8 ddbc 5fb8 7d74 97b8 ca2a 2838
00000120: e3a1 b538 4f90 fbb7 bba1 b5b8 4c48 b0b7
00000130: 3a42 b0b7 dcf1 4cb8 027c fbb7 6e2f 28b8
00000140: c926 3a38 46f7 d5b7 8339 b037 38ef 4c38
00000150: ee46 b0b7 f11c 3ab8 9097 1a36 8417 3a38
00000160: ee5c 3ab7 7fbf 8cb7 6cb9 3a37 a52e 8cb7
00000170: 68f1 d5b7 c8eb d537 42ce 4d37 dabf 27b8
00000180: b806 8e38 76f4 4cb8 601d 3ab8 7368 9738
00000190: 3878 0fb6 20d2 ddb6 f60b 8e38 8df1 4cb8
000001a0: 2859 0fb6 081e 3a38 afcf d537 1145 b037
000001b0: 7519 3ab8 18ec 4c38 a8d5 0fb6 9579 fb37
000001c0: f256 27b8 6e5a b0b7 b817 3ab8 a818 de36
000001d0: 32f4 4cb8 1e38 b037 c841 b037 c0f6 39b8
000001e0: b824 2838 f461 4db7 bc61 4db7 fc7a de36
000001f0: 4007 8e38 cf90 b5b8 7ca2 8438 d861 0f36
00000200: 10e6 d537 00ad 0fb6 e0d8 0fb6 e8ea d537
00000210: ce8f fb37 a78e fb37 fab6 5f38 8890 10b8
00000220: 10fa d5b7 9cbd 5f38 96e8 d537 5822 1db6
00000230: 326a 8c37 1cf1 4c38 9252 7738 6108 bf38
00000240: 372c 2838 4573 97b8 c428 3a38 146b 8c37
00000250: 700a 8eb8 ccdd d5b7 d91e 3ab8 381f 3a38
00000260: b1e5 d537 a0b4 10b6 2a4f 7738 cee4 d5b7
00000270: d80d 8eb8 185e 0fb6 5059 0f36 ca58 4eb7
00000280: 95a6 84b8 0b8d fbb7 6e8f 4db7 52a5 84b8
00000290: db6e 9738 32eb 4c38 198c fb37 843d b037
000002a0: c0f6 d537 1e48 b0b7 4a08 8eb8 a851 1db6
000002b0: 6146 b037 e24d 27b8 42e8 4c38 9deb 4c38
000002c0: 2c7e 9738 68bc 5fb8 6822 3a38 f904 b237
000002d0: 92ec 4cb8 bcfe d5b7 e220 3ab8 a451 b037
000002e0: 9f47 b037 2cf4 4c38 82a8 8ab7 be1e 3ab8
000002f0: 4374 97b8 34d1 b137 ccd3 d5b7 9094 4db7
00000300: d401 8eb8 d471 8c37 186f fbb7 6bf7 d5b7
00000310: 5901 8eb8 cabf 8a37 e804 bfb8 c2ef 4c38
00000320: 103f b037 2ed7 d5b7 2d69 8c37 0986 fb37
00000330: 186e deb6 5afa 4cb8 919e 8a37 c0cb 0f36
00000340: 050a bf38 d1f3 4cb8 0c1a 3a38 2d04 b237
00000350: 1abb 5f38 f2e4 b037 2bb9 5f38 048c fbb7
00000360: 956f 9738 e844 8c37 02b7 5f38 2701 b2b7
00000370: 4e8e fbb7 6a74 9738 6869 1d36 4037 1d36
00000380: 5093 4db7 ae87 fbb7 d2b9 d5b7 7cef 4c38
00000390: 0008 b237 948e fb37 8c74 9738 8674 8cb7
000003a0: 330c 8eb8 a360 8c37 d0a2 8438 ea4c 2738
000003b0: 606c 0f36 c6f1 4c38 500b 8e38 b208 bf38
000003c0: da66 3ab7 bff3 d5b7 0957 8c37 d27c 4d37
000003d0: 7de3 d5b7 6b05 8eb8 e817 3a38 86e5 b137
000003e0: fd72 8c37 3072 1db6 3866 0f36 9adf 4c38
000003f0: 1c5a 3a37 5d89 fbb7 c099 0fb6 6e62 8cb7
4.8857088e-05 2.5497311e-05 -4.8854363e-05 2.5500587e-05 4.4375498e-05 -2.1427986e-06 7.220379e-05 -4.43765e-05
-4.4374894e-05 6.7732246e-05 2.5500673e-05 -4.8850176e-05 1.6723216e-05 4.884924e-05 -4.421699e-05 4.885202e-05
-5.3344113e-05 -2.1017946e-05 2.5495134e-05 -7.221397e-05 1.6733193e-05 6.624643e-06 -2.550547e-05 2.9979425e-05
4.4372755e-05 -6.6245066e-06 -2.1216441e-05 6.6248704e-06 4.8861708e-05 -2.99795e-05 3.9888586e-05 1.2252178e-05
6.6245866e-06 -4.8848895e-05 -2.1443393e-06 2.9986073e-05 5.8969847e-05 2.9992087e-05 2.9985087e-05 -5.3344538e-05
-6.746405e-05 9.108903e-05 3.99279e-05 2.1004736e-05 4.438153e-05 4.8861904e-05 9.108603e-05 9.1094975e-05
-6.325242e-05 -2.3433022e-06 -4.4367545e-05 -2.1023241e-05 6.773911e-05 4.885981e-05 4.886087e-05 -6.77291e-05
1.0870232e-05 2.3470438e-06 -6.3244705e-05 -5.3341995e-05 8.6597676e-05 -2.1354408e-06 5.334227e-05 9.1094276e-05
-3.4466724e-05 -2.142855e-06 2.102579e-06 -2.9981391e-05 -4.8842805e-05 -5.3343236e-05 -7.221939e-05 4.009417e-05
8.660906e-05 -2.998873e-05 -8.660877e-05 -2.10145e-05 -2.1011674e-05 -4.886264e-05 -2.9979277e-05 -4.0098494e-05
4.4381977e-05 -2.5506724e-05 2.1007616e-05 4.886018e-05 -2.1013864e-05 -4.437281e-05 2.303601e-06 4.4367756e-05
-1.1108101e-05 -1.6778473e-05 1.1129636e-05 -1.6711021e-05 -2.5503992e-05 2.5501373e-05 1.2266975e-05 -3.999458e-05
6.772339e-05 -4.8865062e-05 -4.4373213e-05 7.219696e-05 -2.1378637e-06 -6.610775e-06 6.7733155e-05 -4.8862352e-05
-2.1360556e-06 4.4373824e-05 2.5488289e-05 2.1012997e-05 -4.4369564e-05 4.885727e-05 -2.1433025e-06 2.9978148e-05
-3.9896877e-05 -2.1022945e-05 -4.4367946e-05 6.618986e-06 -4.8864815e-05 2.1006967e-05 2.1011467e-05 -4.433724e-05
4.008852e-05 -1.2241759e-05 -1.2241708e-05 6.630433e-06 6.772438e-05 -8.657725e-05 6.3245156e-05 2.1365613e-06
2.549871e-05 -2.140936e-06 -2.1434898e-06 2.5500965e-05 2.9988496e-05 2.998796e-05 5.3337753e-05 -3.446688e-05
-2.5508023e-05 5.334393e-05 2.5499885e-05 -2.3414814e-06 1.6738752e-05 4.886194e-05 5.896629e-05 9.1091504e-05
4.00955e-05 -7.221712e-05 4.438382e-05 1.6739163e-05 -6.773032e-05 -2.549486e-05 -4.4374585e-05 4.437493e-05
2.5498537e-05 -2.156281e-06 5.8963116e-05 -2.5498124e-05 -6.773666e-05 -2.136343e-06 2.1360647e-06 -1.229923e-05
-6.325279e-05 -2.998721e-05 -1.2252347e-05 -6.325044e-05 7.2208895e-05 4.8856433e-05 2.998677e-05 2.100948e-05
2.550648e-05 -2.1014417e-05 -6.7726316e-05 -2.3442353e-06 2.1013608e-05 -3.9888437e-05 4.8853697e-05 4.8856822e-05
7.2237424e-05 -5.334281e-05 4.43779e-05 2.122157e-05 -4.8857713e-05 -2.5510199e-05 -4.437648e-05 2.1018852e-05
2.1014186e-05 4.8864793e-05 -1.652935e-05 -4.4374487e-05 -7.2218965e-05 2.1197462e-05 -2.5490204e-05 -1.2253542e-05
-6.771428e-05 1.6742306e-05 -2.9973264e-05 -2.5506792e-05 -6.771339e-05 1.654019e-05 -9.1085036e-05 4.8860682e-05
2.10102e-05 -2.549178e-05 1.6738277e-05 2.9983947e-05 -6.628932e-06 -4.887055e-05 1.652472e-05 2.1427259e-06
9.109456e-05 -4.8864462e-05 4.4370114e-05 2.1221198e-05 5.3341595e-05 2.1087446e-05 5.3339794e-05 -2.9986732e-05
7.221025e-05 1.6721388e-05 5.3337782e-05 -2.121979e-05 -2.9987797e-05 7.221925e-05 2.3456178e-06 2.3426983e-06
-1.2253251e-05 -2.9984712e-05 -2.5478108e-05 4.8860427e-05 2.1222979e-05 2.9987925e-05 7.2219496e-05 -1.6743561e-05
-6.77336e-05 1.67343e-05 6.324577e-05 3.9887535e-05 2.1371743e-06 4.886256e-05 6.773195e-05 9.109209e-05
-1.1110411e-05 -2.5505082e-05 1.672983e-05 1.2248014e-05 -2.5497511e-05 -6.772097e-05 4.436812e-05 2.1206924e-05
1.6742846e-05 -2.346129e-06 2.136816e-06 4.8845635e-05 1.1107444e-05 -2.9985496e-05 -2.1398155e-06 -1.6735135e-05

base_model.model.gpt_neox.layers.2.attention.query_key_value.lora_A.weight f4 [16, 512]
00000000: 3c0e 6e3c 0413 0fbd 4ff2 87bc bec2 c43c
00000010: 144f 8c3c 3466 adbc 07c0 34bd a93c 2dbd
00000020: 204d 88bc 6ac5 c1bc d268 313d 0991 323d
00000030: 2802 94bb 2a30 b7bb c89e 7d3c 12f9 b13c
00000040: 8be4 a13c 9421 773c 07eb 9abc 9869 8e39
00000050: 3d24 0abd dd0e 08bd 6f63 e5bc cc40 ab3c
00000060: d104 44bc b78c 0e3d 98bc 603c fada 94bc
00000070: 2387 223b 7ea1 a33b a3bc 0f3d 1b74 9c3c
00000080: 8bba 193d 412a a93c 9615 82bc e9ff 023d
00000090: d89f 9bbc b2b2 6bbc 85f4 1c3d bd13 4e3c
000000a0: 65ab 9b3c a404 abbc 5009 1c3d b036 2f3d
000000b0: 966a d1bc e10d 0e3d 35fb 0f3d 832e afbc
000000c0: c216 1f3d 8d06 af3c 0fd1 70bc da46 313d
000000d0: d345 ecbc 7ec9 e23b 36f1 213d 5874 63bc
000000e0: f54b fbbc 8134 1e3d 9fd1 1abd 4999 333d
000000f0: 59c8 2cbc f6fb 2e3d eca1 0d3c 5d82 fc3c
00000100: ec85 2ebd 78c5 15bd 5102 653c 681e aa3b
00000110: 759c 09bd 82ae 343d 67db 853c 75c6 963b
00000120: 89f3 283d 5b7a 263c ff23 d73c bf86 e1bc
00000130: c8a6 223d 6274 89bc f0b4 0ebd 641c 9a3b
00000140: 1bbc d73c 08cd 9b3c a8bc 133d 24d2 17bd
00000150: 3049 11bd 374e 613a d477 16bd 063b 1a3d
00000160: ab48 c6bb aed0 db3c ec52 cd3c 5e57 0abd
00000170: 1b38 97bc f8b0 203d f0ad 11bd 184d 29bc
00000180: ed2a 6dbc 6f88 bf3c 9759 bd3c f886 33bb
00000190: 1c53 2e3d a31e 11bd f5cd 2e3d f52a 2cbd
000001a0: a0a0 ebbc 9647 85bc e587 d53c b661 1f3d
000001b0: e523 1b3d d28a 1fbd da9f f13c 188a 1cbd
000001c0: 2654 ee3c bde0 b93b 8efb 91bc 5465 a93b
000001d0: 6f00 123d c292 0ebd 8ac6 103c 5880 03bc
000001e0: 253b 5dbc 9761 2cbd a8be a33c 6694 c93c
000001f0: 7e6e 203d 71d7 7bbb be05 313d a3b3 cc38
00000200: 87a1 1abc 802a d1bc 5775 213d c49d 1a3d
00000210: 986a 9b3b a7fd cf3c 7dbc 20bd 2d95 813c
00000220: 9940 4fbb 8ad7 bcba 697e 83bb cd4c 12bc
00000230: 83a1 9c3b 30d2 1e3d 976f 17bc 38ab 23bc
00000240: 4d60 0dbd 6170 333d 80f1 403c 17c9 7dbc
00000250: 157c 003b 9474 a9bc fbcf f2bc 7333 8dbb
00000260: 5d94 13bd 1ca4 dbbc c361 f23c 5bd4 513c
00000270: 7de6 70bc 0896 c03c 45a5 f5bc 85bc 02bd
00000280: 19d7 293d 9fc3 f0bc 419f 1e3d 84a6 12bd
00000290: 71bf b9bc f98a 63bc a000 f9bc cd86 07bd
000002a0: 81f5 a63c 6147 63bc 2a85 e4b9 8409 293c
000002b0: d171 39bc 0001 08bd e2a2 38bc 7fb2 1ebd
000002c0: fcb9 e6bb f356 963c b1f9 05bd f242 dabc
000002d0: d99e 283d 636c c83c af1d 27bd 7ea0 18bd
000002e0: 3143 34bd 2900 82bc 3984 043c a0e0 12bd
000002f0: ea02 103d 9e1b 193d bf02 07bb a577 e7bc
00000300: b648 2e3d c443 8d3b 7f17 4fbb 45a7 65bc
00000310: b077 613c 647f 243d 450a 273d 44aa a2bb
00000320: d10f 25bc fbda c83c 1f43 983c f27a 64bc
00000330: d931 b1bb 73f4 11bd 84a2 ac3c ff44 263d
00000340: eb27 a73a 1da0 d63c a61d 923c 1bfd 213d
00000350: 72fe b93c e4e6 e439 4ad9 f7bc 6ead 0fbc
00000360: eba0 253d 6cbe afbb 472d 32bc 486c 2dbd
00000370: 677f 0ebc 063d 12bd 55f6 183b bb84 9e3c
00000380: ff42 073d d144 97bb 29d3 18bd eb9b 8bbc
00000390: 9369 4ebc 8246 debc b788 0c3d d56a 2b3c
000003a0: 7d38 df3b 16c4 a3bc 9187 52bc b686 a73c
000003b0: 35d7 d73c 592c 243d 8cc8 10bc 4cd6 b03c
000003c0: 86c3 033d 85c5 983c 0581 83bb f629 c53b
000003d0: 5244 1c3d 40f3 8bbc 6bf5 bd3a 4ace f4bc
000003e0: 3beb 47bc f82e 093d ce4c dc3c 3ecf dabc
000003f0: 6835 01bd 797b f33c 947d 353c 0845 903c
0.014529761 -0.034930244 -0.016595034 0.024018642 0.017127551 -0.021166898 -0.044128444 -0.04229418
-0.016638339 -0.023653705 0.043312855 0.043595348 -0.0045168586 -0.0055904584 0.015479751 0.021725211
0.019762298 0.015083689 -0.018910898 0.00027163024 -0.033725966 -0.0332173 -0.028001515 0.020904921
-0.011964039 0.034802165 0.013716839 -0.018170822 0.0024799786 0.0049936166 0.035092007 0.019098332
0.037531417 0.020650031 -0.015879434 0.031982336 -0.018997118 -0.014385866 0.03831913 0.012577948
0.019002626 -0.020876236 0.03809482 0.042776763 -0.02556352 0.034681205 0.03515168 -0.021384483
0.038840063 0.021365428 -0.014698281 0.04328046 -0.028841889 0.0069209924 0.039536677 -0.013882719
-0.030675868 0.03862429 -0.037797567 0.043847356 -0.0105458135 0.042720757 0.008644562 0.03082388
-0.042608187 -0.036565274 0.013977603 0.005191613 -0.033596475 0.044111736 0.01633997 0.0046012946
0.04124788 0.010161008 0.026262281 -0.027530072 0.039709836 -0.016779128 -0.034840524 0.0047030915
0.026334813 0.019018665 0.03606859 -0.03706564 -0.035470188 0.0008594724 -0.03673537 0.037653945
-0.006051143 0.026832905 0.025063954 -0.033774726 -0.01845937 0.03923127 -0.03556627 -0.010333322
-0.014475566 0.023380486 0.023114009 -0.002739368 0.042559728 -0.035429608 0.042676885 -0.042033155
-0.028763115 -0.016269486 0.026065776 0.038911544 0.03787603 -0.03895075 0.029495168 -0.038217634
0.02909286 0.005672543 -0.017820146 0.00516955 0.035644945 -0.034807928 0.008836398 -0.008026205
-0.013502871 -0.042085256 0.019988373 0.024606895 0.039167874 -0.0038427974 0.043218367 9.760938e-05
-0.009437925 -0.02553296 0.039418545 0.037748113 0.0047429316 0.025389506 -0.039242256 0.015818203
-0.0031624197 -0.0014407497 -0.004012872 -0.008929444 0.004779996 0.03877467 -0.009242914 -0.009989552
-0.034515668 0.043808345 0.011776328 -0.015489838 0.0019605209 -0.020685472 -0.029640188 -0.0043091117
-0.036030162 -0.026811652 0.029587632 0.012806977 -0.01470339 0.02350904 -0.029986033 -0.031918067
0.0414649 -0.029390154 0.038726095 -0.035803333 -0.022674294 -0.013888114 -0.030395806 -0.03308754
0.020380737 -0.0138719985 -0.00043586764 0.01031721 -0.01131864 -0.03320408 -0.011269303 -0.038744446
-0.007041214 0.018352007 -0.032708827 -0.02664325 0.041167114 0.024465745 -0.040799793 -0.037262432
-0.04400939 -0.015869217 0.008088165 -0.03585875 0.03515903 0.037379853 -0.0020601002 -0.028255293
0.04254981 0.004311057 -0.0031599698 -0.014016931 0.013761446 0.04016055 0.04078128 -0.004964145
-0.010074572 0.02451848 0.018586693 -0.013945328 -0.0054075536 -0.035633516 0.021073587 0.040593144
0.0012752985 0.026199395 0.017836403 0.03954802 0.022704337 0.00043659576 -0.030254979 -0.008769376
0.040436666 -0.005363276 -0.010875053 -0.042339593 -0.008697367 -0.035702728 0.0023340185 0.0193504
0.033022877 -0.004616358 -0.037310753 -0.01704212 -0.012598413 -0.02713323 0.03431007 0.010462482
0.006812154 -0.019990962 -0.012849704 0.020449977 0.026347736 0.040081356 -0.008836877 0.02158656
0.032168888 0.018648872 -0.004013183 0.006016965 0.038151093 -0.017083764 0.0014492696 -0.029883523
-0.012202079 0.03349206 0.026892092 -0.026710149 -0.031545073 0.029721962 0.011077303 0.017611042

base_model.model.gpt_neox.layers.2.attention.query_key_value.lora_B.weight f4 [1536, 16]
00000000: 8c7f fbb7 7e4f 1538 1a8a fbb7 c046 1b36
00000010: d540 b0b7 b479 de36 d026 3a38 9ae5 4c38
00000020: aed5 d5b7 2144 8c37 4c2f b0b7 8bd2 d537
00000030: b218 3a38 98a5 fb37 9674 4d37 3216 3ab8
00000040: f1cc fb37 86e2 d5b7 1856 de36 fe44 b037
00000050: 7059 b0b7 8609 8eb8 6ce7 d537 4034 de36
00000060: c04a b0b7 883e 4d37 b069 de36 6088 fbb7
00000070: 8a3f b037 685f 0fb6 f3e7 d5b7 603d b0b7
00000080: 0085 fb37 145e 8cb7 68ce 0fb6 00e2 4cb8
00000090: 1f55 8cb7 860f 3a38 52f0 4cb8 fedd d537
000000a0: 4d18 3a38 f072 0f36 cf25 28b8 4419 3a38
000000b0: ff19 3ab8 0444 b037 742d de36 e944 b037
000000c0: 0e72 4db7 276f 9738 2f07 bfb8 064c 2738
000000d0: f024 3ab8 18f1 4c38 fc7e de36 3c1e 3ab8
000000e0: 124f 27b8 b49c 8438 7e43 b0b7 48fc 0db6
000000f0: 8050 0f36 43f1 4c38 3868 deb6 2b0b 8e38
00000100: e23c b037 9c29 15b8 67f4 d537 7c54 1538
00000110: 3a1e 2838 9894 1db6 4cbd d5b7 a188 fbb7
00000120: ee3f d537 9869 4db7 3cb3 de36 3b02 8eb8
00000130: 8625 2838 984d deb6 176e fb37 5372 97b8
00000140: aa47 b0b7 b858 1538 b227 3ab8 6c62 8cb7
00000150: 22da d537 4a5e 8c37 2879 0fb6 18a2 0f36
00000160: f013 1d36 4655 8c37 51e2 d5b7 b847 de36
00000170: 475e 8cb7 2ed8 d5b7 b011 10b6 1a74 8c37
00000180: c4e0 3ab7 8e83 fb37 60d1 0cb6 6cf5 b137
00000190: 3080 fb37 18f7 1cb6 70ba 5fb8 086b deb6
000001a0: a851 0f36 b03d 1036 000d 1db6 8b68 fbb7
000001b0: 985d b0b7 4534 b037 2cb1 5f38 dce7 b1b7
000001c0: 20b1 5fb8 ae02 8e38 cb69 8cb7 1579 fbb7
000001d0: 443d deb6 6fe5 d537 cefc 4db7 b37a fbb7
000001e0: 127a fb37 b78b fb37 8058 de36 b358 8cb7
000001f0: 003c deb6 143f fb37 4aa6 4c38 4c4b 8cb7
00000200: f0bb 5fb8 2a17 3ab8 15a1 b5b8 fcf0 d537
00000210: ec78 fb37 881d 3a38 ffa5 8438 12e6 4cb8
00000220: 3c8f 4db7 0a0a 8e38 f7f9 8d38 6c22 3a38
00000230: fcfe d5b7 a2a2 8438 08b8 5f38 795f b037
00000240: 7ee3 d537 88da 1036 e805 de36 2e0a 8e38
00000250: 38bd dc36 06e6 d5b7 b426 deb6 5058 0f36
00000260: 54cd 4c38 354c b037 250b 8eb8 9874 deb6
00000270: 64c6 dd36 6d4d b037 01d8 d537 244f b037
00000280: 68e9 d5b7 804e deb6 d063 0fb6 ca12 d6b7
00000290: bca3 8438 0861 8cb7 62ed 4cb8 78c6 b137
000002a0: 9470 3ab7 79d6 d5b7 608a deb6 5858 1db6
000002b0: 6d05 b237 5d1d 3ab8 c0d9 1db6 e8bd 5fb8
000002c0: 1070 de36 9aeb 4c38 e50d 8eb8 f5ea 4cb8
000002d0: 0d5c 15b8 bc0a bf38 c26b 8c37 201e 3ab8
000002e0: f849 3a37 bc00 d637 2d8f fb37 d40a 8e38
000002f0: ef0a bfb8 3e1f 3a38 dedf 4c38 5175 9738
00000300: fa64 3a37 087d 0f36 744d 2738 f21f 3a38
00000310: 6873 4d37 c066 3a37 feaf 3737 ce20 3ab8
00000320: b662 3a37 c43d b0b7 f1a5 84b8 9a4d 27b8
00000330: 3064 3ab7 e865 3a37 d819 3a38 f58f 84b8
00000340: db9d 5fb8 b8d9 4c38 c00e 8e38 c8e9 1d36
00000350: 24aa 8438 a6eb 4cb8 c9e6 4cb8 c45b 8c37
00000360: 8067 3ab7 6da1 84b8 5291 fbb7 8a54 15b8
00000370: 08be 0fb6 420b 8eb8 57e9 4c38 e50b 8eb8
00000380: 92ef d5b7 5218 8e38 f6ee 4cb8 d8ff b1b7
00000390: c0e5 0fb6 a98a fb37 1a7a fb37 6703 3ab8
000003a0: ad4d 27b8 40db d537 28e2 4c38 b8ef 4c38
000003b0: d86b 0f36 8aef 4c38 b764 8c37 5f71 9738
000003c0: d23c 3a38 e6e7 4cb8 1351 b0b7 b874 deb6
000003d0: 96e3 d5b7 94d0 d5b7 f091 0f36 abee 4c38
000003e0: 84e6 4c38 6eeb 4cb8 4028 deb6 11e0 4cb8
000003f0: 4dd8 d5b7 6a43 b037 a8e3 d5b7 e443 b037
-2.9980925e-05 3.55984e-05 -2.998584e-05 2.3137982e-06 -2.1011025e-05 6.6302837e-06 4.4382003e-05 4.8851223e-05
-2.5491081e-05 1.6721026e-05 -2.100286e-05 2.548962e-05 4.4368855e-05 2.9998642e-05 1.2246097e-05 -4.4366527e-05
3.0016965e-05 -2.5497062e-05 6.626138e-06 2.1012962e-05 -2.1022483e-05 -6.7728615e-05 2.5499343e-05 6.6221983e-06
-2.1015643e-05 1.2233511e-05 6.628419e-06 -2.9985036e-05 2.1010423e-05 -2.1364194e-06 -2.5499588e-05 -2.1009415e-05
2.9983465e-05 -1.6733109e-05 -2.1428805e-06 -4.884787e-05 -1.6728938e-05 4.4360313e-05 -4.8861206e-05 2.5494952e-05
4.4368488e-05 2.1375563e-06 -4.0089533e-05 4.4369386e-05 -4.4370066e-05 2.1012507e-05 6.621407e-06 2.1012924e-05
-1.2245508e-05 7.220945e-05 -9.108928e-05 3.9886705e-05 -4.4380256e-05 4.8861926e-05 6.6308985e-06 -4.4374014e-05
-3.9889543e-05 6.323439e-05 -2.1012263e-05 -2.1157484e-06 2.1355518e-06 4.8862083e-05 -6.6282482e-06 6.773168e-05
2.1009186e-05 -3.556312e-05 2.5505387e-05 3.560305e-05 4.0082472e-05 -2.3481316e-06 -2.5479727e-05 -2.9985154e-05
2.5421348e-05 -1.2243538e-05 6.636981e-06 -6.771503e-05 4.0089268e-05 -6.6251487e-06 2.9972796e-05 -7.2215356e-05
-2.1014206e-05 3.5606994e-05 -4.4382825e-05 -1.6735132e-05 2.5493155e-05 1.6733207e-05 -2.1379183e-06 2.1403011e-06
2.3406428e-06 1.6729009e-05 -2.5496965e-05 6.6244647e-06 -1.6733202e-05 -2.5492245e-05 -2.1467968e-06 1.6743365e-05
-1.1138796e-05 2.9982792e-05 -2.0983498e-06 2.1214328e-05 2.9981224e-05 -2.338964e-06 -5.3340977e-05 -6.6285756e-06
2.135619e-06 2.149358e-06 -2.340239e-06 -2.9970213e-05 -2.1024418e-05 2.1005175e-05 5.3332347e-05 -2.1208012e-05
-5.3332304e-05 6.771587e-05 -1.6738564e-05 -2.9977915e-05 -6.623248e-06 2.5498417e-05 -1.2277813e-05 -2.9978668e-05
2.9978375e-05 2.9986591e-05 6.6264183e-06 -1.6730604e-05 -6.6231005e-06 2.9950905e-05 4.879226e-05 -1.6724363e-05
-5.3342374e-05 -4.436743e-05 -8.6607564e-05 2.5503796e-05 2.997784e-05 4.437336e-05 6.32517e-05 -4.885166e-05
-1.22523015e-05 6.7729576e-05 6.7699635e-05 4.4377914e-05 -2.5510315e-05 6.324543e-05 5.3338736e-05 2.1025293e-05
2.5497513e-05 2.1584874e-06 6.616803e-06 6.772984e-05 6.578539e-06 -2.5498692e-05 -6.620621e-06 2.1360065e-06
4.8828617e-05 2.1016322e-05 -6.7731635e-05 -6.629689e-06 6.609409e-06 2.101689e-05 2.5492163e-05 2.1017688e-05
-2.5500267e-05 -6.625254e-06 -2.136676e-06 -2.5519537e-05 6.3247484e-05 -1.6734484e-05 -4.885847e-05 2.1192463e-05
-1.1112676e-05 -2.549145e-05 -6.6322245e-06 -2.3446246e-06 2.122178e-05 -4.4373202e-05 -2.352157e-06 -5.3344207e-05
6.6291614e-06 4.885681e-05 -6.773676e-05 -4.885621e-05 -3.5610097e-05 9.109589e-05 1.673948e-05 -4.437391e-05
1.1103686e-05 2.551113e-05 2.9988203e-05 6.7731045e-05 -9.109626e-05 4.4374952e-05 4.8845883e-05 7.222093e-05
1.1109974e-05 2.1381438e-06 3.9888037e-05 4.4375607e-05 1.2245822e-05 1.1110387e-05 1.0948626e-05 -4.4376407e-05
1.1109447e-05 -2.1009597e-05 -6.3251595e-05 -3.9888175e-05 -1.1109791e-05 1.1110191e-05 4.4369925e-05 -6.3210646e-05
-5.3314358e-05 4.8840157e-05 6.773835e-05 2.3530902e-06 6.325942e-05 -4.8856855e-05 -4.8852326e-05 1.6732032e-05
-1.1110562e-05 -6.3243184e-05 -2.9989202e-05 -3.56031e-05 -2.1419273e-06 -6.7731846e-05 4.8854705e-05 -6.773303e-05
-2.5503137e-05 6.775618e-05 -4.885994e-05 -2.121918e-05 -2.1442393e-06 2.99861e-05 2.997839e-05 -4.4349024e-05
-3.9888244e-05 2.5493675e-05 4.8848015e-05 4.8860646e-05 2.1371434e-06 4.886048e-05 1.67362e-05 7.221358e-05
4.44025e-05 -4.8853362e-05 -2.1018588e-05 -6.6297034e-06 -2.5497557e-05 -2.5488705e-05 2.1393607e-06 4.8859667e-05
4.8852075e-05 -4.885665e-05 -6.6208013e-06 -4.884607e-05 -2.5492302e-05 2.1012227e-05 -2.549759e-05 2.1012449e-05

base_model.model.gpt_neox.layers.3.attention.query_key_value.lora_A.weight f4 [16, 512]
00000000: cb55 34bb 8bac 433c 23a9 fcbb 7357 17bd
00000010: 77f8 4abc 85a0 1cbd 0f47 0bba 9817 133d
00000020: 859c be3b 45ad 40bc e14e 033c 67f9 883c
00000030: d409 863c f16e 1e3d 9765 0b3d da94 9fbb
00000040: 987e d03c 6fb3 153d c770 22bd b476 1ebd
00000050: 0572 87bc 2062 bc3b 583d d23c 85e2 303d
00000060: a524 46bb 7eea ac3c 5e42 e13c f3b4 853c
00000070: 0327 31ba 03be ffbc f965 bebb 986e 053d
00000080: 7f7c 27bd 162e 9cbc d710 af3c 65e9 0b3d
00000090: 71e2 1a3c a63c 203d d7a1 30bd 001a bd3c
000000a0: 0104 2fbd 7f31 8a3a 20d6 89bb 3c61 b4bb
000000b0: 9a36 fbbb 5178 cb3c ae71 993b ba55 a9bc
000000c0: d6de 27bd ceb9 91bb b6e3 8ebb 5f1f 28bc
000000d0: 8d42 423a b010 c43b a2f4 babc 447a 00bc
000000e0: 353d 8dbc 6519 f4bc 429b 5ebb 8308 343d
000000f0: 5f0a 2c3d 5778 febc 2459 143d ba44 b0bc
00000100: bf8b d53c 3239 b7bc 0271 e23c b59c 103c
00000110: 0033 a73c 7577 ab3c 4672 2bbd a79b 15bc
00000120: fe43 053d 3bf5 043b 4a58 2a3d 0a1b a83c
00000130: 196c 01bd 292d bf3c 8346 9e3b 6d2e db3c
00000140: fc96 2ebd f253 b83b cb60 a93c 8d87 0abd
00000150: 5c7a aa3c 8810 32bd 9877 6b3c 70a6 2ebd
00000160: 9689 bd3c 4772 333c d150 f33c 544c a1bc
00000170: 902a ce3b e9c1 08bd 23cc e9bc 4593 03bd
00000180: cc8e 163d ebf2 973c 83d6 073d 56fc 11bd
00000190: 9562 1a3d 0475 10bd cd7e 8bbb 54fd 243d
000001a0: 82aa 86bc 86ea 2bbd d6db c63c a66a 6ebc
000001b0: da89 203d fdf0 96bc 255b 053d a5fc a6bc
000001c0: 070f 163c 8c40 fb3c 8d5a b63a f340 573b
000001d0: ef82 123d fee3 0f3d bc86 ed3c 3381 123d
000001e0: 917e 20bd 82cf ba3c 567d e6bc 4606 afbb
000001f0: ba15 253d b8b4 243c 2e02 e63c a500 09bc
00000200: d63e df3c 96a3 c6bc f699 2ebb 702d 2e3d
00000210: 0c55 0c3d 80de 8a3c fbf2 8dbc e312 063d
00000220: e7bd 9b3c a861 0bbd 0531 853b 9acf d23c
00000230: 95b8 c13c 26a1 d5bb 6965 063d 71a7 9d3c
00000240: 1609 d0bc 8f97 b93a 9659 6e3c 33ee c33c
00000250: 3075 0f3d f8e9 6e3c 95e1 1c3c 85c8 be3c
00000260: 2d13 12bd 7404 24bb ef2b 33ba 705e 24bc
00000270: c7c3 313c 6ae9 2dbd 13ee 40bc ee07 65bb
00000280: 4408 fb3c ccd3 2bbc c9d4 34bd 16c2 aabc
00000290: cfb8 04bc 07e7 99bb f964 ab3c b8c4 003d
000002a0: 708e 4bbb cf70 29bc 26f2 f03c 46eb dd3c
000002b0: 8db1 5cbc df93 b83c 5dd1 ba3c be80 97bc
000002c0: 37a8 ba3b 73a4 0fbc 4dad e53c cfa0 b33c
000002d0: 9dd8 073d c56e 243b 6151 0cbd cebf 2bbd
000002e0: d817 283d 1213 f33b 1cf0 94bc 5ed7 873b
000002f0: b23f 18bd a856 b63a e08b 323d 3572 26bd
00000300: 888a 273d 0a24 313c 6a15 0c3d f1e1 a03c
00000310: 7753 5e3c 57e5 9a3b 17d5 bf3c 246f bf3c
00000320: 5a1e a03c ee3f 07bd 8fec 16bc e95a af3c
00000330: dcae f63c fb40 fc3c 84ad a3bb 9c3a 2f3d
00000340: 74a6 a63b 40c3 423b 804f 14bd 7a71 21bd
00000350: e6ac 343d e389 bf3b ed26 ee3b 8bb6 273b
00000360: afc8 e7bc cfb8 093d fa72 2dbd 7c6a 003a
00000370: 9b34 80bc 4785 8a3c 473f 1d3d 79d7 843c
00000380: ba26 72bc 932f 0b3c 6645 313c 64a0 083d
00000390: 6dfb 8a3b 9b74 c83c 5089 40bc bcfd fcbc
000003a0: 536e ca3b 5979 473b 0081 8cbc bc8a 053d
000003b0: 9848 a53c 3adf d63c c2f7 e23c 2760 edbc
000003c0: 654a 1abd 68b4 08bd 87f7 0bbd f390 8abc
000003d0: ab26 b4bc 85c8 8dbc 3f70 9c3c e501 1a3d
000003e0: a027 2bbc 164d a5bc ddb9 b63c 06c9 fbbb
000003f0: 2823 cebc b623 133d 4517 a4bb 521b 2b3d
-0.0027516957 0.011942993 -0.0077105924 -0.036948632 -0.01238834 -0.03823902 -0.0005313018 0.035911173
0.0058169984 -0.011760061 0.008014412 0.016720487 0.016362108 0.03868002 0.03403243 -0.0048700394
0.02545099 0.036548074 -0.039658334 -0.038687423 -0.016533861 0.005749002 0.025664017 0.043184776
-0.0030234244 0.021107908 0.027497467 0.016321635 -0.00067578274 -0.031218534 -0.005810496 0.032576174
-0.040890213 -0.019064944 0.021370335 0.03415813 0.009453402 0.03912034 -0.043123093 0.023083687
-0.042728428 0.0010543315 -0.004206434 -0.0055047553 -0.007666421 0.024837645 0.004682741 -0.02067076
-0.040983997 -0.0044471985 -0.0043606414 -0.010261386 0.00074104295 0.0059834346 -0.022821728 -0.00784165
-0.0172411 -0.029797265 -0.0033967053 0.04395343 0.04200208 -0.031063242 0.036217824 -0.021517146
0.026067613 -0.02236614 0.027641777 0.008826424 0.02041006 0.020930985 -0.041857027 -0.009131349
0.032535546 0.002028777 0.041588105 0.020520706 -0.03159723 0.023336964 0.004830183 0.026755536
-0.04262446 0.0056252414 0.020676037 -0.033820678 0.020810299 -0.043472797 0.014371775 -0.042639196
0.023136895 0.010952539 0.029701622 -0.019689716 0.006291695 -0.033388052 -0.028539723 -0.03212287
0.036757275 0.01854845 0.03316356 -0.035641037 0.03769167 -0.035267845 -0.004257059 0.040280655
-0.016438726 -0.041971706 0.024274748 -0.014551794 0.039193965 -0.018425459 0.032557625 -0.020384142
0.009158856 0.030670427 0.0013912484 0.003284511 0.0357694 0.03512954 0.02899491 0.035767745
-0.039183203 0.022804026 -0.028135937 -0.005341324 0.040303923 0.010052852 0.028077211 -0.00836197
0.027251642 -0.024247926 -0.002664206 0.0425238 0.034260795 0.0169518 -0.017327776 0.032732856
0.019011451 -0.03402868 0.0040646815 0.025733758 0.023647586 -0.0065194545 0.032811556 0.019244881
-0.025394958 0.0014159548 0.014547726 0.023917293 0.035023868 0.01458215 0.009575267 0.023288975
-0.03566282 -0.0025027068 -0.0006834855 -0.010032281 0.0108499 -0.04245893 -0.011775511 -0.0034947353
0.03064359 -0.010487508 -0.04414824 -0.0208445 -0.008100702 -0.00469673 0.020922171 0.031437606
-0.003106024 -0.010341837 0.02941234 0.027089726 -0.013470066 0.022531448 0.02280491 -0.018494006
0.0056963223 -0.008767235 0.028036738 0.021927265 0.033165563 0.0025090438 -0.034257296 -0.041930966
0.041038364 0.007418045 -0.0181809 0.004145547 -0.03717012 0.0013911324 0.043590426 -0.04063626
0.040903598 0.010811815 0.03420011 0.019638987 0.013569704 0.0047270465 0.023417039 0.023368426
0.019545723 -0.033019952 -0.009211673 0.021405654 0.030112676 0.030792704 -0.00499505 0.042780504
0.0050857607 0.002971843 -0.03620863 -0.03941486 0.0441102 0.005845295 0.007267824 0.0025590982
-0.028293936 0.033623513 -0.04234598 0.000489868 -0.015650084 0.016909255 0.038390424 0.016216027
-0.014779741 0.008495229 0.0108197685 0.033356085 0.004241398 0.024469664 -0.011751488 -0.030882709
0.0061777025 0.003043732 -0.017151356 0.03260301 0.020176217 0.02622949 0.02770603 -0.028976513
-0.037668604 -0.033375174 -0.034171607 -0.01691482 -0.021991095 -0.01730753 0.019096492 0.037599463
-0.010446459 -0.020178359 0.022305423 -0.007683876 -0.025163248 0.03592273 -0.0050076568 0.0417741
