FederatedLLM/FT_lite/my_fl_model_dp/peft_5/adapter_model.bin (torch, 791378 bytes, 12 tensors)

base_model.model.gpt_neox.layers.0.attention.query_key_value.lora_A.weight f4 [16, 512]
-0.014064997 -0.030455086 0.026289593 0.010953249 0.038949937 0.01076888 -0.012671401 0.013307704
0.034816694 -0.044074297 0.02560603 0.041076064 -0.025076352 -0.052725136 0.0070164814 -0.033431936
-0.0046191816 0.034526695 -0.048539884 -0.025945313 0.009529458 -0.017993743 -0.012830015 0.0037194213
0.039197475 0.023729714 0.0165073 -0.012816485 0.019060934 0.020746073 0.015001495 0.039218668
-0.020396432 -0.01432518 0.0021647408 0.016002918 0.028108908 0.016789922 0.022875663 -0.03756042
0.014600115 -0.037114434 0.0080736885 -0.028825184 -0.027176637 0.04167939 0.020411927 -0.019345714
-0.04694952 0.005482567 0.009642844 -0.00032671596 -0.023189912 0.028950436 0.030937895 -0.002636054
0.03450501 -0.013505535 0.026518544 0.052612912 0.041509967 -0.0044089095 -0.011913466 -0.030573633
-0.036913887 -0.0064653303 0.043238305 0.03354319 -0.0040898146 0.0073351944 -0.034687456 -0.01945508
0.020968152 0.007870533 -0.036177445 -0.01022864 0.026180062 -0.009420606 -0.0053137536 -0.013728621
-0.035535853 -0.0251149 0.023985798 0.019710965 0.011601996 0.0016273675 -0.035483338 -0.0013852334
0.02562331 -0.0021445826 0.044198904 -0.025332496 0.0038332334 -0.035273343 0.0031025053 -0.03843632
0.0353664 -0.0061240154 -0.00020541507 -0.031302582 0.015805535 0.033383757 -0.03267962 0.029788071
-0.025596358 -0.037692178 -0.010087419 0.03145877 0.034639288 -0.03210769 -0.03711859 -0.038909886
-0.018431805 -0.012674806 0.008162188 -0.014870198 -0.0010321976 -0.0070985765 -0.014209947 -0.020281063
0.010941858 -0.004894315 0.033609387 -0.016378775 -0.012814946 0.0149646755 0.012051366 -0.032812744
-0.013633215 0.028989954 0.028464843 0.015590339 -0.0030902426 0.04251084 -0.033090398 -0.034291774
-0.0054762093 -0.01720715 0.031418115 0.026656728 0.01453393 0.010258104 -0.028436653 0.04323208
-0.039892547 -0.012686282 -0.031950966 0.0138008455 -0.0094257565 0.027136264 0.03392891 0.026896358
-0.007310604 -0.028755056 -0.036830872 -0.03220648 0.030640678 0.015082232 0.018379249 -0.020704579
0.004368909 0.013719165 -0.030532055 0.01874456 0.014375875 -0.036923323 0.03964604 -0.039311815
0.028269026 -0.036194377 0.038058914 -0.017653741 -0.036540568 0.027632307 0.03044676 0.034072574
0.04107808 -0.03895727 0.041720524 0.023279835 0.009193704 -0.034691498 0.017586188 -0.018168177
-0.033744693 -0.010978031 0.010582119 -0.01916937 0.01043731 -0.0456783 0.013277223 -0.04595984
0.014422586 -0.009585891 0.026064673 0.047293704 -0.03731155 -0.0010861931 0.016240697 -0.021490755
0.016461132 0.028671648 -0.00082598726 -0.016987044 -0.026533777 0.017296053 -0.01987993 0.021503067
-0.041674975 0.033456087 -0.00923193 0.0013682557 -0.009812798 -0.020191561 -0.02246239 -0.031184591
-0.044340547 0.021991955 0.024668183 -0.012890766 0.014757367 -0.034492567 -0.05100839 -0.042525798
-0.014081076 -0.0417663 -0.0036365155 0.022156535 0.0087772915 -0.018075522 0.027283762 0.04479753
-0.026021037 0.033476174 0.0030058143 -0.026655076 0.008622487 0.049505506 -0.010820739 0.038152356
-0.0053513977 -0.02272036 -0.03205273 0.023511663 0.033988696 0.053028725 0.013822363 0.036941465
0.007114345 -0.026188245 0.010941001 0.03705296 0.008448341 0.02945056 -0.028081933 -0.011816948
00000000: e070 66bc f27c f9bc 465d d73c 4275 333c
00000010: f889 1f3d f56f 303c b59b 4fbc 8e08 5a3c
00000020: f39b 0e3d 4087 34bd bdc3 d13c 603f 283d
00000030: ec6c cdbc 50f6 57bd 83ea e53b edef 08bd
00000040: 815c 97bb dd6b 0d3d c2d1 46bd 448b d4bc
00000050: 7221 1c3c 9d67 93bc fc34 52bc 89c1 733b
00000060: 888d 203d d164 c23c 513a 873c 3cfc 51bc
00000070: ad25 9c3c abf3 a93c d5c8 753c c1a3 203d
00000080: 6b16 a7bc 29b4 6abc 53de 0d3b 8d18 833c
00000090: a744 e63c 058b 893c be65 bb3c f4d8 19bd
000000a0: 5235 6f3c 4e05 18bd 8147 043c cb22 ecbc
000000b0: 8aa1 debc 02b8 2a3d ea36 a73c e77a 9ebc
000000c0: 244e 40bd 1ba7 b33b 05fd 1d3c 134b abb9
000000d0: c5f8 bdbc 7729 ed3c 7871 fd3c a6c1 2cbb
000000e0: 2055 0d3d 5246 5dbc 6b3d d93c a380 573d
000000f0: 5b06 2a3d 9d78 90bb b330 43bc 8e75 fabc
00000100: 0433 17bd 1fdb d3bb a61a 313d 9664 093d
00000110: da03 86bb 125c f03b 6f14 0ebd 4360 9fbc
00000120: 67c5 ab3c 68f3 003c cd2e 14bd 0796 27bc
00000130: 9277 d63c e358 1abc ff1e aebb 03ee 60bc
00000140: 0b8e 11bd c3bd cdbc dd7d c43c e478 a13c
00000150: 4c16 3e3c 644d d53a fa56 11bd b890 b5ba
00000160: fae7 d13c 208c 0cbb e909 353d 1886 cfbc
00000170: fc36 7b3b c87a 10bd 6753 4b3b 676f 1dbd
00000180: 5cdc 103d f7ab c8bb b064 57b9 2337 00bd
00000190: 9c7a 813c 68bd 083d 11db 05bd 1d06 f43c
000001a0: 74af d1bc 1d63 1abd b445 25bc e9da 003d
000001b0: ede1 0d3d 5a83 03bd aa09 18bd f95f 1fbd
000001c0: 4cfe 96bc fda9 4fbc b3ba 053c 22a2 73bc
000001d0: ce4a 87ba 2d9b e8bb d6d0 68bc 7924 a6bc
000001e0: 7b45 333c 7d60 a0bb ffa9 093d c82c 86bc
000001f0: c7f5 51bc 662e 753c 1873 453c a866 06bd
00000200: d95d 5fbc 577c ed3c 1a2f e93c 9f6e 7f3c
00000210: ab85 4abb d91f 2e3d cc89 07bd 8875 0cbd
00000220: c671 b3bb 02f6 8cbc 48b0 003d 365f da3c
00000230: b91f 6e3c 9b11 283c fcf3 e8bc 1f14 313d
00000240: 5e66 23bd 20da 4fbc 04df 02bd f11c 623c
00000250: 7d6e 1abc df4c de3c 0af9 0a3d c055 dc3c
00000260: cb8d efbb b98f ebbc f8db 16bd f1ea 03bd
00000270: 2902 fb3c 771b 773c 1490 963c a69c a9bc
00000280: 1129 8f3b 59c6 603c 5c1e fabc 318e 993c
00000290: ca88 6b3c e93c 17bd e363 223d 6d05 21bd
000002a0: 7294 e73c 8e40 14bd aae3 1b3d 949e 90bc
000002b0: 90ab 15bd 265d e23c 7c6b f93c af8f 0b3d
000002c0: 7d41 283d a991 1fbd 24e3 2a3d 5ab5 be3c
000002d0: 31a1 163c ac18 0ebd e910 903c 6ed5 94bc
000002e0: e037 0abd 33dd 33bc a060 2d3c 1509 9dbc
000002f0: 4001 2b3c 2b19 3bbd b688 593c 6340 3cbd
00000300: b64c 6c3c 240e 1dbc 9585 d53c 0bb7 413d
00000310: ffd3 18bd 985e 8eba 360b 853c 610d b0bc
00000320: 7fd9 863c cee0 ea3c 1187 58ba 6a28 8bbc
00000330: 5d5d d9bc 74b0 8d3c 3cdb a2bc 3327 b03c
00000340: 61b3 2abd 4009 093d 8541 17bc 0b57 b33a
00000350: dcc5 20bc c668 a5bc 0c03 b8bc d476 ffbc
00000360: 6f9e 35bd 7928 b43c ee14 ca3c cb33 53bc
00000370: e2c8 713c 1448 0dbd 2cee 50bd 882f 2ebd
00000380: 50b4 66bc 2413 2bbd 9b52 6ebb 9f81 b53c
00000390: a1ce 0f3c 1e13 94bc 3282 df3c 9d7d 373d
000003a0: 122a d5bc 501e 093d 32fd 443b bf5b dabc
000003b0: 5545 0d3c 49c6 4a3d 7849 31bc a545 1c3d
000003c0: c75a afbb 0c20 babc b949 03bd 889b c03c
000003d0: bb37 0b3d a634 593d 3177 623c ef4f 173d
000003e0: 741f e93b bb88 d6bc e241 333c d8c4 173d
000003f0: e96a 0a3c 4d42 f13c 150c e6bc df9b 41bc

base_model.model.gpt_neox.layers.0.attention.query_key_value.lora_B.weight f4 [1536, 16]
-0.002399076 0.0027403885 -0.0021672864 -0.0036330759 0.0004631741 -0.010566438 0.0053265286 0.0045532947
0.0047164434 0.0023155434 -0.0019998143 -4.803842e-05 -0.0051851296 -0.0033625166 -0.0017870386 0.0035850508
-0.007336353 0.0051868213 0.010176078 -0.01162528 -0.008746959 0.0018010533 -0.0066047753 0.007304896
0.0022196367 0.0026113736 0.007694653 -0.009952353 0.0031888 0.006605037 -0.0054323445 -0.0022979788
0.002323601 -0.010234497 0.0022371295 0.0061936867 -0.0045511895 0.010620487 -0.0039246357 -4.7197486e-06
0.007094824 -0.0058676573 0.0030680837 -0.0031805027 0.01380388 -0.0113015445 -0.009137628 0.0012818146
-0.0041024145 0.0021711162 -0.005293937 -0.006052181 0.006804728 0.008803052 0.002069472 0.0059089633
0.0021531733 -0.0038576503 0.0074006636 0.001552474 0.006058407 0.0002972372 -0.007124068 0.009315812
0.004148734 -0.005231776 0.004586976 0.0028811856 0.008141419 -0.007464138 -0.0013025226 -0.000628926
0.0035761683 0.0029807705 -0.009812933 0.0015593648 -0.0010038102 0.010738593 -0.008114812 -0.004056506
-0.005837366 -0.0022653092 0.0035676707 -0.0031524254 -0.008059283 0.004397329 -0.0039029855 0.004605835
-0.002083385 0.0040889787 0.008011135 0.0036259806 0.0011412977 -0.007842596 0.0049614906 0.008386404
-0.0070320303 -0.0051481063 0.0043491684 -0.011015302 -0.0043767146 -0.0023731054 0.005676092 -0.009524999
0.0015595938 -0.008107297 -0.0049470197 0.0022739933 0.000666863 0.00446603 0.0018894043 0.0014147949
-0.0034334236 -0.0045486176 0.0013992245 -0.0058539365 -0.006230186 -0.0040213936 -0.005063753 -0.0038477324
-0.00069369463 0.0050018756 0.0110963 -0.0030061072 -0.0153647885 0.0047414694 -0.0023866673 -0.00091450044
0.00018982522 -0.013136131 -0.0028165819 -0.0009154263 0.0059430054 -0.010433467 -0.0034214093 0.0041505415
0.0008956996 0.012400592 0.00048404012 -0.0075892843 0.0051225903 -0.0045113396 0.008611481 0.0035664444
-0.002625535 -0.004238557 -0.0050158408 -0.005361939 0.00952055 -0.011018896 0.0018258331 0.0050565363
0.00012791385 0.0042351014 0.0020711399 -0.00775073 -0.0066813366 0.0036294085 -0.0066269618 -0.000867635
0.0048045325 0.0028418587 -0.008013492 0.0036911923 0.0050000204 -0.004299031 -0.012575406 -0.002116466
-0.003840576 0.0014808776 -0.0115833 0.0052883793 0.00096698356 0.0088360105 0.0024197781 -0.001106875
-0.00949316 0.0011767402 0.0064601824 -0.00085635914 0.0052377908 -0.0040292772 -0.0015872219 -0.006538252
0.00974479 0.008435824 0.0063838223 0.0013740371 -1.0283111e-05 -0.00036620387 0.00022272472 -0.0010809102
-0.0071056415 -0.0046356902 -0.00050192536 0.003720676 0.00067680236 0.0038862627 0.0048798337 0.0010581635
-0.0027059498 -9.3255854e-05 0.0073605385 0.0032865189 0.0045530614 -0.005229761 -9.513163e-05 0.0006891188
0.00046155168 -0.001678093 -0.0013369608 0.012032467 -0.00049656007 -0.0081524355 0.0013164388 0.0044916654
0.0014701678 -0.0031333335 0.0031436146 0.001148511 0.0030026608 -0.012681294 -0.0046033827 0.0002574876
0.005768332 0.0027446528 0.0078369435 0.0014851481 0.005876838 0.0019622552 -0.0019214948 0.005286713
6.8602414e-05 0.012022853 0.0012697988 -0.0009883491 -0.00023990091 0.003661743 0.004402771 -0.009794651
0.0006516313 0.004717478 -0.007438467 -0.000659959 -0.007699195 -0.0041643577 0.0029839748 0.008142211
0.0016823878 0.00030000237 0.0050106617 0.0053921086 -0.0073262737 0.0023851902 0.00961318 0.0050734635
00000000: d139 1dbb 1798 333b 0809 0ebb e618 6ebb
00000010: 2dd6 f239 da1e 2dbc 298a ae3b ce33 953b
00000020: 658c 9a3b 5fc0 173b 510f 03bb dc7c 49b8
00000030: 05e8 a9bb ab5d 5cbb 113b eaba 2cf3 6a3b
00000040: ca65 f0bb 36f6 a93b 91b9 263c f577 3ebc
00000050: 684f 0fbc 5211 ec3a df6c d8bb e95d ef3b
00000060: 5377 113b 9423 2b3b 6d23 fc3b 320f 23bc
00000070: 30fb 503b 116f d83b cf01 b2bb b099 16bb
00000080: 8e47 183b 97ae 27bc ce9c 123b 69f4 ca3b
00000090: 2522 95bb 8d01 2e3c 3b9a 80bb 555e 9eb6
000000a0: b37b e83b 7a45 c0bb e711 493b fb6f 50bb
000000b0: ab29 623c 1d2a 39bc fdb5 15bc 9002 a83a
000000c0: 8c6d 86bb 4949 0e3b c378 adbb 6051 c6bb
000000d0: 32fa de3b ad3a 103c fb9f 073b fa9f c13b
000000e0: 411c 0d3b a2d0 7cbb 4481 f23b 627c cb3a
000000f0: 9a85 c63b 80d6 9b39 0471 e9bb 59a1 183c
00000100: 1af2 873b 516f abbb 584e 963b 46d2 3c3b
00000110: 9663 053c ba95 f4bb 68b9 aaba 82de 24ba
00000120: 265e 6a3b 0859 433b 6dc6 20bc 9a63 cc3a
00000130: 4892 83ba ecf0 2f3c fdf3 04bc 70ec 84bb
00000140: 6047 bfbb 9575 14bb 95cf 693b ec98 4ebb
00000150: 150b 04bc 7817 903b 3bc9 7fbb 8bec 963b
00000160: 6689 08bb d7fc 853b 2341 033c dca1 6d3b
00000170: 9997 953a 3b7e 00bc 0094 a23b 2167 093c
00000180: f26c e6bb 72b1 a8bb 7883 8e3b 8679 34bc
00000190: 8b6a 8fbb 1a86 1bbb 83fe b93b be0e 1cbc
000001a0: 496b cc3a 78d4 04bc 9c1a a2bb 4707 153b
000001b0: 6bd0 2e3a c657 923b e3a5 f73a a470 b93a
000001c0: 4a03 61bb 920c 95bb 2f66 b73a 61d2 bfbb
000001d0: 9726 ccbb e5c5 83bb d7ed a5bb 3d2a 7cbb
000001e0: 0fd9 35ba c6e6 a33b 41cd 353c 1c02 45bb
000001f0: 98bc 7bbc 545e 9b3b a269 1cbb 16bb 6fba
00000200: d20b 4739 ed38 57bc 6796 38bb 38f9 6fba
00000210: 8bbd c23b 22f1 2abc b939 60bb 4401 883b
00000220: 62cd 6a3a da2b 4b3c c4c6 fd39 88af f8bb
00000230: 67db a73b dcd3 93bb 2b17 0d3c 02bb 693b
00000240: 2b11 2cbb 98e3 8abb ec5b a4bb 34b3 afbb
00000250: 15fc 1b3c 9988 34bc cb50 ef3a 4db1 a53b
00000260: 9d20 0639 9bc6 8a3b f6bb 073b d6f9 fdbb
00000270: 1def dabb 5fdb 6d3b fc26 d9bb 0072 63ba
00000280: 576f 9d3b 7a3e 3a3b 064b 03bc eee7 713b
00000290: 36d7 a33b e3de 8cbb 1309 4ebc 68b4 0abb
000002a0: 2cb2 7bbb 021a c23a e2c7 3dbc 244a ad3b
000002b0: 2b7d 7d3a eac4 103c 2495 1e3b 9014 91ba
000002c0: 3389 1bbc d93c 9a3a f0af d33b 4a7d 60ba
000002d0: c6a1 ab3b 0708 84bb 540a d0ba d53e d6bb
000002e0: 9da8 1f3c 6936 0a3c 622f d13b 0919 b43a
000002f0: a085 2cb7 0dff bfb9 368b 6939 54ad 8dba
00000300: 71d6 e8bb fde6 97bb a493 03ba 96d6 733b
00000310: 706b 313a abb0 7e3b 03e7 9f3b 13b2 8a3a
00000320: 4e56 31bb 5b92 c3b8 ac30 f13b a362 573b
00000330: d931 953b 6a5e abbb 6881 c7b8 fba5 343a
00000340: 6bfc f139 75f3 dbba f63c afba d323 453c
00000350: 952b 02ba cb91 05bc 5b8c ac3a d22e 933b
00000360: a5b2 c03a 9d58 4dbb 1a05 4e3b a289 963a
00000370: 4ac8 443b 34c5 4fbc f9d7 96bb 67ff 8639
00000380: 4704 bd3b a2df 333b 8666 003c 4da9 c23a
00000390: 7e92 c03b 2e99 003b abda fbba 2a3c ad3b
000003a0: a4de 8f38 80fb 443c 616f a63a 7e8b 81ba
000003b0: e98d 7bb9 daf9 6f3b 1f45 903b be79 20bc
000003c0: 3cd2 2a3a 1395 9a3b 62be f3bb 1901 2dba
000003d0: 8749 fcbb 2a75 88bb ca8e 433b e866 053c
000003e0: 9183 dc3a a349 9d39 7a30 a43b 49b0 b03b
000003f0: 3d11 f0bb da50 1c3b 9980 1d3c 4c3f a63b

base_model.model.gpt_neox.layers.1.attention.query_key_value.lora_A.weight f4 [16, 512]
0.012301558 0.03532909 0.030810224 0.028080638 0.033520002 -0.009713845 -0.0107399365 -0.019246027
0.04067834 -0.008783273 -0.053697594 0.006754842 -0.01682436 -0.031962454 0.040623732 -0.023629108
-0.01214166 -0.0357256 -0.0010030938 -0.013365699 -0.01065626 0.016585996 -0.041349966 0.014839371
0.040502463 -0.043376632 -0.024878114 -0.0111631565 -0.030088425 0.024245132 0.034250602 -0.030247517
-0.025425944 0.03777471 0.027435448 0.0023553348 -0.038048945 0.038288284 -0.0029897157 0.013849334
-0.01786852 0.025492217 0.045065578 -0.006158418 -0.022357564 -0.025480662 0.0015514286 -0.0041831313
-0.004056214 -0.016588228 -0.020768046 0.028558893 0.010289747 0.010438916 -0.018513326 -0.03221401
0.016095402 0.021947468 -0.038164884 0.0036459623 0.0025602707 0.042409644 -0.0075575593 -0.021510754
0.007399818 -0.018386079 -0.014271313 -0.040480547 -0.046342988 0.052132662 -0.045796316 -0.033519227
-0.0041963053 -0.0020249484 -0.037405502 0.020223346 0.028988957 -0.023395676 0.027071621 0.016616864
-0.034467097 -0.005632791 0.010638179 -0.020282546 0.032943677 -0.010820151 -0.0016649715 -0.040114723
-0.002522798 0.03192951 0.026801525 -0.0077538267 -0.035027716 -0.016908215 -0.042963542 0.037395295
0.012726861 0.004202416 0.034618903 0.009302232 -0.038826123 -0.014189156 -0.009291929 0.004888943
-0.010974391 -0.0035196238 0.038210936 -0.0061858464 -0.0038789664 0.01074374 -0.019746264 0.023906216
-0.014725464 0.015093274 -0.023651753 0.01532837 0.006582784 0.0093844915 0.012262595 0.05115672
-0.019571306 -0.027229141 -0.022691298 0.0034662797 0.044296145 0.0020726072 -0.029989434 0.018796442
-0.00014005188 -0.04207693 -0.026186401 0.023452466 -0.027060604 0.042835385 0.010307566 0.0012475518
0.020873357 0.0046232766 -0.011896806 0.03307146 0.02538128 -0.03992266 0.02802353 -0.019824453
0.020001644 -0.03285255 0.011942302 0.045366537 -0.038194615 -0.03163447 -0.032987885 0.02257012
0.03355531 -0.014110818 0.03839281 0.014534487 0.020921774 0.00760193 -0.037776787 0.038487244
-0.04463286 -0.037483193 0.002008219 -0.044950247 -0.016692804 -0.03855023 -0.04851516 -0.009589939
0.044983864 0.026918042 0.0015586991 0.042219494 0.0036228488 0.015321198 0.0039340905 -0.003149523
0.026074165 0.03304784 -0.019586219 -0.027935557 0.022269424 -0.041734338 -0.02140047 -0.023580063
0.044189874 0.024612289 0.009662973 0.0005170982 0.037341047 0.0068140784 -0.026939502 -0.024309896
-0.006713124 -0.031631354 0.041686144 0.03130781 0.01613917 -0.03722788 -0.041243237 -0.027587926
-0.037748817 0.03835374 0.019656958 0.03737545 0.036958918 -0.03756711 -0.02077985 -0.0028379383
-0.03773397 -0.021342257 -0.030418586 0.033967197 -0.005789164 0.033687666 0.024951454 -0.015642896
-0.00994564 0.024274146 -0.04629279 -0.007614984 -0.0054679904 -0.015261283 -0.0011283353 0.035228822
-0.035668585 0.021604367 0.008445369 -0.015554654 -0.032401897 -0.007917379 -0.009606243 0.029239448
-0.022660615 -0.037276875 0.00025217835 -0.03154961 0.0007211809 0.036534563 -0.036775716 0.009624034
0.022721648 -0.04149094 0.042516924 -0.02913715 -0.01872906 0.028131008 0.01738039 -0.021432376
0.004732354 -0.010854343 -0.029385963 -0.031071173 -0.011602701 0.03287067 0.0037624463 -0.014453932
00000000: 798c 493c 3cb5 103d b965 fc3c 5e09 e63c
00000010: 454c 093d d226 1fbc 8ff6 2fbc d8a9 9dbc
00000020: 559e 263d b8e7 0fbc 02f2 5bbd b957 dd3b
00000030: 3dd3 89bc 10eb 02bd 1265 263d d591 c1bc
00000040: d0ed 46bc 0255 12bd 3e7a 83ba cefb 5abc
00000050: 9897 2ebc 5bdf 873c 955e 29bd d520 733c
00000060: e9e5 253d b2ab 31bd 30cd cbbc ace5 36bc
00000070: 007c f6bc ba9d c63c 5c4a 0c3d a4c9 f7bc
00000080: 124a d0bc a8b9 1a3d 4ec0 e03c f65b 1a3b
00000090: 36d9 1bbd 2dd4 1c3d 1bef 43bb 51e8 623c
000000a0: 0161 92bc 0ed5 d03c af96 383d 8ecc c9bb
000000b0: 3627 b7bc d2bc d0bc 4e59 cb3a a612 89bb
000000c0: fde9 84bb 09e4 87bc c021 aabc 57f4 e93c
000000d0: 5496 283c fd07 2b3c 42a9 97bc d6f2 03bd
000000e0: 81da 833c 2dcb b33c c852 1cbd 19f1 6e3b
000000f0: 37ca 273b bcb5 2d3d 67a5 f7bb 5237 b0bc
00000100: 2c7a f23b 679e 96bc 3ad2 69bc eece 25bd
00000110: 25d2 3dbd 0f89 553d eb94 3bbd 754b 09bd
00000120: 2981 89bb ffb4 04bb 8336 19bd 6eab a53c
00000130: 407a ed3c 4aa8 bfbc 4ec5 dd3c 1720 883c
00000140: 5f2d 0dbd 4793 b8bb c24b 2e3c 9527 a6bc
00000150: f3ef 063d 0147 31bc 2c3b daba 564f 24bd
00000160: 8755 25bb 85c8 023d df8e db3c d013 febb
00000170: 3979 0fbd 1983 8abc 8afa 2fbd cf2b 193d
00000180: 5384 503c 6cb4 893b 8dcc 0d3d 6468 183c
00000190: 2408 1fbd a279 68bc 2d3d 18bc 6d33 a03b
000001a0: efcd 33bc 7da9 66bb 1283 1c3d a4b2 cabb
000001b0: 4236 7ebb 8306 303c ebc2 a1bc f8d6 c33c
000001c0: 1343 71bc c849 773c 52c1 c1bc d823 7b3c
000001d0: 65b4 d73b 69c1 193c 0de9 483c b589 513d
000001e0: 0154 a0bc a60f dfbc 1ae3 b9bc 862a 633b
000001f0: e06f 353d 94d4 073b 67ac f5bc fffa 993c
00000200: e4da 12b9 dc58 2cbd dd84 d6bc 631f c03c
00000210: 33ae ddbc 2874 2f3d 11e1 283c e484 a33a
00000220: 9afe aa3c db7e 973b d2ea 42bc f075 073d
00000230: 67ec cf3c f185 23bd 9a91 e53c e466 a2bc
00000240: 7dda a33c 6590 06bd a5a9 433c 43d2 393d
00000250: f571 1cbd 2593 01bd 4e1e 07bd f9e4 b83c
00000260: 4b71 093d 0f31 67bc c741 1d3d 0f22 6e3c
00000270: 2464 ab3c 9c19 f93b d5bb 1abd cda4 1d3d
00000280: f2d0 36bd fa87 19bd 539c 033b c01d 38bd
00000290: 59bf 88bc d9e6 1dbd d5b7 46bd 1f1f 1dbc
000002a0: 0041 383d 3a83 dc3c 434d cc3a 59ee 2c3d
000002b0: 516d 6d3b c305 7b3c 8be9 803b 3a68 4ebb
000002c0: 7d99 d53c 2c5d 073d 4773 a0bc 1cd9 e4bc
000002d0: 5e6e b63c a0f1 2abd 0a50 afbc fa2a c1bc
000002e0: 7100 353d b69f c93c 7251 1e3c df8d 073a
000002f0: edf2 183d a248 df3b 3bb0 dcbc 8c25 c7bc
00000300: c4f9 dbbb e18f 01bd 17bf 2a3d 9e3c 003d
00000310: 4b36 843c 437c 18bd abee 28bd 1300 e2bc
00000320: 819e 1abd d018 1d3d a107 a13c 0017 193d
00000330: 3c62 173d f8df 19bd 813a aabc b4fc 39bb
00000340: ef8e 1abd f5d5 aebc 6630 f9bc 3021 0b3d
00000350: 07b3 bdbb 14fc 093d fe66 cc3c 8825 80bc
00000360: 0af3 22bc 93da c63c 829d 3dbd 1e87 f9bb
00000370: d42c b3bb 760a 7abc a6e4 93ba 194c 103d
00000380: 3919 12bd a4fb b03c 725e 0a3c f3d8 7ebc
00000390: dab7 04bd e5b7 01bc 8163 1dbc 9187 ef3c
000003a0: c1a2 b9bc a3af 18bd ce36 8439 2a3a 01bd
000003b0: a20d 3d3a 44a5 153d 22a2 16bd 20ae 1d3c
000003c0: c022 ba3c 67f2 29bd 3a26 2e3d 08b1 eebc
000003d0: b06d 99bc 0073 e63c 5261 8e3c f392 afbc
000003e0: dd11 9b3b 6ad6 31bc d5ba f0bc f988 febc
000003f0: 4119 3ebc 65a3 063d 6093 763b 2fd0 6cbc

base_model.model.gpt_neox.layers.1.attention.query_key_value.lora_B.weight f4 [1536, 16]
-0.0015478097 -0.007392886 0.002557529 0.0025510602 0.0012385999 -0.0019848205 -0.0024537994 0.0018355143
0.00085600687 0.0031461993 0.009001583 0.0041298815 7.273577e-05 -0.007056924 0.0021926714 0.010775805
-0.005222893 -0.0056728194 -0.0075249574 -0.0022012326 0.0023119925 0.010343931 -0.00042527838 0.0064780777
0.0010865896 0.0007843985 -0.0073039425 -0.0028281533 -0.0015324871 -0.005900157 0.002531568 -0.0016476819
0.0059324303 0.011939606 -0.0022670801 -0.00088627404 -0.0024303556 -0.0031380525 -0.0020344816 0.012772572
0.005122517 -0.007080287 0.00068712136 0.010404911 -0.0026039134 -0.00694943 0.0017301186 -0.00091606565
0.005577351 0.006841418 0.0047983006 -0.004465726 0.004715824 0.0036955168 -0.00051145325 0.0017210239
0.00055320014 0.0009821494 -0.00792553 -0.0028133332 -0.0011752503 0.008197508 -0.0023548373 -0.0077120033
0.005558892 0.0028012495 0.0013298653 0.0071736225 -0.00036349375 -0.006033754 -0.00264098 0.005758939
0.004317519 -0.008565986 0.0011018739 -0.0028714698 0.003550927 0.0028657767 0.005164641 0.0071183913
0.0040682605 0.0036939736 -0.0013351416 0.005777078 0.0040110336 -0.007230639 -0.008016585 0.0039119213
0.012996041 0.0056955894 -0.004000153 0.009052046 0.012911899 0.00038115188 0.0051495316 -0.011208218
0.0068975845 0.007878465 -0.00930753 -0.008360712 -0.0047850376 0.0020491788 -0.0053995703 -0.004566965
-0.015697204 0.0049084593 0.0044208923 -0.0019491247 -0.009451551 -0.013645541 -0.0059740366 0.009415166
-0.0035571146 -0.001023644 -0.0012291713 -0.007763376 0.009361448 0.0056244046 0.0021037755 0.0029193214
0.0018948931 -0.008322875 0.009325749 -0.00441713 0.0031035852 -0.009066818 0.0022448238 0.0038975838
0.0014647518 0.0067840014 -0.005199301 -0.0054478953 -0.01575595 0.0029681565 0.004310418 0.008837515
0.007213242 -0.0052545643 0.0009911464 -0.0031387443 -0.0005340442 0.0029462918 0.0031385352 0.010505126
-0.010640092 0.006325944 0.0003194181 -0.0038532673 0.0009680592 0.013553752 -0.0041578263 -0.0011093513
0.009483618 -0.004212065 0.009058226 0.0073376466 0.005817161 -0.0014587973 -0.0065758256 0.0008029775
0.011614683 0.000894022 -0.0033909318 -0.0007298125 0.0011940578 -0.004234577 -0.001765761 0.0017543915
-0.004121032 0.00036685483 0.0050933724 -0.0019714478 0.00031736863 -0.0090962155 -0.0026269113 0.00089873694
-0.005214507 0.0010275453 -0.014287539 -0.0033747791 -0.0077949995 0.0041856924 -0.00491775 0.009767483
-0.001868071 -0.0018423293 -0.0066349106 0.00066064205 0.0007994461 0.004856746 -0.008113496 0.0058166324
-0.0066211973 -0.006274691 0.0009903167 0.020335214 -0.0017264895 -0.014870777 -0.009312955 0.0052457363
-0.001169541 -0.009746093 -0.00027581927 0.0045450595 -0.0010403426 -0.0031303992 0.0010402588 1.5124578e-05
0.0039403182 0.005180442 0.0011525315 -0.00037760017 0.0029787426 -0.0025410366 0.00023172247 -0.0012368164
-0.00018227467 -0.0015416099 0.006309185 0.0015996143 0.00014243365 -0.006815643 0.00039003443 0.007083671
0.006453413 0.004843488 -0.0036947136 0.0053486074 0.0015828621 0.0002472592 -0.0062914607 0.0031827937
-0.01212638 0.0016324372 0.0010510987 -0.0017099 0.0021130485 -0.0010281487 0.0065098265 -0.0042383936
-0.0068348353 0.005328287 0.008982296 0.00504187 -0.008096565 0.0047931164 0.010123045 0.00023958522
-0.0073614656 -0.004010588 -0.00824347 -0.004665865 -0.0017344686 0.006062289 0.0045950925 -0.0002433752
00000000: e0df caba 0640 f2bb 379c 273b b02f 273b
00000010: 8458 a23a c313 02bb eccf 20bb a495 f03a
00000020: a665 603a 7730 4e3b 607b 133c f553 873b
00000030: b889 9838 c53d e7bb ecb2 0f3b 018d 303c
00000040: cd24 abbb 0fe3 b9bb eb93 f6bb 8e42 10bb
00000050: cc84 173b 9779 293c e6f7 deb9 0e46 d43b
00000060: e66b 8e3a 18a0 4d3a e955 efbb 8a58 39bb
00000070: bcdd c8ba 1b56 c1bb aae8 253b 08f7 d7ba
00000080: d564 c23b 569e 433c 4b93 14bb d854 68ba
00000090: 9a46 1fbb c9a7 4dbb f054 05bb 0d44 513c
000000a0: c9da a73b c101 e8bb ef1f 343a 5c79 2a3c
000000b0: 6ba6 2abb 0bb8 e3bb 26c5 e23a 2024 70ba
000000c0: 36c2 b63b f92d e03b 103b 9d3b 3a55 92bb
000000d0: 3387 9a3b 7c30 723b 0c13 06ba fb93 e13a
000000e0: a204 113a 77bb 803a 15da 01bc e65f 38bb
000000f0: db0a 9aba d74e 063c 9d53 1abb f9b4 fcbb
00000100: 5e27 b63b 2b95 373b e04e ae3a b510 eb3b
00000110: 4e93 beb9 ccb6 c5bb 4b14 2dbb 7bb5 bc3b
00000120: f979 8d3b 5958 0cbc c16c 903a 452f 3cbb
00000130: abb6 683b c1cf 3b3b 263c a93b 6541 e93b
00000140: 0b4f 853b 9816 723b ebff aeba a54d bd3b
00000150: fd6e 833b ffee ecbb ff57 03bc 932f 803b
00000160: 59ed 543c 11a2 ba3b b713 83bb 084f 143c
00000170: 6e8c 533c 57d5 c739 67bd a83b aca2 37bc
00000180: 2205 e23b ad14 013c 9c7e 18bc 5efb 08bc
00000190: cecb 9cbb 844b 063b e1ee b0bb 7ba6 95bb
000001a0: 6c97 80bc 24d7 a03b 22dd 903b c679 ffba
000001b0: aeda 1abc 8c91 5fbc dac1 c3bb 1242 1a3c
000001c0: 7b1e 69bb cb2b 86ba 251c a1ba eb63 febb
000001d0: c260 193c ed4c b83b 7fdf 093b 1652 3f3b
000001e0: 105e f83a ab5c 08bc 07cb 183c 92bd 90bb
000001f0: 8565 4b3b fe8c 14bc e51d 133b 9b6e 7f3b
00000200: eafc bf3a 544c de3b e65e aabb 4284 b2bb
00000210: 9f12 81bc 6785 423b 683e 8d3b 39cb 103c
00000220: 0f5d ec3b 7b2e acbb 5be9 813a 64b3 4dbb
00000230: 19ff 0bba 9316 413b e2af 4d3b b11d 2c3c
00000240: c853 2ebc dd49 cf3b 9277 a739 1987 7cbb
00000250: 5ac5 7d3a 8e10 5e3c 603e 88bb a767 91ba
00000260: 2d61 1b3c 5d05 8abb f468 143c a470 f03b
00000270: e29d be3b 1d35 bfba 067a d7bb e87e 523a
00000280: 834b 3e3c cd5c 6a3a 653a 5ebb e350 3fba
00000290: ee81 9c3a 35c2 8abb 1b71 e7ba 9cf3 e53a
000002a0: b909 87bb 6c56 c039 4ee6 a63b 6833 01bb
000002b0: 7f64 a639 4b08 15bc 4228 2cbb 3799 6b3a
000002c0: 75de aabb b3ae 863a 4816 6abc 662b 5dbb
000002d0: 326d ffbb 2228 893b 1425 a1bb cb07 203c
000002e0: 10da f4ba 507a f1ba aa69 d9bb f02e 2d3a
000002f0: eb91 513a 5725 9f3b 78ee 04bc 7399 be3b
00000300: a1f6 d8bb ec9b cdbb 84cd 813a 0996 a63c
00000310: 604b e2ba 8fa4 73bc 5d95 18bc 6de4 ab3b
00000320: 494b 99ba 14ae 1fbc d69b 90b9 b9ee 943b
00000330: 1b5c 88ba 6227 4dbb 4b59 883a 91bf 7d37
00000340: c91d 813b b2c0 a93b 8a10 973a a3f8 c5b9
00000350: 0237 433b 8587 26bb 87fa 7239 ac1c a2ba
00000360: fc20 3fb9 d80f caba 48bd ce3b 26aa d13a
00000370: 3e5a 1539 c255 dfbb 897d cc39 241e e83b
00000380: 2777 d33b 1fb6 9e3b 0223 72bb 5f43 af3b
00000390: 0a78 cf3a 91a2 8139 9928 cebb 6b96 503b
000003a0: b9ad 46bc 81f7 d53a 05c5 893a b91e e0ba
000003b0: 127b 0a3b f2c2 86ba 6250 d53b 39e2 8abb
000003c0: c1f6 dfbb e998 ae3b 7b2a 133c 4536 a53b
000003d0: 74a7 04bc 930f 9d3b 21db 253c 2b39 7b39
000003e0: 7338 f1bb 406b 83bb 9f0f 07bc 1de4 98bb
000003f0: 1c57 e3ba 2aa6 c63b 6e92 963b 8832 7fb9

base_model.model.gpt_neox.layers.2.attention.query_key_value.lora_A.weight f4 [16, 512]
-0.03704967 0.013461041 -0.030870702 -0.02396501 0.0021646775 -0.035336222 0.01723288 -0.013663248
0.03847074 -0.024277551 -0.005158251 0.038864587 -0.020912878 0.025679672 -0.041417398 0.015670232
-0.0077989507 0.021309812 0.037557926 -0.01115939 0.024448372 -0.020516235 -0.015158182 0.041494135
0.011556868 -0.013879498 -0.033732984 0.017306887 0.020526532 0.033331513 -0.0286234 -0.029036004
0.003006055 0.01240242 0.014351314 0.005856596 0.0033779857 -0.03617849 -0.039055444 -0.013558576
0.04236715 -0.030519078 -0.036296017 -0.030229954 -0.0072961035 -0.009095568 0.020461358 -0.02486612
-0.043153476 -0.038623262 -0.043025326 -0.01712208 -0.012506314 0.031570144 0.0053727673 -0.0068807197
0.023789397 -0.029518403 -0.017680984 0.017670812 0.013374974 0.023411257 0.045964364 0.016309213
-0.023899293 0.02228176 -0.01235823 -0.01044152 -0.020505164 0.033551224 0.03645776 0.042398192
0.03860495 -0.03758203 0.02177908 -0.0040048957 -0.025016626 -0.026107375 -0.012236283 -0.0043653557
-0.01437883 0.013822184 -0.010949926 0.030762324 0.030804306 -0.019988231 0.041577235 -0.02888296
-0.0015288993 0.04262766 -0.01159127 -0.0054410123 -0.013873489 -0.041930653 0.02063148 0.040479556
-0.040074978 -0.020879861 -0.034477502 -0.013721068 0.042690508 -0.028553354 0.019998245 -0.025168419
-0.018544663 0.039904077 0.02657808 -0.013137654 0.026135119 0.02033223 0.039797164 -0.039632242
-0.008346768 0.00011590605 -0.042646054 -0.004527706 0.010129578 -0.039997097 -0.02086814 -0.03844693
-0.02381994 0.008275567 -0.02125407 0.04310472 0.0030244472 -0.032726206 -0.04045948 0.033709183
0.0124358265 0.021646913 -0.011969576 -0.045028426 0.01942701 -0.008877724 0.04135559 0.030154087
-0.02219555 -0.032429866 0.03197731 0.010535613 -0.040635932 -0.03880532 0.012145053 0.021467023
0.014891139 -0.00094753766 -0.011192587 -0.00211482 0.014606002 0.023431854 0.017077493 -0.033321686
-0.0018872964 -0.03096992 -0.0017879377 -0.008936663 0.012881131 0.011344673 0.025398074 0.0070451912
-0.034480624 -0.021993965 -0.043249838 -0.04821239 0.0041804323 -0.007974626 -0.04799127 -0.037578933
-0.030432403 -0.02075805 -0.003852203 0.021814814 -0.02785733 0.037530065 -0.009380055 -0.022095388
0.036452245 0.04467646 0.03763956 0.042378187 -0.0052811964 -0.011593038 0.026759015 0.023534684
0.029718667 -0.032036263 0.01209445 0.008677204 -0.00054022914 0.016036207 0.023203555 -0.022445325
-0.040578205 0.03370009 -0.03057807 -0.04023985 -0.05494192 0.028595967 0.021569666 0.030361276
0.022759872 -0.00013099662 0.044501796 -0.028384326 0.045663156 -0.038939282 -0.03430262 0.035372585
0.0101639265 -0.04319203 -0.017619872 0.0073721795 -0.033361953 0.00055168726 -0.004579246 -0.033462007
-0.00990659 -0.031067388 -0.022443745 0.014338712 0.029545998 -0.018975295 -0.03819247 0.0038972606
0.044814542 0.029279143 0.00976066 -0.021519503 -0.042971645 0.0017413131 0.04372125 0.022576135
-0.010253669 -0.006041711 0.036467858 -0.037452966 -0.030518398 0.049711466 0.004204505 -0.027089395
0.03275421 -0.02595699 -0.0124075655 -0.009829319 -0.0046912674 0.020338854 -0.03628889 0.03739166
-0.011500431 -0.032575868 0.0011627699 0.016974194 -0.017939243 0.0050068144 -0.0041602664 -0.0006746306
00000000: 65c1 17bd b38b 5c3c 8ee4 fcbc 4552 c4bc
00000010: 43dd 0d3b b7bc 10bd f82b 8d3c d1db 5fbc
00000020: 7f93 1d3d b7e1 c6bc 8c06 a9bb 7930 1f3d
00000030: 7c51 abbc 2d5e d23c 4aa5 29bd dc5e 803c
00000040: 578e ffbb ea91 ae3c 57d6 193d e0d5 36bc
00000050: f447 c83c aa11 a8bc 065a 78bc c1f5 293d
00000060: 0559 3d3c d566 63bc 992b 0abd 2cc7 8d3c
00000070: 4227 a83c a086 083d 9f7b eabc eadc edbc
00000080: 3c01 453b 8533 4b3c c621 6b3c b0e8 bf3b
00000090: 3261 5d3b e52f 14bd 9af8 1fbd ca24 5ebc
000000a0: 2d89 2d3d 2503 fabc 22ab 14bd cfa4 f7bc
000000b0: 2714 efbb 9405 15bc 949e a73c 09b4 cbbc
000000c0: b3c1 30bd 6d33 1ebd 533b 30bd 9b43 8cbc
000000d0: 48e7 4cbc b24f 013d 0a0e b03b a977 e1bb
000000e0: fbe1 c23c 94d0 f1bc b6d7 90bc 61c2 903c
000000f0: b522 5b3c f7c8 bf3c 2145 3c3d e69a 853c
00000100: 73c8 c3bc 3d88 b63c 2c7a 4abc e912 2bbc
00000110: 72fa a7bc 026d 093d bb54 153d baa9 2d3d
00000120: 3920 1e3d 9def 19bd 0b6a b23c 803b 83bb
00000130: abef ccbc 22df d5bc b17a 48bc 420b 8fbb
00000140: 2f95 6bbc 7176 623c 5267 33bc 4501 fc3c
00000150: 5059 fc3c 5cbe a3bc e44c 2a3d f59b ecbc
00000160: 5965 c8ba 579a 2e3d 4fe9 3dbc 854a b2bb
00000170: a14d 63bc 7abf 2bbd 5903 a93c e4cd 253d
00000180: a925 24bd 3e0c abbc 4838 0dbd 55ce 60bc
00000190: 3edc 2e3d b9e8 e9bc 5cd3 a33c 002e cebc
000001a0: faea 97bc 7572 233d 46ba d93c 513f 57bc
000001b0: 5119 d63c c78f a63c 5a02 233d 6b55 22bd
000001c0: e2c0 08bc 9612 f338 a1ad 2ebd 275d 94bb
000001d0: 88f6 253c ffd3 23bd a9f3 aabc 877a 1dbd
000001e0: 0922 c3bc 3e96 073c 041d aebc 938e 303d
000001f0: ce35 463b ea0b 06bd d7b8 25bd a412 0a3d
00000200: a3bf 4b3c de54 b13c 0a1c 44bc ba6f 38bd
00000210: 6525 9f3c e073 11bc 7b64 293d b405 f73c
00000220: 71d3 b5bc 2ed5 04bd a4fa 023d 909d 2c3c
00000230: dd71 26bd 54f2 1ebd 0bfc 463c 9cdb af3c
00000240: f7f9 733c 2d64 78ba 1d61 37bc cb98 0abb
00000250: 034e 6f3c 29f4 bf3c 19e6 8b3c 527c 08bd
00000260: 295f f7ba a1b4 fdbc 3c59 eaba 156b 12bc
00000270: 610b 533c 02df 393c 9f0f d03c 59db e63b
00000280: 8e3b 0dbd b02c b4bc be26 31bd 5b7a 45bd
00000290: 02fc 883b 01a8 02bc 7e92 44bd 5eec 19bd
000002a0: 604d f9bc c90c aabc 3e75 7cbb fbb4 b23c
000002b0: 0e35 e4bc 20b9 193d cdae 19bc 6301 b5bc
000002c0: f34e 153d aafe 363d f02b 1a3d c094 2d3d
000002d0: e30d adbb baf0 3dbc b935 db3c cfcb c03c
000002e0: 9074 f33c 7538 03bd cd27 463c d52a 0e3c
000002f0: 2a9e 0dba 5d5e 833c 6215 be3c 42df b7bc
00000300: 5535 26bd 1b09 0a3d dc7e fabc 8ad2 24bd
00000310: c70a 61bd 1742 ea3c deb2 b03c 36b8 f83c
00000320: e972 ba3c 235c 09b9 8447 363d 3f86 e8bc
00000330: 4a09 3b3d cc7e 1fbd e780 0cbd d8e2 103d
00000340: 9986 263c 20ea 30bd 8d57 90bc 5392 f13b
00000350: 8ba6 08bd 1b9f 103a 800d 96bb 750f 09bd
00000360: 404f 22bc 0981 febc f2db b7bc ebec 6a3c
00000370: 730a f23c 1472 9bbc b56f 1cbd 2f69 7f3b
00000380: 748f 373d d0da ef3c 2deb 1f3c ab49 b0bc
00000390: 0903 30bd c63c e43a 0e15 333d 96f1 b83c
000003a0: 01ff 27bc 8cf9 c5bb 525f 153d 4868 19bd
000003b0: b801 fabc 409e 4b3d f2c5 893b 94ea ddbc
000003c0: 4729 063d c1a3 d4bc 1a49 4bbc 270b 21bc
000003d0: 34b9 99bb ab9d a63c a9a3 14bd ff27 193d
000003e0: 4e6c 3cbc 466e 05bd 1568 983a 770d 8b3c
000003f0: 52f5 92bc 3410 a43b d852 88bb b1d9 30ba

base_model.model.gpt_neox.layers.2.attention.query_key_value.lora_B.weight f4 [1536, 16]
-0.0008624127 0.0007043984 -0.003469289 -0.0023410216 -0.004729466 -0.0028977285 0.0028504864 -0.011751069
0.0018257119 -0.002641511 -0.0035794212 0.000549016 -0.0032721644 -0.007544175 0.009596842 0.0037308417
0.0009651186 -0.005862461 -0.0074907327 0.0028649885 0.0059827706 -0.007622692 0.0072650677 0.0029887708
-0.010909069 0.0056353365 -9.3529365e-05 -0.0024203863 0.0049474696 -0.005235701 0.0008311423 0.0021211635
0.00020521297 -0.0030405035 -0.0016486943 -0.0028572911 -0.0038523183 -0.0042944723 0.0015227378 0.015413641
-0.009857765 -0.0030561076 -0.00018113786 0.003420892 0.0037973986 -0.011344766 0.0051202667 0.0034039626
0.0003668659 -0.0051906784 -0.0066666277 0.0052551134 0.0056077945 -0.0054201754 0.0025388447 -0.0018687199
0.008690345 -0.0020986125 -0.0052716755 0.0030886547 -0.005246829 0.006048923 0.000885751 0.008894715
0.0039854813 0.008221474 0.0020830187 0.000801927 0.00869869 0.00044622575 0.0033998704 0.00543175
-0.0008646241 -0.0033427367 0.0048323446 -0.005152193 0.00413442 0.0033744813 -0.006234302 -0.0010782162
-0.003064166 0.009988121 0.0020428377 0.010166158 -0.0053026443 -0.007293878 -0.009840973 -0.0029942691
-0.0051459107 0.015522328 0.00010525824 -0.0016349915 0.0151907075 -9.991111e-05 0.006223385 -0.0038068662
-0.0029497815 0.002830362 0.0025285366 0.0038864666 0.004231677 0.00015876774 -0.0009632884 -0.003363593
-0.0027083629 0.0008851776 0.0032515721 0.005101573 -0.0025610311 -0.0066048787 -0.00018778161 -0.008559111
-0.0077708834 -0.007182162 0.011695835 -0.012333395 -0.008142592 0.0010329043 0.00434499 -0.0073471856
-0.0010692822 0.010623416 -0.002941763 0.007169334 0.0014293952 0.0054317787 0.003827807 -0.0043574353
0.0032361946 -4.5972094e-05 0.00027632923 -0.003273627 -0.008812101 -0.008731981 -0.0072873547 0.0009144632
0.007211828 -0.00676534 0.0065949853 -0.012866811 0.0022341735 -0.0056698225 -0.0005388044 0.0037066997
0.005358423 -0.009349976 0.004775169 0.00095594965 0.0067980033 -0.005982742 0.00038910238 0.0061711157
0.004666525 0.00549907 -0.0020604946 0.0010037931 -0.0023571851 0.008562728 -0.008856281 0.0080950335
0.0041818046 0.0036868951 -0.010447147 0.0059239767 0.0040625758 0.0035522995 0.010848279 0.0012726961
0.0045179278 0.0111431535 0.00060175563 5.244559e-06 0.0017559474 -0.0014583025 -0.006091738 -0.0035148368
-0.0010827521 -0.009077876 0.008625398 -0.0015000084 0.0077171433 0.00027941854 -0.004266266 0.0019105417
-0.0023092118 -0.014964579 -0.01072016 -0.005884546 -5.9390506e-05 0.0054717045 0.0050394316 -0.009637442
0.010968369 0.007268407 0.0058725113 0.005441815 0.008049952 -0.0074819885 -0.004138223 -0.0002179256
0.012705489 -0.0067473655 0.0057678176 -0.003245217 -0.0040471237 -0.0039056574 -0.006915593 -0.0025765873
-0.0010779593 0.001989996 0.00011306818 0.005354998 -0.0022917115 0.0013830845 0.0037255425 -0.00237911
0.0025773065 -0.00029268503 -0.011255556 0.0029162534 -0.0029255585 -0.009682501 -0.0096465675 -0.0005183435
0.009420322 0.00036954455 -0.0074673714 -0.0016364052 -0.010939076 -0.00064023165 0.0077217612 0.010313423
0.00941614 0.014013101 -0.0032179456 0.0066895327 -0.0036958412 -0.00024211586 -0.0029968112 0.0008076212
-0.010866703 0.0011894366 0.002403538 -0.0025690226 0.0007010359 -0.00070604536 0.004082309 -0.0027760193
-0.0054746284 -0.008315779 -0.001982018 -0.00064833014 0.00038493375 -0.0011890499 -0.0013448802 -0.006282276
00000000: 8913 62ba 60a7 383a 035d 63bb d36b 19bb
00000010: a3f9 9abb d1e7 3dbb 3acf 3a3b 8e87 40bc
00000020: ba4c ef3a 331d 2dbb b994 6abb d7eb 0f3a
00000030: cf71 56bb 2035 f7bb 133c 1d3c 2381 743b
00000040: 0300 7d3a e319 c0bb d274 f5bb 88c2 3b3b
00000050: 1e0b c43b c6c7 f9bb ce0f ee3b 41df 433b
00000060: f4bb 32bc a1a8 b83b 3225 c4b8 589f 1ebb
00000070: 621e a23b 3e90 abbb 04e1 593a 3803 0b3b
00000080: 702e 5739 2f43 47bb 0019 d8ba 6441 3bbb
00000090: 2d77 7cbb a5b8 8cbb 9a96 c73a 7f89 7c3c
000000a0: 7782 21bc fa48 48bb d3ef 3db9 0b31 603b
000000b0: c7dd 783b 66df 39bc e9c7 a73b 0415 5f3b
000000c0: e857 c039 9116 aabb ba73 dabb 1633 ac3b
000000d0: 97c1 b73b ba9b b1bb bf62 263b d6ef f4ba
000000e0: f361 0e3c e088 09bb 05be acbb 076b 4a3b
000000f0: 97ed abbb 0b36 c63b be31 683a 24bb 113c
00000100: a498 823b 5cb3 063c 4183 083b 6938 523a
00000110: f384 0e3c 68f3 e939 5cd0 5e3b d2fc b13b
00000120: f1a7 62ba d111 5bbb a558 9e3b bad3 a8bb
00000130: 077a 873b 6726 5d3b 1e49 ccbb ef52 8dba
00000140: 2dd0 48bb 37a5 233c 21e1 053b f58f 263c
00000150: cec1 adbb 7c01 efbb 083c 21bc 803b 44bb
00000160: 079f a8bb 5d51 7e3c 16be dc38 364d d6ba
00000170: 72e2 783c 5e87 d1b8 8aed cb3b 9e7c 79bb
00000180: 1f51 41bb 987d 393b ceb5 253b 17b4 7e3b
00000190: e1a9 8a3b e47a 2639 3185 7cba ba6f 5cbb
000001a0: ca7e 31bb 430b 683a 5418 553b 192b a73b
000001b0: f9d6 27bb bd6d d8bb 3ee7 44b9 833b 0cbc
000001c0: e5a2 febb 5758 ebbb e39f 3f3c 0212 4abc
000001d0: 8268 05bc 8462 873a 6b60 8e3b a9c0 f0bb
000001e0: 2827 8cba d60d 2e3c 98ca 40bb bcec ea3b
000001f0: 8b5a bb3a 10fd b13b f2db 7a3b d1c8 8ebb
00000200: 5616 543b 29d2 40b8 48e0 9039 598a 56bb
00000210: a160 10bc 9510 0fbc c3ca eebb 96b8 6f3a
00000220: 3351 ec3b c9af ddbb bf1a d83b 51cf 52bc
00000230: 366b 123b ebc9 b9bb 8d3e 0dba 1aec 723b
00000240: b695 af3b a430 19bc 0579 9c3b b298 7a3a
00000250: c9c1 de3b e10a c4bb 7000 cc39 1237 ca3b
00000260: a6e9 983b 8b31 b43b 5d09 07bb b591 833a
00000270: 017b 1abb af4a 0c3c ef19 11bc 08a1 043c
00000280: 8507 893b d69f 713b 832a 2bbc eb1d c23b
00000290: 5b1f 853b b2cd 683b fbbc 313c 98d0 a63a
000002a0: 200b 943b c691 363c 23bf 1d3a 6bfa af36
000002b0: d127 e63a 8324 bfba 349d c7bb 2d59 66bb
000002c0: 22eb 8dba 5fbb 14bc 8b51 0d3c ee9b c4ba
000002d0: 17e0 fc3b ec7e 9239 08cc 8bbb 246b fa3a
000002e0: 2556 17bb fe2d 75bc 9ca3 2fbc 26d3 c0bb
000002f0: 121a 79b8 fc4b b33b d121 a53b 5de6 1dbc
00000300: adb4 333c d12b ee3b 326e c03b 4151 b23b
00000310: f2e3 033c 782b f5bb ee99 87bb f582 64b9
00000320: af2a 503c 0119 ddbb f6ff bc3b b5ad 54bb
00000330: bc9d 84bb 0ff6 7fbb 339c e2bb f6db 28bb
00000340: 504a 8dba 986a 023b 041f ed38 fb78 af3b
00000350: 8a30 16bb 9d48 b53a 3b28 743b d8ea 1bbb
00000360: 07e8 283b 8573 99b9 3969 38bc 9d1e 3f3b
00000370: baba 3fbb 5aa3 1ebc a30c 1ebc 72e1 07ba
00000380: b257 1a3c 6ebf c139 dab0 f4bb a67c d6ba
00000390: cf39 33bc 38d5 27ba d406 fd3b a2f9 283c
000003a0: 2746 1a3c 3597 653c 2be4 52bb de33 db3b
000003b0: ed35 72bb 7be0 7db9 2666 44bb 8bb6 533a
000003c0: 420a 32bc dfe6 9b3a ad84 1d3b 0c5d 28bb
000003d0: b9c5 373a e715 39ba e4c4 853b e0ed 35bb
000003e0: 8364 b3bb e83e 08bc bee4 01bb b3f4 29ba
000003f0: efd0 c939 e5d9 9bba b146 b0ba 8ddb cdbb

base_model.model.gpt_neox.layers.3.attention.query_key_value.lora_A.weight f4 [16, 512]
-0.016536098 0.0067857676 0.029055946 0.006188105 -0.042504102 -0.027358133 -0.002698366 0.020896586
0.022060439 -0.03284671 -0.03597985 0.011587926 -0.008723664 -0.0378801 0.0040776758 -0.043176096
0.034823548 0.035341147 0.030569004 -0.016057381 -0.024770508 -0.0011973596 0.011481501 -0.005732741
-0.008804416 -0.03165106 0.011128081 0.009637359 0.044065326 0.027243065 -0.014669876 0.036637794
-0.0043937634 -0.012714983 0.034037493 -0.0022680187 0.012887275 0.02399744 0.002162368 -0.0021012705
0.008128793 0.018580342 -0.012211965 0.045555133 -0.044224434 0.036370736 0.049412552 0.0011461099
-0.004805364 0.0113449935 -0.023866916 0.0031064043 0.0058498066 0.02032042 -0.0034250175 0.0055350093
0.0363258 0.020851472 0.009503841 -0.040819988 -0.047457337 0.0062921005 0.02267125 0.018664228
-0.025722057 0.028704135 -0.031236831 0.019316668 -0.023474403 0.03258283 0.017603379 -0.033268146
0.011706794 0.0050540213 0.04256543 0.04261121 -0.027905287 -3.324465e-05 0.03491105 -0.0074125463
0.029953271 0.027799563 -0.030369788 -0.03235431 0.028623458 0.0034764188 -0.010583095 0.036952533
0.01285981 -0.005970021 0.009484328 -0.048463803 0.03723533 -0.04268873 0.03376259 0.010094318
0.008686942 0.027070934 -0.008768564 0.013834311 0.043843668 -0.011146179 0.012790634 0.018857572
-0.041295256 0.037076145 0.011651338 0.014171394 0.013153466 0.01205607 -0.01679675 0.02392923
0.00042654658 -0.0009638743 -0.028310614 -0.0068026767 0.046999905 0.0047905785 -0.022114128 -0.015525756
0.003193003 0.0047044996 0.022894815 -0.02272927 -0.032419898 -0.0083096335 0.022953313 -0.033564754
0.030942792 -0.040770352 0.016112482 -0.0059478763 0.0174601 -0.013770354 0.036037568 -0.026887327
0.020317681 0.002489582 0.015041903 -0.012356065 -0.031806104 -0.001090891 -0.024864212 0.00924117
-0.03335996 0.040175844 -0.012349652 0.009515616 0.017632645 0.032156534 0.019532578 0.007296806
-0.038164027 0.028764844 -0.028337551 0.012182684 0.00568473 0.022002216 0.031713087 0.025990624
-0.004277536 0.03692246 -0.019915462 -0.029560309 -0.023705333 -0.03633973 0.015000308 -0.015702765
-0.019211702 0.039960343 0.023653407 0.028473519 0.0018108961 0.0018988464 -0.010618326 0.04048804
0.01581666 0.014833547 0.015279796 -0.04115936 -0.009583729 -0.036141455 -0.030808818 0.038661927
-0.039115343 -0.0024742559 -0.025818244 -0.021740356 0.007442534 -0.027101183 -0.0033274253 0.022915928
0.023068769 0.0058670687 -0.03849176 -0.0064434716 0.036241893 0.029993074 -0.039216947 -0.02963811
0.0077318717 0.027204761 -0.030741993 -0.02264703 -0.032206018 0.012833501 0.010650326 0.023469226
0.021543369 0.01689582 -0.028634429 -0.012047675 0.018123686 0.016174788 0.031309646 0.023801465
0.014953248 -0.040075302 -0.0016118906 -0.00755146 0.026821787 -0.0053541358 -0.011849791 0.007920316
-0.0044056773 -0.011731153 -0.016993921 -0.03275957 -0.008541882 0.037149236 -0.04386691 0.03190491
0.025345732 0.02740049 0.040913697 0.026859645 0.0014353208 0.0061317673 -0.021064967 -0.04198099
-0.000288659 0.012991479 0.015960623 0.014969559 -0.039697327 0.014202477 0.043710686 0.0035049308
-0.016924463 -0.042681545 0.04043959 0.030912247 0.03877289 -0.036196686 0.041187324 -0.0035111802
00000000: b676 87bc 255b de3b bc06 ee3c 96c5 ca3b
00000010: c818 2ebd 2a1e e0bc 12d7 30bb 512f ab3c
00000020: 18b8 b43c 468a 06bd 9b5f 13bd 49db 3d3c
00000030: b3ed 0ebc 2a28 1bbd 069e 853b 6bd9 30bd
00000040: 23a3 0e3d e1c1 103d d96b fa3c c58a 83bc
00000050: 85eb cabc b9f0 9cba e81c 3c3c b8d9 bbbb
00000060: 6640 10bc 8ba4 01bd 8e52 363c 03e6 1d3c
00000070: d87d 343d d92c df3c eb59 70bc 8311 163d
00000080: 8ff9 8fbb 8152 50bc e66a 0b3d 0aa3 14bb
00000090: 2625 533c 4796 c43c 84b6 0d3b 78b5 09bb
000000a0: a12e 053c cd35 983c b214 48bc 0598 3a3d
000000b0: ae24 35bd 7bf9 143d d164 4a3d 1139 963a
000000c0: 5176 9dbb 5ae0 393c 8d84 c3bc d194 4b3b
000000d0: bcaf bf3b 0277 a63c 4276 60bb 065f b53b
000000e0: 5dca 143d b5d0 aa3c 00b6 1b3c dc32 27bd
000000f0: a062 42bd f72d ce3b 0fb9 b93c b9e5 983c
00000100: 10b7 d2bc ef24 eb3c 62e4 ffbc fd3d 9e3c
00000110: 644d c0bc 9375 053d f634 903c 2e44 08bd
00000120: dacd 3f3c 349c a53b 1759 2e3d 1889 2e3d
00000130: a199 e4bc 2c70 0bb8 e4fe 0e3d f2e4 f2bb
00000140: 9060 f53c e9bb e33c 10ca f8bc f485 04bd
00000150: be7b ea3c a1d4 633b b864 2dbc 8a5b 173d
00000160: f4b1 523c 2aa0 c3bb 2864 1b3c fb81 46bd
00000170: 1384 183d 61da 2ebd a44a 0a3d a362 253c
00000180: ad53 0e3c ddc3 dd3c 06aa 0fbc 4ea9 623c
00000190: 6b95 333d 779e 36bc cf8f 513c 327b 9a3c
000001a0: 3725 29bd 28dd 173d 41e5 3e3c 222f 683c
000001b0: a381 573c d386 453c 5699 89bc 3c07 c43c
000001c0: 1da2 df39 82ac 7cba a9eb e7bc fde8 debb
000001d0: f982 403d 49fa 9c3b b028 b5bc be5f 7ebc
000001e0: b341 513b 3428 9a3b e88d bb3c bc32 babc
000001f0: baca 04bd 2125 08bc 9608 bc3c 327b 09bd
00000200: bd7b fd3c d0fe 26bd 53fe 833c 67e6 c2bb
00000210: 7c08 8f3c 0d9d 61bc 219c 133d d042 dcbc
00000220: 4471 a63c 4128 233b 5072 763c 1871 4abc
00000230: 1e47 02bd 3afc 8eba 08b0 cbbc 4768 173c
00000240: 74a4 08bd 6d8f 243d 3256 4abc 63e7 1b3c
00000250: 5672 903c 92b6 033d c902 a03c 0c1a ef3b
00000260: e251 1cbd 40a4 eb3c 2724 e8bc e199 473c
00000270: f946 ba3b fe3d b43c 95e5 013d 4aea d43c
00000280: 932a 8cbb 013c 173d c025 a3bc 7628 f2bc
00000290: b031 c2bc f8d8 14bd dac3 753c 16a3 80bc
000002a0: dc61 9dbc 75ad 233d cac4 c13c 4c41 e93c
000002b0: 975b ed3a b6e2 f83a 7df8 2dbc c9d6 253d
000002c0: f191 813c 6808 733c 1c58 7a3c b896 28bd
000002d0: 1305 1dbc 1009 14bd c662 fcbc f85b 1e3d
000002e0: 6937 20bd 2027 22bb c880 d3bc d518 b2bc
000002f0: 80e0 f33b 4d03 debc ef10 5abb 2fba bb3c
00000300: b7fa bc3c 8a40 c03b 89a9 1dbd c223 d3bb
00000310: 6172 143d 09b4 f53c f3a1 20bd 9fcb f2bc
00000320: a45b fd3b 85dc de3c a2d6 fbbc 4486 b9bc
00000330: 75ea 03bd 9b43 523c b47e 2e3c 8942 c03c
00000340: b87b b03c 1a69 8a3c c092 eabc 9d63 45bc
00000350: 2078 943c fd80 843c 8b3e 003d 4afb c23c
00000360: 78fe 743c 0026 24bd 1346 d3ba 3d72 f7bb
00000370: 5db9 db3c bf71 afbb a025 42bc 37c4 013c
00000380: 805d 90bb 0634 40bc d636 8bbc e62e 06bd
00000390: 40f3 0bbc cc29 183d caad 33bd b9ae 023d
000003a0: daa1 cf3c fe76 e03c 1f95 273d c208 dc3c
000003b0: 6021 bc3a feec c83b 7090 acbc 42f4 2bbd
000003c0: 2857 97b9 36da 543c dabf 823c e242 753c
000003d0: aa99 22bd 82b1 683c fa09 333d fbb2 653b
000003e0: 2ca5 8abc d8d2 2ebd fca3 253d ae3b fd3c
000003f0: 52d0 1e3d fa42 14bd 0ab4 283d d41b 66bb
